fin/DQN/agent-300-10-583/model.pt (torch, 340231 bytes, 6 tensors)

l1.weight f4 [400, 8]
00000000: c9ed 153f c55c d9be 42c4 0c3f 8b26 9abd
00000010: 798a 70bd c7c9 bdbe c688 40be 151e 78be
00000020: 8765 a7be 6c20 a33e 5e7e 0c3e c0a3 1fbf
00000030: 5622 f1be fe4d 97bd 06e5 db3e 9e5a 09bc
00000040: a6ae a0be 6bb7 a03e 4f6b 17be 12b5 03bf
00000050: eef9 943e 2665 4c3c cb4b 16bf f189 53bf
00000060: 5a4a 173d 0bee 243e 5c95 c9be 69ef c33e
00000070: fff8 283e b62e 473f b9f0 cebc 1cf4 a8bf
00000080: a84a 3dbd d6ec 80be 80ac 303d 3a9f 203e
00000090: 30d9 383d 3044 1abe 4cf4 adbd 1791 61be
000000a0: 1e66 bcbe 915f 363e afc5 c9be 1a2c a93e
000000b0: 4bde 2e3f 04e3 993e 388d e53e e6df 8bbf
000000c0: 0272 033c fff7 ec3b 0b58 a53f 6b31 ba3f
000000d0: 5851 903c 6f96 b6bb 3db1 223f b5ba 3fbc
000000e0: 98e8 95be f11d 843d 41a7 a5bd c5f7 32be
000000f0: a9f0 73bf deb5 d6be c0be 2cbf 1df9 8ebf
00000100: 3eda 803d 192a 13be c4e1 f5be 7f10 d83d
00000110: 7f3a 463f 7537 08be 225b 2ebf 5f5d b23e
00000120: 0324 79be 12e7 183e a93a df3e f65f 6c3e
00000130: d2ad 59bf ae69 88be df61 e93e 8ac5 1bbf
00000140: fbf5 06bf b9e1 afbe 1935 23bf 6142 f83c
00000150: ef79 183f d71b 0ebf 67c7 fd3e 2778 2a3e
00000160: 123d 9abe d650 09be 64a4 54be d8e2 683e
00000170: de7f 503f 2947 183f 6882 383e f69b b0be
00000180: a5d7 87be be65 8bbd 5f5b bf3e 7680 de3e
00000190: 4e17 33be 277b 983f 9dc7 72bd 2bf2 37bf
000001a0: d8f9 8a3f 7d54 fabe 666b 363f 728a 1dbe
000001b0: 6472 5ebf 2147 1ebe 0bbb 43bf c5c1 5d3e
000001c0: 2f07 ab3f 8489 8ebf 506b 40bf f896 323e
000001d0: 210e f13e e618 4d3e abfc 85bd 2228 cc3e
000001e0: be6c 0bbf 774c ecbe 4c93 13bf a76c 793e
000001f0: e478 143f ce74 223f fc9e d2be b89a d63d
00000200: 7672 bdbe fc1f 83be a239 813d 5564 ccbe
00000210: 2784 d53e e116 de3e a041 ff3e 923c ed3c
00000220: 1447 9c3e 4e08 123e ea28 95be f2fb 0fbf
00000230: aa04 b03d d3b0 9ebe 240b e3be cb69 8fbf
00000240: 1ecf b33e c7f8 71be 2e24 293f 86b0 febe
00000250: 89dd e3be ed8f 6cbf e549 7bbf 2a8b 8bbf
00000260: 72b6 05bf cc7b 21be 8a03 0bbf e715 2fbe
00000270: 4b69 993e 705f 043f aa5d 9dbe 98b6 90bf
00000280: 6123 bfbe a82c a2be eab0 a13d b359 0e3f
00000290: b85e a6bd e798 ebbe 49d3 49bf 881b f53e
000002a0: ecdd 19be fa04 06be f3ef 5dbf 4c30 9a3d
000002b0: a9ac 983f 4f6f 833e b625 de3c a58f 56bf
000002c0: 0e67 043f e994 64be 94f0 c03e e8e3 52be
000002d0: 6390 353e ca07 58bd acf4 34bf c97c b23e
000002e0: eb60 99be a893 493d 9049 90be b179 353f
000002f0: 3797 303f fb26 0e3e 6efd 033e f91c 10be
00000300: e93c 853e 98d9 f63d 32ad 223d 0c38 68be
00000310: f407 313e 38a5 073d 6b15 10bf bf2e 94be
00000320: 2470 b43c 7f18 b33b 3144 253f cc7b 1b40
00000330: da09 c6bd 33a0 f4bc 2be7 aebf 43bf 723f
00000340: 30d1 2ebd ec4d 1f3e 34ef 1dbf cae5 30bf
00000350: bd8b 4ebf df05 bebe d665 253e f768 a4bf
00000360: 4ed5 73bd 4e37 6b3e 63d8 073e 1add 72be
00000370: f63a 683e dd19 6abe 1150 13bf 38be 10bf
00000380: 1753 e0bd c1c0 d23d 9290 10bf eb86 1cbf
00000390: caa8 b6be 5490 1bbf 104d 75bf 5baa 703e
000003a0: 6bc9 133f 6526 3dbf c688 e03e c3ff c2bd
000003b0: e62a bdbe abca 80be 1716 75bf 9b4f e1be
000003c0: d258 c8be a7f4 7dbe 8d18 a2bc 1bf5 4abe
000003d0: 47c8 69bd fcc8 e83d a3fd 84be 0b8d 6ebd
000003e0: 6ecc d6be 7a73 7dbe 26ea bbbc f122 d3be
000003f0: 1660 2a3f 506e 4e3f 7461 64bf 46c3 b0bf
0.58565956 -0.4245359 0.54986966 -0.07526883 -0.058725808 -0.37068006 -0.18802175 -0.24230225
-0.32694647 0.31860673 0.1372008 -0.6235924 -0.4709651 -0.07387923 0.4294817 -0.008383421
-0.31383246 0.31389937 -0.14787029 -0.51448166 0.2909693 0.012475288 -0.587094 -0.82632357
0.03693614 0.16106431 -0.39371765 0.38268593 0.16501234 0.7780565 -0.02526127 -1.3199496
-0.046213776 -0.2518069 0.04313326 0.1568574 0.045129 -0.15065074 -0.084938616 -0.22028004
-0.3679666 0.17809893 -0.39408633 0.3304146 0.6830794 0.30056012 0.44834304 -1.0927703
0.008022787 0.007231712 1.2917494 1.4546331 0.017616913 -0.0055721323 0.63551694 -0.011702229
-0.29279017 0.06451023 -0.08088542 -0.17477329 -0.95289093 -0.4193563 -0.6747856 -1.1169773
0.062916264 -0.14371528 -0.48023808 0.105500214 0.7743301 -0.13302405 -0.6810781 0.34836861
-0.24330144 0.14931896 0.43599442 0.23083481 -0.85030854 -0.26643127 0.45582482 -0.60848296
-0.52719086 -0.343519 -0.63752896 0.03030509 0.59561056 -0.5551123 0.49566194 0.16647397
-0.30124718 -0.13409743 -0.20765835 0.22742784 0.8144511 0.5948358 0.18018496 -0.3449399
-0.2653171 -0.06806515 0.37374398 0.43457383 -0.17489359 1.1912583 -0.059272397 -0.71853894
1.0857496 -0.48892584 0.71257627 -0.15384844 -0.86893296 -0.15456821 -0.7645728 0.21655948
1.3361567 -1.1135716 -0.75163746 0.17440403 0.47081092 0.20029029 -0.06542333 0.3987437
-0.544628 -0.46152088 -0.5764663 0.24357854 0.57996964 0.6345948 -0.4113692 0.10478729
-0.3700139 -0.2561034 0.06309821 -0.39920297 0.41702387 0.4337683 0.49854755 0.028959546
0.30522978 0.1426098 -0.29132777 -0.56243813 0.085946396 -0.3099428 -0.44344437 -1.120416
0.35118955 -0.23630057 0.6607083 -0.49744052 -0.44504955 -0.92407113 -0.9815963 -1.0901845
-0.52231514 -0.15769881 -0.54302275 -0.17098199 0.29963145 0.51708126 -0.30735523 -1.1305723
-0.3733168 -0.31674695 0.07895072 0.5560562 -0.08123535 -0.46015093 -0.7883802 0.47872567
-0.15026063 -0.13087836 -0.8669426 0.07528743 1.1927692 0.2567086 0.027117591 -0.83812934
0.5171975 -0.2232243 0.37683547 -0.20594752 0.1773086 -0.052741803 -0.7068584 0.3486083
-0.29956755 0.04921308 -0.28181124 0.7088881 0.68980736 0.13882057 0.12889645 -0.14073552
0.26023033 0.120532215 0.039715953 -0.2267763 0.1728819 0.03311655 -0.5628268 -0.28941914
0.022026129 0.0054655666 0.64557177 2.429431 -0.09669848 -0.029861545 -1.3664297 0.9482309
-0.042679965 0.15557069 -0.6169312 -0.6910063 -0.80681974 -0.37113854 0.16152129 -1.2844533
-0.059529595 0.22970316 0.13266139 -0.23717156 0.22678742 -0.22861429 -0.57544047 -0.5654025
-0.10953348 0.10290671 -0.56470597 -0.6114337 -0.3567565 -0.607671 -0.95820713 0.23502485
0.57729214 -0.7388671 0.4385435 -0.09521439 -0.3694679 -0.25154623 -0.9573683 -0.44006047
-0.39130265 -0.24800359 -0.019787097 -0.19820063 -0.057075765 0.1136646 -0.2597476 -0.058239978
-0.41952842 -0.24751082 -0.0229388 -0.41237596 0.66552866 0.80637074 -0.892112 -1.3809593

l1.bias f4 [400]
00000000: 5c8d b43e 3c8a e4be 90d3 b13d f909 04bf
00000010: 36d8 aebe 9b01 7a3d 41bf b63b ae7c 07bb
00000020: 8a99 cbbe 66f1 1fbf a34a 3e3d 050f b03e
00000030: 3f7b 25bf 83ad a43d bfb8 0d3e 599b 3abe
00000040: 3083 09bf b011 543e 1ee2 13bf f971 24bf
00000050: 1d78 33be 0cc8 03bf f64a d23e e47a 58bf
00000060: 7d5e b83d d972 eb3b bb06 bcbe 896f 473e
00000070: 59ce 913d 0916 9b3e 10ac aa3e 5755 36bf
00000080: c9fe 03bf 37d1 083d 9878 aabe a828 32be
00000090: 7ed4 413e 5473 12bd 1b32 dcbe 4e6d 05bc
000000a0: e2c1 91be da31 3cbd a848 463e f6e6 40be
000000b0: 1a55 1fbe 8e9e e43b 7cc7 5abf 5d5b 59bc
000000c0: a78a 6c3e d93d 4abf fab6 cabd f0f2 1e3c
000000d0: 1924 38be e0ed 49bf e34b a83e 052b 0d3f
000000e0: bd83 0a3e 2b20 2cbf 5b73 b33e 5911 833e
000000f0: 0522 babe 1d62 5ebe 3b2e 4f3e 3855 eabd
00000100: d733 c0bd 1491 b53d 7bde 13bf a469 abbe
00000110: e130 c0bc 4ac3 7bbe f530 abbe 65d7 e53c
00000120: fc40 2dbd e429 083d 3f26 d2be 8446 2b3d
00000130: cab5 c6be 8fb7 40be cab4 54be 5cba 72bf
00000140: 5bb6 bfbe 2d59 62be 9d3a 283d f481 9ebe
00000150: 2b88 95be 337e e5be 7694 94bd ece4 853e
00000160: 5103 343e b8d1 603e b77e b0be 602b d63e
00000170: 0f62 853e b662 bcbe 7cf3 dfbe 8d08 193e
00000180: 74ef 9abe ae32 053d d02d f2be 327a 95be
00000190: bed4 30bf 8d18 6fbf 4f6c 91bd eaba 98be
000001a0: ce15 dabd 7cf4 d6be d6ca ccbd 793e f0be
000001b0: 78ab 243e 9823 c0be 8eeb 873e af54 3f3d
000001c0: dc67 773e 292a 2cbd b3b6 fc3d d274 043e
000001d0: 84b4 c03e dc30 41bc 5936 02bf ff17 4abf
000001e0: d936 b0be b67b 803d 96e8 81be 2ffd 59bf
000001f0: 9d83 5e3e f97b c2be 850c adbe b963 8a3e
00000200: 0fa0 3f3e 484f e8be 3d81 013e f620 30bf
00000210: 2b06 32bf c7fe 493e ce24 69bf 77dd b73e
00000220: fc5a 443e 6be0 43bf 5394 ccbd a865 3dbf
00000230: 109d 0abe aa8f ffbe b70b f33d 688b 603d
00000240: 5a77 51bf 73f0 cd3e c4e4 18bf b576 953d
00000250: 91b0 983e d2ea 473e 372a 8bbe f36f 6cbe
00000260: 9993 1bbf 75d8 20bf 4f60 9cbe e11a 89be
00000270: 9871 32be a26f ae3d 85b0 5e3d 3c42 c83e
00000280: d362 4dbf 9b78 fa3d ef20 d43e 8c8c 0cbf
00000290: 460e b5be 30c2 e1bb b78a 59bf 1fec 56bf
000002a0: 6a31 56be 9e8e c6be ae5d acbe a274 dbbe
000002b0: 6e7f d73e b6bd 45be 5210 04bf f76b 40bf
000002c0: 27b0 88be a3f6 a93d 5917 eebe 87a7 a63e
000002d0: 2337 a03c 5862 21bc 6517 42be 6688 e83c
000002e0: e1aa e23d 7a48 343e 3845 0cbe 2d56 26bf
000002f0: b7ad f0be c1e3 45bf b634 963d 583b 233e
00000300: adfd 11bf c8a2 24bf aeb9 87be b097 543c
00000310: ec9f d5ba 85a4 53bf 7025 033f 35da 4e3d
00000320: 525f 7c3d ec22 3dbe 8d34 dabe 9709 c83c
00000330: 328b 343d 27da 293e c279 87be f718 223e
00000340: 63c5 0d3e 7ef1 103c 128a cf3e 8a8b a5be
00000350: 57fb 41bf 46a6 773b 2e5d 08bf d197 77bf
00000360: 4b38 683e a5f4 9a3c 03d1 f5be 5330 1dbf
00000370: 81c9 50bf d8e1 31bf 3889 12be 41e5 a73e
00000380: b73a 0c3e 54a1 1bbf b59b b5be 4326 8cbe
00000390: 8bab edbd 7a82 9abe 6629 54bd 7295 8fbd
000003a0: 7c01 003e 5e29 5ebe 0be5 6dbf 021e b33d
000003b0: 823f 443e ff86 c03e acb5 20be d044 07bc
000003c0: a4f5 23be c640 f5be 3309 6abb eff0 7ebf
000003d0: 3eae 253e 5941 0ebe c406 71bd 8bc4 c8be
000003e0: b6ca a9be 7f7b df3d 1a36 94be cca7 e13d
000003f0: 108c 5bbe af55 11bf 7b89 a7be 3413 063f
0.352641 -0.44636714 0.086829305 -0.5157772 -0.3414933 0.061036687 0.0055769985 -0.002067368
-0.39765579 -0.6247772 0.046457898 0.3438646 -0.64641184 0.08040907 0.13840006 -0.18223323
-0.537158 0.20709872 -0.577669 -0.6423641 -0.17526288 -0.5147712 0.41072816 -0.84562516
0.09002397 0.0071853218 -0.36723885 0.19476141 0.07119436 0.3029025 0.33334398 -0.7122397
-0.51560646 0.033402648 -0.3329513 -0.17398322 0.18928716 -0.035754517 -0.43006977 -0.008143736
-0.28468233 -0.04594598 0.19363654 -0.18838105 -0.15559807 0.006976909 -0.8546064 -0.013266412
0.23099767 -0.7900062 -0.09898181 0.0097014755 -0.1798252 -0.78878593 0.32870397 0.5514377
0.13526817 -0.67236584 0.35048947 0.25599173 -0.3635408 -0.21717115 0.2023248 -0.114420354
-0.09384888 0.08865562 -0.57761353 -0.33479035 -0.023460807 -0.24586216 -0.3343579 0.02805681
-0.042298302 0.033243075 -0.41044804 0.041815296 -0.3881057 -0.18820022 -0.2077209 -0.9481561
-0.37443814 -0.2210433 0.041071523 -0.3095852 -0.2920545 -0.44822845 -0.07254879 0.26151216
0.1757939 0.21955001 -0.34471676 0.41829967 0.26051375 -0.3679406 -0.4374045 0.14944668
-0.30260813 0.032519035 -0.47300577 -0.2919479 -0.6907462 -0.93396837 -0.07100736 -0.29830104
-0.1064869 -0.41983402 -0.099996254 -0.46922663 0.16081035 -0.37527156 0.265469 0.04671162
0.24160713 -0.042032395 0.123395346 0.12935188 0.37637722 -0.011791434 -0.5086418 -0.78942865
-0.34416845 0.06273596 -0.2537276 -0.8515195 0.21729894 -0.3798521 -0.33798614 0.27029207
0.18713401 -0.45372987 0.12646957 -0.68800294 -0.6954066 0.19726096 -0.91071784 0.35911152
0.19175333 -0.7651431 -0.09989228 -0.7398324 -0.13536477 -0.49914294 0.11867469 0.05482045
-0.8182274 0.4022251 -0.5972407 0.07298032 0.2982221 0.1952317 -0.27180645 -0.2308958
-0.6077209 -0.6283029 -0.30542228 -0.2677832 -0.17426145 0.08517386 0.05436756 0.39113033
-0.8022892 0.12230035 0.41431376 -0.5490196 -0.35362452 -0.006889604 -0.8497729 -0.8395404
-0.20917287 -0.38780683 -0.33665222 -0.4286242 0.4208941 -0.1931065 -0.515874 -0.7516474
-0.26696894 0.08298995 -0.46502188 0.32549688 0.019557541 -0.009850107 -0.18954237 0.028385352
0.11067749 0.17605773 -0.1369828 -0.64975244 -0.47007534 -0.7730065 0.073342726 0.15940607
-0.57027704 -0.64310884 -0.2650885 0.012975618 -0.0016298271 -0.8267291 0.51229 0.050501067
0.061614342 -0.18470353 -0.42618218 0.024418635 0.04407806 0.16587125 -0.2646008 0.15829836
0.13844828 0.008846639 0.40535027 -0.32333022 -0.7577414 0.0037788316 -0.5326718 -0.9671603
0.22677724 0.018915484 -0.48011026 -0.6140186 -0.8155747 -0.69485235 -0.14310157 0.32792094
0.13694273 -0.6079304 -0.35470358 -0.2737294 -0.11604985 -0.3017767 -0.051797293 -0.07010926
0.12500566 -0.21695468 -0.92927617 0.08745958 0.19164851 0.37602994 -0.15694302 -0.008256152
-0.16011673 -0.4790098 -0.003571105 -0.99586385 0.1617975 -0.13892116 -0.058844343 -0.3921245
-0.3316247 0.10912227 -0.28947526 0.11018333 -0.21440148 -0.5677137 -0.32722077 0.5237305

l2.weight f4 [200, 400]
00000000: 951a 173d 6b71 bb3c 64ca e73b bf14 63bb
00000010: f08d c43b 6f9f 1dbb 497b f53c 79c9 e63c
00000020: 60d4 be39 bc8d 063d e60d 1ebd b06b 46bc
00000030: e272 353d 2f38 a0bc 0ea8 9e3c af26 83ba
00000040: 0915 2dbd 02c3 ecbc 045e 33bd 5c75 0fbd
00000050: 6505 9f3c ce77 25bd 339e 8e3c b961 50bd
00000060: 78d1 1b3c ff84 203c 39c2 aebc be66 49bd
00000070: b47c 453b 4d96 7b3b fdd0 583a e0e0 68bc
00000080: deba 30bd 745d 85bd 7562 5abd cae1 fb3b
00000090: cdb6 183c cd4b c53c 4972 e4bc 44bf 6fbb
000000a0: 4237 063d acef 3bbd d75f 1d3c d3fa 33bd
000000b0: ef38 00bd f0be 2ebd 3ee0 c73b f453 cfbc
000000c0: 7d34 f23b d4f4 403c 2bf3 8bbc bede 47bc
000000d0: 9c2a 5fbd 1bde 3dbd af43 f6bc 1e51 173d
000000e0: e43f 54bd fcbc 733c 0420 8e3c e49e bd3b
000000f0: 4dca 71bc 9380 35ba e410 0bbd 1b94 07bd
00000100: 3adb 58bd 00ae 9b3c 8021 ab3b 6f97 10bd
00000110: d3d2 993c 078c 4bbd c6cf 11bd 9419 44bb
00000120: 0d49 4ebd b242 05bd 7fd3 74bd 2f8a f2bc
00000130: e161 35bc 0353 243d b685 8c3c b352 f43c
00000140: 1a58 03bd 887d adbb 4b74 fabb 924c db3c
00000150: 1223 cc3c 27c8 b63c 2c2a 513c 94cc b03b
00000160: 07ea 63bd 5d55 bcbc 392c 1abd b67a c83c
00000170: 2104 8dbb e111 403c ac5f 0d3d 5ce2 a03c
00000180: 48a7 ec3c f637 bbbc 9b23 f9bc 7f4f a3bc
00000190: 3d68 413c 6411 1e3d 5f8e 4bbd f5ed 24bd
000001a0: 55b7 c4ba 4bc2 193d f349 06bd fb71 c73c
000001b0: a5ea 7cbd 3046 11bd 1633 e2bc ca87 13bd
000001c0: 1094 d73b 6741 db3c a13a ed3c 2611 2d3d
000001d0: e9ce adbb ea37 213d a58c 33bd be14 54bd
000001e0: 3a8e bc3c 97f3 903c cd1d 263d 3fd8 133c
000001f0: f0db 263c 86cb 4ebd 9641 173c 6caa fe3b
00000200: b897 403b 59c3 e5bb 3e3a 3fbd 4990 bfbc
00000210: 2f62 0a3d 4f78 b43b 41e7 373d 9294 283d
00000220: 7c2a b03c f051 bf3b 78ea 91bc f7ca 293b
00000230: e869 44bc bef4 2d3d f3c6 5a3b bb21 483d
00000240: e724 5c3b e1a5 39bd 3d7a 33bd 14cc 7a3c
00000250: e451 44bb f28a 6ab8 79be 0ebc bfd4 cabb
00000260: 83fa fdbc 3f9f 9aba f10f c9bb c12c 5abd
00000270: f2cf b23a 2b1f 65bb 6306 57bd 882e 1e3d
00000280: 76f9 803b 034d 6e3b e66a b3bc ae20 55bd
00000290: 5891 cf3c a8cd 1abd 9e81 fabc 9cb9 1fbd
000002a0: 90ff 50bd fee9 093d b462 22bc 9fc4 593c
000002b0: c12d 3b3c 5809 efbb 99ca afbc 19eb 323c
000002c0: e4a2 6c3c 8380 11bd 06c0 5ebd 217f 193c
000002d0: 85ac dc3c c312 7ebc ef50 0b3d 1d87 fcbc
000002e0: f130 323d 9ccc 26bd e31c dd3c 45dd 0abb
000002f0: 03ff 2a3d 45f3 b4bc 8db7 94bc 68b7 23bd
00000300: 3dd9 133d 75c0 1d3d e571 073d e16f e4bc
00000310: c9e0 313d 9e36 db3b f71b 08bd 1f28 a2bc
00000320: c5d1 59bd dd55 34bd 0429 5e3b af2e 24bd
00000330: 6407 7fbd 2c2d c7bb be04 2abd 7b8b 043d
00000340: 9855 a5bc dd3d 56bc 2b51 5dbd 85e4 233c
00000350: 3498 16bd d4d7 e6bc a5de 18bc 111c 87bc
00000360: 4278 07bd 0449 ee3b 041f 62bc 5455 333d
00000370: 4111 243d 97b2 29bd adf1 a3ba e5d0 f93a
00000380: 17ae 5dbd 8e56 55bd c2fe e83c dd77 323d
00000390: caa4 37bd 78db 333c 36f2 3d3d 6be6 23bc
000003a0: 7577 50bd 5027 1dbc a7b5 d23c e2b4 343d
000003b0: 4715 05bd 5a3f 26bd f2ec d0bc f258 833c
000003c0: db9d aa3b 12b9 9fbc dc56 5b3b 73dc 133d
000003d0: d48e 64bd 2946 fdbc 91ff 32bd fef2 243c
000003e0: 168a 893c fba8 09bb b6f3 27bd 4a38 07bd
000003f0: 07b2 bc3c bbb3 4339 4634 9d3c 06d4 db3c
0.036890585 0.02288123 0.0070736874 -0.0034649817 0.0059983656 -0.0024051329 0.029966014 0.028172242
0.00036397856 0.032850012 -0.038587473 -0.012110636 0.044299014 -0.01955804 0.019367244 -0.0010006035
-0.04225639 -0.02890158 -0.043790832 -0.035024032 0.019411752 -0.040397458 0.01740942 -0.050874446
0.00951039 0.009797334 -0.021332847 -0.04917025 0.0030134143 0.0038389147 0.0008270888 -0.014213771
-0.04314696 -0.065119654 -0.053316552 0.0076868283 0.009320927 0.024083996 -0.027886527 -0.003658251
0.03276754 -0.045882866 0.0096053695 -0.043940376 -0.031304296 -0.04266256 0.00609973 -0.025308587
0.007391511 0.011777122 -0.017083725 -0.012199102 -0.054483995 -0.046354394 -0.03006157 0.036942594
-0.051818743 0.0148766 0.01734925 0.0057867635 -0.014757705 -0.0006923761 -0.033951655 -0.03310023
-0.052943446 0.019003868 0.0052224994 -0.03530067 0.018777287 -0.049694087 -0.03559854 -0.0029922472
-0.050362635 -0.03253431 -0.05977201 -0.029606907 -0.011070699 0.04011823 0.017153602 0.02982459
-0.032066442 -0.0052945055 -0.0076432577 0.02676991 0.024919067 0.022312237 0.012766402 0.0053954814
-0.055643108 -0.022989923 -0.03763983 0.024472576 -0.0043034707 0.011723013 0.034515068 0.019639187
0.02888836 -0.022853833 -0.030412486 -0.019935368 0.0118046375 0.038590804 -0.049696323 -0.040265996
-0.001500825 0.037538808 -0.032785367 0.024346342 -0.061747212 -0.035467327 -0.02761225 -0.03601817
0.0065789297 0.026764585 0.02895862 0.042252682 -0.0053042066 0.039359964 -0.0438353 -0.051777594
0.023017038 0.017694278 0.040555764 0.009023725 0.010184273 -0.050487064 0.0092319455 0.0077717807
0.0029387306 -0.0070118126 -0.046686403 -0.02338423 0.03378504 0.005507506 0.044898275 0.041157313
0.021504633 0.005838625 -0.017811999 0.002590833 -0.011988141 0.042469732 0.0033382743 0.048860293
0.0033591331 -0.04532421 -0.043817747 0.015307445 -0.0029956037 -5.591935e-05 -0.008712404 -0.006189912
-0.031003242 -0.0011796727 -0.0061359336 -0.053265337 0.0013642295 -0.0034961205 -0.052496325 0.038618594
0.003935988 0.003636182 -0.02190156 -0.05203312 0.02533786 -0.037793785 -0.030579384 -0.03899537
-0.051024973 0.033670418 -0.009911228 0.013291507 0.011424483 -0.007294815 -0.02145891 0.010920309
0.014443133 -0.03552295 -0.054382347 0.009368689 0.026937732 -0.015507403 0.03401273 -0.030826146
0.043503705 -0.040722474 0.026991313 -0.0021189016 0.041747104 -0.022088656 -0.01815393 -0.03996983
0.036095846 0.03851362 0.033067603 -0.02788538 0.043427262 0.0066898605 -0.033229794 -0.019794522
-0.053178567 -0.044027198 0.003389896 -0.040083583 -0.062262908 -0.006078383 -0.04150843 0.03235958
-0.020182416 -0.013076273 -0.054032486 0.010003214 -0.036766246 -0.028179087 -0.009330426 -0.016492875
-0.03307367 0.0072718877 -0.01380134 0.043782547 0.040055517 -0.041430082 -0.0012507938 0.0019059448
-0.054121103 -0.052084498 0.02844179 0.04357134 -0.04483489 0.010977618 0.04637357 -0.010003666
-0.050895173 -0.009591892 0.025721384 0.044117816 -0.032490995 -0.04058776 -0.02550361 0.016033623
0.005206806 -0.019497428 0.003346852 0.03609891 -0.055800274 -0.030917244 -0.04370076 0.0100676995
0.016789477 -0.0021005261 -0.041003905 -0.033012666 0.023034109 0.00018663604 0.019189965 0.0268345

l2.bias f4 [200]
00000000: 4125 6d3c 0b6b 73be 3948 3bbd 1c63 2abd
00000010: ecb0 733d e4a8 b0bc b1b7 1f3c c650 b03d
00000020: fe60 3539 2e1c 2bbd d8a8 b6bd 7a28 9abe
00000030: 54ae 913a bdde d2be 2a37 00be 7c81 223c
00000040: 9d05 50bd 76a5 ef3c a3ea 6dbf beed 003e
00000050: eb52 0bbd 8200 8dbd a038 13be 97bf 863e
00000060: a144 90bc ceb4 523e d98d 6bbd 720f 973c
00000070: 28df f2bc f14e 52bc eb27 41bc 6334 c03c
00000080: 9104 e9bd 2a31 b63c baad 26bd 87f3 4a3c
00000090: 2cc8 06bd 71c1 b4bc 94f9 60bd 1e5c 3cbe
000000a0: 6d03 f9bc e470 2bbe deaa 9cbc 8fde 72be
000000b0: 1b29 8a3b 6c0e 623e 8329 913e 8ba5 b83d
000000c0: 6a3e 52be 2761 bdbc 5d30 823d 5593 8cbd
000000d0: 6234 babc b28f ea3c c4b4 02be 628d 803e
000000e0: 455f 803e f972 b0be a60a 233d 2c7f 4d3e
000000f0: 1345 9c3e 38af 3c3b 083d 803e 284e 14be
00000100: e254 563e eb1f 81bd d330 06bc cda4 2cba
00000110: 5eb2 53bd 872d 643e 5ca6 7a3e e606 333e
00000120: c60d 7e3e 02df 83bc 859f 9bbe 2d0e 17bd
00000130: a6f0 dbbe 388a 74be ae0e 833e f5da 2bbe
00000140: e25e 12bd e490 ea3c 3e88 8f3d 63b2 6b3e
00000150: eef6 963d d51d 9b3b 6ec7 3abd 37bf 82bc
00000160: 8249 3b3e 937d e83d aadc 76bd 20be 373d
00000170: afeb 8fbd abd1 0f3d 0c87 89be 8e03 e33d
00000180: a82f 183e ce2a 3cbd fe47 b03d 9f84 b6bc
00000190: 4134 81bd c026 2fbc 1ae8 713d 0e01 293e
000001a0: a90a 5ebe ad53 a5bd 8670 1abe 4642 a63c
000001b0: 335e d0bd 1c94 fb3c aab2 813c 5c20 80be
000001c0: ba91 f3bc cfe9 0ebf 3f21 61be 5a5e 363e
000001d0: 5d7c 8fbd 3f1f 273e 5942 723e 3bfa 17bd
000001e0: bc53 1dbd b9ff 16be fc23 d9bc 00c0 27be
000001f0: de10 fc3d 03b8 a63e b3c9 4cbd ee7e 123e
00000200: 6770 263e 89ef b33e 2bee 6d3e 5f28 493e
00000210: 0145 063e f2c8 613e 9040 29bd c5a9 07bc
00000220: 47c8 a83d 76d8 06bd 2531 63bd a700 c53d
00000230: 83de 193c b098 d7be e1e7 c9bd dbca dcbc
00000240: f9cc bdbc 4c3c 65be 6939 643e ede5 3fbf
00000250: e0a7 b8be f719 013c d0d5 b93e 88ca 9f3c
00000260: 82a8 0bbd b4ff ff3c 75dd bebd 7520 a7be
00000270: 32ac c8be a923 463e c995 81bd d4f8 06bd
00000280: 4da6 0ebd ad73 c63c 9e12 1cbd 3ce3 29be
00000290: 8935 0cbd f55a 42be dbbf a7be 399f babc
000002a0: b2fb 57bd 65db 933e 31c4 313e 3441 2dbd
000002b0: a7fd 45bd 34c4 01bc 1566 29bd 6a78 b4bc
000002c0: 4c23 7bbe a617 243c 4af6 bebc 3c84 5bbe
000002d0: cb28 c6bd 2577 97be eec8 97be 6584 eebb
000002e0: 4633 18be 1ab9 263c dcd5 52be 5045 373d
000002f0: 4791 2abd 7dca 02be 5bef 0cbe b023 013c
00000300: 9b58 8bbe 03fa 4cbe 1445 78bd 53c9 f7be
00000310: 65bf b6be 20b5 91bd abdd 9abd 4a6b 54be
0.014474214 -0.23771302 -0.045723174 -0.041598424 0.059494898 -0.021564908 0.009748385 0.08609156
0.00017297638 -0.04177492 -0.08918923 -0.30109006 0.0011114576 -0.4118556 -0.12521043 0.009918567
-0.050786603 0.029253703 -0.9293615 0.12590691 -0.034014624 -0.068848625 -0.1437707 0.26318046
-0.01761085 0.20576784 -0.057508323 0.018439982 -0.029647425 -0.012836204 -0.011789302 0.02346248
-0.11377824 0.02224024 -0.040693022 0.012387163 -0.032905743 -0.022064896 -0.054925516 -0.18394515
-0.030397141 -0.16742283 -0.019124445 -0.23717712 0.004216326 0.22075814 0.28351983 0.0901595
-0.20531622 -0.023117615 0.06356881 -0.06864039 -0.022730056 0.028632972 -0.12764269 0.25107867
0.25072685 -0.34462717 0.039805077 0.20068043 0.3052145 0.0028790962 0.25046563 -0.14482939
0.20930818 -0.06304916 -0.008190352 -0.00065858365 -0.051683776 0.22282992 0.24477524 0.174831
0.24809942 -0.01609755 -0.3039514 -0.036878753 -0.42957038 -0.23880851 0.25597137 -0.16782744
-0.03573502 0.028633542 0.07008408 0.23017268 0.07371317 0.004733781 -0.045600347 -0.015960319
0.1828976 0.113520764 -0.060269035 0.04485905 -0.07027375 0.035112064 -0.26860845 0.110846624
0.1486193 -0.04593926 0.086074814 -0.022280036 -0.06308795 -0.010690391 0.05905924 0.16504309
-0.21683754 -0.080726005 -0.15081987 0.020295274 -0.10174217 0.030710272 0.015832264 -0.25024688
-0.029732574 -0.55825514 -0.21985339 0.1780943 -0.07006142 0.16320513 0.23658122 -0.037103873
-0.038409933 -0.14745988 -0.026506416 -0.16381836 0.12307905 0.32562265 -0.049997043 0.14306232
0.16253816 0.35143688 0.23235385 0.19644307 0.1311226 0.22049311 -0.041321337 -0.008280222
0.08241325 -0.032921277 -0.05546679 0.09619265 0.00939143 -0.4210868 -0.098586805 -0.026952198
-0.023169028 -0.22386283 0.22287525 -0.74960214 -0.36065578 0.007879726 0.36295938 0.019505754
-0.03409625 0.031249858 -0.09319583 -0.3264195 -0.39193875 0.19349541 -0.063273974 -0.032952145
-0.034826566 0.02422508 -0.038103692 -0.1659059 -0.034230743 -0.1898001 -0.32763562 -0.022781001
-0.05273027 0.28878322 0.17359997 -0.04229851 -0.048337605 -0.007920314 -0.04135712 -0.022030074
-0.24525183 0.010015404 -0.0233108 -0.21437162 -0.096757494 -0.29583088 -0.29645485 -0.0072789663
-0.1486331 0.010175968 -0.20589393 0.044743836 -0.041642454 -0.12772556 -0.13763182 0.007882044
-0.27216038 -0.20017247 -0.060612753 -0.48395786 -0.35692897 -0.07114625 -0.07561811 -0.20744053

l3.weight f4 [4, 200]
00000000: d9ea 433c 4d64 cdbe 6211 493c 893f 1fbd
00000010: 2e9b 53be c9d9 223d 724f e6be e861 34be
00000020: bf63 153d 8f54 273c ab73 e73d 729b e3bd
00000030: e531 843f cd07 e0be 46f8 1c3f f5a5 443d
00000040: eff2 75bb cf5d 713f 6a7d e5be 9f01 80be
00000050: d8dc 59bb 9f8e 073e e926 24be 82b3 d23e
00000060: 28ba 1c3d 0833 b53e 0653 d53c 9369 91bc
00000070: 88ad 973e 46a9 173f c68b 8d3e e039 16be
00000080: 8d47 8dbd 1d99 1b3c 837c 74be e9f8 1fbc
00000090: 8239 813c 360b 5bbd e55a 3d3d f4bd 41be
000000a0: 5345 493e 8c04 3fbd a3ba dbbd dfd3 243e
000000b0: a7bd 603d c9cb fd3e da8b cdbe 5227 c1bd
000000c0: b1d1 d9bd d1ff 1dbf f348 403e 6c5a ab3b
000000d0: 1091 7cbe bc10 2ebe 3509 85be 2a47 96be
000000e0: 9021 cf3e d913 223f 1548 8fbd ac09 5bbf
000000f0: 7bc9 ed3e 3d9b 363d 1556 b53e 880b afbe
00000100: e9fd 963e 0044 96be 0f55 e83b 9eb3 7a3d
00000110: 0169 e13e 4d2b 783f 2421 ab3e 4ce0 fe3e
00000120: 9cd7 013f 1599 153d c424 9cbe e9c3 493c
00000130: b1e2 c13f 85a2 d3be 31f3 10be c17d 1bbe
00000140: 77bc 4e3e 8cdf 2ebf a93d a23e dd1f f7be
00000150: 769c 393f efc5 013d 3cdc 163d 234e 2c3d
00000160: 2656 b83e 441a bebe 5ad9 513f f122 a9be
00000170: 98e5 063e ec1b 2cbe 15ef 313e 5fc3 22bf
00000180: 2a5e 3b3e 5df1 e83b 000e 963e 44f1 a53e
00000190: 55e4 21bc aa9a 2e3c 1f48 453d d512 1c3e
000001a0: 42ba 283e 8692 0ebd 6852 943e 7285 a6be
000001b0: c8a2 ae3d 56cc 85bd 048a 953e 2406 23bf
000001c0: d0cd d4bb eee4 c1be 8760 8cbe 50aa f6be
000001d0: 1697 17bd 8fbe 003f 5d10 c53e 5b07 873e
000001e0: 1d2f 59bc ecab 813f d8a3 3e3d 7408 f8bd
000001f0: 7645 af3e 3f86 dc3e 776c 8fbb eaf3 5f3e
00000200: f99e 923e 820e b73e eb3c 053f 8c4f b13e
00000210: 1e21 74be fe35 ab3e 6a62 293d f631 01be
00000220: 3ced d1be 861b 32bf 4dec e8bc fd0e 7c3d
00000230: 2194 f13c 0a27 b2be 1722 023e d272 123d
00000240: a44e 893c 8ec0 25bc 45e0 c43e 4874 d4be
00000250: 6e57 88be 9e62 f03c 7932 e3be c9bc ebbe
00000260: fee4 693d 5702 e43c 9670 18bf 458e bc3e
00000270: b536 6a3f 33ec 9a3e 61a3 8b3d ca12 9c3d
00000280: e3f6 ffbc d0fc 263c 8449 0a3e ca6c 953e
00000290: afc1 07bf d99c 153d 97b4 b0be 2a6d d63c
000002a0: 05ab cbbe 63a6 54be 64bb eabe 9a0c c63c
000002b0: 78bb 063d c977 e3bd d456 813e 0168 d9bc
000002c0: cdb0 c8be c9ec 7fbe 1c00 fdbb a620 5e3e
000002d0: 1c6f 13bf 1216 02bf d422 10bf ae18 2cbf
000002e0: 0060 59be a11e eabd 213b 87be 342a 2fbe
000002f0: bd0c cc3d 6da9 d43e 1947 093e d179 27bf
00000300: 54f9 e43e 183d 82be 2db1 793c a4f2 46be
00000310: 0d35 97be e63d d53c 0d83 763d 5a7f 98be
00000320: 1377 723d 6eb0 c4be fc7c f63d 0286 2cbe
00000330: 30ea 76be d4f8 90bb 0a86 40bf e868 39be
00000340: 4475 16bd 0c70 0d3d 67c2 2f3c cfbf fabd
00000350: f034 493f bad9 12bf aa02 643f 0284 e4bc
00000360: 295b bb3b cb94 483f f43d 9b3e 5382 79be
00000370: 149f 4e3d efeb 753e 1e64 b53e 52c3 f23e
00000380: dc6c b4bc c235 d73e 62ce 593d db92 c9bc
00000390: bc8f f03e 3bd9 133f ca7f fc3d d565 ebbd
000003a0: 15e3 afbd 2493 95bd 4ed8 73be 454e 8fbc
000003b0: 1ebe 4dbd f542 6e3c 96cb 5f3d 5353 ddbe
000003c0: da38 033e 12c8 a3bd 3593 c0bd 2aa3 663e
000003d0: 3819 7e3d c302 253f c2f5 dfbe 2e79 01bd
000003e0: 44e9 39be 998d 36bf a774 3c3e 91e8 afbd
000003f0: 1165 bebe 0a89 0dbe a67e 22be 8d1d 81be
0.0119578475 -0.40115586 0.012272211 -0.03887895 -0.20664665 0.039758477 -0.44982487 -0.17615473
0.03647208 0.010213031 0.11301359 -0.11113633 1.0327727 -0.43755952 0.61316335 0.04800983
-0.0037528833 0.94283766 -0.44822246 -0.25001237 -0.0033243205 0.13238 -0.16030468 0.4115258
0.03826347 0.35390496 0.026040565 -0.017750537 0.2962458 0.59242666 0.276457 -0.14670515
-0.06898413 0.009496954 -0.23875622 -0.009763935 0.015774492 -0.05347749 0.046229262 -0.18920118
0.19655351 -0.046635196 -0.107289575 0.16096447 0.054868367 0.49569538 -0.4014576 -0.09431328
-0.106356986 -0.6171847 0.18777828 0.005229285 -0.24664712 -0.16998571 -0.25983587 -0.2935117
0.40455294 0.63311535 -0.069961704 -0.85561633 0.4644278 0.04458164 0.35417238 -0.34188485
0.29490593 -0.29348755 0.007090218 0.061206453 0.44025424 0.9694107 0.33423722 0.497805
0.5071962 0.036522944 -0.304968 0.012314775 1.5147306 -0.4133493 -0.1415527 -0.1518469
0.20189081 -0.68309855 0.31687668 -0.48266497 0.72504365 0.031682905 0.036831126 0.042066704
0.36003226 -0.37129414 0.8197228 -0.3303447 0.1317352 -0.16807526 0.17376359 -0.6357936
0.1829764 0.007108851 0.29307556 0.32410634 -0.009881099 0.010656992 0.048164483 0.15241559
0.16477302 -0.034807704 0.2896912 -0.32523686 0.08527142 -0.065331146 0.2920686 -0.63681245
-0.0064942613 -0.37869972 -0.27417395 -0.48176813 -0.03700932 0.5029077 0.38489047 0.263728
-0.013255862 1.0130591 0.046542972 -0.12110987 0.34232682 0.43071172 -0.0043769437 0.2187039
0.28636912 0.35753256 0.5204608 0.34631002 -0.23840758 0.3343963 0.04135362 -0.12616715
-0.41001308 -0.6957325 -0.02843299 0.06153773 0.029489579 -0.3479541 0.12708317 0.035754032
0.016761132 -0.010116709 0.38452354 -0.41494966 -0.26629204 0.0293439 -0.44374445 -0.4604247
0.05710315 0.027833147 -0.5954679 0.36827293 0.91489726 0.3025833 0.068182714 0.07620771
-0.031245654 0.010192111 0.13504606 0.29184562 -0.5302991 0.036526535 -0.3451278 0.0261751
-0.39778915 -0.20766596 -0.45846093 0.02417593 0.032893628 -0.111068316 0.25261557 -0.02653885
-0.39197388 -0.2499267 -0.0077209603 0.21692142 -0.57591414 -0.50814927 -0.56303144 -0.6722516
-0.21228027 -0.11431623 -0.264123 -0.17105943 0.09963367 0.41535512 0.13406028 -0.6542025
0.44721472 -0.25437236 0.015239996 -0.19428498 -0.29532662 0.026030492 0.060183574 -0.29784662
0.05919559 -0.38415855 0.12035558 -0.16847995 -0.24112773 -0.004424194 -0.7520453 -0.18106425
-0.036732927 0.034530684 0.0107275015 -0.12243616 0.785964 -0.57363474 0.89066565 -0.027894977
0.0057176542 0.7835204 0.30320704 -0.24366121 0.050444677 0.24015783 0.35427946 0.47414643
-0.022024564 0.420332 0.053175338 -0.024606159 0.4698466 0.5775334 0.12329061 -0.11494032
-0.08588234 -0.073034555 -0.23812982 -0.017493377 -0.050230138 0.014542331 0.054637514 -0.43227634
0.12814656 -0.07997145 -0.094030775 0.2252318 0.06203577 0.6445734 -0.43742186 -0.031609707
-0.1815539 -0.7130981 0.18403874 -0.085892804 -0.37186483 -0.13821808 -0.15868625 -0.25217858

l3.bias f4 [4]
00000000: fbee a13e 95cb 7c3d ad4b 2b3e eb37 8a3e
0.3162764 0.06171759 0.16728087 0.26995787
