fin/DQN/agent-300-10-583/target_model.pt (torch, 340543 bytes, 6 tensors)

l1.weight f4 [400, 8]
0	0x3f15bc6f	0.5849065
1	0xbed98771	-0.42486146
2	0x3f0c90d4	0.5490849
3	0xbd98a1e7	-0.074527554
4	0xbd6f0072	-0.058350034
5	0xbebe33cd	-0.37148896
6	0xbe40c29e	-0.1882424
7	0xbe785257	-0.2425016
8	0xbea75bfd	-0.3268737
9	0x3ea33b33	0.31881103
10	0x3e0d5880	0.13803291
11	0xbf1fd1dd	-0.624296
12	0xbef1efd5	-0.4725329
13	0xbd97dda5	-0.07415322
14	0x3edc1dd2	0.429915
15	0xbc0b4974	-0.008501399
16	0xbea09360	-0.31362438
17	0x3ea0cadc	0.3140477
18	0xbe1694ac	-0.14705151
19	0xbf03d84c	-0.5150192
20	0x3e948f4f	0.29015586
21	0x3c505207	0.012714869
22	0xbf164bcb	-0.587094
23	0xbf5389ee	-0.8263234
24	0x3d129512	0.035786696
25	0x3e24c489	0.16090597
26	0xbeca19f9	-0.3947294
27	0x3ec3e318	0.38259196
28	0x3e291769	0.16512837
29	0x3f471d8c	0.7777946
30	0xbccef0b9	-0.02526127
31	0xbfa8f41c	-1.3199496
32	0xbd3d4aa8	-0.046213776
33	0xbe80ecd6	-0.2518069
34	0x3d30ac80	0.04313326
35	0x3e209f3a	0.1568574
36	0x3d38d930	0.045129
37	0xbe1a4430	-0.15065074
38	0xbdadf44c	-0.084938616
39	0xbe619117	-0.22028004
40	0xbebc73ea	-0.36807185
41	0x3e3687a0	0.17825174
42	0xbeca27e1	-0.3948355
43	0x3ea8fcc2	0.3300534
44	0x3f2eeb49	0.68327767
45	0x3e999f84	0.30004513
46	0x3ee51736	0.4474427
47	0xbf8bdfe6	-1.0927703
48	0x3bf84b55	0.0075773397
49	0x3bfd3a14	0.0077278707
50	0x3fa553f5	1.2916247
51	0x3fba22d5	1.454188
52	0x3c91b0bc	0.017784469
53	0xbb9de23b	-0.0048182285
54	0x3f22b85b	0.63562554
55	0xbc415346	-0.011799639
56	0xbe967e40	-0.29393196
57	0x3d85d227	0.06534224
58	0xbda7750d	-0.081766225
59	0xbe33308e	-0.17498991
60	0xbf73ffd0	-0.95312214
61	0xbed6d595	-0.41959825
62	0xbf2cbec0	-0.6747856
63	0xbf8ef91d	-1.1169773
64	0x3d81d6d0	0.063398
65	0xbe135740	-0.14388752
66	0xbef5c068	-0.47998357
67	0x3dd81e2c	0.1055263
68	0x3f4634a1	0.77424055
69	0xbe087bdb	-0.13328497
70	0xbf2e5b22	-0.6810781
71	0x3eb27b63	0.34859762
72	0xbe795cf5	-0.24351867
73	0x3e1a17a1	0.15048076
74	0x3edff17a	0.4373892
75	0x3e69a5b5	0.22817118
76	0xbf5a1e65	-0.8520263
77	0xbe887a88	-0.26655984
78	0x3ee96ba5	0.4558994
79	0xbf1bc58a	-0.60848296
80	0xbf06eeac	-0.52707934
81	0xbeafebc4	-0.34359562
82	0xbf236c0d	-0.6383675
83	0x3cf40055	0.029785315
84	0x3f188d12	0.59590256
85	0xbf0e284f	-0.55530256
86	0x3efd9ece	0.4953522
87	0x3e2a7c07	0.16648875
88	0xbe9a4d91	-0.30137303
89	0xbe08ef73	-0.13372593
90	0xbe552f17	-0.20818745
91	0x3e68583c	0.22689909
92	0x3f5075c5	0.814297
93	0x3f182226	0.59427106
94	0x3e3800d4	0.17969066
95	0xbeb0758c	-0.3446468
96	0xbe87e6bd	-0.26543227
97	0xbd8b5a2f	-0.068043105
98	0x3ebf4ae2	0.3736182
99	0x3ede76cb	0.43450007
100	0xbe33189d	-0.17489858
101	0x3f987874	1.1911759
102	0xbd72c794	-0.059272364
103	0xbf37f22b	-0.71853894
104	0x3f8af2ab	1.0855306
105	0xbefa5eba	-0.48900396
106	0x3f364afc	0.7120817
107	0xbe1ccc87	-0.15312396
108	0xbf5e19a7	-0.8675789
109	0xbe1e3148	-0.15448487
110	0xbf43b994	-0.76455045
111	0x3e5de4a5	0.21669252
112	0x3fab082e	1.3361871
113	0xbf8e9814	-1.114016
114	0xbf401771	-0.7503577
115	0x3e328f9f	0.174376
116	0x3ef14566	0.4712326
117	0x3e4db131	0.20087124
118	0xbd86437b	-0.0655584
119	0x3ecc0df4	0.39854395
120	0xbf0b9439	-0.54523045
121	0xbeec1f81	-0.46117786
122	0xbf13babc	-0.5770681
123	0x3e79838a	0.24366584
124	0x3f1481e0	0.58010674
125	0x3f2277b8	0.63463926
126	0xbed2a778	-0.41143394
127	0x3dd71e6d	0.1050385
128	0xbebde838	-0.3709123
129	0xbe83151b	-0.2560204
130	0x3d7e3520	0.062062383
131	0xbeccb198	-0.39979243
132	0x3ed5910a	0.4171222
133	0x3ede2950	0.43390894
134	0x3eff95bc	0.49918926
135	0x3cedc334	0.029023744
136	0x3e9c6c93	0.30551586
137	0x3e123a86	0.14280137
138	0xbe94b5d4	-0.29044974
139	0xbf1022bd	-0.56303006
140	0x3dae47d9	0.085097976
141	0xbe9e98e8	-0.30976033
142	0xbee30b24	-0.44344437
143	0xbf8f69cb	-1.120416
144	0x3eb2eeff	0.34947965
145	0xbe734622	-0.23757222
146	0x3f28cdd3	0.6593906
147	0xbefdebc7	-0.49593946
148	0xbee332f8	-0.44374824
149	0xbf6c63e1	-0.92339903
150	0xbf7b49e5	-0.9815963
151	0xbf8b8b2a	-1.0901845
152	0xbf061163	-0.5237028
153	0xbe2124d4	-0.15736705
154	0xbf0b6220	-0.544466
155	0xbe2f9bcc	-0.17149276
156	0x3e998a72	0.29988438
157	0x3f0467ed	0.5172108
158	0xbe9d5daa	-0.30735523
159	0xbf90b698	-1.1305723
160	0xbebf23a7	-0.37331888
161	0xbea230c6	-0.31677836
162	0x3da1e96c	0.0790585
163	0x3f0e5d65	0.5561126
164	0xbda6691d	-0.081255175
165	0xbeeb8f9c	-0.46008003
166	0xbf49d349	-0.7883802
167	0x3ef50742	0.478571
168	0xbe1807d5	-0.14846738
169	0xbe05de36	-0.13073048
170	0xbf5d8260	-0.8652706
171	0x3d9b2869	0.07576067
172	0x3f98acf8	1.1927786
173	0x3e83403e	0.2563495
174	0x3cde25b6	0.027117591
175	0xbf568fab	-0.8381297
176	0x3f0460c7	0.5171017
177	0xbe64b58c	-0.2233488
178	0x3ec0d376	0.37661332
179	0xbe528fb9	-0.20562638
180	0x3e356b49	0.17716707
181	0xbd5a9e38	-0.053373545
182	0xbf34c0b9	-0.7060657
183	0x3eb2d647	0.34929106
184	0xbe9a535e	-0.3014173
185	0x3d4b51c8	0.04963854
186	0xbe913892	-0.28363472
187	0x3f357782	0.7088548
188	0x3f30a45e	0.69000804
189	0x3e0e5144	0.13898188
190	0x3e03fd6e	0.12889645
191	0xbe101cf9	-0.14073552
192	0x3e85749a	0.26065522
193	0x3df747b1	0.12074221
194	0x3d24def3	0.040251683
195	0xbe68de5d	-0.22741075
196	0x3e30c6ef	0.17263387
197	0x3d095a9a	0.03353367
198	0xbf10156b	-0.5628268
199	0xbe942ec6	-0.28941935
200	0x3cb5366c	0.022120677
201	0x3bc11a52	0.00589303
202	0x3f25290c	0.6451576
203	0x401b80fb	2.4297473
204	0xbdc6036f	-0.09668624
205	0xbcf4ec2b	-0.02989777
206	0xbfaee72b	-1.3664297
207	0x3f72c2fa	0.9482876
208	0xbd2e804d	-0.042602826
209	0x3e1fae39	0.15593804
210	0xbf1da47f	-0.61579126
211	0xbf310897	-0.6915373
212	0xbf4f2fa1	-0.8093205
213	0xbebe4082	-0.3715859
214	0x3e256609	0.16152205
215	0xbfa468f7	-1.2844533
216	0xbd715cf1	-0.058926526
217	0x3e6b6a39	0.2298974
218	0x3e090159	0.1337942
219	0xbe73ad2a	-0.23796526
220	0x3e67906a	0.22613683
221	0xbe6a0024	-0.22851616
222	0xbf135011	-0.57544047
223	0xbf10be38	-0.5654025
224	0xbde097ef	-0.10966479
225	0x3dd2617c	0.102725
226	0xbf10e550	-0.56599903
227	0xbf1c66ac	-0.61094165
228	0xbeb5fb16	-0.35543126
229	0xbf1b7c65	-0.60736686
230	0xbf754d0d	-0.95820695
231	0x3e70b9fa	0.23508444
232	0x3f13a882	0.57679
233	0xbf3d20c4	-0.7387812
234	0x3ee03571	0.43790773
235	0xbdc18f85	-0.09451202
236	0xbebcc1cd	-0.36866608
237	0xbe80edb6	-0.2518136
238	0xbf751617	-0.9573683
239	0xbee14f83	-0.44005975
240	0xbec886d1	-0.39165357
241	0xbe7de08e	-0.24792692
242	0xbca9f2b0	-0.020745605
243	0xbe4b13eb	-0.19831817
244	0xbd68eff5	-0.056869466
245	0x3de8021d	0.11328528
246	0xbe84f259	-0.25966147
247	0xbd6ddb9f	-0.058070775
248	0xbed7de21	-0.42161658
249	0xbe7cf5e6	-0.24703178
250	0xbccd5936	-0.025066953
251	0xbed38351	-0.41311124
252	0x3f2a75cb	0.6658599
253	0x3f4e7866	0.80652463
254	0xbf646174	-0.892112
255	0xbfb0c346	-1.3809593

l1.bias f4 [400]
0	0x3eb4aad4	0.35286582
1	0xbee45988	-0.44599557
2	0x3db19592	0.086711064
3	0xbf0413db	-0.515928
4	0xbeaed836	-0.3414933
5	0x3d7be63f	0.061498877
6	0x3bc7fcc5	0.0061031305
7	0xba73559b	-0.00092824706
8	0xbecb8bc8	-0.39755082
9	0xbf1f8651	-0.62314326
10	0x3d3fc39c	0.046817407
11	0x3eb05dd1	0.34446576
12	0xbf2580be	-0.6464957
13	0x3da5905b	0.08084174
14	0x3e0d2651	0.13784148
15	0xbe3a318f	-0.18182968
16	0xbf094c15	-0.53631717
17	0x3e53f95c	0.20700592
18	0xbf143e0f	-0.57907194
19	0xbf24383e	-0.6414832
20	0xbe33987f	-0.17538641
21	0xbf03e640	-0.5152321
22	0x3ed2656f	0.41093013
23	0xbf584116	-0.84474313
24	0x3db8e286	0.09027581
25	0x3bf31e91	0.0074194153
26	0xbebbd78e	-0.36687893
27	0x3e478d4d	0.19487496
28	0x3d922450	0.07135832
29	0x3e9b5f8b	0.3034633
30	0x3eaaca7a	0.33357602
31	0xbf360643	-0.71103305
32	0xbf0404e3	-0.51569957
33	0x3d0b5612	0.03401763
34	0xbeaa169f	-0.33220384
35	0xbe326f62	-0.17425302
36	0x3e4213d3	0.18952875
37	0xbd1506e3	-0.03638352
38	0xbedc9861	-0.43085006
39	0xbc09e8ab	-0.008417289
40	0xbe91d9d7	-0.2848651
41	0xbd3c7044	-0.046005502
42	0x3e468916	0.19388232
43	0xbe403174	-0.18768865
44	0xbe1e1c58	-0.154405
45	0x3be87b8b	0.0070948056
46	0xbf5aa7f1	-0.8541251
47	0xbc5a2f4b	-0.01331694
48	0x3e6cbc13	0.2311862
49	0xbf4a51e2	-0.79031193
50	0xbdcadf1f	-0.09905838
51	0x3c1846a5	0.009294187
52	0xbe38035f	-0.17970036
53	0xbf4a6fa5	-0.79076606
54	0x3ea853f1	0.32876542
55	0x3f0d25dd	0.551359
56	0x3e0a914d	0.1353199
57	0xbf2b9031	-0.67016894
58	0x3eb38fa2	0.3507052
59	0x3e834783	0.25640497
60	0xbeba0a7f	-0.36336133
61	0xbe5e9bfe	-0.21739194
62	0x3e4edcc0	0.20201397
63	0xbde99e6d	-0.114071704
64	0xbdbf94ba	-0.09354539
65	0x3db54df5	0.0885276
66	0xbf13e463	-0.57770365
67	0xbeab1878	-0.33417106
68	0xbcc080e2	-0.023498956
69	0xbe7c0538	-0.24611366
70	0xbeab3f7f	-0.3344688
71	0x3ce748f6	0.028233033
72	0xbd2e6b71	-0.042582933
73	0x3d0747ff	0.033027645
74	0xbed2361a	-0.410569
75	0x3d2a2633	0.041540336
76	0xbec66201	-0.38746646
77	0xbe40c670	-0.18825698
78	0xbe54313d	-0.20721908
79	0xbf72cca9	-0.94843537
80	0xbebf55ba	-0.37370092
81	0xbe6271c9	-0.22113718
82	0x3d27e7b5	0.040992457
83	0xbe9e81f4	-0.3095852
84	0xbe95bceb	-0.29245695
85	0xbee59032	-0.44836575
86	0xbd94b2da	-0.07260676
87	0x3e85c7ed	0.26129094
88	0x3e34af5e	0.17645022
89	0x3e6097b3	0.21932869
90	0xbeb008a8	-0.34381604
91	0x3ed64842	0.41852003
92	0x3e8583ed	0.26077214
93	0xbebc9074	-0.3682896
94	0xbedf6c1b	-0.43637165
95	0x3e1937d8	0.14962709
96	0xbe9abcde	-0.3022222
97	0x3d03faf3	0.032221746
98	0xbef20495	-0.4726912
99	0xbe954aea	-0.29158717
100	0xbf30d4be	-0.6907462
101	0xbf6f172a	-0.9339472
102	0xbd917d42	-0.07103969
103	0xbe98784e	-0.29779285
104	0xbdda600a	-0.10662849
105	0xbed72bd7	-0.42025635
106	0xbdcc3b3f	-0.09972238
107	0xbeefdf3e	-0.46850008
108	0x3e249537	0.16072546
109	0xbebf9ace	-0.37422794
110	0x3e8807d1	0.26568463
111	0x3d3e6dca	0.04649142
112	0x3e771e08	0.2413255
113	0xbd2cbfe2	-0.04217518
114	0x3dfdf815	0.124008335
115	0x3e04e4b7	0.12977873
116	0x3ec0d163	0.3765975
117	0xbc3f98d5	-0.011694153
118	0xbf021de5	-0.50826865
119	0xbf4a17ff	-0.78942865
120	0xbeb02d44	-0.34409535
121	0x3d800a14	0.06251922
122	0xbe820389	-0.25393322
123	0xbf59a4c0	-0.85017014
124	0x3e5eacc1	0.21745588
125	0xbec28930	-0.3799529
126	0xbead192a	-0.3380826
127	0x3e8a9c42	0.2707234
128	0x3e3f8c9f	0.18705986
129	0xbee7fc90	-0.45309877
130	0x3e01ba4e	0.12668726
131	0xbf306909	-0.6891027
132	0xbf31ca2e	-0.69449127
133	0x3e4a100d	0.19732685
134	0xbf6924cb	-0.91071767
135	0x3eb82d15	0.35971895
136	0x3e4515ab	0.19246547
137	0xbf43e06b	-0.7651431
138	0xbdcc4133	-0.09973373
139	0xbf3d5dd2	-0.73971283
140	0xbe0a12e1	-0.13483764
141	0xbeff1c30	-0.49826193
142	0x3df31d6a	0.11870845
143	0x3d61b681	0.05510569
144	0xbf5158c9	-0.817761
145	0x3ecded76	0.4022023
146	0xbf18beed	-0.5966633
147	0x3d952fbd	0.07284496
148	0x3e98bb43	0.2983037
149	0x3e47de07	0.1951829
150	0xbe8b2a37	-0.27180645
151	0xbe6c30c9	-0.23065485
152	0xbf1be224	-0.6089194
153	0xbf20aaa2	-0.62760365
154	0xbe9c58dc	-0.30536544
155	0xbe89021c	-0.26759422
156	0xbe331519	-0.17488517
157	0x3dae22c3	0.08502724
158	0x3d605fd5	0.054778893
159	0x3ec8368c	0.39104116
160	0xbf4ddbbe	-0.80413425
161	0x3dfa7919	0.12230129
162	0x3ed42b6d	0.4143938
163	0xbf0ca08a	-0.54932463
164	0xbeb543a2	-0.35403162
165	0xbbea2f01	-0.0071467166
166	0xbf595b1b	-0.8490464
167	0xbf56ec1f	-0.8395404
168	0xbe558a5e	-0.20853564
169	0xbec6a61d	-0.3879861
170	0xbeac5dae	-0.33665222
171	0xbedb8f11	-0.42882589
172	0x3ed7a537	0.42118236
173	0xbe45d3d3	-0.19319086
174	0xbf041052	-0.515874
175	0xbf40444d	-0.7510422
176	0xbe885ff6	-0.26635712
177	0x3da8d40a	0.08243568
178	0xbeee511b	-0.46546254
179	0x3ea6a48a	0.32547408
180	0x3c9fc6b4	0.019503929
181	0xbc233a2b	-0.009962599
182	0xbe4219fe	-0.18955228
183	0x3ceb6a6b	0.028737267
184	0x3de267aa	0.110549286
185	0x3e341ac3	0.17588334
186	0xbe0bbaf0	-0.1364553
187	0xbf26936c	-0.650687
188	0xbef0e905	-0.4705278
189	0xbf45e3c1	-0.7730065
190	0x3d95578b	0.07292088
191	0x3e233152	0.15936783
192	0xbf118595	-0.56844455
193	0xbf24f6bf	-0.64439005
194	0xbe87d005	-0.26525894
195	0x3c53df1a	0.0129316095
196	0xbaea97b0	-0.001789799
197	0xbf53a485	-0.8267291
198	0x3f0337e4	0.5125716
199	0x3d4eb2c8	0.050463468
200	0x3d7ce1d5	0.061738808
201	0xbe3caccb	-0.1842529
202	0xbeda0f21	-0.42589667
203	0x3cc93e6e	0.024565902
204	0x3d32e48b	0.043674987
205	0x3e29b7f2	0.16574076
206	0xbe8719b1	-0.26386788
207	0x3e21cbe4	0.15800434
208	0x3e0d70ae	0.13812515
209	0x3c1479e9	0.009062269
210	0x3ecfabcd	0.4056076
211	0xbea5774d	-0.32317582
212	0xbf41e9a1	-0.75747114
213	0x3b732e7f	0.0037106571
214	0xbf083c81	-0.5321732
215	0xbf779962	-0.9671842
216	0x3e67d863	0.22641139
217	0x3c9954e3	0.018717235
218	0xbef5e5e3	-0.48026952
219	0xbf1d4597	-0.6143431
220	0xbf509b3e	-0.8148688
221	0xbf31b00c	-0.6940925
222	0xbe117767	-0.14205705
223	0x3ea7fed8	0.32811618
224	0x3e0c4ace	0.1370041
225	0xbf1ba46d	-0.6079777
226	0xbeb58d08	-0.3545916
227	0xbe8bda59	-0.27315024
228	0xbdedb57f	-0.11606883
229	0xbe9a827a	-0.3017767
230	0xbd526cac	-0.05137317
231	0xbd8fbf29	-0.07018883
232	0x3dffb36b	0.12485393
233	0xbe5e230f	-0.21693061
234	0xbf6d9cdf	-0.9281749
235	0x3db3056d	0.08741269
236	0x3e441974	0.19150335
237	0x3ec09e6c	0.37620866
238	0xbe204741	-0.15652181
239	0xbc0b38a4	-0.008497391
240	0xbe230494	-0.15919715
241	0xbef574e0	-0.4794073
242	0xbb68bad5	-0.0035511751
243	0xbf7ef0b9	-0.99586064
244	0x3e25a380	0.16175652
245	0xbe0e36b1	-0.1388805
246	0xbd708df4	-0.058729127
247	0xbec889a6	-0.39167517
248	0xbea9beae	-0.3315329
249	0x3ddf13c4	0.10892442
250	0xbe94361a	-0.28947526
251	0x3de1553c	0.11002585
252	0xbe5bcf32	-0.21465757
253	0xbf1155af	-0.5677137
254	0xbea7897b	-0.32722077
255	0x3f06263d	0.52402097

l2.weight f4 [200, 400]
0	0x3d171a95	0.036890585
1	0x3cbb716b	0.02288123
2	0x3be7ca64	0.0070736874
3	0xbb6314bf	-0.0034649817
4	0x3bc48df0	0.0059983656
5	0xbb1d9f6f	-0.0024051329
6	0x3cf57b49	0.029966014
7	0x3ce6c979	0.028172242
8	0x39bed460	0.00036397856
9	0x3d068dbc	0.032850012
10	0xbd1e0de6	-0.038587473
11	0xbc466bb0	-0.012110636
12	0x3d3572e2	0.044299014
13	0xbca0382f	-0.01955804
14	0x3c9ea80e	0.019367244
15	0xba8326af	-0.0010006035
16	0xbd2d1509	-0.04225639
17	0xbcecc302	-0.02890158
18	0xbd335e04	-0.043790832
19	0xbd0f755c	-0.035024032
20	0x3c9f0565	0.019411752
21	0xbd2577ce	-0.040397458
22	0x3c8e9e33	0.01740942
23	0xbd5061b9	-0.050874446
24	0x3c1bd178	0.00951039
25	0x3c2084ff	0.009797334
26	0xbcaec239	-0.021332847
27	0xbd4966be	-0.04917025
28	0x3b457cb4	0.0030134143
29	0x3b7b964d	0.0038389147
30	0x3a58d0fd	0.0008270888
31	0xbc68e0e0	-0.014213771
32	0xbd30bade	-0.04314696
33	0xbd855d74	-0.065119654
34	0xbd5a6275	-0.053316552
35	0x3bfbe1ca	0.0076868283
36	0x3c18b6cd	0.009320927
37	0x3cc54bcd	0.024083996
38	0xbce47249	-0.027886527
39	0xbb6fbf44	-0.003658251
40	0x3d063742	0.03276754
41	0xbd3befac	-0.045882866
42	0x3c1d5fd7	0.0096053695
43	0xbd33fad3	-0.043940376
44	0xbd0038ef	-0.031304296
45	0xbd2ebef0	-0.04266256
46	0x3bc7e03e	0.00609973
47	0xbccf53f4	-0.025308587
48	0x3bf2347d	0.007391511
49	0x3c40f4d4	0.011777122
50	0xbc8bf32b	-0.017083725
51	0xbc47debe	-0.012199102
52	0xbd5f2a9c	-0.054483995
53	0xbd3dde1b	-0.046354394
54	0xbcf643af	-0.03006157
55	0x3d17511e	0.036942594
56	0xbd543fe4	-0.051818743
57	0x3c73bcfc	0.0148766
58	0x3c8e2004	0.01734925
59	0x3bbd9ee4	0.0057867635
60	0xbc71ca4d	-0.014757705
61	0xba358093	-0.0006923761
62	0xbd0b10e4	-0.033951655
63	0xbd07941b	-0.03310023
64	0xbd58db3a	-0.052943446
65	0x3c9bae00	0.019003868
66	0x3bab2180	0.0052224994
67	0xbd10976f	-0.03530067
68	0x3c99d2d3	0.018777287
69	0xbd4b8c07	-0.049694087
70	0xbd11cfc6	-0.03559854
71	0xbb441994	-0.0029922472
72	0xbd4e490d	-0.050362635
73	0xbd0542b2	-0.03253431
74	0xbd74d37f	-0.05977201
75	0xbcf28a2f	-0.029606907
76	0xbc3561e1	-0.011070699
77	0x3d245303	0.04011823
78	0x3c8c85b6	0.017153602
79	0x3cf452b3	0.02982459
80	0xbd03581a	-0.032066442
81	0xbbad7d88	-0.0052945055
82	0xbbfa744b	-0.0076432577
83	0x3cdb4c92	0.02676991
84	0x3ccc2312	0.024919067
85	0x3cb6c827	0.022312237
86	0x3c512a2c	0.012766402
87	0x3bb0cc94	0.0053954814
88	0xbd63ea07	-0.055643108
89	0xbcbc555d	-0.022989923
90	0xbd1a2c39	-0.03763983
91	0x3cc87ab6	0.024472576
92	0xbb8d0421	-0.0043034707
93	0x3c4011e1	0.011723013
94	0x3d0d5fac	0.034515068
95	0x3ca0e25c	0.019639187
96	0x3ceca748	0.02888836
97	0xbcbb37f6	-0.022853833
98	0xbcf9239b	-0.030412486
99	0xbca34f7f	-0.019935368
100	0x3c41683d	0.0118046375
101	0x3d1e1164	0.038590804
102	0xbd4b8e5f	-0.049696323
103	0xbd24edf5	-0.040265996
104	0xbac4b755	-0.001500825
105	0x3d19c24b	0.037538808
106	0xbd0649f3	-0.032785367
107	0x3cc771fb	0.024346342
108	0xbd7ceaa5	-0.061747212
109	0xbd114630	-0.035467327
110	0xbce23316	-0.02761225
111	0xbd1387ca	-0.03601817
112	0x3bd79410	0.0065789297
113	0x3cdb4167	0.026764585
114	0x3ced3aa1	0.02895862
115	0x3d2d1126	0.042252682
116	0xbbadcee9	-0.0053042066
117	0x3d2137ea	0.039359964
118	0xbd338ca5	-0.0438353
119	0xbd5414be	-0.051777594
120	0x3cbc8e3a	0.023017038
121	0x3c90f397	0.017694278
122	0x3d261dcd	0.040555764
123	0x3c13d83f	0.009023725
124	0x3c26dbf0	0.010184273
125	0xbd4ecb86	-0.050487064
126	0x3c174196	0.0092319455
127	0x3bfeaa6c	0.0077717807
128	0x3b4097b8	0.0029387306
129	0xbbe5c359	-0.0070118126
130	0xbd3f3a3e	-0.046686403
131	0xbcbf9049	-0.02338423
132	0x3d0a622f	0.03378504
133	0x3bb4784f	0.005507506
134	0x3d37e741	0.044898275
135	0x3d289492	0.041157313
136	0x3cb02a7c	0.021504633
137	0x3bbf51f0	0.005838625
138	0xbc91ea78	-0.017811999
139	0x3b29caf7	0.002590833
140	0xbc4469e8	-0.011988141
141	0x3d2df4be	0.042469732
142	0x3b5ac6f3	0.0033382743
143	0x3d4821bb	0.048860293
144	0x3b5c24e7	0.0033591331
145	0xbd39a5e1	-0.04532421
146	0xbd337a3d	-0.043817747
147	0x3c7acc14	0.015307445
148	0xbb4451e4	-0.0029956037
149	0xb86a8af2	-5.591935e-05
150	0xbc0ebe79	-0.008712404
151	0xbbcad4bf	-0.006189912
152	0xbcfdfa83	-0.031003242
153	0xba9a9f3f	-0.0011796727
154	0xbbc90ff1	-0.0061359336
155	0xbd5a2cc1	-0.053265337
156	0x3ab2cff2	0.0013642295
157	0xbb651f2b	-0.0034961205
158	0xbd570663	-0.052496325
159	0x3d1e2e88	0.038618594
160	0x3b80f976	0.003935988
161	0x3b6e4d03	0.003636182
162	0xbcb36ae6	-0.02190156
163	0xbd5520ae	-0.05203312
164	0x3ccf9158	0.02533786
165	0xbd1acda8	-0.037793785
166	0xbcfa819e	-0.030579384
167	0xbd1fb99c	-0.03899537
168	0xbd50ff90	-0.051024973
169	0x3d09e9fe	0.033670418
170	0xbc2262b4	-0.009911228
171	0x3c59c49f	0.013291507
172	0x3c3b2dc1	0.011424483
173	0xbbef0958	-0.007294815
174	0xbcafca99	-0.02145891
175	0x3c32eb19	0.010920309
176	0x3c6ca2e4	0.014443133
177	0xbd118083	-0.03552295
178	0xbd5ec006	-0.054382347
179	0x3c197f21	0.009368689
180	0x3cdcac85	0.026937732
181	0xbc7e12c3	-0.015507403
182	0x3d0b50ef	0.03401273
183	0xbcfc871d	-0.030826146
184	0x3d3230f1	0.043503705
185	0xbd26cc9c	-0.040722474
186	0x3cdd1ce3	0.026991313
187	0xbb0add45	-0.0021189016
188	0x3d2aff03	0.041747104
189	0xbcb4f345	-0.022088656
190	0xbc94b78d	-0.01815393
191	0xbd23b768	-0.03996983
192	0x3d13d93d	0.036095846
193	0x3d1dc075	0.03851362
194	0x3d0771e5	0.033067603
195	0xbce46fe1	-0.02788538
196	0x3d31e0c9	0.043427262
197	0x3bdb369e	0.0066898605
198	0xbd081bf7	-0.033229794
199	0xbca2281f	-0.019794522
200	0xbd59d1c5	-0.053178567
201	0xbd3455dd	-0.044027198
202	0x3b5e2904	0.003389896
203	0xbd242eaf	-0.040083583
204	0xbd7f0764	-0.062262908
205	0xbbc72d2c	-0.006078383
206	0xbd2a04be	-0.04150843
207	0x3d048b7b	0.03235958
208	0xbca55598	-0.020182416
209	0xbc563ddd	-0.013076273
210	0xbd5d512b	-0.054032486
211	0x3c23e485	0.010003214
212	0xbd169834	-0.036766246
213	0xbce6d7d4	-0.028179087
214	0xbc18dea5	-0.009330426
215	0xbc871c11	-0.016492875
216	0xbd077842	-0.03307367
217	0x3bee4904	0.0072718877
218	0xbc621f04	-0.01380134
219	0x3d335554	0.043782547
220	0x3d241141	0.040055517
221	0xbd29b297	-0.041430082
222	0xbaa3f1ad	-0.0012507938
223	0x3af9d0e5	0.0019059448
224	0xbd5dae17	-0.054121103
225	0xbd55568e	-0.052084498
226	0x3ce8fec2	0.02844179
227	0x3d3277dd	0.04357134
228	0xbd37a4ca	-0.04483489
229	0x3c33db78	0.010977618
230	0x3d3df236	0.04637357
231	0xbc23e66b	-0.010003666
232	0xbd507775	-0.050895173
233	0xbc1d2750	-0.009591892
234	0x3cd2b5a7	0.025721384
235	0x3d34b4e2	0.044117816
236	0xbd051547	-0.032490995
237	0xbd263f5a	-0.04058776
238	0xbcd0ecf2	-0.02550361
239	0x3c8358f2	0.016033623
240	0x3baa9ddb	0.005206806
241	0xbc9fb912	-0.019497428
242	0x3b5b56dc	0.003346852
243	0x3d13dc73	0.03609891
244	0xbd648ed4	-0.055800274
245	0xbcfd4629	-0.030917244
246	0xbd32ff91	-0.04370076
247	0x3c24f2fe	0.0100676995
248	0x3c898a16	0.016789477
249	0xbb09a8fb	-0.0021005261
250	0xbd27f3b6	-0.041003905
251	0xbd07384a	-0.033012666
252	0x3cbcb207	0.023034109
253	0x3943b3bb	0.00018663604
254	0x3c9d3446	0.019189965
255	0x3cdbd406	0.0268345

l2.bias f4 [200]
0	0x3c6d2541	0.014474214
1	0xbe7441a2	-0.23853162
2	0xbd3b4839	-0.045723174
3	0xbd2a631c	-0.041598424
4	0x3d76dc7e	0.06026887
5	0xbcb0a8e4	-0.021564908
6	0x3c1fb7b1	0.009748385
7	0x3db11b11	0.08647741
8	0x393560fe	0.00017297638
9	0xbd2b1c2e	-0.04177492
10	0xbdb6a8d8	-0.08918923
11	0xbe9a286c	-0.30108964
12	0x3a914597	0.0011083361
13	0xbed329a3	-0.41242704
14	0xbe0084d2	-0.12550667
15	0x3c22817c	0.009918567
16	0xbd50059d	-0.050786603
17	0x3cf033d9	0.029321598
18	0xbf6deabe	-0.92936313
19	0x3e00f060	0.12591696
20	0xbd0b52eb	-0.034014624
21	0xbd8c5875	-0.06852809
22	0xbe1338a0	-0.1437707
23	0x3e869f96	0.2629363
24	0xbc9044a1	-0.01761085
25	0x3e526fe0	0.2055049
26	0xbd6b8dd9	-0.057508323
27	0x3c970f72	0.018439982
28	0xbcf386ec	-0.029727422
29	0xbc5521ea	-0.013008574
30	0xbc42d8f2	-0.011892544
31	0x3cc508f6	0.024052124
32	0xbde90491	-0.11377824
33	0x3cb6312a	0.02224024
34	0xbd249ed5	-0.040190537
35	0x3c4af387	0.012387163
36	0xbd06c82c	-0.032905743
37	0xbcb4c171	-0.022064896
38	0xbd60f994	-0.054925516
39	0xbe3c5ac3	-0.18393998
40	0xbcf81afe	-0.030286308
41	0xbe2b70e4	-0.16742283
42	0xbc99ab6c	-0.018758498
43	0xbe72de8f	-0.23717712
44	0x3b8a291b	0.004216326
45	0x3e61cf9d	0.22051854
46	0x3e914803	0.28375253
47	0x3dba6cf5	0.09102813
48	0xbe523e6a	-0.20531622
49	0xbcbd6127	-0.023117615
50	0x3d81dba7	0.063407235
51	0xbd8c9355	-0.06864039
52	0xbcb583df	-0.022157608
53	0x3cea8fb2	0.028632972
54	0xbe02b84b	-0.12765615
55	0x3e807f29	0.25097016
56	0x3e802951	0.25031522
57	0xbeafe859	-0.34356955
58	0x3d230259	0.03979716
59	0x3e4d733a	0.20063487
60	0x3e9c2f40	0.305048
61	0x3b3caf38	0.0028790962
62	0x3e801f6a	0.25023967
63	0xbe14ccef	-0.14531301
64	0x3e561964	0.20908123
65	0xbd811feb	-0.06304916
66	0xbc0630d3	-0.008190352
67	0xba2ca4cd	-0.00065858365
68	0xbd53b2b6	-0.051684104
69	0x3e63ec14	0.22258025
70	0x3e7a727b	0.24457733
71	0x3e32e023	0.17468314
72	0x3e7ded6d	0.24797602
73	0xbc83df07	-0.016097559
74	0xbe9b6b41	-0.30355266
75	0xbd170e2d	-0.036878753
76	0xbedb804c	-0.4287132
77	0xbe73bb4d	-0.23801918
78	0x3e83626c	0.25661027
79	0xbe2c70d6	-0.16839918
80	0xbd0c3023	-0.034225594
81	0x3ce7afef	0.028282134
82	0x3d8f630e	0.07001315
83	0x3e6c0b75	0.23051246
84	0x3d96ad4d	0.07357273
85	0x3b9b1dd5	0.004733781
86	0xbd3ac76e	-0.045600347
87	0xbc82bf37	-0.015960319
88	0x3e3b260e	0.18276235
89	0x3de8b2b4	0.1136221
90	0xbd77493c	-0.060372576
91	0x3d38fe7a	0.045164563
92	0xbd8febaf	-0.07027375
93	0x3d125df8	0.035734147
94	0xbe89870c	-0.26860845
95	0x3de1b497	0.11020773
96	0x3e193de7	0.1496502
97	0xbd3c2ace	-0.04593926
98	0x3dafddbf	0.085872166
99	0xbcb2774e	-0.021785405
100	0xbd813441	-0.06308795
101	0xbc2f26c0	-0.010690391
102	0x3d712627	0.058874276
103	0x3e294562	0.16530374
104	0xbe5e0aa9	-0.21683754
105	0xbda553ad	-0.080726005
106	0xbe1a7086	-0.15081987
107	0x3ca30881	0.019901516
108	0xbdd05e33	-0.10174217
109	0x3cfb941c	0.030710272
110	0x3c815896	0.015789311
111	0xbe80205c	-0.25024688
112	0xbcf391ba	-0.029732574
113	0xbf0f1c71	-0.55902773
114	0xbe604383	-0.21900754
115	0x3e36c1b9	0.17847337
116	0xbd8f7c5d	-0.07006142
117	0x3e2742b9	0.16334046
118	0x3e7215a2	0.23641065
119	0xbd17fa3b	-0.037103873
120	0xbd1d4ad5	-0.038401444
121	0xbe170b8c	-0.14750499
122	0xbcd923fc	-0.026506416
123	0xbe280f8a	-0.16412178
124	0x3dfbe1bd	0.122989155
125	0x3ea6ab43	0.32552537
126	0xbd4cc9b3	-0.049997043
127	0x3e125a0e	0.14292166
128	0x3e2629fc	0.16226953
129	0x3eb3c39c	0.35110176
130	0x3e6dda4a	0.23227802
131	0x3e492f5a	0.1964697
132	0x3e060f10	0.13091683
133	0x3e61884f	0.22024654
134	0xbd294090	-0.041321337
135	0xbc07a9c5	-0.008280222
136	0x3da8ec5c	0.08248207
137	0xbd06d876	-0.032921277
138	0xbd633125	-0.05546679
139	0x3dc68f43	0.09695294
140	0x3c19de83	0.00939143
141	0xbed7f398	-0.42178035
142	0xbdc9e7e1	-0.098586805
143	0xbcdccadb	-0.026952198
144	0xbcbdccf9	-0.023169028
145	0xbe653c4c	-0.22386283
146	0x3e64049f	0.22267388
147	0xbf405504	-0.75129724
148	0xbeb8f7f1	-0.36126664
149	0x3c0119f7	0.007879726
150	0x3eb9e0b3	0.36304244
151	0x3ca0ba75	0.01962016
152	0xbd0ba882	-0.03409625
153	0x3cffffb4	0.031249858
154	0xbdc16b30	-0.094442725
155	0xbea7206a	-0.32641917
156	0xbec88d73	-0.39170417
157	0x3e45f06f	0.1933
158	0xbd8195c9	-0.063273974
159	0xbd06f8d4	-0.032952145
160	0xbd0ea64d	-0.034826566
161	0x3cc673ad	0.02422508
162	0xbd17ee70	-0.037092626
163	0xbe29e33c	-0.1659059
164	0xbd0d3782	-0.034476765
165	0xbe425af5	-0.1898001
166	0xbea82b61	-0.32845595
167	0xbcba9f39	-0.022781001
168	0xbd5cac4e	-0.05387526
169	0x3e938295	0.28810564
170	0x3e31cc64	0.17363125
171	0xbd2d4134	-0.04229851
172	0xbd45fda7	-0.048337605
173	0xbc070aee	-0.008242352
174	0xbd1cb9df	-0.038263198
175	0xbcb4786a	-0.022030074
176	0xbe7bba7e	-0.2458286
177	0x3c165b56	0.00917705
178	0xbcbef64a	-0.0233108
179	0xbe5b8acf	-0.2143967
180	0xbdc6d875	-0.09709255
181	0xbe98115b	-0.2970074
182	0xbe984845	-0.29742637
183	0xbbec0939	-0.007203248
184	0xbe183346	-0.1486331
185	0x3c2d0bf9	0.010561937
186	0xbe536dd3	-0.20647363
187	0x3d38704d	0.045028973
188	0xbd2a9147	-0.041642454
189	0xbe02ca73	-0.12772541
190	0xbe0cf2a3	-0.13764434
191	0x3c051114	0.0081217475
192	0xbe8b681f	-0.27227876
193	0xbe4d3e9d	-0.20043416
194	0xbd784514	-0.060612753
195	0xbef7c953	-0.48395786
196	0xbeb6a30e	-0.35671276
197	0xbd91b520	-0.07114625
198	0xbd9addab	-0.07561811
199	0xbe551f17	-0.20812641

l3.weight f4 [4, 200]
0	0x3c43ead9	0.0119578475
1	0xbeccbcb6	-0.39987725
2	0x3c491162	0.012272211
3	0xbd1f3f89	-0.03887895
4	0xbe545096	-0.20733866
5	0x3d22d9c9	0.039758477
6	0xbee64f72	-0.44982487
7	0xbe33185c	-0.17489761
8	0x3d1563bf	0.03647208
9	0x3c27548f	0.010213031
10	0x3de773ab	0.11301359
11	0xbde39b72	-0.11113633
12	0x3f83eab8	1.0306005
13	0xbee01297	-0.43764183
14	0x3f1ca8a2	0.61194813
15	0x3d44a5f5	0.04800983
16	0xbb75f2ef	-0.0037528833
17	0x3f70fdb2	0.9413711
18	0xbee57d32	-0.4482208
19	0xbe7f6cac	-0.24943799
20	0xbb59dcd8	-0.0033243205
21	0x3e091d17	0.13390003
22	0xbe2426e9	-0.16030468
23	0x3ed31b35	0.41231695
24	0x3d1cba28	0.03826347
25	0x3eb58fda	0.35461313
26	0x3cd55306	0.026040565
27	0xbc916993	-0.017750537
28	0x3e974ff1	0.29553178
29	0x3f17caab	0.5929362
30	0x3e8d8f5d	0.2764844
31	0xbe16577d	-0.14681812
32	0xbd8d478d	-0.06898413
33	0x3c1b991d	0.009496954
34	0xbe742ebb	-0.23845951
35	0xbc1ff8e9	-0.009763935
36	0x3c813982	0.015774492
37	0xbd5b0b36	-0.05347749
38	0x3d3d5ae5	0.046229262
39	0xbe41bdf4	-0.18920118
40	0x3e4a34cc	0.19746703
41	0xbd3f048c	-0.046635196
42	0xbdda0d09	-0.106470175
43	0x3e24d3df	0.16096447
44	0x3d60bda7	0.054868367
45	0x3efe1e95	0.49632707
46	0xbecd6d17	-0.4012229
47	0xbdbe075f	-0.0927875
48	0xbdd9d1b1	-0.106356986
49	0xbf1dffd1	-0.6171847
50	0x3e413614	0.18868285
51	0x3bab5a6c	0.005229285
52	0xbe7b9b87	-0.24571048
53	0xbe2e10bc	-0.16998571
54	0xbe84adcf	-0.25913855
55	0xbe95a341	-0.29226115
56	0x3ece8df5	0.4034268
57	0x3f22141d	0.6331194
58	0xbd8f4815	-0.069961704
59	0xbf5b1d3b	-0.8559148
60	0x3eedec0c	0.46469152
61	0x3d369b3d	0.04458164
62	0x3eb58428	0.3545239
63	0xbeae7ccd	-0.3407959
64	0x3e97454c	0.29545057
65	0xbe964400	-0.29348755
66	0x3be8550f	0.007090218
67	0x3d7ab39e	0.061206453
68	0x3ee16901	0.44025424
69	0x3f786deb	0.9704272
70	0x3eab90eb	0.33509
71	0x3eff4e72	0.49864537
72	0x3f01ff2a	0.50779974
73	0x3d159915	0.036522944
74	0xbe9c271e	-0.30498594
75	0x3c49c3e9	0.012314775
76	0x3fc21947	1.5163964
77	0xbed3d1b3	-0.41370925
78	0xbe10da53	-0.14145784
79	0xbe1a7253	-0.15082674
80	0x3e5170ce	0.20453188
81	0xbf2edfdb	-0.68310326
82	0x3ea2a6bd	0.31767836
83	0xbef6865b	-0.4814938
84	0x3f39e4ea	0.7261492
85	0x3d01c5ef	0.031682905
86	0x3d16dc3c	0.036831126
87	0x3d2c4e23	0.042066704
88	0x3eb8aaca	0.36067802
89	0xbebd9903	-0.370308
90	0x3f51c807	0.8194584
91	0xbea8d011	-0.32971242
92	0x3e06e598	0.1317352
93	0xbe2c26d8	-0.16811693
94	0x3e31ef15	0.17376359
95	0xbf22c35f	-0.6357936
96	0x3e3c69dc	0.18399757
97	0x3be8f15d	0.007108851
98	0x3e968aef	0.29402873
99	0x3ea61add	0.3244237
100	0xbc21e455	-0.009881099
101	0x3c2e9aaa	0.010656992
102	0x3d455271	0.048174325
103	0x3e1cce79	0.15313138
104	0x3e28ba42	0.16477302
105	0xbd0e9286	-0.034807704
106	0x3e945268	0.2896912
107	0xbea6ac03	-0.3255311
108	0x3daea2c8	0.08527142
109	0xbd85cc56	-0.065331146
110	0x3e9585b0	0.29203558
111	0xbf230624	-0.63681245
112	0xbbd4cdd0	-0.0064942613
113	0xbec184bf	-0.3779659
114	0xbe8c999f	-0.27460954
115	0xbef6abe2	-0.4817801
116	0xbd179716	-0.03700932
117	0x3f00c7e1	0.5030499
118	0x3ec55040	0.38537788
119	0x3e87075b	0.263728
120	0xbc592f1d	-0.013255862
121	0x3f819da7	1.0126237
122	0x3d3ea3d8	0.046542972
123	0xbdf6e581	-0.12055493
124	0x3eaf8ab0	0.34285498
125	0x3edccfa2	0.4312716
126	0xbb8f6c77	-0.0043769437
127	0x3e60c611	0.21950556
128	0x3e92f9e5	0.2870628
129	0x3eb72910	0.35773516
130	0x3f05419e	0.5205325
131	0x3eb1a49d	0.34695902
132	0xbe72d43d	-0.23713775
133	0x3eab77b3	0.3348976
134	0x3d29626a	0.04135362
135	0xbe0131f6	-0.12616715
136	0xbed1b1cc	-0.4095596
137	0xbf321b86	-0.6957325
138	0xbce8ec4d	-0.02843299
139	0x3d7b2dce	0.06132298
140	0x3cf19421	0.029489579
141	0xbeb1b191	-0.34705785
142	0x3e022217	0.12708317
143	0x3d1272d2	0.035754032
144	0x3c894ea4	0.016761132
145	0xbc25c08e	-0.010116709
146	0x3ec52df3	0.3851162
147	0xbed3ac76	-0.41342515
148	0xbe87cfb3	-0.2652565
149	0x3cf0629e	0.0293439
150	0xbee32a3e	-0.44368166
151	0xbeebb5a5	-0.4603702
152	0x3d69e4fe	0.05710315
153	0x3ce40257	0.027833147
154	0xbf184277	-0.5947642
155	0x3ebc8e45	0.36827293
156	0x3f6a36b5	0.91489726
157	0x3e9b1058	0.30285907
158	0x3d8ba361	0.068182714
159	0x3d9c12ca	0.07620771
160	0xbcfff6e3	-0.031245654
161	0x3c26fcd0	0.010192111
162	0x3e0a4984	0.13504606
163	0x3e956cca	0.29184562
164	0xbf07c296	-0.5303129
165	0x3d159cd9	0.036526535
166	0xbeb020e1	-0.34400085
167	0x3cd66d2a	0.0261751
168	0xbecbab05	-0.39778915
169	0xbe54a663	-0.20766596
170	0xbee9fb0e	-0.45699352
171	0x3cc60c9a	0.02417593
172	0x3d06bb78	0.032893628
173	0xbde112bf	-0.10989904
174	0x3e816401	0.2527161
175	0xbcd96801	-0.02653885
176	0xbec82639	-0.39091662
177	0xbe7fecc9	-0.2499267
178	0xbbfd001c	-0.0077209603
179	0x3e5e20a6	0.21692142
180	0xbf136f1c	-0.57591414
181	0xbf01e7bd	-0.5074423
182	0xbf0fbe19	-0.5614944
183	0xbf2c2f69	-0.6725984
184	0xbe596000	-0.21228027
185	0xbdea1ea1	-0.11431623
186	0xbe86a7af	-0.26299807
187	0xbe2e7fe7	-0.17040978
188	0x3dcc0cbd	0.09963367
189	0x3ed4a96d	0.41535512
190	0x3e094719	0.13406028
191	0xbf278303	-0.65434283
192	0x3ee4f90b	0.44721255
193	0xbe81b6bd	-0.2533473
194	0x3c79b12d	0.015239996
195	0xbe46f2a4	-0.19428498
196	0xbe96e4bd	-0.29471388
197	0x3cd53de6	0.026030492
198	0x3d76830d	0.060183574
199	0xbe97db1f	-0.29659364
200	0x3d727713	0.05919559
201	0xbec4b05e	-0.38415807
202	0x3df67cfc	0.12035558
203	0xbe2c8602	-0.16847995
204	0xbe770b2e	-0.24125358
205	0xbb90f8d4	-0.004424194
206	0xbf40860a	-0.7520453
207	0xbe3914c0	-0.18074322
208	0xbd167544	-0.036732927
209	0x3d0d700c	0.034530684
210	0x3c2fc267	0.0107275015
211	0xbdfabfcf	-0.12243616
212	0x3f49300f	0.78588957
213	0xbf12df2c	-0.57371783
214	0x3f63f7cb	0.8904998
215	0xbce48402	-0.027894977
216	0x3bbb5b29	0.0057176542
217	0x3f489477	0.7835154
218	0x3e9b3df4	0.30320704
219	0xbe7941f9	-0.24341573
220	0x3d4e9f14	0.050444677
221	0x3e75f0f4	0.24017698
222	0x3eb5641e	0.35427946
223	0x3ef316b5	0.47478262
224	0xbcb46cdc	-0.022024564
225	0x3ed751f5	0.42054716
226	0x3d59ce62	0.053175338
227	0xbcc992db	-0.024606159
228	0x3ef070e5	0.46961132
229	0x3f141d3c	0.5785711
230	0x3dfc7483	0.1232691
231	0xbdeb7205	-0.11496357
232	0xbdafe315	-0.08588234
233	0xbd959324	-0.073034555
234	0xbe73f33c	-0.23823255
235	0xbc8f4e45	-0.017493377
236	0xbd4dbe1e	-0.050230138
237	0x3c6e42f5	0.014542331
238	0x3d5fcb96	0.054637514
239	0xbedd53e8	-0.43228078
240	0x3e03d027	0.12872373
241	0xbda3c812	-0.07997145
242	0xbdbfa3fc	-0.093574494
243	0x3e66a32a	0.2252318
244	0x3d7e1938	0.06203577
245	0x3f252984	0.6451647
246	0xbedfdae7	-0.43721697
247	0xbd009327	-0.031390335
248	0xbe39e944	-0.1815539
249	0xbf368d99	-0.7130981
250	0x3e3cec19	0.18449439
251	0xbdafe891	-0.085892804
252	0xbebe4f19	-0.37169722
253	0xbe0d890a	-0.13821808
254	0xbe224966	-0.15848312
255	0xbe80ef97	-0.25182793

l3.bias f4 [4]
0	0x3ea21e8f	0.3166394
1	0x3d7dc225	0.06195273
2	0x3e2a8179	0.16650952
3	0x3e8a9172	0.2706409
