fin/DQN/agent-300-10-313/model.pt (torch, 340231 bytes, 6 tensors)

l1.weight f4 [400, 8]
0.5319669 0.1389232 -0.42594326 0.2682852 -0.31605598 0.040685657 0.17380263 -0.3464116
0.94572896 -0.16386591 0.7754747 0.036888767 -0.24889985 -0.0135430405 0.030131513 -0.2905418
0.58064574 -0.13340601 0.30564085 -0.43242782 -0.54681456 -0.842965 -0.71730953 0.49409366
0.020245152 0.002400756 0.09089807 2.3442323 -0.027232412 -0.011818269 -0.17757648 -0.29104626
0.38524002 -0.030748772 -0.071081616 0.9076481 -0.16499281 -0.0034378746 -0.008133695 0.27918926
0.69784015 -0.27858192 0.6717163 -0.10328107 -0.90512073 -0.09682489 0.1565535 0.28118864
-1.3116456 -0.16922602 -0.40219995 0.32655153 -0.19978793 0.22479233 -0.24606195 0.05122002
0.30253452 -0.6017833 -0.39540786 -0.7601595 -0.252344 -0.0013523091 -0.36917803 -0.021795155
0.018655863 0.21057145 0.167938 -0.005291739 0.90805846 0.116937794 -0.5141727 -0.6359861
-0.14007181 0.12848276 0.07746322 0.20224419 0.33999658 0.5280009 0.22250694 0.119176455
-0.41241056 0.10588189 -0.45549846 0.046203475 -0.12864745 -1.0508552 0.36541614 0.2078596
0.20264526 -0.12118456 -0.2591129 -0.16255225 -0.3685629 0.39409924 -0.052093115 -0.4831052
-0.57124925 -0.39069614 -0.09588371 -0.1907559 0.13984486 -8.925378e-05 0.21744564 -0.15577886
-0.4280304 0.13509984 0.06943979 0.20114073 -0.23730579 0.21124713 -0.35711074 -0.11569916
0.122705616 -0.40200558 -0.29779142 -0.7993825 -0.7324506 0.26010138 -0.63547647 -0.78100103
-0.628317 -0.0045367912 -0.17001475 0.14947312 -0.5774397 0.4805153 -0.9260779 -0.6710748
0.023731926 0.50829554 -0.20562927 -0.16896059 0.17831336 -0.3521167 -0.8964307 -0.6316434
0.011845672 -0.0153104365 0.6595121 -0.68311435 -0.021002892 -0.035103355 -1.0882291 -0.7572815
0.9027437 -0.2723337 0.06942852 -0.11234514 0.14739363 -0.4838854 -0.45934224 0.54254794
-0.441766 -0.12601694 -0.036032535 0.28891993 0.55861473 -0.07910937 -0.82108355 0.22348976
-0.79282093 -0.0006542653 -0.3646554 0.014535057 0.5518179 -0.1765864 0.5115712 0.35472438
0.23653588 0.46245658 -0.12621906 -0.55300784 -0.071393505 0.43774098 -1.1529661 -0.7227305
0.8011435 0.008990817 -0.30234808 -0.08620737 -0.04056606 0.14094456 -0.18286861 -0.33700526
0.10538414 0.15440257 0.3715447 0.31685555 1.0282023 1.1185962 -0.4067391 -0.9054768
-0.71896017 0.17391683 -0.67226475 0.51494586 0.48988998 0.25257546 0.40780532 0.6478963
0.73834896 0.025754284 -0.007989356 -0.14431012 -0.17458552 0.5574009 0.26424894 -0.17891991
-0.3426337 -0.029554809 0.31456226 0.07059023 0.06259697 -0.099987596 -0.28355446 -0.31269684
-0.11870247 -0.15926386 -0.31563738 0.56702226 0.93397737 -0.013268239 -0.052311294 -1.2169529
-0.34221745 -0.12810872 0.92720926 -0.5460772 -0.19205932 0.34995317 0.40483385 0.098813854
0.5814142 -0.49535015 0.3439318 -0.63840806 -0.40911505 -0.70281607 0.71753883 -0.12799329
0.15067777 0.024430428 0.3134843 0.2608283 0.42864937 -0.41897383 0.104421765 -0.34922084
0.010485075 -0.15607554 -0.26641262 -0.0054314826 0.106531546 -0.22267303 -0.6424917 0.3017076
00000000: fc2e 083f e241 0e3e 3c15 dabe ae5c 893e
00000010: 17d2 a1be 01a6 263d 51f9 313e dc5c b1be
00000020: 4b1b 723f 77cc 27be 8385 463f ad18 173d
00000030: 9adf 7ebe a1e3 5dbc 5dd6 f63c e5c1 94be
00000040: 33a5 143f 969b 08be f57c 9c3e 2e67 ddbe
00000050: 0afc 0bbf 8ecc 57bf 99a1 37bf d8f9 fc3e
00000060: 29d9 a53c 0156 1d3b c428 ba3d e707 1640
00000070: 8216 dfbc 6aa1 41bc 9cd6 35be 0404 95be
00000080: 2e3e c53e d9e4 fbbc 3d93 91bd a05b 683f
00000090: e0f3 28be f74d 61bb 3143 05bc e5f1 8e3e
000000a0: a7a5 323f 4aa2 8ebe 99f5 2b3f 0785 d3bd
000000b0: feb5 67bf 214c c6bd 904f 203e f5f7 8f3e
000000c0: 01e4 a7bf 9649 2dbe 27ed cdbe c331 a73e
000000d0: 3595 4cbe f62f 663e aaf7 7bbe 15cc 513d
000000e0: cee5 9a3e 780e 1abf e672 cabe d099 42bf
000000f0: 3c33 81be f73f b1ba e704 bdbe c18b b2bc
00000100: 2ed4 983c 0ba0 573e f0f7 2b3e 5366 adbb
00000110: 8576 683f 157d ef3d d2a0 03bf fccf 22bf
00000120: fc6e 0fbe fc90 033e 09a5 9e3d 1a19 4f3e
00000130: 0814 ae3e 112b 073f dcd8 633e c912 f43d
00000140: 7a27 d3be 9bd8 d83d 1837 e9be db3f 3d3d
00000150: 28bc 03be 6c82 86bf d317 bb3e 26d9 543e
00000160: 3d82 4f3e 9c2f f8bd 72aa 84be 1974 26be
00000170: 47b4 bcbe 60c7 c93e 975f 55bd 9159 f7be
00000180: 643d 12bf 5309 c8be ae5e c4bd 8455 43be
00000190: 7e33 0f3e c22d bbb8 12aa 5e3e 7e84 1fbe
000001a0: cd26 dbbe 9d57 0a3e 7336 8e3d d6f7 4d3e
000001b0: 4a00 73be 2b51 583e 38d7 b6be aef3 ecbd
000001c0: 154d fb3d add3 cdbe 1e78 98be 55a4 4cbf
000001d0: e281 3bbf 022c 853e 96ae 22bf afef 47bf
000001e0: 62d9 20bf 5da9 94bb 5918 2ebe 7b0f 193e
000001f0: 17d3 13bf 1a06 f63e 7113 6dbf 8fcb 2bbf
00000200: 7569 c23c a81f 023f 7b90 52be 0104 2dbe
00000210: c797 363e a448 b4be 7b7c 65bf 62b3 21bf
00000220: 5914 423c a0d8 7abc c9d5 283f 95e0 2ebf
00000230: 420e acbc 89c8 0fbd 174b 8bbf 33dd 41bf
00000240: 361a 673f 536f 8bbe 8a30 8e3d 3515 e6bd
00000250: 5bee 163e d4bf f7be e82e ebbe 6ce4 0a3f
00000260: 272f e2be 960a 01be da96 13bd 50ed 933e
00000270: 6001 0f3f 1804 a2bd 8832 52bf 80da 643e
00000280: 50f6 4abf 0083 2bba 1db4 babe 7324 6e3c
00000290: f043 0d3f 11d3 34be 55f6 023f 6f9e b53e
000002a0: 7636 723e 1cc7 ec3e 923f 01be ec91 0dbf
000002b0: c236 92bd 961f e03e 6594 93bf de04 39bf
000002c0: be17 4d3f 384e 133c 5ecd 9abe 7d8d b0bd
000002d0: 9928 26bd c553 103e e941 3bbe f48b acbe
000002e0: a4d3 d73d b51b 1e3e 1b3b be3e e43a a23e
000002f0: 229c 833f 292e 8f3f 1b40 d0be 54cd 67bf
00000300: c60d 38bf 4117 323e 8b19 2cbf 7ed3 033f
00000310: dcd2 fa3e 9251 813e dccb d03e 88dc 253f
00000320: 7004 3d3f a6fa d23c cae5 02bc 08c6 13be
00000330: 8cc6 32be d3b1 0e3f a34b 873e c836 37be
00000340: af6d afbe ed1c f2bc 4e0e a13e 9c91 903d
00000350: d732 803d 4cc6 ccbd 0d2e 91be cd19 a0be
00000360: 481a f3bd 1116 23be 399b a1be 5f28 113f
00000370: 2419 6f3f 0763 59bc 5e44 56bd 1dc5 9bbf
00000380: 2037 afbe ef2e 03be 965d 6d3f b7cb 0bbf
00000390: 33ab 44be 102d b33e 6246 cf3e eb5e ca3d
000003a0: 90d7 143f 899e fdbe d417 b03e b66e 23bf
000003b0: 8777 d1be c1eb 33bf a0b0 373f ac10 03be
000003c0: 464b 1a3e 5222 c83c 0481 a03e 498b 853e
000003d0: ee77 db3e bd83 d6be 14db d53d 13cd b2be
000003e0: 98c9 2b3c 44d2 1fbe 3c67 88be 94fa b1bb
000003f0: 362d da3d 6604 64be 567a 24bf 6b79 9a3e

l1.bias f4 [400]
-0.6843419 -0.62396806 -0.4735976 0.0075908317 0.1518208 -0.03001541 -0.18069874 -0.06453076
-0.34503758 0.34839705 -0.43032977 -0.06770908 0.4143514 -0.11299158 0.033431016 0.3148982
-0.06411658 -2.3862174e-05 -0.42657775 0.027501013 0.0750744 -0.35648468 0.11839674 -0.024234086
0.10138037 -0.0736954 0.08848145 0.09177863 -0.39298153 -0.4071767 -0.0710656 -0.171777
-0.6589371 0.30641446 -0.114679396 -0.27290243 -0.46325514 -0.32296404 0.12237829 0.09520936
-0.5315717 -0.33493838 -0.44616458 0.21282648 0.07708013 0.15864706 0.36536533 0.08147943
0.09236563 -0.28750566 0.082578875 0.49618086 0.041518968 0.3566009 0.11756827 0.0041703503
-0.28309742 -0.026908362 0.08480896 0.007690087 0.38504848 0.15415105 -0.20688194 0.19709165
0.18578352 0.22211261 0.1646939 -0.30374792 0.16218753 -0.44693178 0.026537614 -0.12954597
-0.03294198 -0.13801868 -0.38753542 -0.37964296 0.1560217 -0.00041497458 -0.054577604 0.2968816
-0.46881744 0.11543946 0.04764731 -0.18490377 -0.60890675 0.2098501 0.07396948 0.049420223
-0.08368521 -0.08553421 -0.4127949 -0.2968526 0.21183404 -0.53002053 0.41312802 0.07542384
0.07195342 -0.27137208 0.24270292 -0.19697942 -0.66463536 -0.27069893 -0.10888684 0.13776039
0.09781056 0.23569426 0.0068628173 -0.08696706 0.023034938 0.25254503 0.30468684 -0.39035302
0.25319102 -0.44714436 -0.32134858 0.07718585 0.2607076 -0.16177136 0.006620887 -0.0074045015
-0.00514147 -0.34430698 -0.303933 -0.13710696 0.28454792 -0.089810215 0.16094512 -0.25270155
-0.0116174165 -0.46576464 -0.35065275 -0.5360596 0.28057143 0.2370796 0.1122899 0.12727737
-0.3672528 0.25114793 -0.35740438 0.08514255 0.35115334 -0.01892587 -0.112480104 -0.18169011
-0.09379625 -0.4312803 0.1772387 -0.024139205 0.3663581 0.032401443 -0.63953865 0.11583602
-0.14681987 0.1838196 0.5072069 -0.05533491 -0.10846557 0.38822815 0.1718225 0.40896755
-0.05666266 0.081673175 0.27624017 -0.39543808 0.008205192 -0.56148016 -0.53535885 0.00380574
-0.12295807 0.30410966 0.054192875 -0.0018040742 0.23241724 -0.14907315 -0.3879545 -0.4214802
-0.13792555 -0.44387224 -0.6426815 0.031753574 -0.15883136 -0.20919815 -0.48683497 -0.0596407
0.09120018 -0.4139844 0.20179187 -0.43952093 -0.072623655 -0.15532486 -0.37306377 -0.106304914
0.1730215 -0.29973987 -0.32857427 -0.32654494 0.00432949 0.27535647 0.049699795 0.14039522
-0.05752671 -0.38239408 -0.20738135 0.14253984 -0.004611308 -0.36486804 0.21716355 0.029112952
-0.09241666 0.17547235 -0.16328824 0.15862618 -0.0010086818 -0.20125215 0.012319823 0.08893041
-0.23791003 -0.18590967 -0.20579053 -0.058837403 0.006096995 0.19841194 0.1976644 -0.46571544
-0.054030024 -0.33732438 -0.4538489 -0.07294693 0.0035710577 0.027221292 -0.41647524 -0.011344974
-0.20823152 0.097732574 0.12406416 0.3972189 -0.062836505 -0.58943117 -0.51518923 0.1088899
-0.40266007 0.29278606 -0.5593366 0.015580316 0.10774883 -0.5938783 -0.40494284 0.15190852
-0.6232968 0.18395 -0.18230362 -0.047266338 -0.28285685 -0.34202236 -0.054675605 0.17448673
00000000: 0831 2fbf 5fbc 1fbf 627b f2be 83bc f83b
00000010: e976 1b3e e1e2 f5bc 1709 39be b428 84bd
00000020: c4a8 b0be 1961 b23e 2f54 dcbe 0fab 8abd
00000030: de25 d43e 2168 e7bd f6ee 083d 563a a13e
00000040: 8e4f 83bd a12b c8b7 6668 dabe ce49 e13c
00000050: 9bc0 993d 2985 b6be fd79 f23d 9086 c6bc
00000060: 83a0 cf3d 9ded 96bd c335 b53d 6ff6 bb3d
00000070: e034 c9be 7779 d0be d78a 91bd 4fe6 2fbe
00000080: 1ab0 28bf 5be2 9c3e 08dd eabd deb9 8bbe
00000090: c72f edbe 8b5b a5be 78a1 fa3d 20fd c23d
000000a0: 1515 08bf 0b7d abbe af6f e4be 2fef 593e
000000b0: 30dc 9d3d 6074 223e 2a11 bb3e b0de a63d
000000c0: 312a bd3d f133 93be 1d1f a93d 6b0b fe3e
000000d0: cb0f 2a3d 6594 b63e a2c7 f03d 6fa7 883b
000000e0: 25f2 90be ed6e dcbc 52b0 ad3d 20fd fb3b
000000f0: 1325 c53e c6d9 1d3e dcd8 53be 65d2 493e
00000100: 093e 3e3e 7d71 633e 85a5 283e d984 9bbe
00000110: 7d14 263e 3ed4 e4be 6965 d93c b3a7 04be
00000120: 2bee 06bd c554 0dbe 0b6b c6be 9060 c2be
00000130: 27c4 1f3e f290 d9b9 c48c 5fbd dd00 983e
00000140: d708 f0be 866b ec3d d329 433d 6a57 3dbe
00000150: 50e1 1bbf f2e2 563e 507d 973d dc6c 4a3d
00000160: 2763 abbd 8f2c afbd da59 d3be 10fd 97be
00000170: 06eb 583e 6daf 07bf 8485 d33e d077 9a3d
00000180: 515c 933d 48f1 8abe 1d87 783e f9b4 49be
00000190: 8b25 2abf 0d99 8abe 1000 dfbd 0f11 0d3e
000001a0: e750 c83d d659 713e 7ce1 e03b c91b b2bd
000001b0: c4b3 bc3c 954d 813e eaff 9b3e 5adc c7be
000001c0: 41a2 813e 1bf0 e4be cd87 a4be 9d13 9e3d
000001d0: 777b 853e 64a7 25be 07f4 d83b 76a1 f2bb
000001e0: c779 a8bb 0149 b0be 1b9d 9bbe c465 0cbe
000001f0: 44b0 913e 6bee b7bd ccce 243e 1962 81be
00000200: fa56 3ebc b478 eebe c288 b3be 343b 09bf
00000210: 0fa7 8f3e ffc4 723e 3ff8 e53d 0055 023e
00000220: 8f08 bcbe 7696 803e b5fd b6be 385f ae3d
00000230: 5fca b33e 6d0a 9bbc f85b e6bd f90c 3abe
00000240: 4018 c0bd c5d0 dcbe 107e 353e 95bf c5bc
00000250: 4a93 bb3e 60b7 043d ceb8 23bf 6f3b ed3d
00000260: f357 16be 353b 3c3e 50d8 013f dca6 62bd
00000270: 3223 debd d7c5 c63e 3df2 2f3e 3264 d13e
00000280: 1b17 68bd 4444 a73d 5a6f 8d3e dc76 cabe
00000290: 126f 063c 2abd 0fbf 470d 09bf b969 793b
000002a0: 71d1 fbbd 43b4 9b3e 59f9 5d3d af76 ecba
000002b0: c9fe 6d3e a2a6 18be f9a1 c6be 41cc d7be
000002c0: 5b3c 0dbe 3943 e3be c686 24bf 0910 023d
000002d0: b0a4 22be 0a38 56be 6f42 f9be cf49 74bd
000002e0: 29c7 ba3d c3f5 d3be 87a2 4e3e e308 e1be
000002f0: b6bb 94bd 7b0d 1fbe 3702 bfbe 64b6 d9bd
00000300: 8c2c 313e 8177 99be e33a a8be e630 a7be
00000310: 65de 8d3b 86fb 8c3e 0392 4b3d c4c3 0f3e
00000320: 21a1 6bbd 28c9 c3be c75b 54be f7f5 113e
00000330: 751a 97bb fccf babe 1f60 5e3e 497e ee3c
00000340: f244 bdbd 06af 333e 0835 27be e76e 223e
00000350: bf35 84ba 0b15 4ebe 15d9 493c 2621 b63d
00000360: b09e 73be 1b5f 3ebe c1ba 52be 7dff 70bd
00000370: 4dc9 c73b 802c 4b3e 8968 4a3e 4172 eebe
00000380: 964e 5dbd c8b5 acbe e25e e8be 3365 95bd
00000390: 6808 6a3b 30ff de3c 3e3c d5be 45e0 39bc
000003a0: a53a 55be 0428 c83d 5a15 fe3d 4760 cb3e
000003b0: 6db0 80bd f6e4 16bf 71e3 03bf ab01 df3d
000003c0: 7629 cebe 0ee8 953e af30 0fbf 9544 7f3c
000003d0: 6bab dc3d 6908 18bf ab54 cfbe e88d 1b3e
000003e0: 6190 1fbf 645d 3c3e cdad 3abe 599a 41bd
000003f0: 9dd2 90be 8e1d afbe 87f3 5fbd a6ac 323e

l2.weight f4 [200, 400]
0.036780205 0.015184149 0.04319323 -0.030201582 -0.030076973 0.012442084 0.035511617 -0.05529294
-0.002275272 -0.05389336 0.031105712 -0.040583476 -0.018872915 0.022572037 0.011024107 0.011589622
-0.022442022 0.043931153 0.001496403 -0.027836077 0.018321017 0.039689038 0.031048598 0.033486024
0.0059526446 0.045370977 0.015149008 -0.02194965 -0.0437012 -0.0044368403 -0.027675593 -0.04796964
-0.044070046 0.026121547 -0.046168543 -0.030639924 -0.02871042 0.036048263 -0.019845715 0.013967663
-0.022966923 -0.044189084 -0.03535307 -0.02784318 -0.044297867 -0.021595405 -0.0068300962 0.0028995655
0.031281654 -0.038565468 -0.02717975 -0.015348601 0.020034831 -0.043976888 0.025234586 -0.017532885
-0.03741895 -0.010789501 -0.050860826 -0.044677813 -0.034958642 -0.041998737 -0.025580922 0.042094782
0.0039979056 0.034959324 0.0021530676 -0.051574435 0.023950119 -0.04856243 -0.026048737 -0.041019317
-0.042403564 0.002224446 -0.0162408 -0.043925393 0.007209434 -0.014543066 -0.014617766 0.0029746697
0.035358593 -0.012198228 -0.025248189 -0.02945552 -0.0048124907 -0.0074132574 -0.045948744 -0.0490389
-0.04272306 0.038779505 -0.0152364755 -0.029847635 0.02282121 -0.049938917 0.04730437 0.013102907
0.011735095 -0.0056373104 0.020389419 0.047532346 -0.008087131 -0.034756273 0.029007716 -0.00019823594
-0.039323933 0.042190738 0.029658565 0.013491108 -0.02674803 -0.003362821 0.020825278 0.03138004
0.019059954 0.030975387 -0.017714374 0.024463253 -0.024513802 0.030689998 -0.021298017 -0.048131954
0.046797246 -0.026189892 -0.030554935 -0.030324528 -0.00899178 -0.022269327 -0.050300203 -0.008181045
0.023214482 0.028375262 -0.01387371 -0.008600993 0.036630582 0.033987984 -0.03989634 0.028538752
-0.04309376 0.021298349 0.014209192 -0.010243278 -0.008712918 -0.018471263 0.03600553 -0.0068453695
0.033161458 -0.049436852 0.0070563257 -0.05851562 -0.050961405 -0.016541999 0.010333856 -0.018251553
-0.020680135 0.020847548 -0.039053585 -0.046962906 -0.015843714 -0.041390218 0.007905007 0.019628517
-0.018663192 0.042537652 -0.010577895 -0.007331237 -0.04569841 -0.014251392 0.032864496 0.024686322
-0.024573643 0.0025519284 0.041430652 0.047237236 0.03563935 -0.036503393 0.015182501 0.008262572
-0.011075525 0.015751863 -0.00986193 0.040844187 -0.048727307 0.008992291 0.011935034 -0.00048199238
-0.004903884 0.029741023 -0.0025802925 0.04276956 -0.046149287 -0.013564788 0.018467665 0.035096735
-0.045106385 -0.05009748 -0.039878108 -0.02295425 -0.005550172 -0.0019712176 0.002050885 0.022470651
-0.030612553 -0.0074049938 0.0061423224 -0.037208483 0.0100020515 -0.048688687 0.02685712 -0.015640086
-0.031554583 -0.017663587 -0.02097883 0.040275123 0.032223433 -0.039469242 -0.019538756 -0.009483633
-0.03762452 0.014525611 0.026713619 0.019537523 -0.033091888 -0.01190632 0.04077381 0.039141726
0.021413727 -0.053439025 0.017346237 -0.019167244 0.018004585 -0.0055308854 0.022511985 0.016491815
-0.03696708 0.013009504 -0.052111488 0.007092669 -0.018326206 -0.0110770045 0.027243938 -0.0049525574
0.014295981 -0.011914931 -0.029786553 -0.03804024 -0.055178277 0.01788101 -0.023496035 -0.04915652
0.046349354 0.013170585 -0.0490591 -0.03255234 -0.041764334 -0.02542263 -0.005001454 -0.027850607
00000000: d7a6 163d f0c6 783c 62eb 303d 4f69 f7bc
00000010: fc63 f6bc e2d9 4b3c a174 113d da7a 62bd
00000020: bb1c 15bb 49bf 5cbd 68d1 fe3c dc3a 26bd
00000030: 5f9b 9abc fee8 b83c 759e 343c 66e2 3d3c
00000040: 55d8 b7bc 27f1 333d f422 c43a 7c08 e4bc
00000050: f515 963c f990 223d a159 fe3c a428 093d
00000060: 670e c33b ebd6 393d 8b33 783c c1cf b3bc
00000070: 0800 33bd ea62 91bb edb7 e2bc d07b 44bd
00000080: cb82 34bd dbfc d53c 3a1b 3dbd 9400 fbbc
00000090: 1d32 ebbc 58a7 133d 7b93 a2bc a0d8 643c
000000a0: 2125 bcbc 9dff 34bd 61ce 10bd 6117 e4bc
000000b0: ae71 35bd d9e8 b0bc 00cf dfbb a306 3e3b
000000c0: 3121 003d d3f6 1dbd 11a8 debc b378 7bbc
000000d0: 1620 a43c 1c21 34bd c3b8 ce3c 20a1 8fbc
000000e0: 9d44 19bd 72c6 30bc 7153 50bd 1500 37bd
000000f0: cb30 0fbd de06 2cbd 158f d1bc 946b 2c3d
00000100: dd00 833b 8231 0f3d 7b1a 0d3b b73f 53bd
00000110: 0a33 c43c 66e9 46bd 2964 d5bc df03 28bd
00000120: 5caf 2dbd 03c8 113b 6d0b 85bc 1deb 33bd
00000130: 1e3d ec3b 0a46 6ebc 5b7f 6fbc adf2 423b
00000140: 2cd4 103d 14db 47bc 4ad5 cebc b44c f1bc
00000150: 19b2 9dbb e9ea f2bb c034 3cbd 03dd 48bd
00000160: 60fe 2ebd 42d7 1e3d 69a2 79bc 0783 f4bc
00000170: 8cf3 ba3c c08c 4cbd 3ac2 413d 93ad 563c
00000180: 8e44 403c 30b9 b8bb b607 a73c 47b1 423d
00000190: e37f 04bc 985c 0ebd 97a1 ed3c 8edd 4fb9
000001a0: 2212 21bd 32d0 2c3d 85f6 f23c cf09 5d3c
000001b0: af1e dbbc c662 5cbb c699 aa3c 5b88 003d
000001c0: 9f23 9c3c 18c0 fd3c bc1d 91bc 2967 c83c
000001d0: 2bd1 c8bc 9769 fb3c 2e79 aebc 0326 45bd
000001e0: 78ae 3f3d 2f8c d6bc 584e fabc 256b f8bc
000001f0: 4252 13bc 2a6e b6bc 9607 4ebd ca09 06bc
00000200: 4c2c be3c 3d73 e83c 8f4e 63bc 2eeb 0cbc
00000210: f309 163d fc36 0b3d 586a 23bd 1aca e93c
00000220: 1583 30bd e079 ae3c accd 683c 6cd3 27bc
00000230: a0c0 0ebc 0c51 97bc 897a 133d 1f4f e0bb
00000240: 4fd4 073d 4c7e 4abd c038 e73b 13ae 6fbd
00000250: e8bc 50bd 1683 87bc 554f 293c 4884 95bc
00000260: 6369 a9bc 7ac8 aa3c a7f6 1fbd 2d5c 40bd
00000270: adca 81bc ca88 29bd 0184 013c fccb a03c
00000280: 8de3 98bc f63b 2e3d e84e 2dbc e03a f0bb
00000290: 422e 3bbd ac7e 69bc ec9c 063d f83a ca3c
000002a0: aa4e c9bc 413e 273b 30b3 293d d57b 413d
000002b0: 91fa 113d 9584 15bd 06c0 783c bd5f 073c
000002c0: 1e76 35bc 0d0a 813c ef93 21bc 3c4c 273d
000002d0: 4996 47bd 6754 133c 298b 433c ecb3 fcb9
000002e0: c3b0 a0bb 72a3 f33c 201a 29bb 222f 2f3d
000002f0: 0907 3dbd d83e 5ebc 8049 973c 98c1 0f3d
00000300: 79c1 38bd 0433 4dbd 3a57 23bd 8d0a bcbc
00000310: 38de b5bb 8b2f 01bb 2468 063b 5f14 b83c
00000320: 2dc7 fabc 97a5 f2bb 8945 c93b ec67 18bd
00000330: a5df 233c ca6d 47bd 7703 dc3c a31f 80bc
00000340: 613f 01bd 3ab3 90bc ccdb abbc 87f7 243d
00000350: b8fc 033d 80aa 21bd be0f a0bc 3d61 1bbc
00000360: 2b1c 1abd d4fc 6d3c 85d6 da3c 280d a03c
00000370: 5c8b 07bd ba12 43bc 7002 273d 1353 203d
00000380: d76b af3c e1e2 5abd b219 8e3c a004 9dbc
00000390: 5a7e 933c 6e3c b5bb 0e6b b83c d819 873c
000003a0: cb6a 17bd d125 553c db72 55bd 9f69 e83b
000003b0: d720 96bc 537c 35bc ae2e df3c 1049 a2bb
000003c0: b139 6a3c d836 43bc ee02 f4bc 15d0 1bbd
000003d0: 9e02 62bd 327b 923c c27a c0bc 5958 49bd
000003e0: d2d8 3d3d 70c9 573c 32f2 48bd 9a55 05bd
000003f0: 1411 2bbd 1f43 d0bc 3de3 a3bb f526 e4bc

l2.bias f4 [200]
-0.024129504 -0.17168239 0.18685591 -0.18937245 -0.009598347 -0.27179837 0.002793591 -0.040036295
-0.06460836 0.17042689 -0.121180356 -0.4987925 -0.046108387 -0.13506046 -0.19360627 0.012800878
-0.13908626 -0.04791191 0.02718172 -0.11857581 -0.2710265 0.1465741 0.14505523 0.11129095
0.074874364 -0.05477242 0.09555025 -0.023864562 -0.077553645 0.0025249145 0.049008403 -0.68410534
-0.06521339 -0.04850525 0.054520953 0.010191079 -0.44479093 -0.55664116 -0.06209098 0.18961886
0.024122506 0.04114455 0.099221565 0.1966269 -0.00031736665 0.086955726 -0.01454279 0.19226709
0.06445858 0.10795028 -0.13605765 0.022633033 0.059881255 -0.28257266 -0.052058775 0.14716637
0.10548651 0.16715617 -0.043601394 0.036854673 0.19042887 -0.009925947 -0.48792103 0.100535624
0.02229264 -0.055124 0.012952341 -0.07247789 -0.0023121932 0.10816629 0.18970238 0.06965126
-0.021965515 -0.058340717 0.14805606 -0.3730463 0.1679237 -0.065681905 0.07291215 0.106725365
0.02338195 -0.03710857 -0.02725187 0.057781078 0.24104063 -0.019904336 -0.23516928 -0.02197614
-0.033742778 -0.062036876 0.087590985 -0.15412234 -0.02689014 -0.05238698 -0.04689004 -0.01783066
-0.005483113 0.006156 0.21457103 0.023287525 -0.088528 0.17208208 0.08353756 0.0034263295
-0.054092802 0.06497001 -0.058905143 -0.32938105 -0.012855657 0.14536937 -0.040396374 -0.04328158
-0.031388253 0.08353849 0.052138094 -0.059785184 0.08652217 0.14516719 -0.07496831 0.046179984
0.15205438 -0.036931843 0.13564935 -0.020065244 0.06709027 -0.00012947946 0.021525962 0.021582624
-0.14805213 -0.11083457 0.0040626368 0.013776356 0.0024020255 0.04366926 -0.14534236 -0.008748798
-0.048396975 -0.01653754 -0.023868782 0.09003711 0.15609847 -0.1480722 -0.024811443 -0.2180988
-0.015664326 -0.10357366 0.14345992 -0.16019174 0.08411433 0.1031244 -0.11668327 0.036749113
0.020209044 -0.35219416 -0.035183072 -0.048522435 -0.043464188 0.15287328 0.21272929 0.008442037
-0.03299873 0.095600374 0.07424107 -0.00692228 -0.046484385 -0.01846375 0.062447716 -0.26616707
0.15629753 0.039953694 -0.040054243 0.11867583 -0.013532624 0.26454064 -0.16367096 0.07077164
0.0037973362 0.2168182 -0.037349768 0.018066036 -0.0653507 0.17875117 -0.0024284748 0.02554977
-0.07235519 -0.07398791 0.15254821 -0.28366372 0.0024726207 0.1752087 0.003366506 -0.021083305
0.16618358 -0.59789526 -0.024755443 -0.17498615 0.15459631 -0.13506302 0.026744027 0.20085707
00000000: 3dab c5bc 82cd 2fbe 2857 3f3e daea 41be
00000010: 6342 1dbc 2829 8bbe ae14 373b 19fd 23bd
00000020: 6351 84bd 6384 2e3e 682d f8bd bb61 ffbe
00000030: 26dc 3cbd 4a4d 0abe b940 46be c6ba 513c
00000040: a16c 0ebe 473f 44bd 33ac de3c e0d7 f2bd
00000050: fcc3 8abe 8517 163e 5c89 143e 82ec e33d
00000060: bb57 993d 0c59 60bd d9af c33d 9d7f c3bc
00000070: 72d4 9ebd 0979 253b 09bd 483d 8721 2fbf
00000080: 998e 85bd 71ad 46bd 5d51 5f3d 7cf8 263c
00000090: a3bb e3be 0980 0ebf 1d53 7ebd 722b 423e
000000a0: 909c c53c 3087 283d ad34 cb3d 9058 493e
000000b0: 3b64 a6b9 d815 b23d e244 6ebc aae1 443e
000000c0: dc02 843d 0915 dd3d b252 0bbe e968 b93c
000000d0: 0c46 753d 5dad 90be 953b 55bd c8b2 163e
000000e0: 5009 d83d fd2a 2b3e 6097 32bd edf4 163d
000000f0: c9ff 423e 70a0 22bc c9d0 f9be 9fe5 cd3d
00000100: 0e9f b63c b4c9 61bd 0e36 543c 4a6f 94bd
00000110: 2a88 17bb 4a86 dd3d 5741 423e 52a5 8e3d
00000120: 06f1 b3bc adf6 6ebd 029c 173e edff bebe
00000130: 31f4 2b3e 3c84 86bd f752 953d d492 da3d
00000140: 818b bf3c 28ff 17bd 503f dfbc daab 6c3d
00000150: 5bd3 763e 6b0e a3bc 37d0 70be 4e07 b4bc
00000160: de35 0abd 611a 7ebd e762 b33d 3fd2 1dbe
00000170: b648 dcbc bb93 56bd c50f 40bd 9b11 92bc
00000180: b0ab b3bb 45b8 c93b 82b8 5b3e 7bc5 be3c
00000190: 2b4e b5bd 4936 303e be15 ab3d 458c 603b
000001a0: 6a90 5dbd ff0e 853d 8546 71bd a2a4 a8be
000001b0: 89a0 52bc b5db 143e ab76 25bd 0748 31bd
000001c0: f890 00bd 3a16 ab3d c18e 553d 4fe1 74bd
000001d0: 8932 b13d b5a6 143e fc88 99bd 3927 3d3d
000001e0: 25b4 1b3e d845 17bd aae7 0a3e de5f a4bc
000001f0: a066 893d e1c4 07b9 3757 b03c 0bce b03c
00000200: fa9a 17be 3cfd e2bd de1f 853b 3ab6 613c
00000210: 4d6b 1d3b 8ade 323d a1d4 14be 1e57 0fbc
00000220: e83b 46bd bc79 87bc 7788 c3bc 6065 b83d
00000230: 47d8 1f3e 3da0 17be 5e41 cbbc 4b55 5fbe
00000240: 7952 80bc 6d1e d4bd 28e7 123e 4e09 24be
00000250: 2244 ac3d e332 d33d a3f7 eebd 3d86 163d
00000260: 708d a53c cb52 b4be 201c 10bd 76bf 46bd
00000270: 8107 32bd d08a 1c3e b5d5 593e 7850 0a3c
00000280: ad29 07bd 21ca c33d b40b 983d 4bd4 e2bb
00000290: 6966 3ebd 4a41 97bc 2dc9 7f3d 0d47 88be
000002a0: 760c 203e 7ca6 233d eb0f 24bd 500c f33d
000002b0: f0b7 5dbc df71 873e 5c99 27be b9f0 903d
000002c0: bbdc 783b 9705 5e3e 12fc 18bd 39ff 933c
000002d0: 96d6 85bd 8c0a 373e 0c27 1fbb c04d d13c
000002e0: f52e 94bd f986 97bd 9935 1c3e 5f3c 91be
000002f0: b10b 223b e969 333e 99a0 5c3b e5b6 acbc
00000300: 072c 2a3e aa0f 19bf edcb cabc 922f 33be
00000310: 7f4e 1e3e f64d 0abe 4a16 db3c 7aad 4d3e

l3.weight f4 [4, 200]
0.05538797 -0.7236999 0.48902044 -0.20923188 -0.18268773 0.8356151 0.13495983 0.060554422
0.12088048 0.31441692 -0.42995736 -0.47551063 -0.5090827 -0.6235917 -0.6812585 0.027494011
0.1605148 -0.011794741 -0.4143168 -0.52434784 -0.53117806 0.3406829 0.350559 0.44018614
-0.30936408 0.0032888863 0.5451478 -0.49777627 -0.28564835 -0.31076252 -0.34458086 -0.9615281
-0.040069524 -0.053902045 -0.28745565 -0.4049809 -1.0482941 -1.0562836 -0.12766916 0.34298357
-0.23471378 -0.07071654 0.26958847 0.31899995 0.05254617 -0.16580579 0.015812906 0.32099414
-0.49672598 -0.34750167 0.46914765 0.02490208 -0.28543493 -0.1107128 -0.1835431 0.44742143
0.7252766 0.3646897 -0.3861043 -0.5140867 0.3364603 0.009487646 -0.59346277 0.37513307
0.03288046 0.028285252 0.053800773 -0.1681367 -0.3068046 0.26380393 0.3535818 0.28102505
-0.16573718 0.057196867 0.2770428 -0.89073217 0.63765025 -0.29057038 0.01788439 0.19624968
-0.04679767 -0.13789895 0.006034154 -0.19125843 0.38858873 0.47466457 -0.38270804 -0.12499484
-0.017114975 -0.02033587 -0.110880956 0.1591966 -0.019787198 -0.12818371 -0.1935977 -1.036717
0.01406103 -0.044883028 0.33343583 -0.52375126 -0.10234526 0.37739667 -0.36033657 0.061984945
0.0027282657 -0.093941145 -0.17412753 -0.56528854 0.012182152 0.2743095 0.06878937 0.15052521
0.045974918 0.25249448 -0.1245629 -0.43193415 -0.20283873 0.2172976 -0.14565516 0.5767077
0.3417003 -0.39450553 0.34642026 -0.52480406 0.4005886 0.051104687 0.045741804 -0.3556571
-0.0442053 -0.103428066 0.016647711 -0.59988886 0.036681984 -0.3278869 -0.22359456 -0.25147837
0.042073444 -0.041234415 -0.62977225 -0.20184757 0.36842957 -0.59784174 0.06417205 -0.159079
-0.15573041 -0.14525649 1.1759208 -0.6477708 -0.40826568 -0.58312887 -0.097479366 0.064593144
0.27053654 -0.6522966 -0.008987532 -0.5214712 0.056712557 0.30694 0.26056305 -0.29510823
-0.14941128 0.5411306 0.23767018 0.05702824 0.018384282 -0.10010613 -0.6482389 -1.1332797
0.3375633 -0.28617445 -0.14300175 0.27740014 0.056809667 0.5893838 -0.5929505 0.35282916
0.024025504 0.32067403 0.015017674 0.05814262 0.25683635 0.2765488 -0.42754903 0.031366315
-0.19024661 0.29707834 0.2915276 -1.0544951 0.012824959 0.35849726 0.041029226 -0.23791471
0.29632875 -0.77556723 -0.017533066 -0.7094131 0.36321408 -0.19859909 -0.39371407 0.36417246
0.042038646 -0.90172017 0.44724232 0.06317225 -0.11002529 0.4892282 -0.34663793 0.058459736
-0.2728677 0.3391885 -0.45689282 -0.4157619 -0.5397474 -0.50465906 -0.7398963 -0.037560385
-0.05011646 -0.032310303 -0.46724007 -0.38922808 -0.6531787 0.38011283 0.2413733 0.47625265
-0.33519328 0.013926167 0.5626984 -0.46497348 -0.30809703 -0.31829786 -0.26690653 -0.91950494
0.0020805947 0.004944621 -0.3464867 -0.29096442 -0.98658305 -1.627196 -0.23759893 0.34692815
-0.33159658 6.833987e-06 0.17689468 0.37295696 0.0519993 -0.15765718 0.037752476 0.3523949
-0.5147205 -0.33079517 0.5671808 -0.0271293 -0.29424426 0.03750605 -0.32453066 0.3836183
00000000: 7fde 623d 6644 39bf e360 fa3e e240 56be
00000010: 7e12 3bbe dfea 553f e932 0a3e ea07 783d
00000020: 2f90 f73d 41fb a03e 5f23 dcbe 2176 f3be
00000030: 3e53 02bf b5a3 1fbf f566 2ebf 1f3b e13c
00000040: fe5d 243e bb3e 41bc 5521 d4be a93b 06bf
00000050: 49fb 07bf fd6d ae3e 787c b33e 1460 e13e
00000060: f864 9ebe 5b8a 573b ce8e 0b3f 88dc febe
00000070: 8040 92be 441c 9fbe e76c b0be b526 76bf
00000080: f11f 24bd 64c8 5cbd 632d 93be a859 cfbe
00000090: 802e 86bf 4d34 87bf b4bb 02be 8b9b af3e
000000a0: cf58 70be d5d3 90bd 8007 8a3e f653 a33e
000000b0: a73a 573d fec8 29be 118a 813c 5859 a43e
000000c0: de52 febe bdeb b1be 1f34 f03e 72ff cb3c
000000d0: 8724 92be 64bd e2bd b9f2 3bbe 6c14 e53e
000000e0: baab 393f 9cb8 ba3e 76af c5be 309b 03bf
000000f0: 8644 ac3e 1272 1b3c 2ded 17bf 7111 c03e
00000100: a9ad 063d 79b6 e73c 335e 5c3d 072c 2cbe
00000110: 7e15 9dbe 4f11 873e ac08 b53e 84e2 8f3e
00000120: 02b7 29be 4347 6a3d 8ed8 8d3e 0607 64bf
00000130: 0c3d 233f a4c5 94be 4982 923c adf5 483e
00000140: eaae 3fbd 6235 0dbe 27ba c53b 40d9 43be
00000150: 1af5 c63e 3c07 f33e 4ff2 c3be 4bfd ffbd
00000160: b434 8cbc 6997 a6bc 8e15 e3bd 6f04 233e
00000170: c318 a2bc 9742 03be 7a3e 46be 25b3 84bf
00000180: 3c60 663c 44d7 37bd 1ab8 aa3e 9014 06bf
00000190: 649a d1bd 233a c13e 097e b8be ede3 7d3d
000001a0: b4cc 323b 3764 c0bd 7d4e 32be c0b6 10bf
000001b0: a697 473c 4b72 8c3e 71e1 8c3d 4823 1a3e
000001c0: 3250 3c3d f546 813e d51a ffbd 7926 ddbe
000001d0: f5b4 4fbe 4383 5e3e a026 15be 1ea3 133f
000001e0: 57f3 ae3e a1fc c9be ff5d b13e 8f59 06bf
000001f0: f319 cd3e 2653 513d c25b 3b3d b018 b6be
00000200: 9e10 35bd 18d2 d3bd c860 883c 5192 19bf
00000210: d93f 163d cbe0 a7be f9f5 64be c6c1 80be
00000220: 3455 2c3d 6be5 28bd c138 21bf 21b1 4ebe
00000230: cda2 bc3e 280c 19bf a36c 833d 9be5 22be
00000240: cb77 1fbe 1ebe 14be 9384 963f 4fd4 25bf
00000250: 3308 d1be ef47 15bf 43a3 c7bd 6949 843d
00000260: c483 8a3e e9fc 26bf 7140 13bc 237f 05bf
00000270: 6d4b 683d 3d27 9d3e 8568 853e 6d18 97be
00000280: 45ff 18be 8987 0a3f d05f 733e 7296 693d
00000290: a29a 963c 7104 cdbd fcf2 25bf 4f0f 91bf
000002a0: 19d5 ac3e 7585 92be 0d6f 12be 6407 8e3e
000002b0: 41b1 683d dbe1 163f 9bcb 17bf 06a6 b43e
000002c0: 22d1 c43c 632f a43e b10c 763c f526 6e3d
000002d0: 0e80 833e ce97 8d3e b5e7 dabe f779 003d
000002e0: 02d0 42be a71a 983e 1b43 953e b2f9 86bf
000002f0: c71f 523c f48c b73e 430e 283d ea9f 73be
00000300: 67b8 973e 938b 46bf 81a1 8fbc 199c 35bf
00000310: 32f7 b93e 8f5d 4bbe e494 c9be d074 ba3e
00000320: b730 2c3d 22d7 66bf f2fc e43e 7460 813d
00000330: f054 e1bd 1e7c fa3e 877a b1be 7a73 6f3d
00000340: 51b5 8bbe 1daa ad3e dbed e9be bede d4be
00000350: e32c 0abf 5631 01bf d869 3dbf ebd8 19bd
00000360: eb46 4dbd cf57 04bd 173a efbe e748 c7be
00000370: b836 27bf 269e c23e 902a 773e 63d7 f33e
00000380: 749e abbe 942a 643c 010d 103f 0111 eebe
00000390: e5be 9dbe f0f7 a2be f9a7 88be ad64 6bbf
000003a0: 965a 083b 7d06 a23b b466 b1be 4af9 94be
000003b0: b590 7cbf f547 d0bf 224d 73be 91a0 b13e
000003c0: 07c7 a9be 804f e536 e123 353e 37f4 be3e
000003d0: 38fd 543d e270 21be 57a2 1a3d 1b6d b43e
000003e0: b9c4 03bf fc5d a9be c332 113f 443e debc
000003f0: 2fa7 96be f29f 193d e228 a6be 9e69 c43e

l3.bias f4 [4]
0.095305495 0.24705108 0.1734478 0.17501959
00000000: 872f c33d f5fa 7c3e 4d9c 313e 5638 333e
