fin/DQN/agent-300-10-313/target_model.pt (torch, 340543 bytes, 6 tensors)

l1.weight f4 [400, 8]
0.5319669 0.1389232 -0.42594326 0.2682852 -0.31605598 0.040685657 0.17380263 -0.3464116
0.9473495 -0.1629709 0.77754265 0.035464846 -0.25086933 -0.014096631 0.030131334 -0.28998178
0.57843447 -0.13402487 0.30340064 -0.43151823 -0.54460514 -0.842093 -0.71729594 0.49266544
0.021674266 0.0028809432 0.09207558 2.3433895 -0.029074572 -0.0134948 -0.17757648 -0.29709625
0.38458604 -0.029608384 -0.07047584 0.90849 -0.16468829 -0.0037064867 -0.008716746 0.2789388
0.6948609 -0.27896482 0.6703283 -0.10209765 -0.9041142 -0.09748768 0.15683305 0.28092796
-1.3123475 -0.16741572 -0.40254977 0.3239968 -0.20026144 0.22311327 -0.24580763 0.050289806
0.30006778 -0.60233206 -0.39792946 -0.75856435 -0.25040326 -0.0006221735 -0.36917803 -0.023285668
0.0188092 0.20884837 0.16776223 -0.0042178794 0.9077076 0.1179905 -0.5141727 -0.6359861
-0.13687985 0.12813585 0.079800464 0.2003501 0.3394207 0.5285418 0.22186233 0.11898137
-0.41317782 0.10590053 -0.45613676 0.04683258 -0.12753563 -1.0513762 0.3647775 0.20791686
0.20308216 -0.12189574 -0.2596009 -0.16061573 -0.36807162 0.39432716 -0.0518996 -0.4831052
-0.5720373 -0.39059332 -0.09766506 -0.19039397 0.14017564 -0.0004500099 0.21822077 -0.15547511
-0.42466375 0.13517025 0.069798775 0.201258 -0.23798662 0.20860559 -0.35711074 -0.12136047
0.12014327 -0.40318778 -0.2996392 -0.7971251 -0.73240197 0.25970295 -0.63547647 -0.78100103
-0.62613195 -0.004414377 -0.16803247 0.14767826 -0.57985234 0.47891402 -0.9263973 -0.67339283
0.02420516 0.50809383 -0.20506266 -0.16929084 0.17693862 -0.35183308 -0.8964307 -0.6316434
0.011891435 -0.01611431 0.6608478 -0.68318766 -0.022216957 -0.0341442 -1.0882291 -0.7572815
0.9029415 -0.27454686 0.069731496 -0.11541022 0.14783482 -0.48266348 -0.45922267 0.5422836
-0.4421942 -0.12571467 -0.034708105 0.28876078 0.55875236 -0.07866672 -0.82108355 0.22387055
-0.7913547 -0.00032380398 -0.3647655 0.014117465 0.5522007 -0.17595619 0.5114056 0.3547423
0.23710231 0.46210137 -0.1251564 -0.5533238 -0.072877035 0.43894687 -1.1529661 -0.7227305
0.80159396 0.008379325 -0.30116314 -0.08588738 -0.04237244 0.14092062 -0.18277226 -0.33657435
0.10583503 0.15561493 0.37124407 0.31596076 1.0290335 1.1177999 -0.4065837 -0.9054727
-0.7178456 0.17376697 -0.6719936 0.5152564 0.49119675 0.2524917 0.40788552 0.6476953
0.7376052 0.02652583 -0.0099338 -0.14418237 -0.17258088 0.5572404 0.26553136 -0.1790162
-0.3406378 -0.030854572 0.31581584 0.07054625 0.06245106 -0.09929302 -0.28355446 -0.31269684
-0.11896828 -0.16002274 -0.3163546 0.5659996 0.9346476 -0.0126447985 -0.05335149 -1.2169529
-0.34402388 -0.12766151 0.92568123 -0.544923 -0.19036275 0.35144314 0.4048235 0.09977617
0.5806323 -0.4956467 0.34223515 -0.6374424 -0.40701824 -0.7019596 0.72006875 -0.12667368
0.15047261 0.025644552 0.31267715 0.26011154 0.4289728 -0.42171916 0.10541686 -0.34778866
0.0073287315 -0.1546943 -0.2692533 -0.0038130286 0.10974045 -0.22252168 -0.6424917 0.30205977
00000000: fc2e 083f e241 0e3e 3c15 dabe ae5c 893e
00000010: 17d2 a1be 01a6 263d 51f9 313e dc5c b1be
00000020: 7f85 723f d8e1 26be 090d 473f 9643 113d
00000030: f271 80be 8ef5 66bc fdd5 f63c 7e78 94be
00000040: 4814 143f d13d 09be 5457 9b3e f5ef dcbe
00000050: 3e6b 0bbf 6893 57bf b5a0 37bf a53e fc3e
00000060: 3b8e b13c 35ce 3c3b 1f92 bc3d 18fa 1540
00000070: cc2d eebc 4b19 5dbc 9cd6 35be 001d 98be
00000080: 76e8 c43e 488d f2bc a355 90bd cd92 683f
00000090: 0ca4 28be 87e8 72bb afd0 0ebc 11d1 8e3e
000000a0: 67e2 313f 7ad4 8ebe a39a 2b3f 9318 d1bd
000000b0: 0774 67bf 9fa7 c7bd d898 203e cad5 8f3e
000000c0: 01fb a7bf 076f 2bbe 011b cebe e9e2 a53e
000000d0: 5611 4dbe ce77 643e ffb4 7bbe affc 4d3d
000000e0: 7ca2 993e 6f32 1abf 69bd cbbe 4631 42bf
000000f0: db34 80be 5b19 23ba e704 bdbe 96c1 bebc
00000100: c015 9a3c 59dc 553e ddc9 2b3e 2336 8abb
00000110: 865f 683f 01a5 f13d d2a0 03bf fccf 22bf
00000120: 3b2a 0cbe 0b36 033e 6d6e a33d 9428 4d3e
00000130: 8dc8 ad3e 844e 073f e12f 633e 81ac f33d
00000140: 0b8c d3be 61e2 d83d c28a e9be 85d3 3f3d
00000150: b398 02be 7f93 86bf 1ec4 ba3e 28e8 543e
00000160: c5f4 4f3e 79a4 f9bd 69ea 84be 7378 24be
00000170: e273 bcbe 40e5 c93e ad94 54bd 9159 f7be
00000180: 0971 12bf d9fb c7be 9e04 c8bd a3f6 42be
00000190: 348a 0f3e 4eef ebb9 4475 5f3e de34 1fbe
000001a0: 876d d9be 126a 0a3e a9f2 8e3d 9416 4e3e
000001b0: c4b2 73be b49c 553e 38d7 b6be d78b f8bd
000001c0: ad0d f63d a16e cebe 4f6a 99be 6410 4cbf
000001d0: b27e 3bbf c9f7 843e 96ae 22bf afef 47bf
000001e0: 2f4a 20bf 7aa6 90bb b410 2cbe f838 173e
000001f0: 3471 14bf 3834 f53e 6028 6dbf 7963 2cbf
00000200: e649 c63c 7012 023f f2fb 51be 945a 2dbe
00000210: 662f 353e 7723 b4be 7b7c 65bf 62b3 21bf
00000220: 4bd4 423c 2802 84bc 522d 293f 63e5 2ebf
00000230: 5600 b6bc cada 0bbd 174b 8bbf 33dd 41bf
00000240: 2d27 673f 6891 8cbe 63cf 8e3d 325c ecbd
00000250: 0362 173e ab1f f7be 3c1f ebbe 19d3 0a3f
00000260: 4767 e2be 59bb 00be 162a 0ebd 74d8 933e
00000270: 650a 0f3f 041c a1bd 8832 52bf 523e 653e
00000280: 3996 4abf 3cc4 a9b9 8bc2 babe f14c 673c
00000290: 065d 0d3f dc2d 34be 7aeb 023f c8a0 b53e
000002a0: f3ca 723e 8d98 ec3e 0029 00be a1a6 0dbf
000002b0: 8e40 95bd a5bd e03e 6594 93bf de04 39bf
000002c0: 4335 4d3f 7049 093c 0e32 9abe b9e5 afbd
000002d0: b98e 2dbd 7f4d 103e a728 3bbe 7953 acbe
000002e0: 09c0 d83d 8559 1f3e b413 be3e 9cc5 a13e
000002f0: 5fb7 833f 1114 8f3f bd2b d0be 0fcd 67bf
00000300: bbc4 37bf f8ef 313e c607 2cbf d8e7 033f
00000310: 247e fb3e 9846 813e 5fd6 d03e 5ccf 253f
00000320: b2d3 3c3f b34c d93c 61c1 22bc 8ba4 13be
00000330: 0bb9 30be 4fa7 0e3f baf3 873e 0650 37be
00000340: 1468 aebe bac2 fcbc 9db2 a13e 8d7a 903d
00000350: afcc 7f3d 245a cbbd 0d2e 91be cd19 a0be
00000360: a4a5 f3bd 00dd 23be 3bf9 a1be 5ae5 103f
00000370: 1145 6f3f 212c 4fbc 1887 5abd 1dc5 9bbf
00000380: e623 b0be b3b9 02be 72f9 6c3f 1380 0bbf
00000390: 74ee 42be 5bf0 b33e 0745 cf3e 7357 cc3d
000003a0: 52a4 143f 67c5 fdbe 7239 af3e 6d2f 23bf
000003b0: b264 d0be a0b3 33bf 6d56 383f bfb6 01be
000003c0: 7e15 1a3e 8614 d23c 3817 a03e 572d 853e
000003d0: 53a2 db3e 93eb d7be cbe4 d73d 5b11 b2be
000003e0: db25 f03b 2f68 1ebe 92db 89be 01e4 79bb
000003f0: 9abf e03d b9dc 63be 567a 24bf 94a7 9a3e

l1.bias f4 [400]
-0.6843419 -0.622529 -0.47481522 0.007871985 0.15142933 -0.031035917 -0.17978117 -0.06653232
-0.34632024 0.34866917 -0.43068224 -0.06913178 0.4142861 -0.11500513 0.03219945 0.3151257
-0.06409755 -0.00014323453 -0.4266853 0.029367812 0.07562846 -0.35633677 0.11810292 -0.023624366
0.1013817 -0.07328605 0.08850829 0.091761105 -0.39376906 -0.40695918 -0.070850134 -0.17140235
-0.65828437 0.30537528 -0.11423743 -0.2728598 -0.46312714 -0.32295144 0.121780746 0.09513268
-0.53320605 -0.3332242 -0.44420797 0.21304616 0.0772887 0.15807213 0.3656154 0.07958717
0.092320696 -0.2882728 0.08258208 0.49608895 0.04188557 0.3571836 0.11755007 0.003527208
-0.28360844 -0.028335879 0.083756216 0.00792813 0.3848426 0.15281832 -0.2083199 0.19729048
0.18461418 0.22225347 0.16505244 -0.3032689 0.16193086 -0.4457304 0.026422627 -0.12956756
-0.033425227 -0.13915636 -0.38801625 -0.3789939 0.15681218 -0.0014536916 -0.055139482 0.2969488
-0.46875075 0.1150896 0.048173238 -0.18525968 -0.60890675 0.20985034 0.07337045 0.049810477
-0.08422559 -0.08547865 -0.41119587 -0.2962327 0.21113643 -0.5312258 0.41327885 0.07529421
0.07085676 -0.27116284 0.24320903 -0.19642913 -0.6653537 -0.27186087 -0.109848246 0.13809921
0.097182214 0.23569371 0.0062976335 -0.087439716 0.021698436 0.25262618 0.30473188 -0.39027408
0.25326183 -0.4465452 -0.32136902 0.0765466 0.2592191 -0.16201527 0.0066215186 -0.008210629
-0.005887875 -0.3445296 -0.3023663 -0.1377197 0.2848178 -0.09027406 0.16068007 -0.25142598
-0.012535069 -0.46566427 -0.35132238 -0.53632104 0.28066334 0.23725748 0.10900185 0.12607789
-0.36703876 0.2510207 -0.35771167 0.085400164 0.3512322 -0.019164631 -0.11285229 -0.180712
-0.09304344 -0.43114734 0.17702204 -0.024157442 0.3664699 0.03219553 -0.639585 0.11560618
-0.14662562 0.18371874 0.50698256 -0.054748148 -0.10867721 0.388087 0.17163529 0.40919867
-0.05821888 0.08201377 0.27633443 -0.39476615 0.01030672 -0.5606042 -0.5379626 0.0032511635
-0.12253676 0.3038332 0.054092914 -0.0030272463 0.23252068 -0.14975995 -0.38824338 -0.42234024
-0.13972895 -0.443917 -0.6440887 0.029529769 -0.15841591 -0.2112148 -0.48672795 -0.06064312
0.091437355 -0.41521785 0.2017763 -0.4389238 -0.07284316 -0.15589544 -0.37238276 -0.1053735
0.17273803 -0.29975793 -0.32883155 -0.32637137 0.004264054 0.27593672 0.049308818 0.14009365
-0.057354912 -0.38273755 -0.20792678 0.14079021 -0.003807683 -0.36338758 0.21718045 0.026581865
-0.09295288 0.1763848 -0.16239828 0.15877287 -0.0017753022 -0.20152786 0.012743754 0.0897654
-0.23721832 -0.1865684 -0.2067107 -0.059533786 0.0066776364 0.19816531 0.19806603 -0.4660467
-0.054403577 -0.33785003 -0.45252848 -0.073371604 0.0041036303 0.02548998 -0.41640303 -0.011575531
-0.20749143 0.09744886 0.1260023 0.3973049 -0.06285805 -0.5890715 -0.51368356 0.10955101
-0.40337953 0.29337814 -0.55947095 0.017618166 0.10771492 -0.5938783 -0.40427607 0.15116419
-0.6235508 0.18405661 -0.18401188 -0.046932127 -0.2835699 -0.34216362 -0.054732826 0.17452817
00000000: 0831 2fbf 0f5e 1fbf fb1a f3be 80f9 003c
00000010: 4a10 1b3e 093f febc 8e18 38be 1942 88bd
00000020: e350 b1be c484 b23e 6282 dcbe f694 8dbd
00000030: 4f1d d43e cf87 ebbd 92e3 033d 2858 a13e
00000040: 9445 83bd 3a31 16b9 7f76 dabe c494 f03c
00000050: 18e3 9a3d c671 b6be f2df f13d e387 c1bc
00000060: 35a1 cf3d ff16 96bd d643 b53d 3fed bb3d
00000070: 199c c9be f45c d0be e019 91bd 1984 2fbe
00000080: 5385 28bf 265a 9c3e 50f5 e9bd 48b4 8bbe
00000090: 001f edbe e459 a5be 2f68 f93d ecd4 c23d
000000a0: 3180 08bf 5d9c aabe 3a6f e3be c628 5a3e
000000b0: 8a49 9e3d a9dd 213e f131 bb3e 99fe a23d
000000c0: a212 bd3d 7e98 93be cb20 a93d 5fff fd3e
000000d0: 3490 2b3d c5e0 b63e 17be f03d bb28 673b
000000e0: 2035 91be a520 e8bc 6188 ab3d fde4 013c
000000f0: 170a c53e 687c 1c3e d051 55be 8406 4a3e
00000100: 800b 3d3e 6a96 633e 8203 293e 1046 9bbe
00000110: 34d1 253e c636 e4be 4474 d83c 5cad 04be
00000120: e4e8 08bd 017f 0ebe 11aa c6be 7d0b c2be
00000130: 5f93 203e cc89 beba f0d9 61bd ac09 983e
00000140: 1900 f0be 19b4 eb3d 4d51 453d b7b4 3dbe
00000150: 50e1 1bbf 02e3 563e 3f43 963d 1206 4c3d
00000160: 777e acbd 6e0f afbd 4488 d2be d0ab 97be
00000170: 2634 583e 6afe 07bf 4999 d33e da33 9a3d
00000180: 591d 913d dbd5 8abe ca0b 793e b824 49be
00000190: 9f54 2abf 5931 8bbe 1ef8 e0bd e169 0d3e
000001a0: 7807 c73d b159 713e 615c ce3b 9813 b3bd
000001b0: ebc0 b13c 3858 813e d105 9c3e 01d2 c7be
000001c0: 89ab 813e 93a1 e4be 7b8a a4be 77c4 9c3d
000001d0: 5eb8 843e 55e7 25be 53f9 d83b e085 06bc
000001e0: 13ef c0bb 2f66 b0be c1cf 9abe 6506 0dbe
000001f0: a4d3 913e 9be1 b8bd 5189 243e e8ba 80be
00000200: e45f 4dbc 8c6b eebe 87e0 b3be 564c 09bf
00000210: 1bb3 8f3e a0f3 723e 5d3c df3d 901a 013e
00000220: 81ec bbbe c985 803e fc25 b7be 48e6 ae3d
00000230: b5d4 b33e 25ff 9cbc 1a1f e7bd 910c 39be
00000240: 8f8d bebd 58bf dcbe 4445 353e d4e5 c5bc
00000250: f1a1 bb3e 76df 033d d8bb 23bf efc2 ec3d
00000260: 0725 16be c420 3c3e 9cc9 013f 983f 60bd
00000270: 2892 debd 57b3 c63e 29c1 2f3e 7d82 d13e
00000280: ec76 6ebd d6f6 a73d b57b 8d3e ca1e cabe
00000290: 84dd 283c c283 0fbf ebb7 09bf 7911 553b
000002a0: 8ef4 fabd 0690 9b3e 8890 5d3d c464 46bb
000002b0: e719 6e3e ac5a 19be d6c7 c6be fb3c d8be
000002c0: 1b15 0fbe 1749 e3be ffe2 24bf 6ae8 f13c
000002d0: c837 22be b148 58be 6834 f9be ec64 78bd
000002e0: 8243 bb3d 6f97 d4be 729e 4e3e 9fba e0be
000002f0: cb2e 95bd 0ea3 1fbe f4a8 bebe 10ce d7bd
00000300: 3de2 303e df79 99be 9c5c a8be 261a a7be
00000310: 7ab9 8b3b 9447 8d3e 0bf8 493d b674 0f3e
00000320: fcec 6abd 2df6 c3be c2ea 54be 4f2b 103e
00000330: 528a 79bb f00d babe 8d64 5e3e 36c2 d93c
00000340: 145e bebd 389e 343e bc4b 26be 5b95 223e
00000350: 42b1 e8ba 525d 4ebe 2ecb 503c ecd6 b73d
00000360: 5ce9 72be c90b 3fbe f8ab 53be b3d9 73bd
00000370: 13d0 da3b d9eb 4a3e d2d1 4a3e ac9d eebe
00000380: 49d6 5ebd aefa acbe d0b1 e7be da43 96bd
00000390: bf77 863b 5dd0 d03c c732 d5be 4ca7 3dbc
000003a0: a278 54be 4593 c73d bf06 013e 8c6b cb3e
000003b0: b9bb 80bd 64cd 16bf c480 03bf 485c e03d
000003c0: c387 cebe a935 963e 7d39 0fbf f953 903c
000003d0: a499 dc3d 6908 18bf 46fd cebe c9ca 1a3e
000003e0: 06a1 1fbf 5679 3c3e 9c6d 3cbe e73b 40bd
000003f0: 1330 91be 1230 afbe 872f 60bd 83b7 323e

l2.weight f4 [200, 400]
0.036780205 0.015184149 0.04319323 -0.030201582 -0.030076973 0.012442084 0.035511617 -0.05529294
-0.002275272 -0.05389336 0.031105712 -0.040583476 -0.018872915 0.022572037 0.011024107 0.011589622
-0.022442022 0.043931153 0.001496403 -0.027836077 0.018321017 0.039689038 0.031048598 0.033486024
0.0059526446 0.045370977 0.015149008 -0.02194965 -0.0437012 -0.0044368403 -0.027675593 -0.04796964
-0.044070046 0.026121547 -0.046168543 -0.030639924 -0.02871042 0.036048263 -0.019845715 0.013967663
-0.022966923 -0.044189084 -0.03535307 -0.02784318 -0.044297867 -0.021595405 -0.0068300962 0.0028995655
0.031281654 -0.038565468 -0.02717975 -0.015348601 0.020034831 -0.043976888 0.025234586 -0.017532885
-0.03741895 -0.010789501 -0.050860826 -0.044677813 -0.034958642 -0.041998737 -0.025580922 0.042094782
0.0039979056 0.034959324 0.0021530676 -0.051574435 0.023950119 -0.04856243 -0.026048737 -0.041019317
-0.042403564 0.002224446 -0.0162408 -0.043925393 0.007209434 -0.014543066 -0.014617766 0.0029746697
0.035358593 -0.012198228 -0.025248189 -0.02945552 -0.0048124907 -0.0074132574 -0.045948744 -0.0490389
-0.04272306 0.038779505 -0.0152364755 -0.029847635 0.02282121 -0.049938917 0.04730437 0.013102907
0.011735095 -0.0056373104 0.020389419 0.047532346 -0.008087131 -0.034756273 0.029007716 -0.00019823594
-0.039323933 0.042190738 0.029658565 0.013491108 -0.02674803 -0.003362821 0.020825278 0.03138004
0.019059954 0.030975387 -0.017714374 0.024463253 -0.024513802 0.030689998 -0.021298017 -0.048131954
0.046797246 -0.026189892 -0.030554935 -0.030324528 -0.00899178 -0.022269327 -0.050300203 -0.008181045
0.023214482 0.028375262 -0.01387371 -0.008600993 0.036630582 0.033987984 -0.03989634 0.028538752
-0.04309376 0.021298349 0.014209192 -0.010243278 -0.008712918 -0.018471263 0.03600553 -0.0068453695
0.033161458 -0.049436852 0.0070563257 -0.05851562 -0.050961405 -0.016541999 0.010333856 -0.018251553
-0.020680135 0.020847548 -0.039053585 -0.046962906 -0.015843714 -0.041390218 0.007905007 0.019628517
-0.018663192 0.042537652 -0.010577895 -0.007331237 -0.04569841 -0.014251392 0.032864496 0.024686322
-0.024573643 0.0025519284 0.041430652 0.047237236 0.03563935 -0.036503393 0.015182501 0.008262572
-0.011075525 0.015751863 -0.00986193 0.040844187 -0.048727307 0.008992291 0.011935034 -0.00048199238
-0.004903884 0.029741023 -0.0025802925 0.04276956 -0.046149287 -0.013564788 0.018467665 0.035096735
-0.045106385 -0.05009748 -0.039878108 -0.02295425 -0.005550172 -0.0019712176 0.002050885 0.022470651
-0.030612553 -0.0074049938 0.0061423224 -0.037208483 0.0100020515 -0.048688687 0.02685712 -0.015640086
-0.031554583 -0.017663587 -0.02097883 0.040275123 0.032223433 -0.039469242 -0.019538756 -0.009483633
-0.03762452 0.014525611 0.026713619 0.019537523 -0.033091888 -0.01190632 0.04077381 0.039141726
0.021413727 -0.053439025 0.017346237 -0.019167244 0.018004585 -0.0055308854 0.022511985 0.016491815
-0.03696708 0.013009504 -0.052111488 0.007092669 -0.018326206 -0.0110770045 0.027243938 -0.0049525574
0.014295981 -0.011914931 -0.029786553 -0.03804024 -0.055178277 0.01788101 -0.023496035 -0.04915652
0.046349354 0.013170585 -0.0490591 -0.03255234 -0.041764334 -0.02542263 -0.005001454 -0.027850607
00000000: d7a6 163d f0c6 783c 62eb 303d 4f69 f7bc
00000010: fc63 f6bc e2d9 4b3c a174 113d da7a 62bd
00000020: bb1c 15bb 49bf 5cbd 68d1 fe3c dc3a 26bd
00000030: 5f9b 9abc fee8 b83c 759e 343c 66e2 3d3c
00000040: 55d8 b7bc 27f1 333d f422 c43a 7c08 e4bc
00000050: f515 963c f990 223d a159 fe3c a428 093d
00000060: 670e c33b ebd6 393d 8b33 783c c1cf b3bc
00000070: 0800 33bd ea62 91bb edb7 e2bc d07b 44bd
00000080: cb82 34bd dbfc d53c 3a1b 3dbd 9400 fbbc
00000090: 1d32 ebbc 58a7 133d 7b93 a2bc a0d8 643c
000000a0: 2125 bcbc 9dff 34bd 61ce 10bd 6117 e4bc
000000b0: ae71 35bd d9e8 b0bc 00cf dfbb a306 3e3b
000000c0: 3121 003d d3f6 1dbd 11a8 debc b378 7bbc
000000d0: 1620 a43c 1c21 34bd c3b8 ce3c 20a1 8fbc
000000e0: 9d44 19bd 72c6 30bc 7153 50bd 1500 37bd
000000f0: cb30 0fbd de06 2cbd 158f d1bc 946b 2c3d
00000100: dd00 833b 8231 0f3d 7b1a 0d3b b73f 53bd
00000110: 0a33 c43c 66e9 46bd 2964 d5bc df03 28bd
00000120: 5caf 2dbd 03c8 113b 6d0b 85bc 1deb 33bd
00000130: 1e3d ec3b 0a46 6ebc 5b7f 6fbc adf2 423b
00000140: 2cd4 103d 14db 47bc 4ad5 cebc b44c f1bc
00000150: 19b2 9dbb e9ea f2bb c034 3cbd 03dd 48bd
00000160: 60fe 2ebd 42d7 1e3d 69a2 79bc 0783 f4bc
00000170: 8cf3 ba3c c08c 4cbd 3ac2 413d 93ad 563c
00000180: 8e44 403c 30b9 b8bb b607 a73c 47b1 423d
00000190: e37f 04bc 985c 0ebd 97a1 ed3c 8edd 4fb9
000001a0: 2212 21bd 32d0 2c3d 85f6 f23c cf09 5d3c
000001b0: af1e dbbc c662 5cbb c699 aa3c 5b88 003d
000001c0: 9f23 9c3c 18c0 fd3c bc1d 91bc 2967 c83c
000001d0: 2bd1 c8bc 9769 fb3c 2e79 aebc 0326 45bd
000001e0: 78ae 3f3d 2f8c d6bc 584e fabc 256b f8bc
000001f0: 4252 13bc 2a6e b6bc 9607 4ebd ca09 06bc
00000200: 4c2c be3c 3d73 e83c 8f4e 63bc 2eeb 0cbc
00000210: f309 163d fc36 0b3d 586a 23bd 1aca e93c
00000220: 1583 30bd e079 ae3c accd 683c 6cd3 27bc
00000230: a0c0 0ebc 0c51 97bc 897a 133d 1f4f e0bb
00000240: 4fd4 073d 4c7e 4abd c038 e73b 13ae 6fbd
00000250: e8bc 50bd 1683 87bc 554f 293c 4884 95bc
00000260: 6369 a9bc 7ac8 aa3c a7f6 1fbd 2d5c 40bd
00000270: adca 81bc ca88 29bd 0184 013c fccb a03c
00000280: 8de3 98bc f63b 2e3d e84e 2dbc e03a f0bb
00000290: 422e 3bbd ac7e 69bc ec9c 063d f83a ca3c
000002a0: aa4e c9bc 413e 273b 30b3 293d d57b 413d
000002b0: 91fa 113d 9584 15bd 06c0 783c bd5f 073c
000002c0: 1e76 35bc 0d0a 813c ef93 21bc 3c4c 273d
000002d0: 4996 47bd 6754 133c 298b 433c ecb3 fcb9
000002e0: c3b0 a0bb 72a3 f33c 201a 29bb 222f 2f3d
000002f0: 0907 3dbd d83e 5ebc 8049 973c 98c1 0f3d
00000300: 79c1 38bd 0433 4dbd 3a57 23bd 8d0a bcbc
00000310: 38de b5bb 8b2f 01bb 2468 063b 5f14 b83c
00000320: 2dc7 fabc 97a5 f2bb 8945 c93b ec67 18bd
00000330: a5df 233c ca6d 47bd 7703 dc3c a31f 80bc
00000340: 613f 01bd 3ab3 90bc ccdb abbc 87f7 243d
00000350: b8fc 033d 80aa 21bd be0f a0bc 3d61 1bbc
00000360: 2b1c 1abd d4fc 6d3c 85d6 da3c 280d a03c
00000370: 5c8b 07bd ba12 43bc 7002 273d 1353 203d
00000380: d76b af3c e1e2 5abd b219 8e3c a004 9dbc
00000390: 5a7e 933c 6e3c b5bb 0e6b b83c d819 873c
000003a0: cb6a 17bd d125 553c db72 55bd 9f69 e83b
000003b0: d720 96bc 537c 35bc ae2e df3c 1049 a2bb
000003c0: b139 6a3c d836 43bc ee02 f4bc 15d0 1bbd
000003d0: 9e02 62bd 327b 923c c27a c0bc 5958 49bd
000003e0: d2d8 3d3d 70c9 573c 32f2 48bd 9a55 05bd
000003f0: 1411 2bbd 1f43 d0bc 3de3 a3bb f526 e4bc

l2.bias f4 [200]
-0.024129504 -0.17289634 0.18665798 -0.18625301 -0.009598347 -0.2722515 0.0033042645 -0.040036295
-0.06460836 0.1700272 -0.12173866 -0.4990381 -0.0460184 -0.13564295 -0.1936343 0.012800878
-0.13908608 -0.04791191 0.027367204 -0.11896066 -0.27087986 0.14627996 0.14483821 0.11103614
0.074826114 -0.05477242 0.095799185 -0.024139661 -0.077118896 0.0027961498 0.049225062 -0.6855004
-0.06521339 -0.04834902 0.054343052 0.009850849 -0.4447075 -0.5583482 -0.06272713 0.18937339
0.024002872 0.040470447 0.09914892 0.19651175 -0.00031736665 0.0863416 -0.01454279 0.19211279
0.06383271 0.1082643 -0.13639179 0.022633033 0.059917167 -0.27934256 -0.052810963 0.14700195
0.1053709 0.16682035 -0.044027958 0.036399696 0.19011648 -0.009925947 -0.48984045 0.1003892
0.02229264 -0.055124 0.012952341 -0.07247789 -0.002083625 0.107946746 0.18947476 0.06947508
-0.021696778 -0.058340717 0.14801311 -0.3740664 0.16756396 -0.06595803 0.07288453 0.10680462
0.02338195 -0.03710857 -0.02725187 0.057236783 0.24084197 -0.020522494 -0.23512918 -0.02197614
-0.033742778 -0.062036876 0.08782439 -0.15412234 -0.02689014 -0.05238698 -0.04814627 -0.018166674
-0.005483113 0.0066290894 0.21444842 0.023102924 -0.088528 0.17178978 0.083961494 0.0034263295
-0.054092802 0.06447816 -0.058905143 -0.3296582 -0.012855657 0.14518143 -0.040396374 -0.04411932
-0.031388253 0.08341712 0.05209782 -0.059599485 0.086241126 0.1452671 -0.075049795 0.045936458
0.15186644 -0.036733884 0.13555895 -0.021155125 0.067291625 -0.00012947946 0.021525962 0.02143804
-0.15006566 -0.11083416 0.0040626368 0.013587393 0.0024020255 0.04318715 -0.14534236 -0.009167059
-0.048396975 -0.01653754 -0.026092889 0.09015346 0.1559359 -0.14706452 -0.024811443 -0.21751441
-0.014829664 -0.10446976 0.14294103 -0.15948986 0.08382339 0.10352185 -0.117593005 0.036749113
0.019982103 -0.35117525 -0.035183072 -0.048733264 -0.043216247 0.15233403 0.21246764 0.008083664
-0.03304958 0.09528315 0.07445676 -0.00692228 -0.046484385 -0.01846375 0.063641824 -0.26696318
0.156154 0.04053467 -0.040054243 0.118190736 -0.013532624 0.26430807 -0.16397166 0.070627384
0.0037973362 0.21652208 -0.037349768 0.018066036 -0.06644023 0.17862141 -0.002711042 0.02554977
-0.07235519 -0.07438633 0.15231653 -0.28516456 0.0024726207 0.17488416 0.003366506 -0.02128707
0.16593516 -0.59937286 -0.02578764 -0.17498255 0.15423058 -0.13475895 0.026805375 0.20055768
00000000: 3dab c5bc bd0b 31be 4523 3f3e 1cb9 3ebe
00000010: 6342 1dbc 8c64 8bbe 5c8c 583b 19fd 23bd
00000020: 6351 84bd 9c1b 2e3e 1e52 f9bd ec81 ffbe
00000030: ca7d 3cbd fce5 0abe 1248 46be c6ba 513c
00000040: 956c 0ebe 473f 44bd 3031 e03c a6a1 f3bd
00000050: c4b0 8abe 6aca 153e 7850 143e ea66 e33d
00000060: 6f3e 993d 0c59 60bd 5d32 c43d 8ac0 c5bc
00000070: 83f0 9dbd 9c3f 373b 38a0 493d f47c 2fbf
00000080: 998e 85bd 9f09 46bd d296 5e3d 7565 213c
00000090: b4b0 e3be e8ef 0ebf 1577 80bd 19eb 413e
000000a0: aca1 c43c 57c4 253d 970e cb3d 603a 493e
000000b0: 3b64 a6b9 ddd3 b03d e244 6ebc 37b9 443e
000000c0: b9ba 823d acb9 dd3d 4aaa 0bbe e968 b93c
000000d0: b46b 753d fd05 8fbe 4f50 58bd ae87 163e
000000e0: b3cc d73d f4d2 2a3e a956 34bd d917 153d
000000f0: e5ad 423e 70a0 22bc 5ecc fabe da98 cd3d
00000100: 0e9f b63c b4c9 61bd 0e36 543c 4a6f 94bd
00000110: 6d8d 08bb 2f13 dd3d ac05 423e f348 8e3d
00000120: 71bd b1bc adf6 6ebd c090 173e a285 bfbe
00000130: e395 2b3e 0115 87bd 7c44 953d 61bc da3d
00000140: 818b bf3c 28ff 17bd 503f dfbc 1e71 6a3d
00000150: 479f 763e ca1e a8bc b4c5 70be 4e07 b4bc
00000160: de35 0abd 611a 7ebd 46dd b33d 3fd2 1dbe
00000170: b648 dcbc bb93 56bd 0635 45bd 47d2 94bc
00000180: b0ab b3bb d538 d93b 5e98 5b3e 5842 bd3c
00000190: 2b4e b5bd a9e9 2f3e 01f4 ab3d 458c 603b
000001a0: 6a90 5dbd 200d 843d 8546 71bd f6c8 a8be
000001b0: 89a0 52bc 71aa 143e ab76 25bd 76b6 34bd
000001c0: f890 00bd 98d6 aa3d 8664 553d 971e 74bd
000001d0: 309f b03d e6c0 143e b5b3 99bd de27 3c3d
000001e0: e082 1b3e 4576 16bd f7cf 0a3e 834d adbc
000001f0: 31d0 893d e1c4 07b9 3757 b03c d49e af3c
00000200: d0aa 19be 05fd e2bd de1f 853b a89d 5e3c
00000210: 4d6b 1d3b 02e5 303d a1d4 14be 6f31 16bc
00000220: e83b 46bd bc79 87bc c1c0 d5bc 61a2 b83d
00000230: a9ad 1f3e 1598 16be 5e41 cbbc 19bc 5ebe
00000240: 1ef8 72bc 3ef4 d5bd 225f 123e 4f51 23be
00000250: 99ab ab3d 4403 d43d 9ad4 f0bd 3d86 163d
00000260: 82b1 a33c 3ecd b3be 201c 10bd 889c 47bd
00000270: 8503 31bd 74fd 1b3e 1e91 593e 5871 043c
00000280: ff5e 07bd d023 c33d c97c 983d 4bd4 e2bb
00000290: 6966 3ebd 4a41 97bc a556 823d 66af 88be
000002a0: d6e6 1f3e af07 263d eb0f 24bd fc0d f23d
000002b0: f0b7 5dbc 6353 873e 30e8 27be 17a5 903d
000002c0: bbdc 783b f7b7 5d3e 12fc 18bd 39ff 933c
000002d0: d111 88bd 88e8 363e bdab 31bb c04d d13c
000002e0: f52e 94bd dc57 98bd ddf8 1b3e 1701 92be
000002f0: b10b 223b d514 333e 99a0 5c3b 3962 aebc
00000300: e8ea 293e 8070 19bf 9a40 d3bc a02e 33be
00000310: 9fee 1d3e 40fe 09be f296 db3c fe5e 4d3e

l3.weight f4 [4, 200]
0.05538797 -0.7236999 0.48974243 -0.20923188 -0.18268773 0.835293 0.13497953 0.060554422
0.12088048 0.3152683 -0.43254524 -0.47340646 -0.5114171 -0.6231598 -0.67956674 0.027494011
0.1605148 -0.011794741 -0.41308478 -0.5245931 -0.5305382 0.34149656 0.3512367 0.44081363
-0.30900604 0.0032888863 0.5459221 -0.49742988 -0.28562403 -0.3090346 -0.34576303 -0.9615281
-0.040069524 -0.056406848 -0.28575772 -0.4057391 -1.0457822 -1.0562836 -0.12807798 0.343368
-0.23507763 -0.07039017 0.27028295 0.31964225 0.05254617 -0.16520554 0.015812906 0.32191494
-0.4959676 -0.34695315 0.46914765 0.02490208 -0.28615507 -0.1107128 -0.1844203 0.44782323
0.72547793 0.36544538 -0.38607296 -0.51261806 0.33747053 0.009487646 -0.591827 0.3740748
0.03288046 0.028285252 0.053800773 -0.1681367 -0.30830297 0.2642821 0.35419455 0.28201643
-0.16640581 0.057196867 0.27788264 -0.89073217 0.63751316 -0.29058936 0.017978432 0.19711483
-0.04679767 -0.13789895 0.006034154 -0.1912156 0.38908777 0.47471085 -0.3815532 -0.12499484
-0.017114975 -0.02033587 -0.11026767 0.1591966 -0.019787198 -0.12818371 -0.1952899 -1.036717
0.01406103 -0.04396522 0.33405164 -0.5226777 -0.10234526 0.37813747 -0.3613642 0.061984945
0.0027282657 -0.09362182 -0.17412753 -0.5644644 0.012182152 0.27515492 0.06878937 0.1519871
0.045974918 0.25324607 -0.1241316 -0.4315417 -0.20262371 0.21771954 -0.14551209 0.57695544
0.34230775 -0.3941819 0.34714884 -0.52480996 0.40084052 0.051104687 0.045741804 -0.3556657
-0.04552636 -0.10288318 0.016647711 -0.5989072 0.036681984 -0.32785088 -0.22359456 -0.25444478
0.042073444 -0.041234415 -0.6327017 -0.20273282 0.36907732 -0.5987767 0.06417205 -0.159079
-0.1545691 -0.14585654 1.1770312 -0.64496845 -0.40804017 -0.5821277 -0.0971166 0.064593144
0.27179465 -0.65247476 -0.008987532 -0.52043325 0.056867745 0.30824852 0.26115072 -0.29519737
-0.15082447 0.54338026 0.23850814 0.05702824 0.018384282 -0.10010613 -0.64743733 -1.1340733
0.33844525 -0.28492978 -0.14300175 0.27839574 0.056809667 0.58968776 -0.5929505 0.353167
0.024025504 0.32143468 0.015017674 0.05814262 0.25708878 0.27735484 -0.42724526 0.031366315
-0.19024661 0.2975797 0.2922859 -1.0544951 0.012824959 0.35919023 0.041029226 -0.23830642
0.29720396 -0.773123 -0.017492816 -0.7133983 0.36418405 -0.20523755 -0.39366817 0.36494678
0.042038646 -0.9013132 0.44706544 0.06317225 -0.11002529 0.48835996 -0.3464987 0.058459736
-0.2728677 0.33976296 -0.45731667 -0.41406032 -0.5397637 -0.5053964 -0.7399049 -0.037560385
-0.05011646 -0.032310303 -0.46798757 -0.3896814 -0.65159476 0.38047862 0.24185951 0.47569263
-0.33635807 0.013926167 0.5616914 -0.46558782 -0.30809703 -0.31739026 -0.26680395 -0.9154761
0.0020805947 0.007856335 -0.34554005 -0.29020476 -0.9846667 -1.6232904 -0.23689057 0.34644717
-0.33037597 -0.0004921617 0.17648551 0.37326878 0.0519993 -0.15808709 0.037752476 0.35319886
-0.5157964 -0.3309189 0.5671842 -0.0271293 -0.29357773 0.03750605 -0.3227143 0.38279292
00000000: 7fde 623d 6644 39bf 85bf fa3e e240 56be
00000010: 7e12 3bbe c3d5 553f 1338 0a3e ea07 783d
00000020: 2f90 f73d d96a a13e 9276 ddbe 5562 f2be
00000030: 3bec 02bf 6787 1fbf 16f8 2dbf 1f3b e13c
00000040: fe5d 243e bb3e 41bc d97f d3be bc4b 06bf
00000050: 5ad1 07bf a3d8 ae3e 4cd5 b33e 53b2 e13e
00000060: 0a36 9ebe 5b8a 573b 8dc1 0b3f 21af febe
00000070: 503d 92be c839 9ebe da07 b1be b526 76bf
00000080: f11f 24bd de0a 67bd d64e 92be 09bd cfbe
00000090: 31dc 85bf 4d34 87bf e026 03be eecd af3e
000000a0: 31b8 70be b928 90bd 8762 8a3e 26a8 a33e
000000b0: a73a 573d a42b 29be 118a 813c 09d2 a43e
000000c0: 77ef fdbe d8a3 b1be 1f34 f03e 72ff cb3c
000000d0: eb82 92be 64bd e2bd add8 3cbe 1649 e53e
000000e0: ecb8 393f a81b bb3e 5bab c5be f03a 03bf
000000f0: f0c8 ac3e 1272 1b3c f981 17bf bb86 bf3e
00000100: a9ad 063d 79b6 e73c 335e 5c3d 072c 2cbe
00000110: e3d9 9dbe fc4f 873e fd58 b53e 7564 903e
00000120: 4966 2abe 4347 6a3d a246 8e3e 0607 64bf
00000130: 1034 233f 21c8 94be 8147 933c 78d8 493e
00000140: eaae 3fbd 6235 0dbe 27ba c53b 06ce 43be
00000150: 8336 c73e 4d0d f33e f15a c3be 4bfd ffbd
00000160: b434 8cbc 6997 a6bc 04d4 e1bd 6f04 233e
00000170: c318 a2bc 9742 03be 13fa 47be 25b3 84bf
00000180: 3c60 663c e014 34bd d108 ab3e 35ce 05bf
00000190: 649a d1bd 3c9b c13e ba04 b9be ede3 7d3d
000001a0: b4cc 323b ccbc bfbd 7d4e 32be bd80 10bf
000001b0: a697 473c 1be1 8c3e 71e1 8c3d 82a2 1b3e
000001c0: 3250 3c3d 78a9 813e b538 febd 09f3 dcbe
000001d0: 977c 4fbe dff1 5e3e 1f01 15be 5ab3 133f
000001e0: f642 af3e 36d2 c9be 7ebd b13e f259 06bf
000001f0: f83a cd3e 2653 513d c25b 3b3d d119 b6be
00000200: d979 3abd 6bb4 d2bd c860 883c fb51 19bf
00000210: d93f 163d 12dc a7be f9f5 64be 9646 82be
00000220: 3455 2c3d 6be5 28bd bdf8 21bf 3199 4fbe
00000230: b4f7 bc3e 6e49 19bf a36c 833d 9be5 22be
00000240: 5d47 1ebe 6b5b 15be f5a8 963f a71c 25bf
00000250: a4ea d0be 5206 15bf 11e5 c6bd 6949 843d
00000260: ab28 8b3e 9608 27bf 7140 13bc 1d3b 05bf
00000270: 27ee 683d c0d2 9d3e 8cb5 853e 1c24 97be
00000280: bb71 1abe f81a 0b3f 7a3b 743e 7296 693d
00000290: a29a 963c 7104 cdbd 74be 25bf 5029 91bf
000002a0: b248 ad3e 51e2 91be 0d6f 12be e389 8e3e
000002b0: 41b1 683d c7f5 163f 9bcb 17bf 4ed2 b43e
000002c0: 22d1 c43c 1693 a43e b10c 763c f526 6e3d
000002d0: 24a1 833e 7401 8e3e e4bf dabe f779 003d
000002e0: 02d0 42be 5e5c 983e 7fa6 953e b2f9 86bf
000002f0: c71f 523c c8e7 b73e 430e 283d 9906 74be
00000300: 1e2b 983e 64eb 45bf 184d 8fbc 45a1 36bf
00000310: 5576 ba3e cb29 52be e08e c9be 4eda ba3e
00000320: b730 2c3d 76bc 66bf c3e5 e43e 7460 813d
00000330: f054 e1bd 510a fa3e 4768 b1be 7a73 6f3d
00000340: 51b5 8bbe 69f5 ad3e 6925 eabe b7ff d3be
00000350: f42d 0abf a961 01bf 686a 3dbf ebd8 19bd
00000360: eb46 4dbd cf57 04bd 119c efbe 5284 c7be
00000370: eace 26bf 18ce c23e 05aa 773e fc8d f33e
00000380: 2037 acbe 942a 643c 02cb 0f3f 8761 eebe
00000390: e5be 9dbe fa80 a2be 879a 88be a45c 6abf
000003a0: 965a 083b dbb7 003c a0ea b0be b895 94be
000003b0: 1e13 7cbf fbc7 cfbf 7193 72be 8661 b13e
000003c0: 0a27 a9be 6a04 01ba 9eb8 343e 161d bf3e
000003d0: 38fd 543d 95e1 21be 57a2 1a3d 7bd6 b43e
000003e0: 3c0b 04bf 346e a9be fc32 113f 443e debc
000003f0: d24f 96be f29f 193d cf3a a5be 6ffd c33e

l3.bias f4 [4]
0.095770694 0.24659231 0.17305061 0.17485757
00000000: 6d23 c43d b282 7c3e 2e34 313e dd0d 333e
