fin/DDQN/agent-300-10-475/model.pt (torch, 340231 bytes, 6 tensors)

l1.weight f4 [400, 8]
0	0xbe793ca6	-0.24339542
1	0x3dfeee62	0.12447812
2	0xbea03ab8	-0.312948
3	0xbe023907	-0.12717067
4	0xbed50e6c	-0.41612566
5	0xbe2ff960	-0.17184973
6	0x3dab6532	0.08368911
7	0xbe8c0212	-0.2734533
8	0x3de8cef7	0.113676004
9	0x3e545a36	0.20737538
10	0xbd7e6be7	-0.062114622
11	0xbe61c5de	-0.22048137
12	0x3e5778ba	0.21042147
13	0x3d0109e8	0.031503588
14	0xbe2247f3	-0.15847759
15	0xbee58208	-0.44825768
16	0xbd9b8eb1	-0.075955756
17	0x3b639595	0.003472661
18	0xbcd34b54	-0.025792755
19	0xbeda69ed	-0.4265894
20	0x3db5fe6e	0.08886419
21	0xbeda70cf	-0.4266419
22	0xbfaf5f6b	-1.3700994
23	0xbf63b186	-0.88942754
24	0xbcf99614	-0.03046707
25	0x3e41d20b	0.18927781
26	0xbdaf87fb	-0.08570858
27	0x3de05fbe	0.109557614
28	0xbdd62428	-0.10456115
29	0x3ed703af	0.41994998
30	0xbea23bb6	-0.3168618
31	0xbedcca3c	-0.43123043
32	0x3ebfc779	0.37456873
33	0x3e362527	0.1778761
34	0x3ea912c3	0.33022127
35	0xbe55418a	-0.20825782
36	0x3f3dd88e	0.7415856
37	0x3e4c298d	0.19937725
38	0x3c96a1e2	0.018387739
39	0xbdd02a45	-0.10164312
40	0x3f050bf6	0.51971376
41	0xbb8b8949	-0.004258309
42	0xbdbb8782	-0.091567054
43	0xbeb27a8e	-0.34859127
44	0xbf153ecf	-0.58298963
45	0xbdf983b9	-0.12183327
46	0xbf9f7657	-1.245799
47	0xbdb5ecbc	-0.08883044
48	0x3f9d6e27	1.2299241
49	0xbeb4de9b	-0.35326084
50	0x3f618e5b	0.8810784
51	0x3ea5e437	0.32400677
52	0xbf0f28d3	-0.5592167
53	0xbde18396	-0.11011426
54	0xbe81d00d	-0.25354043
55	0x3cd59270	0.026070803
56	0xbe389456	-0.18025336
57	0x3e1b373a	0.15157786
58	0x3f1bbbdc	0.60833526
59	0x3ca2822f	0.019837467
60	0x3f08448b	0.5322959
61	0xbeb0e9d5	-0.345534
62	0xbf3364fa	-0.70075953
63	0x3e2dd266	0.16974792
64	0x3f1149ef	0.5675344
65	0x3e14756d	0.1449792
66	0xbe46ab06	-0.19401178
67	0xbf05f287	-0.5232319
68	0xbe760771	-0.24026276
69	0xbf9bad8c	-1.2162337
70	0xbd4a6872	-0.049416013
71	0xbf6d7c2b	-0.9276759
72	0xbe105ab3	-0.14097099
73	0xbe0577ed	-0.1303403
74	0xbebffa64	-0.3749572
75	0x3e5fbf04	0.2185021
76	0xbf00d8c3	-0.5033075
77	0xbecbc209	-0.39796475
78	0xbcdc49b2	-0.02689061
79	0xbe94cfcc	-0.29064786
80	0xbe8de900	-0.27716827
81	0x3e44673d	0.19180007
82	0xbf2e0102	-0.6797029
83	0x3dfda155	0.12384287
84	0xbeb1565f	-0.34636208
85	0xbf4736c6	-0.7781795
86	0xbeaf4d7b	-0.342388
87	0x3ef212c4	0.47279942
88	0xbcdd455a	-0.027010608
89	0x3e3140f8	0.1730994
90	0xbe6bd2c4	-0.2302962
91	0xbef600c9	-0.48047474
92	0x3e4e76a0	0.2016244
93	0x3ee9135f	0.4552259
94	0xbe881b18	-0.2658317
95	0xbf2a546a	-0.66535056
96	0x3dae7df7	0.0852012
97	0xbe4a0854	-0.1972974
98	0xbf010046	-0.5039104
99	0x3e37f912	0.17966107
100	0x3f510656	0.8165029
101	0xbf61e7d8	-0.8824439
102	0xbee47fea	-0.4462884
103	0xbf3024f2	-0.68806374
104	0x3c2cfc30	0.010558173
105	0xbe03cac4	-0.12870318
106	0xbeeebe9e	-0.46629804
107	0xbe18fabe	-0.149394
108	0xbe84b230	-0.25917196
109	0x3bd2f854	0.0064382944
110	0xbe9ade3a	-0.3024767
111	0x3dfa7fbc	0.12231395
112	0x3f221b4f	0.6332292
113	0xbdbf2aec	-0.093343586
114	0xbdd81e77	-0.10552686
115	0xbeadba9e	-0.3393144
116	0xbe8dd7c5	-0.27703682
117	0xbf55b5c5	-0.83480483
118	0xbeb471ad	-0.35242978
119	0x3f4aef79	0.79271656
120	0x3f213800	0.62976074
121	0xbc80dedc	-0.015731268
122	0x3f33de6d	0.7026127
123	0x3f9b9d6f	1.215742
124	0x3f46ec81	0.77704626
125	0xbf2343b3	-0.63775176
126	0x3e1af6fa	0.15133277
127	0x3e84c818	0.2593391
128	0xbf718f59	-0.94359356
129	0xbcf6fabc	-0.030148856
130	0xbf35ecb9	-0.71064335
131	0x3dfb6518	0.122751415
132	0x3e587437	0.21138082
133	0xbe2da8e9	-0.16958965
134	0xbf87c811	-1.060793
135	0xbdd6afb5	-0.10482732
136	0x3ba27baa	0.0049585896
137	0xbef028cc	-0.46906126
138	0xbee6888f	-0.4502606
139	0x3f263533	0.64924926
140	0x3f99290d	1.1965653
141	0x3f26fc95	0.6522916
142	0xbf1260c3	-0.57178897
143	0xbdf14d2d	-0.11782298
144	0xbd8fddb4	-0.070247084
145	0x3e97bd99	0.2963684
146	0x3dd151d5	0.10220686
147	0xbd92e9a2	-0.07173468
148	0xbde40d5c	-0.111353606
149	0xbeb83289	-0.35976055
150	0x3d0b134f	0.03395396
151	0xbeca3049	-0.39489964
152	0x3ebd1036	0.3692643
153	0xbe314dce	-0.17314836
154	0x3ea1c8b3	0.31598434
155	0xbcba557f	-0.022745846
156	0xbd9a0fae	-0.07522522
157	0x3e5851e7	0.21124993
158	0xbe1e74f1	-0.15474297
159	0x3d13438c	0.03595309
160	0xbf6f45d3	-0.9346592
161	0xbf2c77ee	-0.673705
162	0x3e949131	0.29017022
163	0xbeaa53c0	-0.3326702
164	0xbe6fbe83	-0.23412518
165	0xbef44b47	-0.47713682
166	0x3e9f891d	0.31159297
167	0x3d473192	0.04863126
168	0xbe1c2986	-0.15250215
169	0xbe8158c9	-0.2526305
170	0x3ee071f2	0.43836933
171	0x3f929033	1.1450256
172	0xbf1dde37	-0.616672
173	0x3ee36c20	0.4441843
174	0x3efd0d8d	0.494244
175	0x3f0dd799	0.554071
176	0x3ea9b861	0.33148482
177	0xbeeb7486	-0.45987338
178	0xbec5831d	-0.38576594
179	0x3ff755de	1.932308
180	0xbe436255	-0.1908048
181	0xbe28bd9e	-0.16478583
182	0x3dbf4a32	0.093403235
183	0x3d3dfc5b	0.046383243
184	0x3f352c6e	0.7077092
185	0x3d4bd444	0.04976298
186	0x3f4e173e	0.80504215
187	0xbcd43397	-0.025903506
188	0xbe822954	-0.25422156
189	0x3f26e791	0.6519709
190	0xbdc24d65	-0.09487418
191	0xbf64dc4a	-0.89398634
192	0x3ed8fddb	0.42381176
193	0xbf9734cf	-1.1812991
194	0xbda15eb8	-0.07879394
195	0x40012fc2	2.01854
196	0x3ef97909	0.48725155
197	0x3e3cc2b2	0.18433645
198	0xbf41c568	-0.75691843
199	0x3ea830cd	0.32849732
200	0x3e46ca49	0.19413103
201	0x3e4bb28a	0.19892326
202	0x3ef1f599	0.4725769
203	0x3d863c02	0.06554414
204	0x3e55855f	0.20851658
205	0x3ecb04cf	0.39652106
206	0x3eafeee7	0.34361956
207	0xbeca0ff0	-0.39465284
208	0xbf58717b	-0.8454816
209	0xbf9147a4	-1.1349988
210	0x3e2655eb	0.16243713
211	0x3f9660ab	1.1748251
212	0x3efec66b	0.49760756
213	0xbf197b09	-0.5995336
214	0x3f860f18	1.0473356
215	0x3ec07e57	0.3759639
216	0xbf88c538	-1.0685186
217	0x3ec7342b	0.38906989
218	0x3e7fba1a	0.24973336
219	0xbeff8d47	-0.49912474
220	0x3e677a0b	0.2260515
221	0xbe0e869f	-0.13918541
222	0x3e8d1208	0.2755282
223	0xbf9f9152	-1.2466223
224	0x3f143181	0.57888037
225	0x3e3d0b53	0.18461351
226	0x3cc4f2c7	0.024041547
227	0xbed7203d	-0.42016783
228	0x3d20ae89	0.03922895
229	0xbc270851	-0.010194854
230	0xbf67cfe5	-0.90551597
231	0xbf26685a	-0.6500298
232	0xbf09cd31	-0.5382872
233	0xbbc2eb02	-0.0059484253
234	0x3ec9c586	0.3940851
235	0x3daf6a20	0.085651636
236	0x3f0ae2a0	0.5425205
237	0xbe871751	-0.26384977
238	0xbef20aa2	-0.47273737
239	0xbe1703cc	-0.14747542
240	0xbf1b145a	-0.6057793
241	0x3d8fbe56	0.070187256
242	0xbd2fcae5	-0.042918105
243	0xbe3dab7f	-0.18522452
244	0xbf61883b	-0.88098496
245	0xbd3d3f0d	-0.046202708
246	0xbe6331d2	-0.22186974
247	0x3eac3187	0.33631536
248	0x3e465d60	0.19371557
249	0x3e1910fe	0.14947888
250	0x3d015afe	0.031580918
251	0x3e978c2d	0.29599133
252	0xbf069d36	-0.52583635
253	0x3f3d95f4	0.74056935
254	0xbf02ade0	-0.5104656
255	0x3e3bb085	0.18329056

l1.bias f4 [400]
0	0xbf05fa90	-0.52335453
1	0xbe77c5cd	-0.24196549
2	0x3edff7f7	0.4374387
3	0x3e0f7023	0.1400762
4	0x3da29f46	0.07940535
5	0x3e4819f8	0.19541156
6	0x3d597928	0.05309406
7	0xbecda14a	-0.40162116
8	0xbf8ac5fe	-1.0841672
9	0x3e989696	0.29802388
10	0xbe89b5a2	-0.26896387
11	0xbe2e194c	-0.17001837
12	0xbf1f6f03	-0.62278765
13	0x3ed7f5d2	0.42179734
14	0xbf3580ce	-0.70899665
15	0xbe088f36	-0.1333588
16	0xbd57929e	-0.05263006
17	0xbf0f4a14	-0.5597241
18	0x3d2c180e	0.042015128
19	0x3e9d7108	0.30750299
20	0x3dbb393c	0.09141776
21	0xbe63f2ab	-0.22260539
22	0x3da749cd	0.08168373
23	0xbbd08744	-0.006363781
24	0xbe559d0b	-0.20860688
25	0xbe6bf340	-0.23042011
26	0xbebf863f	-0.3740711
27	0xbce6e518	-0.028185412
28	0x3d63121f	0.055437203
29	0xbd7e3c35	-0.062069137
30	0xbe40e5f8	-0.18837726
31	0x3e2bb8bc	0.1676969
32	0xbcc2b981	-0.023770096
33	0x3d0eed0f	0.034894045
34	0xbe52a841	-0.20571996
35	0xbf4e84e9	-0.80671555
36	0x3e8e8468	0.27835393
37	0x3df51afc	0.119680375
38	0xbc0f9392	-0.008763211
39	0x3ee2405d	0.4418973
40	0xbe9e6871	-0.30939057
41	0xbec51e48	-0.38499665
42	0xbefd591a	-0.49482042
43	0xbe8de9b5	-0.27717367
44	0xbf3ebd86	-0.7450794
45	0xbdf46601	-0.11933518
46	0xbe817963	-0.25287923
47	0xbf0ad0f0	-0.54225063
48	0xbddeda75	-0.10881511
49	0x3d8088a9	0.06276066
50	0xbdaef8c4	-0.08543542
51	0x3d8876b7	0.06663268
52	0xbe92f53d	-0.28702727
53	0x3d89b243	0.06723454
54	0xbe8a6b35	-0.27034917
55	0xbf105066	-0.5637268
56	0xbefeee21	-0.49791053
57	0x3e3d1db1	0.18468358
58	0x3e3192b0	0.17341113
59	0x3db24ed5	0.08706442
60	0xbd1698c9	-0.0367668
61	0xbd5e9dd0	-0.05434972
62	0xbf5cff46	-0.86327016
63	0xbc37168f	-0.011174812
64	0x3ec5c14a	0.3862403
65	0x3c41519c	0.011799242
66	0xba46ebaa	-0.0007588217
67	0x3ea28bc3	0.31747255
68	0x3e99b865	0.30023494
69	0xbe39af1c	-0.18133205
70	0x3e8c2600	0.27372742
71	0xbc643005	-0.013927464
72	0xbe5739a3	-0.2101808
73	0xbf1df7ff	-0.61706537
74	0x3f110220	0.5664387
75	0x3d1462f6	0.03622719
76	0xbea140e1	-0.3149481
77	0xbceda7ef	-0.029010741
78	0xbbb62784	-0.00555891
79	0xbf2a1841	-0.6644326
80	0x3ec01da4	0.37522614
81	0xbf139b82	-0.5765916
82	0xbed1d0ca	-0.40979606
83	0x3da169e4	0.07881525
84	0xbeca2742	-0.39483076
85	0xbe187297	-0.14887463
86	0xbf2e5a7b	-0.6810681
87	0x3c820f52	0.015876446
88	0xbf3e3226	-0.7429527
89	0xbf850c15	-1.0394312
90	0xbe67162b	-0.2256705
91	0xbf001280	-0.5002823
92	0x3e73d7f1	0.23812844
93	0x3e861600	0.2618866
94	0x3c93396b	0.017971715
95	0x3dd69cbd	0.10479114
96	0x3e5b7c98	0.21434247
97	0xbec48406	-0.38381976
98	0x3e4d1fd2	0.2003167
99	0x3a9b1227	0.0011830971
100	0x3eb54dec	0.35411012
101	0xb7f29c90	-2.8921553e-05
102	0x3e533148	0.20624268
103	0xbdbea994	-0.09309688
104	0xbe86342e	-0.26211685
105	0x3d6eb627	0.058279183
106	0x3e158947	0.14603148
107	0x3a449c4c	0.00075000967
108	0x3e50955d	0.20369478
109	0x3e93ba69	0.28853157
110	0x3ec921b7	0.39283535
111	0xbeed2be6	-0.46322554
112	0xbe6a25bf	-0.22865961
113	0xbed6a846	-0.41925257
114	0x3ec7c4ad	0.3901724
115	0xbf6a4533	-0.9151184
116	0x3e5586ef	0.20852254
117	0xbebedf3c	-0.3727969
118	0x3c32f68d	0.01092304
119	0x3e2042ce	0.15650484
120	0xbdb96d87	-0.09054094
121	0x3d911247	0.07083564
122	0xbe0c4003	-0.13696294
123	0xbefa3b05	-0.48873153
124	0xbeafabc1	-0.34310725
125	0x3d6ae35f	0.057345744
126	0x3eaa3723	0.3324519
127	0xbce056eb	-0.027385196
128	0x3d733b2d	0.059382606
129	0x3ebca687	0.368458
130	0xbda6a540	-0.08136988
131	0xbc284cff	-0.010272264
132	0xbf0a7e78	-0.54099226
133	0x3e764b9b	0.24052279
134	0xbf6e238c	-0.9302299
135	0xbe5787d4	-0.21047908
136	0xbf169c46	-0.58832204
137	0xbeee3d31	-0.4653106
138	0xbf2cff59	-0.6757713
139	0xbefd343d	-0.49453917
140	0xbe5d438e	-0.21607801
141	0xbf0b3aae	-0.54386413
142	0xbf9495cb	-1.1608213
143	0xbc463765	-0.012098168
144	0xbd95898e	-0.07301627
145	0xbed22f10	-0.4105153
146	0x3b3283f6	0.00272393
147	0x3ed87c7c	0.42282474
148	0xbf2be4c0	-0.6714592
149	0xbeec8f65	-0.4620315
150	0xbf1738d1	-0.5907107
151	0x3d9bd730	0.07609403
152	0xbf280371	-0.6563025
153	0xbdda24fa	-0.10651584
154	0x3c699730	0.014257237
155	0xbedebf28	-0.43505216
156	0xbee55852	-0.44793946
157	0xbe95c814	-0.2925421
158	0xbea160fe	-0.31519312
159	0xb964f3eb	-0.00021834641
160	0xbf2f05f2	-0.68368447
161	0xbdedfb0e	-0.116201505
162	0xbe74ddb9	-0.23912705
163	0xbf13c02c	-0.57715106
164	0xbf1567c4	-0.5836146
165	0xbf13a378	-0.5767131
166	0xbe54b105	-0.20770653
167	0xbebeb210	-0.37245226
168	0x3e9c13d1	0.3048387
169	0xbf17ed37	-0.59346336
170	0x3ee6611c	0.44995964
171	0xbed024d2	-0.40653092
172	0x3da614a7	0.08109408
173	0x3bc5bfe0	0.006034836
174	0xbf081ace	-0.531659
175	0xbe6c5b77	-0.23081766
176	0x3c47fbf3	0.0122060655
177	0xbe97c847	-0.29644987
178	0x3e1276ce	0.14303133
179	0x3c1154d1	0.008870319
180	0xbdaf0f80	-0.08547878
181	0x3ea11ed7	0.3146884
182	0xbec69a99	-0.38789824
183	0xbddeda4d	-0.10881481
184	0x3dfd922f	0.12381398
185	0xbf2fa3e9	-0.6860948
186	0xbbb16762	-0.0054139355
187	0x3e18f646	0.14937696
188	0xbf0dcd8e	-0.55391777
189	0xbef6191f	-0.4806604
190	0xbc224cd9	-0.009906017
191	0xbf4353be	-0.76299655
192	0xbf849d4e	-1.0360506
193	0x3eda8587	0.42679998
194	0xbf37d5b2	-0.7181045
195	0xbe2a76b6	-0.16646847
196	0xbf0ea546	-0.5572094
197	0xbe2ecb00	-0.17069626
198	0x3e8a6aa8	0.27034497
199	0xbf090441	-0.53522116
200	0xbec3637a	-0.38161832
201	0x3df140c3	0.117799304
202	0xbe85e9b5	-0.26154867
203	0x3e4e40db	0.20141928
204	0xbdca7d51	-0.098871835
205	0x3d97ac2c	0.07405886
206	0xbee25246	-0.44203395
207	0xbeebb12c	-0.4603361
208	0xbf3d75fd	-0.7400816
209	0x3e5dfdbd	0.21678825
210	0xbf06feae	-0.5273236
211	0xbee88f44	-0.45421803
212	0x3ddd204b	0.10797175
213	0xbe32c151	-0.17456557
214	0x3e81b415	0.25332704
215	0x3ddb2eae	0.10702263
216	0xbf23cf96	-0.63988626
217	0xbeb49607	-0.35270712
218	0xbef6b968	-0.4818833
219	0xbf021aca	-0.50822127
220	0x3e0949af	0.13407014
221	0x3e60fddc	0.2197184
222	0xbef11dfe	-0.47093195
223	0x3e884943	0.26618394
224	0x3e92320b	0.28553805
225	0xbd317120	-0.043320775
226	0xbeaa7479	-0.33291987
227	0xbc5643ca	-0.013077686
228	0x3e758af9	0.23978795
229	0xbdb76b13	-0.0895597
230	0x3d151688	0.03639844
231	0x3d96bd89	0.0736037
232	0xbba42053	-0.005008736
233	0xbabf988d	-0.0014617607
234	0x3e13ae30	0.14421916
235	0xbcd1e226	-0.025620531
236	0xbeca9e61	-0.3957396
237	0x3cc94cb3	0.024572706
238	0x3e152206	0.1456376
239	0xbf31fed3	-0.69529456
240	0x3e6e5c27	0.23277341
241	0x3e38e23e	0.18055055
242	0xbeaa84fa	-0.33304578
243	0x3d1b68b3	0.037941646
244	0xbe6b24f6	-0.22963318
245	0xbede0a80	-0.43367386
246	0xbdd1dae3	-0.102468275
247	0xbf0aa45d	-0.5415705
248	0x3e028d42	0.12749198
249	0x3d33811a	0.043824293
250	0xbe85d5fd	-0.26139823
251	0xbf0ebc68	-0.55756235
252	0xbe84ad58	-0.259135
253	0xbe8f05bf	-0.2793407
254	0x3a0351a0	0.00050094165
255	0x3cde06e6	0.027102899

l2.weight f4 [200, 400]
0	0xbe4f48ea	-0.20242658
1	0x3de45387	0.11148744
2	0x3e754422	0.23951772
3	0x3d749cc0	0.0597198
4	0xbbbe0111	-0.005798467
5	0x3d50e82c	0.051002666
6	0xbe8f89e2	-0.28034884
7	0x3cab4d59	0.020910906
8	0xbf9c6c12	-1.222048
9	0xbd7ab06e	-0.061203413
10	0xbe4dbfce	-0.20092699
11	0x3d94ab79	0.07259268
12	0x3deb0208	0.11474997
13	0xbd770b4a	-0.0603135
14	0xbf4a33d7	-0.7898535
15	0xbd56be0f	-0.052427348
16	0xbebeeef0	-0.3729167
17	0x3cd1b1f7	0.025597556
18	0x3deef087	0.11666971
19	0x3ea0bc39	0.31393602
20	0x3e99e34f	0.30056235
21	0x3e4a3f47	0.19750701
22	0xbd181dd3	-0.037137818
23	0xbe7c4f8e	-0.24639723
24	0xbd838949	-0.064226694
25	0x3d29c402	0.041446693
26	0x3e8349a1	0.25642112
27	0x3e5f2fea	0.21795622
28	0x3e52b6ab	0.20577495
29	0x3d398288	0.0452905
30	0x3e7714e6	0.24129066
31	0xbe80331a	-0.25038987
32	0xbebbc7a7	-0.3667576
33	0xbe84a453	-0.2590662
34	0x3de00788	0.109389365
35	0xbe9a7fce	-0.30175632
36	0x3e0e9f8f	0.13928054
37	0x3e3b5fb4	0.18298227
38	0x3e11da42	0.14243415
39	0x3ead56e0	0.33855343
40	0xbdebf1b4	-0.115207106
41	0xbdf4661e	-0.1193354
42	0x3c86b84a	0.016445298
43	0x3e608c30	0.21928477
44	0xbf647740	-0.8924446
45	0x3e1fef5d	0.15618654
46	0x3ed59c51	0.41720822
47	0xbf480f4b	-0.78148335
48	0x3d9f1189	0.077670164
49	0x3e459cd6	0.1929811
50	0x3e73e171	0.23816468
51	0xbf2cc8bb	-0.6749379
52	0x3e360b37	0.17777716
53	0xbedc50b5	-0.43030325
54	0x3eb0e48d	0.3454937
55	0xbf9624b0	-1.1729946
56	0xbd81c9bb	-0.06337305
57	0x3aab70b7	0.0013079856
58	0x3dda5cb0	0.1066221
59	0xbea592bd	-0.32338515
60	0x3ea941dd	0.33058062
61	0x3e19b10d	0.15008946
62	0xbeb3aaec	-0.3509134
63	0x3d59f3c3	0.053210985
64	0xbe39ad06	-0.1813241
65	0xbebb174e	-0.36541218
66	0x3e7e162d	0.24813147
67	0x3f372647	0.7154278
68	0x3e22c6e7	0.15896188
69	0x3d68cd05	0.056836147
70	0x3e59e7a3	0.21279769
71	0x3f3a7291	0.72831064
72	0xbc8118dc	-0.015758924
73	0x3e8d8e68	0.2764771
74	0x3d4e7130	0.050400913
75	0xbf265700	-0.649765
76	0x3d5a149e	0.05324232
77	0x3e6f5e35	0.23375781
78	0x3f2927ac	0.6607616
79	0x3efb7f27	0.49120447
80	0xbdc95dd3	-0.09832349
81	0x3e462b3f	0.19352435
82	0x3ed38a3e	0.41316408
83	0x3e13e3b2	0.14442328
84	0x3d9e08d9	0.07716531
85	0xbe16cdee	-0.14726993
86	0xbf16483e	-0.5870398
87	0x3e790755	0.24319203
88	0xbe9b9acd	-0.3039154
89	0xbf838439	-1.0274726
90	0x3e6db5a4	0.23213822
91	0xbd498c5c	-0.049206123
92	0x3e1f52d9	0.15558948
93	0xbcdf781d	-0.027278954
94	0xbeb0c36c	-0.34524095
95	0xbed739a9	-0.4203618
96	0x3e30800d	0.17236347
97	0x3eb0e0a1	0.34546378
98	0x3e318c39	0.17338647
99	0x3e94f519	0.29093245
100	0x3efdeb00	0.49593353
101	0x3ed02da4	0.4065982
102	0xbe59e209	-0.21277632
103	0x3dff7aea	0.12474616
104	0x3cccfba9	0.025022345
105	0x3d63f464	0.05565299
106	0xbdba3f0e	-0.09094058
107	0x3f697ecd	0.9120911
108	0xbe2c3c55	-0.1681989
109	0x3d900dfc	0.07033917
110	0xbebbebfb	-0.36703476
111	0xbdc5616a	-0.09637721
112	0x3e97bc0c	0.29635656
113	0xbdea7532	-0.114481345
114	0x3eb778b5	0.3583428
115	0xbf91f5c2	-1.1403124
116	0xbeb4f96e	-0.3534655
117	0xbe2b0e6d	-0.16704722
118	0x3e142c19	0.14469947
119	0xbf22562d	-0.63412744
120	0x3e155494	0.14583045
121	0x3d652cc3	0.05595089
122	0xbe8462a5	-0.2585651
123	0x3ec8949b	0.39175877
124	0x3f683b52	0.90715516
125	0x3d049193	0.032365393
126	0x3e136ece	0.14397737
127	0x3dce348f	0.100686185
128	0xbdfe2d4b	-0.12410983
129	0x3eb7e2d2	0.35915238
130	0x3e0da95d	0.13834138
131	0x3eff9084	0.49914944
132	0xbf4b034b	-0.793019
133	0x3e1d5bd9	0.15367068
134	0xbf5afa9c	-0.8553865
135	0x3e1046a7	0.14089452
136	0x3e828d56	0.25498456
137	0xbf953722	-1.165745
138	0xbdd838dc	-0.1055772
139	0x3d98ea0e	0.074665174
140	0x3e9691ab	0.2940801
141	0x3db1c6ce	0.08680497
142	0xbf99a87f	-1.2004546
143	0xbf472b00	-0.7779999
144	0x3db31f55	0.087462105
145	0x3e379c24	0.17930657
146	0x3ed08774	0.40728343
147	0x3e61f752	0.22067001
148	0x3ea141da	0.31495553
149	0x3c841e18	0.016127631
150	0xbf1a943f	-0.60382456
151	0xbd286b3a	-0.041117884
152	0x3e2f9e2e	0.17150185
153	0x3e36d894	0.17856055
154	0xbe95b724	-0.29241288
155	0xbd0d5bf9	-0.03451154
156	0xbf9545f3	-1.1661972
157	0xbe66f10e	-0.22552893
158	0x3e81d1ed	0.25355473
159	0x3fac738f	1.3472766
160	0x3e24d37f	0.16096304
161	0xba4fc25a	-0.0007925384
162	0x3e2d19d2	0.16904381
163	0x3e047509	0.1293527
164	0x3ef9afc2	0.48766905
165	0x3d944475	0.0723962
166	0x3efcdfe9	0.4938958
167	0x3d16a6c6	0.03678014
168	0xbd429c27	-0.0475122
169	0xbe935dbe	-0.28782457
170	0x3e301d25	0.17198618
171	0x3eab3c89	0.33444622
172	0x3e4f4062	0.20239404
173	0xbe09af94	-0.13445884
174	0xbf15065c	-0.5821283
175	0xbed53df3	-0.41648826
176	0x3e037104	0.12836081
177	0xbb7c9dbf	-0.0038546172
178	0x3e036816	0.12832674
179	0x3e337717	0.17525898
180	0x3e91fc25	0.28512684
181	0x3e318ed1	0.17339636
182	0x3e35f46d	0.17769022
183	0x3db739ed	0.08946595
184	0x3ded11d0	0.11575663
185	0xbf2f29f6	-0.684234
186	0x3f8a01a1	1.0781747
187	0x3df333fa	0.11875148
188	0x3e922441	0.28543285
189	0x3e84e2dc	0.2595433
190	0x3c8ef781	0.017452003
191	0xbf10695a	-0.56410754
192	0xbf4bc022	-0.79590046
193	0xbe4990f5	-0.19684203
194	0x3dda586f	0.106613986
195	0xbdccf314	-0.10007301
196	0x3e01d2d8	0.12678087
197	0x3e55a69d	0.20864339
198	0x3e67fb53	0.22654466
199	0xbd9266f5	-0.07148544
200	0x3e36d595	0.17854913
201	0x3e0be701	0.1366234
202	0xbf3f958c	-0.74837565
203	0xbeb40168	-0.35157323
204	0x3e782c45	0.24235637
205	0x3e8f1a43	0.27949724
206	0x3d0e563d	0.034750212
207	0x3ef02cf5	0.469093
208	0x3dd3c25e	0.10339807
209	0x3e6e23c4	0.23255831
210	0xbf77ab99	-0.9674621
211	0xbb2713d4	-0.0025493996
212	0x3e3c3d25	0.183827
213	0xbc3a0c46	-0.011355465
214	0x3ebaf7e0	0.3651724
215	0xbe28ee4e	-0.16497156
216	0x3e04e969	0.12979664
217	0xbafe1e08	-0.0019387612
218	0x3e768686	0.24074754
219	0x3dba1f9d	0.09088061
220	0x3d8e0792	0.06935038
221	0x3e53bc2a	0.20677248
222	0x3ea65bc7	0.32491896
223	0xbee1c16d	-0.44092885
224	0x3e9e1e04	0.30882275
225	0xbe46556a	-0.1936852
226	0x3f502817	0.8131117
227	0x3e5382ea	0.20655409
228	0x3e65d0a2	0.22442868
229	0x3d8dedf8	0.069301546
230	0xbe6f6d33	-0.233815
231	0xbd798472	-0.060917325
232	0x3fabeae4	1.3431058
233	0x3ec8e155	0.39234415
234	0xbe91655a	-0.28397638
235	0xbf73f187	-0.95290416
236	0xbeb67b65	-0.35641018
237	0x3ec2db3a	0.38057882
238	0x3d597220	0.053087354
239	0xbe551309	-0.20808043
240	0x3e078ba9	0.1323687
241	0xbe727524	-0.23677498
242	0x3e003824	0.12521416
243	0xbedc227a	-0.42995054
244	0xbc2f7ceb	-0.010710935
245	0x3ea12a2d	0.3147749
246	0x3e36e8a0	0.17862177
247	0xbe1bde0e	-0.15221426
248	0x3e2589d2	0.16165856
249	0x3e8f7627	0.2801983
250	0x3d8b9622	0.06815745
251	0xbea0504f	-0.3131127
252	0x3e84f908	0.25971246
253	0x3c04efab	0.008113782
254	0x3ec50ea5	0.38487735
255	0xbe85e0a4	-0.2614795

l2.bias f4 [200]
0	0x3e76d42f	0.24104379
1	0x3db153c5	0.08658556
2	0x3cd380dd	0.025818283
3	0xbd8fd590	-0.07023156
4	0xbea6672d	-0.32500592
5	0x3e9516b9	0.291189
6	0xbc60545a	-0.013691986
7	0xbf09df6b	-0.53856534
8	0x3e6f7c44	0.23387247
9	0x3e7d8ea3	0.24761443
10	0xbe1289fb	-0.14310448
11	0x3e41b136	0.18915257
12	0x3cad4eaf	0.021155683
13	0x3e248330	0.16065669
14	0x3c66c177	0.014084212
15	0xbc885554	-0.01664225
16	0xbe2bce9b	-0.16778032
17	0x3e840664	0.25786126
18	0xbe3ce1f2	-0.18445566
19	0xbdcfd735	-0.10148469
20	0xbdbce217	-0.09222811
21	0x3cb3469d	0.021884257
22	0xbc2715ed	-0.010198099
23	0xbc0c21f1	-0.008553014
24	0xbebb95c7	-0.3663771
25	0x3ca5a9ce	0.02022257
26	0xbd69a89f	-0.057045575
27	0xbd90dcae	-0.07073341
28	0xbc98b2e3	-0.018639987
29	0xbdb7ff66	-0.0898426
30	0xbe0037d4	-0.12521297
31	0x3e45e2c1	0.19324781
32	0xbbb8bcd1	-0.005637743
33	0xbdc59832	-0.096481696
34	0xbddb7fb5	-0.107177176
35	0xbe1a841a	-0.15089455
36	0xbeac17a6	-0.33611792
37	0xbe06ec0e	-0.13175985
38	0x3ea5038a	0.32229263
39	0xbd418095	-0.047241766
40	0xbb595df8	-0.0033167582
41	0xbe99f733	-0.3007141
42	0x3c71035d	0.0147102745
43	0x3e3d11c1	0.18463804
44	0x3cece450	0.028917462
45	0xbe4e899d	-0.20169683
46	0xbbef8c09	-0.0073103947
47	0xbe0036d2	-0.12520912
48	0xbeaa1c7d	-0.3322486
49	0x3d482658	0.048864692
50	0xbcebbf16	-0.02877764
51	0xbd8aae75	-0.06771556
52	0x3e8f68c9	0.28009632
53	0xbd1067b1	-0.035255138
54	0x3decb8fd	0.11558721
55	0x3e34e80a	0.17666641
56	0x3e11cc86	0.14238176
57	0x3e13d2fe	0.14435956
58	0xbc05fc60	-0.008177847
59	0x3c1684b7	0.009186915
60	0xbea66b5b	-0.3250378
61	0x3a87b39b	0.0010353209
62	0x3d9232e7	0.07138615
63	0xbe820da9	-0.25401047
64	0xbe247e2a	-0.16063753
65	0xbcda7219	-0.026665734
66	0x3e3e1ec4	0.18566424
67	0x3d99aec2	0.075040355
68	0x3da60ab9	0.08107514
69	0xbde55d55	-0.11199442
70	0x3e6e4563	0.23268656
71	0xbda5c4d7	-0.08094185
72	0xbd88414c	-0.066530794
73	0x3c32051d	0.010865477
74	0xbe13f05d	-0.1444716
75	0x3b18af9f	0.0023298038
76	0xbc103c01	-0.008803369
77	0x3dc103f9	0.09424586
78	0xbd6869a4	-0.05674137
79	0x3e835ac1	0.25655177
80	0x3e833bf3	0.25631675
81	0x3e7c9826	0.24667415
82	0x3dd25b5f	0.10271334
83	0x3e9b4b32	0.30330807
84	0xbdaaa794	-0.08332744
85	0x3e862b8a	0.26205093
86	0x3e727c70	0.23680282
87	0xbdb94a93	-0.09047427
88	0x3dcfa8d7	0.101396255
89	0x3e2441e5	0.16040762
90	0xbd1b1154	-0.037858322
91	0x3dba3359	0.09091825
92	0xbd82fb4e	-0.06395589
93	0xbd38e7b7	-0.045142855
94	0xbe967207	-0.2938387
95	0xbd651e0a	-0.05593685
96	0x3d5d7a05	0.054071445
97	0xbd01bafd	-0.031672467
98	0x3d90c315	0.07068459
99	0xbed51cb1	-0.41623452
100	0xbe28ed35	-0.16496737
101	0x3e5e2d3d	0.21696945
102	0x3e86bb13	0.263146
103	0xbe9a0701	-0.3008347
104	0x3e8168b9	0.2527521
105	0xbda698a1	-0.081345804
106	0xbca1f8c5	-0.019771943
107	0xbe87a483	-0.264927
108	0xbd145a20	-0.036218762
109	0x3da368d8	0.07978982
110	0xbd4479b4	-0.047967628
111	0xbe8d668a	-0.27617294
112	0x3e2a3a09	0.16623701
113	0x3e45d588	0.19319737
114	0xbdc44dc9	-0.09585149
115	0x3dd66612	0.10468687
116	0x3deaaded	0.11458955
117	0xbea16d00	-0.31528473
118	0xbf079825	-0.5296653
119	0x3db3e485	0.08783821
120	0xbd31468c	-0.04328017
121	0xbea8d3b0	-0.32974005
122	0xbe7ff96e	-0.24997494
123	0xbd24c8ba	-0.04023049
124	0x3e712f4c	0.23553199
125	0xbeb5eee9	-0.35533836
126	0xbe444ee1	-0.19170715
127	0x3e8f589b	0.27997288
128	0x3dffec7b	0.12496277
129	0xbe40e989	-0.18839087
130	0xbec6d39d	-0.38833323
131	0xbe83ea1a	-0.25764543
132	0xbe642b9b	-0.22282259
133	0xbd2b1483	-0.04176761
134	0xbceec815	-0.02914814
135	0xbd336f77	-0.043807473
136	0x3cdda10f	0.027054338
137	0xbdf8d8c5	-0.121507205
138	0xbeb42a04	-0.35188305
139	0xbdab5374	-0.08365527
140	0x3d104135	0.035218436
141	0xbe401224	-0.1875692
142	0xbc5b72de	-0.013394086
143	0x3c91ecd0	0.017813116
144	0x3c234446	0.009965008
145	0x3eacfaab	0.33784994
146	0xbef7e410	-0.48416185
147	0xbca75d04	-0.020430095
148	0xbea0e7bf	-0.31426808
149	0x3de386e4	0.11109713
150	0x3c7b5644	0.015340392
151	0x3dd106ce	0.10206376
152	0x3e37e5a6	0.17958698
153	0xbea10442	-0.3144856
154	0xbd7f10b8	-0.062271804
155	0xbd908321	-0.07056261
156	0xbca65ad4	-0.020306982
157	0x3abee8e8	0.0014565261
158	0xbd07dbec	-0.03316872
159	0xbca88d24	-0.020575114
160	0x3e98b9cc	0.29829252
161	0x3e29364c	0.16524619
162	0xbec5033e	-0.38479036
163	0xbd90da9c	-0.070729464
164	0xbe56a0b2	-0.20959738
165	0xbdcd8126	-0.10034399
166	0xbe707f7e	-0.23486134
167	0xbda10e05	-0.07864002
168	0xbdf34724	-0.11878803
169	0xbf51b0c0	-0.81910324
170	0x3ea6af17	0.32555458
171	0xbc2f6a18	-0.010706447
172	0xbe24fce8	-0.16112101
173	0xbe886115	-0.26636568
174	0x3d815f90	0.06317055
175	0xbd507efc	-0.05090235
176	0x3e6d84b2	0.2319515
177	0xbe055b50	-0.13023114
178	0x3dacf41b	0.08444997
179	0xbebc4825	-0.36773792
180	0xbde383dd	-0.11109135
181	0xbd95f0a4	-0.07321289
182	0xbf122fe5	-0.5710433
183	0xbe49bac3	-0.1970015
184	0x3dfb1b85	0.12261108
185	0xbe142900	-0.14468765
186	0xbdcd8a6a	-0.10036166
187	0xbc8e6dfb	-0.017386427
188	0xbc98b985	-0.01864315
189	0xbe2a5f36	-0.16637883
190	0xbcbed38d	-0.023294235
191	0xbd039624	-0.032125607
192	0x3e9511e2	0.29115206
193	0xbec8805a	-0.39160424
194	0x3e88f1e6	0.26747054
195	0xbe2e5bfd	-0.17027278
196	0x3e3216d1	0.17391516
197	0xbd0de63b	-0.034643393
198	0xbe2eadcf	-0.1705849
199	0x3e790607	0.24318705

l3.weight f4 [4, 200]
0	0x3e833efe	0.25633997
1	0xbee09e6e	-0.43870872
2	0x3f84e1a6	1.0381362
3	0x3f00dd56	0.5033773
4	0xbf180c1c	-0.5939348
5	0xbf8f1d0d	-1.118074
6	0xbd2a3043	-0.041549932
7	0xbf47fdf3	-0.7812187
8	0x3e8be9f3	0.27326927
9	0x3ea7a904	0.32746136
10	0x3e740773	0.23830967
11	0x3edee0bf	0.43530843
12	0x3e80fd08	0.25193048
13	0xbe88c91c	-0.26715934
14	0xbd44cb46	-0.04804542
15	0xbecda41e	-0.40164274
16	0x3f187107	0.59547466
17	0x3ec47cd2	0.3837648
18	0xbec1aa97	-0.37825462
19	0x3e8a377d	0.2699546
20	0xbee22067	-0.44165346
21	0xbecc6a9c	-0.39925086
22	0x3d53a850	0.051674187
23	0x3d56d550	0.052449524
24	0xbf37dc70	-0.71820736
25	0x3d76041e	0.06006252
26	0x3d5507ec	0.052009508
27	0x3eac5f0e	0.3366627
28	0xbe879acb	-0.26485285
29	0x3e763eb9	0.24047364
30	0xbf2462a4	-0.64213014
31	0x3f4057b8	0.7513385
32	0x3cae5490	0.021280557
33	0x3ec441b1	0.3833137
34	0xbf2263f6	-0.6343378
35	0x3e3f81d4	0.18701869
36	0xbecf459d	-0.40482798
37	0xbf63a129	-0.88917786
38	0x3eaa1e6b	0.33226332
39	0x3c94b6db	0.018153599
40	0x3f1eb0b0	0.61988354
41	0x3f29ddfe	0.6635436
42	0xbcba81bd	-0.022766942
43	0x3eae76b2	0.34074932
44	0xbeb0133f	-0.34389684
45	0xbe9b5869	-0.3034089
46	0xbf1b81c4	-0.6074488
47	0x3dc5e36d	0.09662519
48	0xbeedfdd6	-0.46482724
49	0xbf152fd4	-0.58276105
50	0x3ce6d981	0.028179886
51	0x3d666acd	0.056254197
52	0x3e927807	0.286072
53	0xbd268611	-0.0406552
54	0xbe6e99fd	-0.2330093
55	0xbf0e8fe5	-0.55688316
56	0x3f150318	0.58207846
57	0x3e9c631b	0.3054436
58	0x3ec5e8eb	0.38654265
59	0x3f88476a	1.0646794
60	0xbf0c5bde	-0.5482768
61	0xbe9d6560	-0.30741405
62	0x3e8e3f01	0.27782443
63	0xbed477a5	-0.41497532
64	0x3f03b728	0.5145135
65	0x3cb5f737	0.022212608
66	0x3eb0cf1e	0.34533018
67	0xbf5de630	-0.86679363
68	0x3f28f3a6	0.6599678
69	0x3eed503a	0.4635027
70	0x3e85c02f	0.26123187
71	0x3e66c06d	0.22534342
72	0x3d2d2388	0.042270213
73	0x3dab6aa6	0.08369951
74	0x3f0cbbff	0.5497436
75	0xb92687e1	-0.00015881612
76	0x3d32f4a1	0.043690328
77	0x3e5924b6	0.2120541
78	0xbf3eafdb	-0.74487084
79	0x3ec5c478	0.38626456
80	0x3e94895e	0.29011053
81	0x3e9d1eb4	0.30687487
82	0xbd06db60	-0.032924056
83	0x3eb83a3f	0.35981938
84	0xbf16bdaf	-0.58883184
85	0x3ea66f68	0.3250687
86	0x3ebac9ff	0.36482236
87	0x3f0cecc9	0.55048805
88	0xbe93086a	-0.28717357
89	0x3eb7d26a	0.3590272
90	0x3d11d1b0	0.035600364
91	0xbe8020d2	-0.2502504
92	0xbe558058	-0.2084974
93	0x3d694334	0.056948856
94	0xbf470ae9	-0.7775102
95	0xbd6224d4	-0.055210903
96	0xbe60018d	-0.21875592
97	0x3d44cf5e	0.048049323
98	0xbf1bf527	-0.6092095
99	0xbfa8b3f7	-1.3179921
100	0x3edcecee	0.43149513
101	0x3ec2e540	0.3806553
102	0x3ea15ae1	0.31514648
103	0xbeea3a11	-0.45747426
104	0x3e65eeba	0.22454348
105	0x3ce384ba	0.02777325
106	0xbf04e016	-0.5190443
107	0xbefe5437	-0.49673626
108	0x3cbd3a5f	0.023099123
109	0xbeaa5d8e	-0.33274502
110	0x3d7e1720	0.062033772
111	0xbefa8173	-0.48926887
112	0xbeb73636	-0.35783547
113	0x3e7a7032	0.24456862
114	0xbd05a9eb	-0.03263275
115	0x3efc1fce	0.49243015
116	0x3ea46260	0.32106304
117	0x3e602d7f	0.21892355
118	0xbf546bc1	-0.8297692
119	0xbe369a9e	-0.1783242
120	0xbea42429	-0.32058838
121	0xbedc9418	-0.43081737
122	0xbe4276b2	-0.18990591
123	0xbede872a	-0.43462497
124	0x3efd45de	0.49467367
125	0x3f782ec6	0.9694637
126	0xbf0407aa	-0.51574194
127	0x3e90467f	0.28178784
128	0xbea496ae	-0.3214621
129	0xbd06af6c	-0.03288214
130	0x3f4d84ec	0.8028095
131	0x3f798678	0.9747081
132	0x3eb12bf7	0.34603855
133	0x3c0d3858	0.00861939
134	0x3d1bf669	0.038076792
135	0xbd98157c	-0.07425973
136	0xbe4c7508	-0.19966519
137	0x3f6987a2	0.91222584
138	0xbf1e37fa	-0.61804163
139	0x3dadfdf1	0.08495701
140	0xbf2c1e69	-0.672339
141	0x3d1612aa	0.036638893
142	0x3b9d53bc	0.0048012417
143	0xbbaf334f	-0.0053466926
144	0x3d736229	0.059419785
145	0x3e9361d3	0.2878557
146	0xbf6164c2	-0.8804437
147	0x3d36a5ad	0.044591594
148	0x3ec5e243	0.38649186
149	0x3dec5b41	0.11540843
150	0xbe7a7137	-0.2445725
151	0xbef7291c	-0.4827355
152	0x3efb9bc0	0.49142265
153	0xbf55cc38	-0.8351474
154	0xbe825bc9	-0.25460652
155	0xbefce0a7	-0.49390146
156	0xbf299617	-0.66244644
157	0xbd949031	-0.07254065
158	0x3f677679	0.9041515
159	0xbf65e7b5	-0.8980668
160	0x3eab8137	0.3349702
161	0x3f1e1e45	0.6176494
162	0xbf499f24	-0.78758454
163	0x3f06699f	0.52504915
164	0x3ee27cc5	0.44235817
165	0xbe48222e	-0.19544289
166	0x3f81a658	1.0128889
167	0xbe285b3f	-0.16441058
168	0x3e691ed5	0.22765668
169	0xbfa1e6ce	-1.2648561
170	0x3ed873db	0.4227589
171	0xbd83467d	-0.06409929
172	0x3f220aff	0.6329803
173	0xbf221c80	-0.6332474
174	0x3eae414c	0.34034193
175	0xbe243be1	-0.16038467
176	0x3e89ca7e	0.26912302
177	0x3e805f37	0.25072643
178	0xbe87f7c4	-0.26556218
179	0xbf6099f3	-0.8773491
180	0x3ea402b4	0.32033312
181	0x3d75be8c	0.059996173
182	0xbf994cc7	-1.1976556
183	0x3f2bc445	0.6709636
184	0x3e8de4fd	0.27713767
185	0x3eaab6a5	0.33342472
186	0x3ccf5bbc	0.025312297
187	0x3d629255	0.055315334
188	0xbebd89cb	-0.3701919
189	0x3eed5419	0.46353224
190	0x3e188170	0.14893126
191	0x3d5cbbb0	0.05388993
192	0x3ecb809f	0.39746568
193	0xbf830d82	-1.0238497
194	0x3f30a762	0.69005406
195	0x3e93d50d	0.28873482
196	0x3ee1cd5b	0.44101986
197	0x3c7b228a	0.015328059
198	0xbef15e0d	-0.47142068
199	0x3e37bef2	0.17943934
200	0x3e843803	0.25823984
201	0xbea7743c	-0.32705867
202	0x3f7cad0b	0.9870154
203	0x3ecf11e2	0.4044333
204	0xbe9f3ec5	-0.31102577
205	0xbf8fc35a	-1.1231492
206	0x3d29bf20	0.041442037
207	0xbf4ce616	-0.80038583
208	0x3e9db31b	0.3080071
209	0x3eb8ca57	0.36091873
210	0xbdcdeb7a	-0.10054679
211	0x3ef0f23a	0.47059804
212	0x3ed9a6e5	0.42510143
213	0xbe66cd74	-0.22539312
214	0x3d48a834	0.048988536
215	0xbedd9175	-0.43275037
216	0x3e35a5c0	0.1773901
217	0x3ec2a31a	0.38015062
218	0xbefbaa32	-0.49153286
219	0x3f1340ef	0.57520956
220	0xbf000ca9	-0.5001932
221	0xbeb94302	-0.36183935
222	0xbd429260	-0.047502875
223	0x3d34deb7	0.04415771
224	0xbf358a87	-0.709145
225	0x3d60e5b3	0.05490656
226	0xbd341b7a	-0.043971516
227	0x3ea7663a	0.3269518
228	0xbe8a3933	-0.26996765
229	0x3e09c686	0.13454637
230	0xbf6241f0	-0.8838186
231	0x3f331ee4	0.6996901
232	0x3d62de1d	0.055387605
233	0x3eda6011	0.42651418
234	0xbf06b24c	-0.5261581
235	0x3e67b259	0.22626628
236	0xbec87e3f	-0.39158818
237	0xbf5a5d75	-0.85298854
238	0x3ec7af62	0.39000994
239	0xbcd27191	-0.025688918
240	0x3f13916b	0.57643765
241	0x3f038815	0.5137952
242	0x3c47b79d	0.012189773
243	0x3e99d806	0.30047625
244	0xbebf1ce4	-0.3732673
245	0x3eb436e1	0.3519812
246	0xbf25b954	-0.64735913
247	0xbc966b46	-0.018361699
248	0xbef68748	-0.48150086
249	0xbf09b519	-0.5379196
250	0xbcbde816	-0.023181956
251	0x3d1a29fc	0.037637696
252	0x3e8e621a	0.2780922
253	0x3d2be5c7	0.04196718
254	0xbdc60983	-0.09669783
255	0xbf08060c	-0.53134227

l3.bias f4 [4]
0	0x3ee51b12	0.44747216
1	0x3e83de57	0.2575557
2	0x3e39574e	0.1809971
3	0x3e8c1a4d	0.27363816
