fin/DDQN/agent-300-10-475/target_model.pt (torch, 340543 bytes, 6 tensors)

l1.weight f4 [400, 8]
000000 85 e3 77 be f5 d1 fd 3d 97 c2 9f be 5f 7e 01 be
       -0.24207886 0.12393562 -0.31203148 -0.12645863
000010 b2 80 d4 be e7 20 2f be a5 64 ab 3d 12 02 8c be
       -0.41504437 -0.17102395 0.08368806 -0.2734533
000020 7c 18 e9 3d 8e 27 54 3e 1f 4d 80 bd b0 6e 61 be
       0.11381623 0.20718214 -0.0626471 -0.2201488
000030 98 e5 57 3e 02 bb fc 3c f3 47 22 be 08 82 e5 be
       0.21083677 0.030850891 -0.15847759 -0.44825768
000040 b5 77 9a bd 78 36 4d 3b 8c f7 d3 bc 03 6b da be
       -0.075423636 0.0031312983 -0.025874875 -0.42659768
000050 3e b4 b6 3d 18 80 da be 6b 5f af bf 86 b1 63 bf
       0.08921097 -0.42675853 -1.3700994 -0.88942754
000060 f7 77 fb bc a7 57 41 3e 28 39 af bd db 24 e0 3d
       -0.030696852 0.18881093 -0.085558236 0.109445296
000070 8e 9c d5 bd 38 4e d7 3e 98 3c a2 be 3c ca dc be
       -0.10430251 0.42051864 -0.31686854 -0.43123043
000080 bf ba bf 3e 0c d2 35 3e 12 e5 a8 3e 54 1f 55 be
       0.37447163 0.17755908 0.32987267 -0.20812732
000090 3c db 3d 3f 69 ac 4c 3e fc 04 95 3c ed b9 d0 bd
       0.7416265 0.19987644 0.018190853 -0.101917125
0000a0 c4 22 05 3f d5 8b 93 bb 41 e0 bb bd 9e 7b b2 be
       0.52006173 -0.0045027533 -0.091736324 -0.34859937
0000b0 7a 1e 15 bf 9d 74 f9 bd 57 76 9f bf 78 25 b6 bd
       -0.5824963 -0.12180445 -1.245799 -0.08893865
0000c0 4e 73 9d 3f 13 64 b4 be 3d 9c 61 3f 82 15 a6 3e
       1.2300813 -0.352326 0.88129026 0.32438284
0000d0 fa fb 0e bf b0 ec e1 bd 71 3e 82 be 6c 98 d3 3c
       -0.55853236 -0.11031473 -0.25438264 0.025829516
0000e0 1d 77 38 be 24 69 1b 3e 42 bd 1b 3f 07 03 a6 3c
       -0.18014188 0.15176827 0.6083566 0.020265115
0000f0 42 3f 08 3f cf 1c b1 be fa 64 33 bf 14 2a 2e 3e
       0.53221524 -0.34592292 -0.70075953 0.17008239
000100 02 49 11 3f bf 77 14 3e 0d ad 46 be f2 f2 05 bf
       0.56752026 0.14498805 -0.19401951 -0.5232383
000110 8e 06 76 be 99 ad 9b bf 43 68 4a bd 2b 7c 6d bf
       -0.24025938 -1.2162353 -0.049415838 -0.9276759
000120 f4 07 11 be 90 49 05 be a6 d0 bf be 90 c0 5f 3e
       -0.1416319 -0.13016343 -0.37463874 0.218508
000130 51 fa 00 bf 01 a5 cb be a4 dc dc bc c0 df 94 be
       -0.5038195 -0.39774325 -0.026960678 -0.29076958
000140 9b ec 8d be e8 2e 44 3e aa ec 2d bf e7 25 fe 3d
       -0.27719578 0.19158518 -0.67939246 0.12409573
000150 71 cf b1 be 8d 3e 47 bf e2 1d af be ca 10 f2 3e
       -0.34728578 -0.7782982 -0.34202486 0.47278434
000160 c0 5a db bc 76 fd 30 3e b5 00 6c be c7 d9 f5 be
       -0.026776671 0.17284188 -0.23047145 -0.48017713
000170 30 06 4f 3e b1 14 e9 3e c4 1c 88 be 6a 54 2a bf
       0.20217204 0.455236 -0.26584446 -0.66535056
000180 4c 89 ae 3d 99 0f 4a be 52 ff 00 bf c3 fe 37 3e
       0.08522281 -0.19732513 -0.5038959 0.17968278
000190 12 07 51 3f 34 e6 61 bf ea 7f e4 be f2 24 30 bf
       0.81651413 -0.8824189 -0.4462884 -0.68806374
0001a0 a6 18 1e 3c 9d 30 04 be ce 7e ee be 4a 45 19 be
       0.009649431 -0.1290917 -0.4658112 -0.14967838
0001b0 ff ef 84 be 40 d3 e4 3b dc 0f 9b be 7e a5 f9 3d
       -0.25964352 0.006983191 -0.30285537 0.12189768
0001c0 eb 16 22 3f 2e 05 bf bd 61 ed d6 bd 3e c8 ad be
       0.6331622 -0.0932716 -0.10494495 -0.33941835
0001d0 02 d3 8d be f0 ca 55 bf 68 8d b4 be 73 0a 4b 3f
       -0.2770005 -0.83512783 -0.35264134 0.7931282
0001e0 87 19 21 3f 71 97 80 bc 77 1d 34 3f 87 9b 9b 3f
       0.62929577 -0.015697213 0.7035746 1.2156838
0001f0 2e fe 46 3f 4e 3e 23 bf a4 5d 1b 3e 87 03 85 3e
       0.777316 -0.63766944 0.1517244 0.25979254
000200 b6 bc 71 bf bd e6 f3 bc 69 e4 35 bf 77 5d fb 3d
       -0.94428575 -0.02977311 -0.7105165 0.122736864
000210 7e a1 57 3e 13 65 2d be 11 c8 87 bf b6 b8 d7 bd
       0.21057698 -0.16933088 -1.060793 -0.10533278
000220 64 c9 a8 3b 33 29 f0 be 58 80 e6 be 0e 37 26 3f
       0.0051509608 -0.46906433 -0.45019794 0.64927757
000230 c2 2a 99 3f 36 fd 26 3f c3 60 12 bf 7c 4e f1 bd
       1.1966174 0.6523012 -0.57178897 -0.11782548
000240 eb 41 8e bd 4c ad 97 3e 14 37 d1 3d c6 fe 92 bd
       -0.069461666 0.29624403 0.102155834 -0.071775004
000250 31 b4 e2 bd 28 39 b8 be de 85 08 3d 4d 30 ca be
       -0.11069525 -0.35981107 0.03333079 -0.39489976
000260 65 67 bd 3e e0 3a 32 be c4 a4 a1 3e b0 1e b8 bc
       0.36992946 -0.17405272 0.3157102 -0.02247557
000270 40 44 99 bd ce 82 58 3e 8d 64 1e be 2e ef 13 3d
       -0.07483721 0.21143648 -0.15468045 0.03611677
000280 4a 3d 6f bf 06 9b 2c bf bb fd 94 3e e3 ab aa be
       -0.93452895 -0.67424047 0.2909983 -0.33334264
000290 36 ac 6f be 89 c6 f3 be 1d a4 9f 3e a3 cc 44 3d
       -0.23405537 -0.47612408 0.31179896 0.04804672
0002a0 5a 84 1c be 28 90 81 be 60 bb e0 3e 5b 97 92 3f
       -0.15284863 -0.25305295 0.43892956 1.145244
0002b0 43 d5 1d bf 36 53 e3 3e 90 03 fd 3e 4c d3 0d 3f
       -0.61653537 0.44399422 0.4941678 0.5540054
0002c0 2b 93 a9 3e 8f 88 eb be 6f 7d c5 be ff 52 f7 3f
       0.33120093 -0.46002623 -0.3857226 1.9322203
0002d0 25 0c 43 be 77 29 29 be c2 89 bf 3d 86 9a 3d 3d
       -0.19047602 -0.16519724 0.09352447 0.046289943
0002e0 d5 31 35 3f 26 32 4c 3d f6 24 4e 3f dc 3a d3 bc
       0.7077916 0.049852513 0.8052515 -0.025784902
0002f0 fe 1f 82 be 78 d6 26 3f 95 79 c2 bd 4a dc 64 bf
       -0.25415033 0.65171003 -0.09495846 -0.89398634
000300 ca 1a d9 3e f2 3d 97 bf 0c c3 9d bd 46 30 01 40
       0.4240325 -1.1815779 -0.07703218 2.0185714
000310 86 72 f9 3e 72 da 3c 3e 68 c5 41 bf 0b 3f a8 3e
       0.48720187 0.18442705 -0.75691843 0.32860598
000320 3b c0 46 3e 2e 9e 4b 3e ac d9 f1 3e 3e 33 85 3d
       0.19409268 0.1988456 0.47236383 0.06503914
000330 67 fe 55 3e bc 22 cb 3e a1 08 b0 3e 49 e7 c9 be
       0.20897828 0.39674938 0.34381583 -0.3943427
000340 31 7c 58 bf 62 2b 91 bf fe f4 26 3e 79 69 96 3f
       -0.845645 -1.1341364 0.16304395 1.1750938
000350 ab fd fe 3e 0f 94 19 bf d8 13 86 3f 59 a6 c0 3e
       0.49802908 -0.59991544 1.0474806 0.37626913
000360 77 ba 88 bf 41 05 c7 3e 12 52 7f 3e 9b 87 ff be
       -1.0681905 0.38871196 0.24933651 -0.49908146
000370 35 38 68 3e 1c a0 0e be 6e 1c 8d 3e 52 91 9f bf
       0.22677691 -0.13928264 0.27560753 -1.2466223
000380 0e 38 14 3f 6c 03 3d 3e c7 63 c2 3c 02 27 d7 be
       0.5789803 0.18458337 0.023729218 -0.42021948
000390 30 e8 21 3d 49 49 2b bc e5 cf 67 bf 5a 68 26 bf
       0.039528072 -0.010454484 -0.90551597 -0.6500298
0003a0 da ce 09 bf 44 ff b2 bb e7 23 ca 3e a2 5a ae 3d
       -0.53831255 -0.005462559 0.39480516 0.085133806
0003b0 66 04 0b 3f 9d d4 86 be a2 0a f2 be 70 a8 16 be
       0.54303586 -0.26334086 -0.47273737 -0.14712691
0003c0 55 f4 1a bf d8 5f 8f 3d 1d e6 2f bd 34 c3 3d be
       -0.6052907 0.070007026 -0.042944063 -0.18531495
0003d0 9e 4f 61 bf 09 d9 3a bd 8f 06 63 be 0b 0e ac 3e
       -0.8801211 -0.045617137 -0.2217047 0.33604464
0003e0 40 53 45 3e 69 40 18 3e 4f 9e 02 3d d9 62 97 3e
       0.19270039 0.1486832 0.031889256 0.29567602
0003f0 41 ad 06 bf 33 b4 3d 3f 68 d0 02 bf ec eb 3a 3e
       -0.52608114 0.7410309 -0.5109925 0.1825406

l1.bias f4 [400]
000000 db 3f 06 bf 83 f7 77 be a5 ff df 3e 4c 7b 0f 3e
       -0.52441186 -0.24215512 0.4374973 0.14011878
000010 35 86 a1 3d 01 3a 48 3e f6 21 58 3d 1d 99 cd be
       0.07886926 0.19553377 0.052766763 -0.4015588
000020 10 c6 8a bf f0 7a 98 3e c1 bd 89 be 56 5b 2e be
       -1.0841694 0.29781294 -0.26902583 -0.1702703
000030 1e 70 1f bf 37 d6 d7 3e c1 68 35 bf 8d 5d 08 be
       -0.6228045 0.4215562 -0.70862967 -0.13316937
000040 26 c6 55 bd 28 43 0f bf 5a 09 2c 3d 60 4a 9d 3e
       -0.052190922 -0.5596185 0.042001106 0.30720806
000050 52 64 bb 3d e6 0b 64 be c0 d1 a6 3d 10 88 e0 bb
       0.09149994 -0.22270164 0.081454754 -0.0068521574
000060 25 6a 55 be ae ed 6b be 2a 5f bf be f0 06 e7 bc
       -0.20841272 -0.23039886 -0.37377292 -0.02820155
000070 8b a1 64 3d 21 83 7a bd e9 3a 41 be 1b 6b 2b 3e
       0.055818122 -0.06116021 -0.18870129 0.16740076
000080 dc fd c8 bc a4 b5 0e 3d 55 94 52 be 8e 85 4e bf
       -0.024535112 0.034841195 -0.20564397 -0.8067254
000090 c7 b5 8e 3e b8 58 f5 3d 6c 0a 11 bc ea 66 e2 3e
       0.2787306 0.119798124 -0.008852582 0.44219142
0000a0 b4 1d 9e be 02 2d c5 be 87 22 fd be c2 13 8e be
       -0.30882037 -0.385109 -0.49440405 -0.2774945
0000b0 4d c5 3e bf 5a 24 f4 bd 33 63 81 be bb fa 0a bf
       -0.7451981 -0.11920996 -0.25270995 -0.54288834
0000c0 0b b3 db bd 03 3c 80 3d d6 f1 ae bd 2d 21 88 3d
       -0.10727509 0.06261446 -0.0854222 0.06646953
0000d0 52 7d 93 be 58 63 88 3d 0f bc 8a be 84 8f 10 bf
       -0.2880655 0.06659573 -0.27096602 -0.5646899
0000e0 2a f1 fe be c3 cd 3c 3e 04 91 31 3e c4 04 b3 3d
       -0.4979337 0.18437867 0.17340475 0.08741143
0000f0 44 e9 16 bd 5c d8 5e bd dc fd 5c bf 60 fa 3d bc
       -0.036843553 -0.054405555 -0.8632486 -0.011595339
000100 68 c2 c5 3e 3f a2 4b 3c 0e 46 49 ba 42 84 a2 3e
       0.38624883 0.012428819 -0.00076779805 0.3174153
000110 83 a6 99 3e 56 59 39 be f4 c6 8b 3e 3a 11 63 bc
       0.3000985 -0.18100485 0.27300227 -0.013859088
000120 a3 39 57 be b8 e3 1d bf cc e4 10 3f e3 6c 11 3d
       -0.2101808 -0.61675596 0.56599116 0.035504233
000130 13 41 a1 be 0d f6 e9 bc 31 cf b5 bb 9d f3 29 bf
       -0.3149496 -0.028559709 -0.005548381 -0.6638735
000140 16 05 c0 3e 82 9b 13 bf 86 7e d1 be 6d 7a a1 3d
       0.3750388 -0.5765916 -0.40916842 0.07884679
000150 cd 01 ca be 68 88 18 be b2 7d 2e bf db 6e 84 3c
       -0.394545 -0.14895785 -0.68160546 0.016166141
000160 b6 98 3e bf 14 0c 85 bf ef 1a 67 be 24 12 00 bf
       -0.7445177 -1.0394311 -0.22568868 -0.5002768
000170 a9 bd 73 3e ab 01 86 3e 45 02 96 3c de 6e d5 3d
       0.23802818 0.26173148 0.01831163 0.10421537
000180 56 3d 5b 3e 8c 67 c4 be c0 1a 4d 3e 09 91 aa 3a
       0.21410117 -0.3836025 0.20029736 0.0013013195
000190 5d 74 b5 3e ae 35 33 39 70 30 53 3e c4 0f bf bd
       0.3544034 0.00017090768 0.20623946 -0.09329179
0001a0 f8 02 86 be 71 f8 6e 3d c6 87 15 3e be 52 99 3a
       -0.2617414 0.0583424 0.14602575 0.0011697633
0001b0 c5 78 50 3e 54 b7 93 3e fa 33 c9 3e 6c 2b ed be
       0.2035857 0.28850806 0.39297467 -0.4632219
0001c0 ab 61 6a be 49 8c d6 be f3 c9 c7 3e bd 41 6a bf
       -0.2288882 -0.41903904 0.39021263 -0.9150656
0001d0 0d 77 55 3e e9 4d bf be b5 fc 27 3c 0f 30 20 3e
       0.20846196 -0.37364128 0.010253121 0.15643333
0001e0 15 f3 b7 bd 8b 9c 90 3d c9 d1 0b be e0 3e fa be
       -0.08981911 0.07061108 -0.13654245 -0.48876095
0001f0 6f 9e af be eb 47 6c 3d 75 3c aa 3e ec b8 dd bc
       -0.34300563 0.057685774 0.3324925 -0.027065717
000200 51 ff 72 3d 79 ab bc 3e f4 f3 a5 bd 2e 94 22 bc
       0.05932552 0.36849573 -0.08103171 -0.009923024
000210 4e 79 0a bf 4d 12 76 3e f7 28 6e bf 0a b1 57 be
       -0.54091346 0.24030419 -0.9303126 -0.21063629
000220 dd d3 16 bf 77 82 ee be f5 ce 2c bf 1a 2d fd be
       -0.5891703 -0.46583912 -0.6750329 -0.49448472
000230 cb 68 5d be 64 5b 0b bf 33 95 94 bf ac f4 4f bc
       -0.21622007 -0.54436326 -1.1608032 -0.012692612
000240 29 33 97 bd 5d 7b d2 be 73 b7 1f 3b 6e 81 d8 3e
       -0.07382805 -0.41109744 0.002437082 0.42286247
000250 c5 e4 2b bf 01 84 ec be fa 1e 17 bf 4b 88 9b 3d
       -0.6714595 -0.4619446 -0.5903164 0.07594355
000260 41 fa 27 bf 87 4b db bd 63 39 6f 3c 8e 01 df be
       -0.6561623 -0.10707765 0.014601084 -0.43555874
000270 c9 fa e4 be 33 dc 95 be 23 49 a1 be 36 86 b0 b9
       -0.44722584 -0.2926956 -0.3150111 -0.0003366933
000280 58 fe 2e bf 24 77 ed bd 70 08 75 be 2d af 13 bf
       -0.6835685 -0.1159499 -0.23929 -0.5768917
000290 13 8d 15 bf bf b3 13 bf b5 de 54 be 93 b3 be be
       -0.5841839 -0.57696146 -0.20788081 -0.3724638
0002a0 c6 fe 9b 3e 53 ee 17 bf 6f 62 e6 3e 90 ed cf be
       0.30467814 -0.5934803 0.44996974 -0.40610933
0002b0 40 4e a6 3d 72 5e c1 3b 88 13 08 bf 9a 43 6c be
       0.08120394 0.0059011513 -0.531548 -0.23072663
0002c0 66 cd 40 3c f6 ba 97 be 85 82 12 3e 85 f5 09 3c
       0.011767721 -0.29634827 0.14307602 0.008420353
0002d0 ea c4 ae bd 21 e9 a0 3e 00 e2 c6 be 68 88 de bd
       -0.08533652 0.31427863 -0.388443 -0.10865861
0002e0 ca 9f fc 3d 10 a3 2f bf 2a 14 ad bb a3 18 19 3e
       0.12335165 -0.6860819 -0.0052819448 0.14950804
0002f0 44 07 0e bf 65 26 f6 be cb 34 20 bc ab 27 43 bf
       -0.55479836 -0.48076168 -0.009778212 -0.76232404
000300 b9 9d 84 bf d6 80 da 3e b4 03 38 bf aa 67 2a be
       -1.0360633 0.4267642 -0.7188065 -0.16641107
000310 ca 5f 0e bf 66 69 2e be cb 87 8a 3e 4a 09 09 bf
       -0.5561491 -0.17032394 0.27056727 -0.535298
000320 35 a8 c3 be ba a7 f0 3d bf 96 85 be 72 4b 4e 3e
       -0.3821427 0.11750741 -0.26091573 0.20145968
000330 26 f8 c9 bd dc e3 98 3d 40 7d e2 be 24 3c ec be
       -0.09861784 0.07465336 -0.44236183 -0.46139634
000340 fd 75 3d bf e8 22 5e 3e 9c ca 06 bf c3 bf e8 be
       -0.7400816 0.21693003 -0.5265291 -0.45458803
000350 18 0d dd 3d 00 63 33 be 8f c8 81 3e 41 85 da 3d
       0.10793513 -0.17518234 0.25348327 0.106699474
000360 c3 f1 23 bf c9 9b b4 be c7 02 f7 be a5 33 02 bf
       -0.64040774 -0.35275105 -0.48244306 -0.50860053
000370 25 bd 09 3e a3 3d 61 3e 48 16 f1 be 5c 38 88 3e
       0.13451059 0.21996169 -0.47087312 0.266055
000380 a0 83 92 3e 05 01 2f bd 0b 95 aa be 3c 98 56 bc
       0.28616047 -0.04272558 -0.33316836 -0.013097819
000390 58 7b 75 3e cc 1b b6 bd a0 7f 13 3d ed 10 96 3d
       0.23972833 -0.088920206 0.036010385 0.07327447
0003a0 3d ba a2 bb 20 15 c1 ba b2 8d 13 3e c8 f7 cf bc
       -0.004966049 -0.0014731027 0.14409521 -0.025386706
0003b0 21 5b ca be e5 82 ca 3c 1e c8 14 3e bd f9 31 bf
       -0.3952265 0.024720619 0.14529464 -0.69521695
0003c0 17 7d 6d 3e 4a ed 38 3e 2c 7f aa be 5b a8 1a 3d
       0.23192249 0.18059269 -0.3330015 0.037758213
0003d0 21 6d 6b be 4e ba dd be c6 8f d0 bd 74 a5 0a bf
       -0.22990848 -0.43306202 -0.101836726 -0.5415871
0003e0 89 95 02 3e 2b 7c 34 3d 08 07 86 be 68 be 0e bf
       0.12752356 0.04406373 -0.2617724 -0.55759287
0003f0 46 f4 84 be a8 cb 8e be 74 19 04 3a f9 d4 dc 3c
       -0.25967616 -0.27889752 0.0005039193 0.026957022

l2.weight f4 [200, 400]
000000 4a 95 4f be d5 50 e4 3d 8f 6c 75 3e 87 54 74 3d
       -0.20271793 0.1114823 0.23967193 0.059650924
000010 43 25 bb bb 05 6e 51 3d 8f 59 8f be 11 d7 a9 3c
       -0.005711229 0.051130313 -0.27998015 0.020732434
000020 2f 6c 9c bf 36 c0 7a bd 46 dd 4d be 99 4a 94 3d
       -1.2220515 -0.061218463 -0.2010394 0.07240791
000030 cd 01 eb 3d 84 8d 76 bd bd 40 4a bf 42 87 57 bd
       0.11474953 -0.060193554 -0.7900503 -0.052619226
000040 e9 0a bf be 4a a6 d1 3c f1 af ee 3d dd df a0 3e
       -0.3731301 0.025591988 0.11654652 0.31420794
000050 aa bd 99 3e b3 29 4a 3e df 3a 19 bd 56 61 7c be
       0.30027515 0.1974247 -0.03740966 -0.24646506
000060 12 0f 84 bd 77 5a 28 3d 11 31 83 3e ff d7 5e 3e
       -0.06448187 0.0411019 0.25623372 0.21762083
000070 38 d2 52 3e 2e a7 38 3d 99 53 76 3e ba 4a 80 be
       0.20588005 0.04508131 0.24055327 -0.25057012
000080 51 bb bb be 62 9d 84 be f3 c5 df 3d c4 7f 9a be
       -0.3666635 -0.25901324 0.10926428 -0.30175602
000090 be 8a 0e 3e 56 55 3b 3e da 7a 11 3e 90 7b ad 3e
       0.13920113 0.18294272 0.1420702 0.33883333
0000a0 59 07 ec bd a3 1a f4 bd 42 54 83 3c 59 0c 60 3e
       -0.11524839 -0.11919143 0.016031388 0.2187971
0000b0 c8 6f 64 bf 03 8e 1f 3e 29 89 d5 3e 0f fc 47 bf
       -0.89233065 0.15581517 0.41706207 -0.78118986
0000c0 3f 16 9e 3d 88 88 45 3e 32 4e 74 3e cf c3 2c bf
       0.07719087 0.19290364 0.23857954 -0.6748628
0000d0 8a 13 36 3e 69 2a dc be 37 fb b0 3e 58 23 96 bf
       0.17780891 -0.43001106 0.34566662 -1.1729536
0000e0 cd e2 81 bd 81 13 aa 3a ef a9 da 3d 6f 94 a5 be
       -0.06342087 0.0012975783 0.106769435 -0.32339808
0000f0 31 19 a9 3e 20 7d 19 3e 42 ab b3 be cc 41 5a 3d
       0.33027032 0.14989138 -0.35091597 0.053285405
000100 d8 91 39 be e5 56 bb be ee 0f 7e 3e 50 1c 37 3f
       -0.18122041 -0.36589733 0.24810764 0.71527576
000110 90 0a 23 3e b7 21 69 3d 04 0b 5a 3e e6 4b 3a 3f
       0.15921998 0.05691692 0.21293265 0.7277206
000120 dc 18 81 bc 94 79 8d 3e 72 be 4e 3d e2 4d 26 bf
       -0.015758924 0.2763182 0.05047459 -0.6496259
000130 5e 37 59 3d 53 86 6f 3e 21 32 29 3f df 84 fb 3e
       0.053031318 0.23391084 0.66092116 0.4912481
000140 43 aa c8 bd 3f 2b 46 3e bc ab d3 3e e2 de 13 3e
       -0.097981 0.19352435 0.4134196 0.14440492
000150 38 60 9c 3d 1e e6 16 be fb 3f 16 bf bc 12 79 3e
       0.0763554 -0.1473622 -0.58691376 0.24323553
000160 54 57 9b be 39 84 83 bf 21 8f 6d 3e df f2 4a bd
       -0.30340064 -1.0274726 0.2319913 -0.049548026
000170 78 37 1f 3e 1c 6c e0 bc 04 01 b1 be 9e 2b d7 be
       0.15548503 -0.0273953 -0.34571087 -0.42025465
000180 d5 92 30 3e fd da b0 3e 16 84 31 3e d0 f4 94 3e
       0.17243512 0.34542075 0.17335543 0.29093027
000190 23 19 fe 3e 3a 1f d0 3e 07 0d 5a be b3 d7 fe 3d
       0.49628553 0.40648824 -0.21294032 0.12443485
0001a0 53 77 cc 3c 24 1a 65 3d aa de b9 bd 7e 47 69 3f
       0.024959242 0.055933133 -0.09075673 0.91124713
0001b0 25 40 2c be 77 66 90 3d 28 eb bb be 9e 9a c5 bd
       -0.16821344 0.070507936 -0.36702847 -0.096486315
0001c0 25 b4 97 3e e2 77 ea bd c0 91 b7 3e 88 f5 91 bf
       0.29629627 -0.11448647 0.35853386 -1.1403055
0001d0 24 23 b5 be dc 06 2b be 41 3e 14 3e 0b 5a 22 bf
       -0.35378373 -0.16701835 0.14476873 -0.63418645
0001e0 a9 1d 15 3e 23 ba 66 3d 04 73 84 be 06 74 c8 3e
       0.14562096 0.056329858 -0.25869 0.3915102
0001f0 23 2d 68 3f 27 00 05 3d 5d 9f 13 3e 30 b0 cd 3d
       0.90693873 0.03247085 0.14416261 0.10043371
000200 23 aa fe bd b6 cd b7 3e 47 79 0d 3e b8 6d ff 3e
       -0.12434795 0.35899132 0.13815795 0.49888396
000210 0c e5 4a bf 3a 84 1d 3e fd 0e 5b bf 2f 0e 10 3e
       -0.7925575 0.15382472 -0.85569745 0.1406791
000220 5c 72 82 3e 9d 35 95 bf 05 9c d8 bd da 25 98 3d
       0.25477874 -1.1656986 -0.10576633 0.074290946
000230 bb 68 96 3e 1f 00 b1 3d 95 a8 99 bf 40 1f 47 bf
       0.29376778 0.08642601 -1.2004572 -0.7778206
000240 2f b6 b2 3d 79 5b 37 3e 79 2c d0 3e f7 22 62 3e
       0.08726155 0.17905988 0.4065893 0.2208365
000250 da 41 a1 3e a7 7a 85 3c f6 9d 1a bf c1 3b 29 bd
       0.31495553 0.016293837 -0.6039728 -0.04131675
000260 4a cc 2f 3e 06 5f 36 3e 1d d8 95 be 1e f3 0d bd
       0.17167774 0.17809686 -0.29266444 -0.034655683
000270 98 4d 95 bf 0b 28 67 be 62 ba 81 3e b9 76 ac 3f
       -1.1664305 -0.22573869 0.2533751 1.3473731
000280 77 0a 25 3e c2 b8 a8 ba e3 f7 2c 3e 07 21 04 3e
       0.16117273 -0.0012872445 0.16891436 0.12903224
000290 4f 92 f9 3e 57 12 94 3d 18 e6 fc 3e e3 9b 16 3d
       0.48744437 0.072300605 0.49394298 0.03676976
0002a0 34 a8 42 bd cf 51 93 be 54 3f 30 3e a7 42 ab 3e
       -0.047523692 -0.28773353 0.17211658 0.3344929
0002b0 53 3f 4f 3e b9 89 09 be 33 ff 14 bf 06 3d d5 be
       0.20239 -0.13431443 -0.58201903 -0.4164812
0002c0 89 54 03 3e 23 b0 7c bb c4 4b 03 3e 33 ca 33 3e
       0.12825216 -0.0038557134 0.12821871 0.17557602
0002d0 93 e4 91 3e c8 af 31 3e 1d e9 35 3e 0c 39 b7 3d
       0.284947 0.17352211 0.17764707 0.08946428
0002e0 ed 73 ed 3d 24 23 2f bf 92 ee 89 3f ab 5b f3 3d
       0.11594377 -0.68412995 1.0775931 0.11882719
0002f0 e4 0d 92 3e c4 12 85 3e cb 59 90 3c 2d 6a 10 bf
       0.28526223 0.2599088 0.017620942 -0.5641201
000300 28 c0 4b bf e7 68 49 be 58 db d9 3d 80 91 cc bd
       -0.7959008 -0.19668923 0.106375396 -0.099886894
000310 84 6f 02 3e e0 7a 55 3e fd db 67 3e 48 93 92 bd
       0.12737852 0.20847654 0.22642513 -0.07156998
000320 bf dc 36 3e 23 51 0c 3e 09 8b 3f bf cd ed b3 be
       0.17857645 0.13702826 -0.74821526 -0.35142365
000330 ff e4 77 3e 94 18 8f 3e 93 8c 0c 3d 19 07 f0 3e
       0.24208449 0.2794844 0.03431375 0.46880415
000340 5e c2 d3 3d f3 30 6e 3e 53 bc 77 bf b3 28 26 bb
       0.10339807 0.2326086 -0.96771735 -0.0025353848
000350 92 31 3c 3e 82 0b 41 bc 23 dd ba 3e ea d0 28 be
       0.18378285 -0.011782529 0.3649684 -0.16485944
000360 f5 cc 04 3e db ad fe ba aa be 76 3e 6a 12 ba 3d
       0.1296881 -0.0019430475 0.2409617 0.090855435
000370 cc ce 8d 3d df d5 53 3e 0b 53 a6 3e 07 a2 e1 be
       0.06924209 0.20687054 0.32485232 -0.4406893
000380 5a 21 9e 3e a6 77 46 be 71 14 50 3f 41 4a 53 3e
       0.3088482 -0.1938158 0.8128119 0.20633794
000390 77 a8 65 3e 75 fb 8c 3d 7c 4c 6f be 16 a2 78 bd
       0.22427545 0.06883899 -0.2336902 -0.060701452
0003a0 e1 eb ab 3f e4 e0 c8 3e a4 76 91 be 32 f6 73 bf
       1.343136 0.39234078 -0.28410828 -0.9529754
0003b0 17 73 b6 be 95 f0 c2 3e 4f 2c 5b 3d fb 18 55 be
       -0.35634682 0.38074175 0.053509053 -0.2081031
0003c0 22 df 07 3e 37 72 72 be c7 2b 00 3e 95 21 dc be
       0.13268712 -0.23676382 0.125167 -0.4299437
0003d0 e8 8a 29 bc 0a d9 a0 3e 46 c9 36 3e dc df 1b be
       -0.010348059 0.31415588 0.17850217 -0.15222114
0003e0 3c 2b 25 3e 21 84 8f 3e 9d cf 8b 3d a4 4a a0 be
       0.16129774 0.28030494 0.068267085 -0.31306946
0003f0 96 f0 84 3e 84 4f 02 3c d4 f7 c4 3e b4 b0 85 be
       0.25964803 0.007953528 0.38470328 -0.26111376

l2.bias f4 [200]
000000 eb e1 76 3e 46 52 b0 3d 1d fe cf 3c 90 d5 8f bd
       0.24109618 0.086094424 0.025389725 -0.07023156
000010 2d 67 a6 be ed 02 95 3e 5a 54 60 bc a0 c5 09 bf
       -0.32500592 0.29103795 -0.013691986 -0.53817177
000020 12 96 6f 3e 3f c5 7d 3e fb 89 12 be 35 bf 41 3e
       0.23397091 0.24782275 -0.14310448 0.18920596
000030 69 a0 ab 3c 9f 53 24 3e 77 c1 66 3c e3 5d 8a bc
       0.020950513 0.16047524 0.014084212 -0.016890472
000040 9b ce 2b be d9 10 84 3e 21 7f 3c be 35 d7 cf bd
       -0.16778032 0.25794104 -0.18407871 -0.10148469
000050 eb d9 bc bd bc 43 b7 3c ed 15 27 bc f1 21 0c bc
       -0.09221252 0.022371165 -0.010198099 -0.008553014
000060 17 43 bb be ce a9 a5 3c 9f a8 69 bd c0 d5 90 bd
       -0.36574623 0.02022257 -0.057045575 -0.070720196
000070 b1 b7 9a bc 66 ff b7 bd 1a 75 00 be 5e bd 45 3e
       -0.018886419 -0.0898426 -0.1254467 0.19310519
000080 d1 bc b8 bb 32 98 c5 bd c7 d0 d9 bd 1a 84 1a be
       -0.005637743 -0.096481696 -0.10635524 -0.15089455
000090 47 4a ac be ca aa 06 be b8 0b a5 3e 95 80 41 bd
       -0.3365042 -0.13151088 0.32235503 -0.047241766
0000a0 a0 d7 71 bb c9 4b 9a be 5d 03 71 3c 1e 35 3d 3e
       -0.0036902204 -0.30135944 0.0147102745 0.18477294
0000b0 fc 09 eb 3c 9d 89 4e be 21 f2 e5 bb d2 36 00 be
       0.028691284 -0.20169683 -0.0070173894 -0.12520912
0000c0 7d 1c aa be 86 27 48 3d 16 bf eb bc 75 ae 8a bd
       -0.3322486 0.048865817 -0.02877764 -0.06771556
0000d0 c3 71 8f 3e b1 67 10 bd 1a 5b ec 3d 91 98 34 3e
       0.2801648 -0.035255138 0.11540814 0.17636324
0000e0 66 e7 11 3e 80 dd 13 3e a8 c4 05 bc ad 7b 10 3c
       0.14248428 0.14439964 -0.008164562 0.008818549
0000f0 35 6e a6 be 51 dc 1a 3a a9 65 93 3d a9 0d 82 be
       -0.32505956 0.00059074635 0.071971245 -0.25401047
000100 2a 7e 24 be 19 72 da bc 4e 34 3e 3e a2 85 99 3d
       -0.16063753 -0.026665734 0.1857464 0.074961916
000110 72 ea a5 3d 98 26 e5 bd 91 58 6e 3e d7 c4 a5 bd
       0.081013575 -0.11189002 0.23275973 -0.08094185
000120 4c 41 88 bd 1d 05 32 3c 29 7f 14 be 9f af 18 3b
       -0.066530794 0.010865477 -0.14501633 0.0023298038
000130 01 3c 10 bc d1 90 c1 3d 83 bf 62 bd 8b 61 83 3e
       -0.008803369 0.0945145 -0.05535842 0.25660357
000140 4f 5a 83 3e d6 a6 7c 3e 9d 12 d4 3d 61 53 9b 3e
       0.25654837 0.24673018 0.10355113 0.3033705
000150 91 58 aa bd 9b 31 86 3e ee 9f 72 3e 93 4a b9 bd
       -0.08317674 0.2620972 0.23693821 -0.09047427
000160 fc d3 ce 3d d8 a1 23 3e 54 11 1b bd 43 46 b9 3d
       0.100990266 0.15979707 -0.037858322 0.090466045
000170 b3 9b 83 bd b7 e7 38 bd af 71 96 be 0a 1e 65 bd
       -0.06426182 -0.045142855 -0.2938361 -0.05593685
000180 a5 90 5b 3d fd ba 01 bd 7f 54 90 3d b1 1c d5 be
       0.05360474 -0.031672467 0.07047366 -0.41623452
000190 35 ed 28 be 3e 3c 5e 3e fd c2 86 3e 9d 1f 9a be
       -0.16496737 0.21702668 0.2632064 -0.30102244
0001a0 6f 72 81 3e a1 98 a6 bd 32 b6 a2 bc e2 9f 87 be
       0.25282618 -0.081345804 -0.019862268 -0.26489168
0001b0 8d 15 14 bd 0f dd a3 3d b4 79 44 bd e4 13 8d be
       -0.036153365 0.08001148 -0.047967628 -0.27554238
0001c0 4f e0 29 3e 3c e7 45 3e c9 4d c4 bd 21 52 d8 3d
       0.16589473 0.1932649 -0.09585149 0.1056254
0001d0 03 a3 ea 3d 00 6d a1 be 1e 95 07 bf 31 d0 b3 3d
       0.11456873 -0.31528473 -0.5296191 0.08779944
0001e0 80 b8 32 bd 96 d0 a8 be 13 82 7f be cd 60 22 bd
       -0.043632984 -0.32971638 -0.24951963 -0.039643098
0001f0 14 3e 71 3e 86 f1 b5 be 2a 09 44 be f8 5c 8f 3e
       0.23558837 -0.3553583 -0.19144121 0.28000617
000200 51 c3 ff 3d 89 e9 40 be 74 1f c7 be 5f d3 83 be
       0.124884255 -0.18839087 -0.38891184 -0.257472
000210 03 2e 64 be 83 14 2b bd 15 c8 ee bc 77 6f 33 bd
       -0.22283177 -0.04176761 -0.02914814 -0.043807473
000220 17 3b e0 3c 70 59 f8 bd 54 e0 b3 be 74 53 ab bd
       0.027371926 -0.12126434 -0.35132086 -0.08365527
000230 30 c3 10 3d 40 30 40 be de 72 5b bc d0 ec 91 3c
       0.035342395 -0.18768406 -0.013394086 0.017813116
000240 46 44 23 3c 62 05 ad 3e ea dd f7 be 04 5d a7 bc
       0.009965008 0.3379317 -0.48411494 -0.020430095
000250 bf e7 a0 be 47 72 e4 3d c2 2d 78 3c 75 ed cf 3d
       -0.31426808 0.11154609 0.015147628 0.10152713
000260 bf ec 37 3e f1 03 a1 be 3c 49 7f bd 62 50 8f bd
       0.17961405 -0.3144832 -0.0623257 -0.06997754
000270 b6 58 a3 bc e8 e8 be 3a 44 47 06 bd a9 6c af bc
       -0.019939762 0.0014565261 -0.032782808 -0.021414118
000280 b6 c0 98 3e 36 4d 29 3e 3e 03 c5 be aa 74 91 bd
       0.29834527 0.1653336 -0.38479036 -0.0710233
000290 3b a1 56 be ac d8 cb bd 84 67 70 be 05 0e a1 bd
       -0.20959942 -0.09953436 -0.23476988 -0.07864002
0002a0 24 47 f3 bd 23 d4 51 bf 98 b0 a6 3e 18 6a 2f bc
       -0.11878803 -0.8196432 0.32556605 -0.010706447
0002b0 a2 ee 24 be 15 61 88 be 15 9a 80 3d 56 48 52 bd
       -0.16106656 -0.26636568 0.06279389 -0.051338516
0002c0 d2 8e 6d 3e 71 23 06 be 23 8a ab 3d 7e d9 bb be
       0.23199013 -0.13099457 0.08375957 -0.3668937
0002d0 92 d1 e3 bd a4 f0 95 bd 39 4d 12 bf f1 04 4a be
       -0.11123957 -0.07321289 -0.5714908 -0.19728447
0002e0 7c 86 f9 3d 07 2b 14 be 6a 8a cd bd fb 6d 8e bc
       0.12183854 -0.14469539 -0.10036166 -0.017386427
0002f0 ae 66 95 bc 36 5f 2a be 8d d3 be bc 24 96 03 bd
       -0.018237438 -0.16637883 -0.023294235 -0.032125607
000300 f7 1a 95 3e 26 65 c8 be 15 fd 88 3e 1f 1d 2f be
       0.29122135 -0.3913967 0.26755586 -0.17100953
000310 dc 27 32 3e 3b e6 0d bd e2 ac 2e be 92 1d 79 3e
       0.17398018 -0.034643393 -0.17058137 0.24327686

l3.weight f4 [4, 200]
000000 60 25 83 3e bb 54 e0 be 86 cd 84 3f 56 dd 00 3f
       0.25614452 -0.43814644 1.0375221 0.5033773
000010 1c 0c 18 bf 3c 14 8f bf 43 30 2a bd f3 fd 47 bf
       -0.5939348 -1.117805 -0.041549932 -0.7812187
000020 49 d1 8b 3e 8b ab a7 3e 73 07 74 3e 95 ba de 3e
       0.2730811 0.32748064 0.23830967 0.43501726
000030 aa 77 80 3e 73 96 88 be 46 cb 44 bd 3e c8 cd be
       0.25091296 -0.26677284 -0.04804542 -0.40191835
000040 07 71 18 3f 63 8d c4 3e 5f d8 c1 be 7d 37 8a 3e
       0.59547466 0.3838912 -0.3786039 0.2699546
000050 67 20 e2 be 37 b9 cc be 50 a8 53 3d 50 d5 56 3d
       -0.44165346 -0.39985058 0.051674187 0.052449524
000060 ae f2 37 bf 1e 04 76 3d ec 07 55 3d 5b df ab 3e
       -0.71854675 0.06006252 0.052009508 0.33568844
000070 8a 71 87 be b9 3e 76 3e 1e 81 24 bf af 23 40 3f
       -0.2645381 0.24047364 -0.6425952 0.7505445
000080 90 54 ae 3c b1 41 c4 3e fb c3 22 bf d4 81 3f 3e
       0.021280557 0.3833137 -0.6358029 0.18701869
000090 9d 45 cf be e2 c8 63 bf b7 f7 a9 3e db b6 94 3c
       -0.40482798 -0.889784 0.33196804 0.018153599
0000a0 7d 96 1e 3f 62 dd 29 3f bd 81 ba bc 57 88 ae 3e
       0.61948377 0.6635343 -0.022766942 0.34088394
0000b0 a6 0e b0 be 69 58 9b be 2b 92 1b bf 6d e3 c5 3d
       -0.34386176 -0.3034089 -0.6076991 0.09662519
0000c0 d6 fd ed be d4 2f 15 bf 81 d9 e6 3c cd 6a 66 3d
       -0.46482724 -0.58276105 0.028179886 0.056254197
0000d0 32 51 92 3e 11 86 26 bd dd 6a 6e be 60 6b 0e bf
       0.28577572 -0.0406552 -0.23282953 -0.5563259
0000e0 03 d9 14 3f 60 07 9c 3e 47 4b c5 3e fe 42 88 3f
       0.58143634 0.30474377 0.38533995 1.0645444
0000f0 de 5b 0c bf f7 3c 9d be 01 3f 8e 3e a5 77 d4 be
       -0.5482768 -0.30710575 0.27782443 -0.41497532
000100 28 b7 03 3f 37 f7 b5 3c a7 ae b0 3e 20 f8 5d bf
       0.5145135 0.022212608 0.3450825 -0.86706734
000110 6c d3 28 3f f5 c2 ec 3e 7a a0 85 3e 6d c0 66 3e
       0.65947604 0.4624249 0.26098996 0.22534342
000120 88 23 2d 3d a6 6a ab 3d cf a2 0c 3f e1 87 26 b9
       0.042270213 0.08369951 0.54935926 -0.00015881612
000130 a1 f4 32 3d 75 29 59 3e 10 f9 3e bf 6d 9f c5 3e
       0.043690328 0.21207221 -0.7459879 0.38598195
000140 49 7c 94 3e cf e8 9c 3e e4 ce 05 bd 2c 1a b8 3e
       0.29001072 0.3064637 -0.03266801 0.35957468
000150 be b9 16 bf fd 44 a6 3e 79 db ba 3e c9 ec 0c 3f
       -0.5887717 0.3247451 0.3649557 0.55048805
000160 6b ba 92 be 0f a6 b7 3e b0 d1 11 3d 28 4b 7f be
       -0.2865785 0.3586888 0.035600364 -0.24931014
000170 98 c7 55 be 34 43 69 3d e9 0a 47 bf d4 24 62 bd
       -0.2087692 0.056948856 -0.7775102 -0.055210903
000180 c4 24 5f be 5e cf 44 3d 5c ec 1b bf f7 b3 a8 bf
       -0.21791369 0.048049323 -0.6090753 -1.3179921
000190 ee ec dc 3e 29 e6 c2 3e 39 6e a1 3e 65 98 ea be
       0.43149513 0.38066223 0.31529406 -0.45819393
0001a0 4a a7 65 3e ba 84 e3 3c 91 e8 04 bf 37 54 fe be
       0.22427097 0.02777325 -0.5191737 -0.49673626
0001b0 15 8f bb 3c e6 bd aa be 20 17 7e 3d c0 cd fa be
       0.022895375 -0.33348006 0.062033772 -0.489851
0001c0 17 6f b7 be fc fd 79 3e eb a9 05 bd fe fe fb 3e
       -0.35826942 0.24413294 -0.03263275 0.4921798
0001d0 74 47 a4 3e 7f 2d 60 3e 70 6d 54 bf 6f 98 36 be
       0.32085764 0.21892355 -0.8297949 -0.17831586
0001e0 10 d9 a3 be 18 94 dc be b2 76 42 be b3 d0 de be
       -0.32001543 -0.43081737 -0.18990591 -0.435186
0001f0 e9 28 fd 3e 54 23 78 3f c9 2b 04 bf 1a 57 90 3e
       0.49445274 0.96928906 -0.5162931 0.28191453
000200 e5 4d a4 be 6c af 06 bd 22 83 4d 3f 74 86 79 3f
       -0.3209068 -0.03288214 0.8027822 0.97470784
000210 f7 2b b1 3e 58 38 0d 3c 69 f6 1b 3d 7c 15 98 bd
       0.34603855 0.00861939 0.038076792 -0.07425973
000220 0e 07 4d be 97 36 69 3f 9c 41 1e bf f1 fd ad 3d
       -0.20022222 0.9109892 -0.6181886 0.08495701
000230 b4 44 2c bf 9c 12 16 3d bc 53 9d 3b 4f 33 af bb
       -0.6729233 0.03663884 0.0048012417 -0.0053466926
000240 29 62 73 3d bc 2f 93 3e ce 68 61 bf ad a5 36 3d
       0.059419785 0.28747356 -0.88050544 0.044591594
000250 43 e2 c5 3e 1c ea ec 3d 77 37 7a be 19 30 f7 be
       0.38649186 0.1156809 -0.2443522 -0.48278883
000260 43 7c fb 3e 38 cc 55 bf 18 2f 82 be 65 e0 fc be
       0.49118242 -0.8351474 -0.25426555 -0.4938995
000270 64 98 29 bf 31 90 94 bd cf 1b 67 3f 28 dd 65 bf
       -0.66248155 -0.07254065 0.9027681 -0.8979058
000280 aa 56 ab 3e d0 0a 1e 3f 24 9f 49 bf 9f 69 06 3f
       0.33464557 0.6173525 -0.78758454 0.52504915
000290 c5 7c e2 3e 29 48 48 be 58 a6 81 3f 3f 5b 28 be
       0.44235817 -0.19558777 1.0128889 -0.16441058
0002a0 d5 1e 69 3e ce e6 a1 bf 45 85 d8 3e 7d 46 83 bd
       0.22765668 -1.2648561 0.42289177 -0.06409929
0002b0 10 09 22 3f 80 1c 22 bf 81 f6 ad 3e df 16 24 be
       0.6329508 -0.6332474 0.3397713 -0.1602435
0002c0 87 d1 89 3e 33 5f 80 3e 8d 94 87 be 6f 9c 60 bf
       0.2691767 0.2507263 -0.26480523 -0.877387
0002d0 b4 02 a4 3e 8c be 75 3d b9 4b 99 bf 45 c4 2b 3f
       0.32033312 0.059996173 -1.1976234 0.6709636
0002e0 58 85 8d 3e a5 b6 aa 3e bc 5b cf 3c 55 92 62 3d
       0.27640796 0.33342472 0.025312297 0.055315334
0002f0 9d 9a bd be 19 54 ed 3e 70 81 18 3e b0 bb 5c 3d
       -0.37032023 0.46353224 0.14893126 0.05388993
000300 34 93 cb 3e 82 0d 83 bf e5 a8 30 3f 09 d5 93 3e
       0.39760745 -1.0238497 0.6900771 0.2887347
000310 c4 9c e1 3e 8a 22 7b 3c 0d 5e f1 be a4 4f 37 3e
       0.44064915 0.015328059 -0.47142068 0.17901474
000320 1d 24 84 3e 08 53 a7 be 7e 89 7c 3f e2 11 cf 3e
       0.25808802 -0.32680535 0.98647296 0.4044333
000330 c5 3e 9f be b2 b9 8f bf 20 bf 29 3d 16 e6 4c bf
       -0.31102577 -1.1228545 0.041442037 -0.80038583
000340 37 9b 9d 3e 13 b5 b8 3e 7a eb cd bd 7f cc f0 3e
       0.30782482 0.3607565 -0.10054679 0.47031018
000350 c1 05 da 3e 45 b4 66 be 34 a8 48 3d 2a 56 dd be
       0.42582515 -0.22529705 0.048988536 -0.432298
000360 c0 a5 35 3e 40 75 c2 3e c7 bb fb be ef 40 13 3f
       0.1773901 0.3798008 -0.491667 0.57520956
000370 9d 0d 00 bf 62 4b b9 be 60 92 42 bd b7 de 34 3d
       -0.5002077 -0.36190325 -0.047502875 0.04415771
000380 fc 94 35 bf b3 e5 60 3d 7a 1b 34 bd f6 ae a7 3e
       -0.7093046 0.05490656 -0.043971516 0.32750672
000390 4b 0b 8a be 86 c6 09 3e 02 2a 62 bf 90 44 33 3f
       -0.2696174 0.13454637 -0.8834535 0.70026493
0003a0 1d de 62 3d 11 60 da 3e d7 bb 06 bf 59 b2 67 3e
       0.055387605 0.42651418 -0.5263037 0.22626628
0003b0 28 80 c8 be 19 3c 5a bf a9 9a c7 3e 91 71 d2 bc
       -0.39160275 -0.8524795 0.38985184 -0.025688918
0003c0 b6 7b 13 3f 91 7e 03 3f 9d b7 47 3c 24 b3 99 3e
       0.5761064 0.51365 0.012189773 0.30019486
0003d0 91 1f bf be e1 36 b4 3e c6 af 25 bf 46 6b 96 bc
       -0.3732877 0.3519812 -0.64721334 -0.018361699
0003e0 48 87 f6 be 19 b5 09 bf 16 e8 bd bc fc 29 1a 3d
       -0.48150086 -0.5379196 -0.023181956 0.037637696
0003f0 5c 4b 8e 3e c7 e5 2b 3d 6d 9c c6 bd ea 2a 08 bf
       0.2779187 0.04196718 -0.096978046 -0.5319048

l3.bias f4 [4]
000000 33 f8 e4 3e f3 ff 83 3e 68 5f 39 3e e0 38 8c 3e
       0.4472061 0.2578121 0.18102801 0.27387142
