fin/DQN/agent-limit-stop-epi/model.pt (torch, 340231 bytes, 6 tensors)

l1.weight f4 [400, 8]
-0.0071815187 -0.0021548497 0.7357879 -0.6430474 0.054381695 -0.002848714 -0.4881111 -0.50991213
0.90617776 -0.38720763 0.30912855 -0.56230587 0.110329784 0.04514961 0.47968704 0.462323
0.3637068 0.12723173 0.19512892 -0.46944422 0.23348954 -0.28024453 -0.4439068 -0.36487773
0.005268764 -0.27121684 0.10845682 0.026832297 0.34005037 -0.04796642 0.27667344 0.052499153
-0.41652063 0.4078283 -0.013812285 -0.26871207 -0.07445682 -0.42622855 -0.010932581 -0.4852759
0.15165171 0.393977 -0.038195238 -0.21551144 -0.42085293 -0.2241919 -0.38636798 -0.1565691
-0.17384231 0.3713623 0.2473486 0.64823157 -0.22217861 0.08914049 0.08205948 -0.35569695
0.117984444 -0.090254836 0.062873796 0.17314981 0.1514658 0.21964802 0.26346242 0.14733213
-0.05915343 0.3949895 0.1651754 0.11948141 -0.5207651 -0.4405381 -0.6646777 -0.45364207
0.34798265 0.16923876 0.027259417 0.2505184 -0.8239855 -0.8942943 -1.1900553 0.7109086
-0.017456122 0.016341584 -0.64185387 1.8877491 0.2488043 0.00327573 0.10719979 -0.3499534
0.24358994 0.18769892 -0.012967485 -0.017890465 0.061583072 -0.03393641 0.53032225 -0.80804604
-0.22228587 0.0129402 -0.9994837 -0.20317899 0.31416744 0.61298674 0.74485016 -0.36474162
-0.25639886 0.4736988 -0.33761188 0.15452273 -0.14472578 -0.17151998 0.4704282 -0.6485742
-0.38110256 0.19010966 0.0009902786 -0.18525103 -0.33465803 -0.013771194 -0.76840335 0.09569349
0.25855643 0.20467408 -0.08338448 0.82187945 -0.1482418 0.082404934 1.4061105 0.14285822
0.11391919 0.07286507 -0.15626769 0.02638584 -0.777682 -1.2651013 -0.6915976 0.6331953
-0.22246623 -0.07639999 0.26596695 -0.416447 0.27628228 -0.07352883 -0.54576033 -0.10737468
0.10825432 0.018936414 0.15660846 0.2546091 -0.58210653 -0.86560947 -0.0979371 0.73148984
0.7946823 0.0938684 0.5744638 -0.025471192 -0.20633954 0.6186494 0.0819863 0.47322252
0.34339392 0.1566155 -0.2479094 0.22739142 -0.8436986 -0.9536034 -0.61060727 -0.31269577
-0.08250402 0.30087826 0.072705396 -0.074930705 -0.02320548 0.08827844 0.18977012 -0.7959799
0.19729374 0.13562377 0.00520854 -0.048264522 -0.4101527 0.18409525 -0.39422688 -0.44909403
-0.55261993 -0.27949136 0.41707885 0.04004688 0.08345683 1.201365 0.1723819 0.29272592
-0.30262387 0.38651145 -0.26809424 0.084092475 0.2503887 0.5403898 0.23006386 -0.9842069
-0.08570673 0.32569823 0.28424683 -0.02582556 -0.047023248 -0.18790157 0.2656419 -0.17016041
0.06731745 0.46620676 0.3616772 0.61006683 0.012048296 0.049387403 0.6224976 -0.45033982
0.32889044 -0.24482797 0.09153017 0.27764183 0.014407122 -0.24087241 -0.22504744 -0.026813371
0.013491408 -0.32832715 0.19907139 -0.37806094 -0.590356 -1.1317165 -1.0402322 0.31637987
-0.0031683405 -0.0704429 0.6877903 -0.6088471 0.117928416 -0.012767039 -0.5004218 0.12788957
0.6696591 -0.03670987 0.34482327 -0.22110389 0.31504303 0.044901323 0.5546952 0.5451573
-0.30964303 0.12083551 -0.14464511 0.11340728 0.24244663 0.5039743 -0.071842216 -0.8528566
00000000: f252 ebbb 6138 0dbb 995c 3c3f c19e 24bf
00000010: 57bf 5e3d 7db1 3abb b3e9 f9be 9a89 02bf
00000020: 44fb 673f 1440 c6be 1946 9e3e 47f3 0fbf
00000030: 95f4 e13d ccee 383d 8a99 f53e 9ab5 ec3e
00000040: c737 ba3e 0949 023e e0cf 473e fe5a f0be
00000050: e217 6f3e 367c 8fbe c147 e3be 41d1 babe
00000060: 99a5 ac3b efdc 8abe 9c1e de3d 68cf db3c
00000070: 151b ae3e 7078 44bd 24a8 8d3e 5a09 573d
00000080: 3142 d5be dfce d03e ec4c 62bc a194 89be
00000090: d17c 98bd a13a dabe 911e 33bc 1576 f8be
000000a0: 964a 1b3e 5ab7 c93e 9c72 1cbd 08af 5cbe
000000b0: 097a d7be 9092 65be 06d2 c5be a653 20be
000000c0: b803 32be 3323 be3e f448 7d3e 81f2 253f
000000d0: ca82 63be 4a8f b63d cd0e a83d e91d b6be
000000e0: d4a1 f13d 87d7 b8bd fac3 803d 2f4e 313e
000000f0: da19 1b3e 69eb 603e 8ce4 863e 3cde 163e
00000100: de4a 72bd 103c ca3e bd23 293e abb2 f43d
00000110: dd50 05bf 368e e1be 5128 2abf c643 e8be
00000120: c82a b23e ed4c 2d3e 244f df3c f343 803e
00000130: b7f0 52bf 79f0 64bf bb53 98bf 1bfe 353f
00000140: 2400 8fbc c9de 853c 8950 24bf c3a1 f13f
00000150: 8ec6 7e3e a1ad 563b 908b db3d 182d b3be
00000160: a46f 793e 2534 403e 9375 54bc 068f 92bc
00000170: 883e 7c3d e800 0bbd 33c3 073f 1bdc 4ebf
00000180: e89e 63be 2203 543c 2ade 7fbf 270e 50be
00000190: 8eda a03e b3ec 1c3f 80ae 3e3f 6abf babe
000001a0: b646 83be a688 f23e 77db acbe 353b 1e3e
000001b0: ff32 14be efa2 2fbe f7db f03e f508 26bf
000001c0: e01f c3be 1bac 423e 3ccc 813a 72b2 3dbe
000001d0: 4c58 abbe 93a0 61bc 15b6 44bf f3fa c33d
000001e0: 8261 843e 1596 513e 7bc5 aabd b166 523f
000001f0: b3cc 17be ebc3 a83d 6efb b33f 6d49 123e
00000200: 774e e93d 483a 953d a304 20be 1e27 d83c
00000210: 2b16 47bf d7ee a1bf 8a0c 31bf 1619 223f
00000220: 30ce 63be 9977 9cbd d22c 883e 8b38 d5be
00000230: df74 8d3e 4996 96bd f3b6 0bbf 42e7 dbbd
00000240: 71b4 dd3d 8a20 9b3c f85d 203e 205c 823e
00000250: ef04 15bf 9598 5dbf 3f93 c8bd eb42 3b3f
00000260: 4d70 4b3f 133e c03d 0f10 133f f6a8 d0bc
00000270: ac4a 53be cf5f 1e3f 6fe8 a73d 394a f23e
00000280: 54d1 af3e d05f 203e f6db 7dbe 4cd9 683e
00000290: a2fc 57bf 5a1f 74bf c250 1cbf a919 a0be
000002a0: def7 a8bd b70c 9a3e 91e6 943d 4575 99bd
000002b0: 6b19 bebc 54cb b43d 1953 423e 57c5 4bbf
000002c0: 5f07 4a3e f5e0 0a3e 66ac aa3b 05b1 45bd
000002d0: 89ff d1be 7783 3c3e 1bd8 c9be a7ef e5be
000002e0: 8078 0dbf 7e19 8fbe 5c8b d53e 3208 243d
000002f0: 6aeb aa3d 54c6 993f e184 303e 2ce0 953e
00000300: 84f1 9abe d4e4 c53e a643 89be ad38 ac3d
00000310: f332 803e fc56 0a3f dc95 6b3e fcf4 7bbf
00000320: 0387 afbd ebc1 a63e cd88 913e 2090 d3bc
00000330: 739b 40bd 4569 40be 3702 883e 883e 2ebe
00000340: bbdd 893d a7b2 ee3e c12d b93e 572d 1c3f
00000350: 3766 453c 724a 4a3d 015c 1f3f f192 e6be
00000360: 5464 a83e 2fb4 7abe 2b74 bb3d 1227 8e3e
00000370: d90b 6c3c 42a7 76be d672 66be b7a7 dbbc
00000380: 110b 5d3c 7f1a a8be 5fd9 4b3e 3491 c1be
00000390: 9221 17bf 16dc 90bf 5426 85bf 8bfc a13e
000003a0: efa3 4fbb 5e44 90bd 0613 303f 67dd 1bbf
000003b0: 7484 f13d d82c 51bc a51b 00bf 7cf5 023e
000003c0: c76e 2b3f 175d 16bd ad8c b03e 0f69 62be
000003d0: 524d a13e 73ea 373d 8100 0e3f 6e8f 0b3f
000003e0: 8889 9ebe 9c78 f73d d91d 14be 1342 e83d
000003f0: ee43 783e 7604 013f 0322 93bd cf54 5abf

l1.bias f4 [400]
-0.0028509712 0.24969399 -0.019716896 0.45139617 -0.17031723 -0.074319705 -0.33300644 0.16706786
-0.15757541 0.076570354 -0.013561465 0.3067989 0.16672595 -0.07750015 0.20435219 -0.07664706
-0.122854546 0.39019036 0.20067373 -0.23255688 -0.5291717 0.010044193 0.24231283 -0.036806
0.21045096 -0.26635978 -0.035508554 -0.35403454 -0.28311816 0.043220554 0.10236279 0.26960284
-0.21302314 -0.12989976 6.856306e-05 0.12556843 0.030222578 0.21935125 0.24708289 0.3351988
0.00890301 -0.20047595 0.04534463 0.018529853 0.12813413 -0.004363395 0.34118342 -0.32961273
0.0014007076 -0.055567287 0.27515337 0.019689286 0.37873018 -0.10925299 -0.14953505 -0.15736678
-0.541278 -0.38861382 0.1833821 -0.1570329 -0.31054443 0.17995642 0.24648272 0.32417312
0.024164071 -0.13011092 -0.48133457 -0.25567418 0.04498932 0.1662088 0.008810222 0.39932653
0.077539444 0.12496119 0.3360638 -0.013379193 0.23678854 0.49574542 0.12363182 0.046724986
-0.031513225 0.030921357 0.21214303 -0.03761512 0.013191668 0.22814552 0.21246694 0.13055351
0.3203413 0.2883704 -0.23233956 0.18439378 0.3876699 0.52667165 -0.09501609 -0.301464
0.23642315 0.19507538 -0.15945339 0.11656168 -0.08073932 -0.34423253 -0.28589952 0.1613385
-0.06978354 0.30375886 -0.108000696 0.28624648 -0.013571446 -0.31652153 0.088659786 0.17896138
-0.41246885 0.39767665 -0.16606201 0.083125904 -0.020531915 0.12918706 -0.001551867 -0.066363566
-0.006526679 0.19412605 0.14585935 0.30525562 -0.08428457 -0.16978592 0.21635164 0.19442967
0.40272725 0.3027225 0.3925005 0.04651647 -0.09211771 0.054463647 -0.5065717 -0.27876547
0.08953688 0.22725181 -0.09292957 -0.48359075 0.06436315 0.31699497 0.22195655 0.1233012
-0.14274374 0.315621 -0.08199015 0.25449508 0.637513 -0.53120446 -0.2738826 -0.31873533
-0.2797089 -0.065267235 0.25761262 -0.023484852 0.4161746 -0.06460037 0.03486194 -0.136933
0.24299732 -0.14604345 -0.10866444 -0.07063007 -0.10368488 0.25299153 0.38838717 0.16381297
0.0072593694 0.019423 0.36883208 -0.20615864 -0.30234545 -0.08017928 0.23450148 -0.3787933
-0.059695173 0.24897228 0.2969186 0.15299909 -0.14886312 0.13348803 -0.1491066 -0.31700256
0.10402548 0.18847738 -0.30115783 -0.12779754 0.012732009 0.05274318 -0.22712289 0.2077355
0.10570645 -0.31717587 -0.32162592 0.14205933 0.23496825 -0.09279915 0.27540094 -0.6832012
-0.39362895 0.0471841 -0.07886669 -0.3165989 0.29790422 -0.032584347 -0.4570098 -0.0024595102
-0.017610911 0.0841669 0.20569377 0.03574448 -0.4875752 0.028867126 -0.049479116 0.35405725
-0.1903802 -0.23577271 -0.0071542347 -0.09981263 0.02278279 0.07888149 -0.097079776 0.031380128
-0.3567578 -0.1418954 0.07997081 0.047737904 -0.12563466 -0.07237396 -0.15908635 -0.017209535
0.28006187 -0.15086272 0.121160924 0.3118524 -0.045108948 -0.011803506 -0.23641004 -0.058554813
0.365582 0.1862915 0.35881877 0.0014611077 0.24406432 -0.33422518 0.14884174 0.17013767
0.11753096 0.30898488 -0.1613686 0.41274709 0.23543994 -0.18764494 0.004208499 -0.11295426
00000000: 5cd7 3abb c8af 7f3e 5485 a1bc 661d e73e
00000010: a467 2ebe ee34 98bd d27f aabe d613 2b3e
00000020: 735b 21be ebd0 9c3d e830 5ebc bf14 9d3e
00000030: 35ba 2a3e 66b8 9ebd b341 513e 22f9 9cbd
00000040: 2a9b fbbd 08c7 c73e 6a7d 4d3e 6423 6ebe
00000050: cc77 07bf 6690 243c db20 783e e3c1 16bd
00000060: 7580 573e 4f60 88be 6b71 11bd 0444 b5be
00000070: ddf4 90be 0908 313d 95a3 d13d 6209 8a3e
00000080: bd22 5abe 7104 05be 83c9 8f38 0395 003e
00000090: 5795 f73c 9d9d 603e 4c03 7d3e 2d9f ab3e
000000a0: eedd 113c 9149 4dbe 4abb 393d ebcb 973c
000000b0: 9835 033e cffa 8ebb 98af ae3e 00c3 a8be
000000c0: f397 b73a 869a 63bd e7e0 8c3e 6d4b a13c
000000d0: ece8 c13e 08c0 dfbd b71f 19be c224 21be
000000e0: 3291 0abf 64f8 c6be 84c8 3b3e 3ccd 20be
000000f0: aeff 9ebe 7f46 383e f765 7c3e 05fa a53e
00000100: bbf3 c53c cc3b 05be 7c71 f6be bae7 82be
00000110: b946 383d a432 2a3e c058 103c 8774 cc3e
00000120: 00cd 9e3d a7eb ff3d 8e10 ac3e 6734 5bbc
00000130: b278 723e 58d2 fd3e ae32 fd3d b362 3f3d
00000140: 0314 01bd c94e fd3c 063c 593e 5012 1abd
00000150: de21 583c fb9e 693e ef90 593e d2af 053e
00000160: c603 a43e 49a5 933e 6cea 6dbe b9d1 3c3e
00000170: ab7c c63e f4d3 063f cc97 c2bd 7d59 9abe
00000180: e918 723e d7c1 473e c047 23be e4b7 ee3d
00000190: a85a a5bd 3f3f b0be 6c61 92be eb35 253e
000001a0: acea 8ebd 4886 9b3e 782f ddbd e68e 923e
000001b0: c55a 5ebc 1c0f a2be 4393 b53d a741 373e
000001c0: 1e2f d3be 469c cb3e 290c 2abe ea3d aa3d
000001d0: 8c32 a8bc 9d49 043e 0468 cbba 9fe9 87bd
000001e0: c0dd d5bb fbc8 463e 275c 153e 774a 9c3e
000001f0: 639d acbd 5cdc 2dbe 498b 5d3e 9218 473e
00000200: 4432 ce3e 72fe 9a3e d3f5 c83e 0e88 3e3d
00000210: 36a8 bcbd 4615 5f3d afae 01bf 59ba 8ebe
00000220: 1d5f b73d b3b4 683e dc51 bebd 3599 f7be
00000230: d4d0 833d 2a4d a23e 9448 633e 5785 fc3d
00000240: 6a2b 12be 1399 a13e 74ea a7bd 2e4d 823e
00000250: 0d34 233f 04fd 07bf 573a 8cbe 4731 a3be
00000260: 0136 8fbe d4aa 85bd cde5 833e 4e63 c0bc
00000270: d614 d53e 334d 84bd 65cb 0e3d 2a38 0cbe
00000280: 4ad4 783e 6a8c 15be 768b debd 80a6 90bd
00000290: bd58 d4bd 1b88 813e afda c63e 96be 273e
000002a0: 01e0 ed3b fc1c 9f3c 8fd7 bc3e 401b 53be
000002b0: 06cd 9abe 0935 a4bd 2821 703e 32f1 c1be
000002c0: ed82 74bd 97f2 7e3e b705 983e cbab 1c3e
000002d0: 936f 18be 16b1 083e 67af 18be 294e a2be
000002e0: 500b d53d 3700 413e 5c31 9abe 5cdd 02be
000002f0: eb99 503c 3c09 583d e792 68be 9db8 543e
00000300: a07c d83d e064 a2be 27ac a4be 0078 113e
00000310: 849b 703e 7b0d bebd 5a01 8d3e 46e6 2ebf
00000320: bc89 c9be 1d44 413d dc84 a1bd 4019 a2be
00000330: e786 983e 2a77 05bd 30fd e9be bc2f 21bb
00000340: c244 90bc b25f ac3d 63a1 523e ce68 123d
00000350: 75a3 f9be c07a ec3c 9daa 4abd fe46 b53e
00000360: 07f3 42be 676e 71be 126e eabb 906a ccbd
00000370: f9a2 ba3c 9e8c a13d c3d1 c6bd 7388 003d
00000380: f5a8 b6be 074d 11be bcc7 a33d d288 433d
00000390: 5fa6 00be cc38 94bd 88e7 22be 03fb 8cbc
000003a0: 4564 8f3e c27b 1abe 3823 f83d 1eab 9f3e
000003b0: 29c4 38bd 7e63 41bc 7915 72be 2cd7 6fbd
000003c0: 902d bb3e 33c3 3e3e 18b7 b73e a482 bf3a
000003d0: ffeb 793e 901f abbe f869 183e 9238 2e3e
000003e0: 12b4 f03d 4433 9e3e cf3d 25be 9653 d33e
000003f0: 2b17 713e ff25 40be 73e7 893b 9054 e7bd

l2.weight f4 [200, 400]
0.19559786 -0.3650329 0.14635615 0.16723886 0.19079298 0.15053542 -0.06055867 0.061020818
0.048588958 -0.39530465 0.8023441 0.0598859 -0.22322108 0.023726607 0.07040894 -0.110094585
-0.44770238 0.10544972 -0.39454743 -0.1994072 0.49894243 0.071652725 0.06896046 -0.124061435
0.12620704 0.12775187 -0.19186267 0.047875814 -0.5681263 0.20012636 -0.099965006 0.05201969
0.08527849 -0.13185847 -0.036005694 0.38364154 0.18371108 0.33173066 0.06654294 0.1089462
0.09047057 0.33366954 0.3174187 -0.18674007 0.07343122 -0.013781357 0.035133626 0.24352755
0.19615547 -0.47082132 0.11472062 0.10490363 0.1266106 0.06828064 0.025861096 0.043767005
-0.20432751 0.8701182 -0.1813367 0.0059551997 -0.85221857 0.054003336 -0.16687137 -0.066202216
0.10585957 0.093261756 -0.2442968 0.48936823 0.16398838 0.09955308 0.349328 -0.48930615
0.1490296 -0.032044638 0.13423109 0.07753513 -0.12226674 -0.13265507 0.058745626 -0.06317683
0.2676663 -0.054081183 0.11195512 0.18024161 0.12646614 0.1237727 0.14429311 0.10210388
0.03669041 0.14495485 0.30967626 0.16071135 -0.0077939774 -0.1507921 0.2931896 0.10483167
0.07928401 0.1338564 0.109292865 0.08416695 -0.11786219 0.25542894 -0.43716714 0.11949618
0.088499606 -0.0429617 0.09515288 0.07245453 0.20252049 0.04801722 0.04593812 -0.4989081
-0.41150177 0.09059525 0.10604152 0.5938225 0.0875418 0.07496079 0.11777921 0.117967576
-0.70352596 0.024870127 -0.21415086 0.011356627 0.090945035 -0.06079964 0.466725 0.116016574
0.09114184 0.20682696 0.1250887 -0.07875437 0.20542419 -0.22550836 -0.38121352 0.12497157
0.09089469 0.07994593 0.006436404 -0.011722714 -0.09404718 -0.59825695 -0.043047164 -0.1666103
0.43336588 0.008469799 -0.048754238 0.1386537 -0.5446868 -0.2025403 -0.16979136 -0.6843621
0.07860578 -0.063205436 0.07960203 0.16939734 0.09566698 0.03606809 0.34981552 0.003696982
-0.16122964 0.06723659 -0.8198084 -0.37107235 -0.2413082 0.26292345 -0.18422185 0.08790282
0.1735182 0.16653167 0.061069723 -0.2422642 -0.13002536 0.07431998 0.015402479 0.27959928
0.029913723 0.091729656 -0.2016781 0.06319882 0.0431209 -0.14184642 0.018415447 0.23591255
0.1333677 0.03294123 0.23286447 0.55529195 0.13975184 0.13254707 -0.13760927 0.074198656
0.21237658 0.04509545 0.43642187 0.35049346 0.089037545 0.18676773 0.119812675 -0.46788788
0.13999 0.52085775 -0.048873834 1.0313997 0.10917467 -0.30666703 -0.37854204 -0.076960236
0.5691716 0.15996072 -0.3530336 0.041040525 -0.29502618 0.42886302 0.09818006 0.11804474
-0.11299719 0.18851978 0.17483377 0.3673269 -0.3607634 0.19970705 -0.036937222 -0.023873314
0.3261102 -0.35419467 -0.24742502 0.20535001 -0.113367684 -0.45913783 0.11921601 0.12934528
0.029844094 0.21571778 0.058255292 0.10351858 0.49935976 0.12538679 -0.29239357 -0.0009517462
0.051743902 0.17477047 0.1174836 0.090647265 -0.12684628 0.18156284 0.06829589 0.16136523
-0.12120806 0.10030469 0.19309625 -0.27300125 -0.37361372 0.25512537 0.30369467 -0.7257315
00000000: ce4a 483e 98e5 babe 63de 153e aa40 2b3e
00000010: 3c5f 433e f525 1a3e 5e0c 78bd f7f0 793d
00000020: 3705 473d 5f65 cabe 6c66 4d3f eb4a 753d
00000030: 1194 64be 4d5e c23c 9032 903d 4579 e1bd
00000040: 3f39 e5be 06f6 d73d 1f02 cabe 6731 4cbe
00000050: 6275 ff3e aabe 923d 243b 8d3d ec13 febd
00000060: 6b3c 013e 63d1 023e a677 44be 6e19 443d
00000070: ba70 11bf eded 4c3e 74ba ccbd 9912 553d
00000080: 7da6 ae3d e805 07be b57a 13bd aa6c c43e
00000090: c21e 3c3e 9ad8 a93e aa47 883d 2f1f df3d
000000a0: a248 b93d bcd6 aa3e b484 a23e ca38 3fbe
000000b0: 1c63 963d 33cb 61bc 47e8 0f3d 495f 793e
000000c0: fbdc 483e 7e0f f1be a5f2 ea3d b7d7 d63d
000000d0: 36a6 013e b8d6 8b3d a6da d33c 0845 333d
000000e0: 3b3b 51be 11c0 5e3f 54b0 39be d623 c33b
000000f0: ff2a 5abf 9a32 5d3d 54e0 2abe 0795 87bd
00000100: e7cc d83d 0500 bf3d f128 7abe 798e fa3e
00000110: 92ec 273e 7ce2 cb3d 1fdb b23e 5686 fabe
00000120: 379b 183e 3d41 03bd e073 093e bdca 9e3d
00000130: fc66 fabd bbd6 07be 419f 703d db62 81bd
00000140: 8f0b 893e 3b84 5dbd ba48 e53d 4291 383e
00000150: 5780 013e 8b7c fd3d 93c1 133e d71b d13d
00000160: af48 163d 0b6f 143e e38d 9e3e 8491 243e
00000170: 9f64 ffbb 3f69 1abe f21c 963e fdb1 d63d
00000180: a85f a23d a711 093e f0d4 df3d b95f ac3d
00000190: bb61 f1bd 95c7 823e 5fd4 dfbe 6aba f43d
000001a0: 483f b53d 9cf8 2fbd 83df c23d 0a63 943d
000001b0: 8861 4f3e b4ad 443d 9c29 3c3d e270 ffbe
000001c0: 5cb0 d2be 018a b93d 4c2c d93d c004 183f
000001d0: 1e49 b33d 0b85 993d 3a36 f13d fc98 f13d
000001e0: 471a 34bf 70bc cb3c 5d4a 5bbe 2511 3a3c
000001f0: 6441 ba3d 0b09 79bd 94f6 ee3e 199a ed3d
00000200: 93a8 ba3d 72ca 533e 4117 003e f949 a1bd
00000210: b85a 523e aaeb 66be 6b2e c3be 18f1 ff3d
00000220: ff26 ba3d b1ba a33d 78e8 d23b a010 40bc
00000230: cf9b c0bd 5e27 19bf 3952 30bd e49b 2abe
00000240: 22e2 dd3e e9c4 0a3c 86b2 47bd 3cfb 0d3e
00000250: 9870 0bbf b966 4fbe c9dd 2dbe 5b32 2fbf
00000260: 11fc a03d da71 81bd 6406 a33d 7f76 2d3e
00000270: 0ded c33d 22bc 133d 051b b33e 1149 723b
00000280: 6219 25be 56b3 893d f7de 51bf 32fd bdbe
00000290: 7f19 77be e79d 863e a7a4 3cbe 6506 b43d
000002a0: c1ae 313e 4787 2a3e 3f24 7a3d 1b14 78be
000002b0: 5e25 05be 1335 983d ae5a 7c3c a327 8f3e
000002c0: a00d f53c c2dc bb3d b484 4ebe 626e 813d
000002d0: 8a9f 303d 3040 11be fedb 963c 0f93 713e
000002e0: 8b91 083e 62ed 063d 0674 6e3e 9d27 0e3f
000002f0: 1b1b 0f3e 6bba 073e 72e9 0cbe 77f5 973d
00000300: 3f79 593e 02b6 383d b072 df3e e173 b33e
00000310: 5159 b63d 0a40 3f3e 5960 f53d 008f efbe
00000320: 8a59 0f3e ef56 053f ee2f 48bd e804 843f
00000330: f896 df3d 7603 9dbe 43d0 c1be 549d 9dbd
00000340: 3bb5 113f becc 233e d2c0 b4be 1c1a 283d
00000350: ac0d 97be ef93 db3e a112 c93d 71c1 f13d
00000360: 126b e7bd 540b 413e a007 333e 4512 bc3e
00000370: fbb5 b8be 0180 4c3e 7c4b 17bd f891 c3bc
00000380: ebf7 a63e 0159 b5be fc5c 7dbe 4647 523e
00000390: 512d e8bd 1d14 ebbe 8627 f43d 1773 043e
000003a0: 9a7b f43c 1fe5 5c3e 1a9d 6e3d 8d01 d43d
000003b0: 15ac ff3e 6565 003e 9cb4 95be 9b7e 79ba
000003c0: 6af1 533d 08f7 323e 3e9b f03d 46a5 b93d
000003d0: fee3 01be 9ceb 393e b7de 8b3d ed3c 253e
000003e0: ee3b f8bd 8c6c cd3d 06bb 453e d2c6 8bbe
000003f0: 4c4a bfbe cb9f 823e de7d 9b3e 8ac9 39bf

l2.bias f4 [200]
0.09288432 0.06018317 0.01426782 -0.22261362 0.04308342 -0.051517937 0.1317953 0.09678012
0.09822005 0.0034804505 0.008236654 0.037181538 0.052797083 -0.07231015 0.098720685 -0.043244004
-0.039459553 0.009813373 0.035120826 0.15396768 -0.05237861 0.032490544 0.006192387 -0.008732875
-0.04857476 -0.040922917 0.006284121 0.09382544 0.1215545 0.12251382 0.043704715 0.05172027
0.16643925 -0.36787274 0.11634881 -0.06141362 0.094524585 -0.01099719 0.049130335 0.034792658
-0.038869604 0.0065625096 0.052196085 -0.000875491 -0.060479052 0.024966875 -0.09399933 -0.00200852
0.009027047 -0.061885826 0.020082163 -0.02988027 -0.028184807 0.09503132 -0.047073983 0.019602254
-0.2889443 0.0066774315 0.008863945 -0.14476834 0.06858822 0.015132156 0.049200494 -0.053410124
-0.037864532 -0.17846394 -0.030219894 -0.022797916 -0.036402393 0.09445234 0.061675478 0.057599057
-0.094079986 0.090665 0.020209538 0.08024542 0.0017415313 -0.054409154 -0.06873991 -0.046351846
-0.0014399047 0.09710643 0.120243266 0.03327869 0.12912548 0.06719298 -0.14027429 0.11667249
0.11153859 -0.013959425 -0.05599692 -0.006762521 0.0853328 0.09447744 -0.00040818672 0.087157816
0.07494763 0.06680636 0.019042054 -0.017115328 -0.0067938585 0.12863626 -0.054844268 -0.093394354
0.056993026 -0.076903254 -0.050592244 0.057959497 -0.029425938 0.104711324 -0.029864639 -0.009465479
0.014683886 0.03842153 0.056251284 0.1492092 0.052729156 0.004392008 -0.23266599 0.050128695
0.049336653 0.054781683 -0.009023408 0.009293922 0.07864692 0.08865317 -0.002518819 -0.051398005
0.067943625 -0.02461464 0.13677114 -0.08288303 0.11765701 0.016988192 -0.03453415 0.12766954
-0.056085292 -0.010037386 0.0323013 -0.30821592 -0.007555907 0.082192324 0.0741806 -0.05388199
-0.048391342 -0.115617156 0.021941444 0.07661171 0.0081597455 -0.15093479 0.008600178 0.06571471
0.13537677 -0.07733854 0.018938622 0.012302656 0.07630101 0.0030203986 -0.044044316 0.032627847
0.042862013 0.07907972 0.121766284 0.14184566 -0.3286957 -0.003805581 0.097902596 -0.07485522
0.0055224346 -0.004376693 0.013958855 -0.046038777 0.020161157 0.08812128 -0.03316284 0.22145773
0.05814186 0.024162814 0.028764157 0.016961705 0.10222602 0.12500854 -0.022194004 0.04682651
0.018905405 0.04977916 0.08231337 -0.0056840116 0.045734435 -0.021464301 -0.09620246 0.06320793
-0.19566993 0.006444759 0.026822 -0.023920776 0.028838117 0.06281013 0.024909241 -0.4615108
00000000: 223a be3d a182 763d 93c3 693c d3f4 63be
00000010: 3d78 303d 7904 53bd 59f5 063e a834 c63d
00000020: 9827 c93d 4518 643b 08f3 063c ab4b 183d
00000030: c141 583d 5817 94bd 122e ca3d a020 31bd
00000040: 57a0 21bd 45c8 203c dbda 0f3d b4a9 1d3e
00000050: f48a 56bd ce14 053d 82e9 ca3b 5514 0fbc
00000060: 54f6 46bd ca9e 27bd 07eb cd3b 8d27 c03d
00000070: 91f1 f83d 87e8 fa3d b703 333d a2d8 533d
00000080: 0d6f 2a3e d159 bcbe 4948 ee3d d98c 7bbd
00000090: 1b96 c13d 8f2d 34bc e43c 493d bf82 0e3d
000000a0: bc35 1fbd 520a d73b 90cb 553d 3581 65ba
000000b0: e2b8 77bd 5587 cc3c b982 c0bd 60a1 03bb
000000c0: 2ee6 133c fe7b 7dbd 5983 a43c 78c7 f4bc
000000d0: d3e3 e6bc c89f c23d a6d0 40bd e894 a03c
000000e0: 82f0 93be 5bce da3b 143a 113c 273e 14be
000000f0: fb77 8c3d ddec 773c 7586 493d 93c4 5abd
00000100: d717 1bbd 40bf 36be b68f f7bc b2c2 babc
00000110: ad1a 15bd 3a70 c13d 6d9f 7c3d fdec 6b3d
00000120: 02ad c0bd 92ae b93d 798e a53c b657 a43d
00000130: 1844 e43a 22dc 5ebd 83c7 8cbd 6fdb 3dbd
00000140: 2fbb bcba bcdf c63d 1a42 f63d 3c4f 083d
00000150: 7839 043e 799c 893d 10a4 0fbe fdf1 ee3d
00000160: 586e e43d 12b6 64bc 075d 65bd 2398 ddbb
00000170: f7c2 ae3d 637d c13d e501 d6b9 cc7f b23d
00000180: 257e 993d c6d1 883d 15fe 9b3c 7235 8cbc
00000190: 049f debb 39b9 033e 62a4 60bd 8a45 bfbd
000001a0: 8571 693d 747f 9dbd d039 4fbd f066 6d3d
000001b0: aa0e f1bc e472 d63d b0a6 f4bc 1915 1bbc
000001c0: af94 703c e55f 1d3d bf67 663d 4cca 183e
000001d0: 87fa 573d d5ea 8f3b fe3f 6ebe bf53 4d3d
000001e0: 3b15 4a3d c262 603d ebd6 13bc 8945 183c
000001f0: a311 a13d cb8f b53d c512 25bb b786 52bd
00000200: 0726 8b3d a4a4 c9bc bc0d 0c3e 94be a9bd
00000210: 29f6 f03d d22a 8b3c ae73 0dbd cebb 023e
00000220: b1b9 65bd d973 24bc 5e4e 043d 7ace 9dbe
00000230: 8b97 f7bb 7354 a83d 00ec 973d 5db3 5cbd
00000240: 0036 46bd b0c8 ecbd 8bbe b33c 9ae6 9c3d
00000250: 74b0 053c a68e 1abe c3e7 0c3c 6f95 863d
00000260: 35a0 0a3e ab63 9ebd 2b25 9b3c 1491 493c
00000270: b443 9c3d e1f1 453b d067 34bd c7a4 053d
00000280: 1490 2f3d 8cf4 a13d 9a60 f93d fd3f 113e
00000290: ce4a a8be 0e67 79bb 2881 c83d b24d 99bd
000002a0: 8af5 b43b 5d6a 8fbb aeb3 643c 2893 3cbd
000002b0: 0329 a53c ee78 b43d c2d5 07bd d1c5 623e
000002c0: 2926 6e3d 18f1 c53c cfa2 eb3c 46f3 8a3c
000002d0: e05b d13d 3d02 003e 33d0 b5bc 28cd 3f3d
000002e0: 82df 9a3c 3ce5 4b3d ea93 a83d f240 babb
000002f0: 0854 3b3d e7d5 afbc cc05 c5bd 2973 813d
00000300: b35d 48be 8f2e d33b d0b9 db3c 81f5 c3bc
00000310: ea3d ec3c 99a2 803d 770e cc3c 254b ecbe

l3.weight f4 [4, 200]
0.23433246 0.24044132 -0.30417156 -0.35921797 0.28087294 -0.68014306 0.30438313 0.22523198
-0.5912273 -0.38929027 -0.07309616 0.24586868 0.25545973 -0.16641223 0.29213077 0.03357327
-0.06636301 0.015258578 0.2644188 0.9848805 -0.051378086 0.20955579 -0.06652134 -0.038342923
-0.019427603 -0.51995385 -0.05500546 0.31725013 -0.23992804 0.2916884 0.24554452 -0.32768747
-0.648721 -0.40380874 -0.68363714 0.5280877 -0.37647563 0.01758544 -0.3859949 0.042087518
-0.6625221 -0.32208836 0.2317212 -0.011776041 0.681475 0.035106122 -0.48814982 0.23934828
-0.026385115 0.002619627 -0.31700316 -0.04038517 0.046735045 0.22893022 0.023032155 -0.03717755
-0.53999406 0.06945027 0.25721428 -0.31082693 0.2554604 -0.015880851 0.25035986 -0.57753325
0.021788733 -0.42075598 -0.031730656 -0.031129275 0.004291316 0.21965387 0.20263234 0.020175569
0.46184605 0.25754198 -0.37024608 0.27445135 -0.044254407 -0.06539772 0.33413285 0.04515339
0.038782053 -0.44519863 0.2620119 -0.26918197 0.23897529 0.24648756 0.35660836 0.23598622
0.42544332 0.053139627 0.036672194 0.028384393 0.22634971 0.25424725 0.024066608 0.25999108
0.47709167 0.2614755 0.2597386 0.059632994 0.038247332 0.3876173 -0.036561307 -0.0074837226
0.32707196 -0.14407617 0.041974045 0.21256538 0.12643096 0.18906578 0.016451605 0.000936162
0.29524398 0.28064546 0.25787985 0.24238461 -0.21493083 -0.051917054 -0.37673292 0.20843942
-0.4495564 -0.3525356 0.06161423 0.2920178 0.25865313 0.24281722 0.26482412 0.058508843
-0.32847944 -0.013434198 0.2320029 -0.43143135 0.26059157 -0.016576765 -0.016396195 -0.33140534
-0.05746027 0.06225743 -0.022258054 -0.31574312 -0.058330677 0.22129402 0.5092706 0.044021327
-0.015803976 -0.22978325 0.26576293 0.26262075 -0.29387358 -0.36367896 0.04493408 -0.27450734
0.2323212 0.13099663 -0.3605395 -0.056131642 0.205036 0.01818725 0.055542275 0.051494237
-0.31350458 0.2664587 -0.30554688 0.22912301 0.23704463 0.41328895 0.2789228 -0.64411175
0.1928443 -0.0019879383 -0.0028377 -0.00010351173 0.4998978 -0.2459309 -0.049016446 0.8849078
-0.004874689 -0.44561252 -0.05802534 0.19745405 0.16864473 0.2606964 -0.05333384 0.28713563
0.18041119 0.60182554 0.27449492 -0.010531306 -0.028063783 0.051867686 0.3671423 0.3300922
-0.5360727 -0.06519301 0.020947462 -0.02796145 -0.24614966 0.32748017 0.22421779 -0.51389456
0.25181305 0.28000394 -0.36562327 -0.22869006 0.29260698 -0.72468084 0.58269495 0.24035923
-0.51731825 -0.27113098 0.029669452 0.31126598 0.2916439 -0.26758078 0.23876844 -0.010251058
0.0018516635 -0.032923628 0.1565597 0.84687257 0.027330766 0.2709867 -0.04607976 0.019129366
-0.04165113 -0.6335103 0.003247158 0.24853605 -0.1664548 0.20214401 0.1996667 -0.35363683
-0.43225986 -0.269105 -0.7237875 0.44711256 -0.35155416 -0.016000299 -0.44172993 0.006929879
-0.6839611 -0.4142465 0.25969833 -0.021027116 0.90234536 0.01699396 -0.4296206 0.29368883
-0.036331482 -0.038845096 -0.36137614 -0.059552304 0.031486563 0.23979038 0.28674215 -0.049659654
00000000: d9f4 6f3e 4036 763e 60bc 9bbe 6beb b7be
00000010: 94ce 8f3e db1d 2ebf 1bd8 9b3e 36a3 663e
00000020: ac5a 17bf 0e51 c7be 71b3 95bd 00c5 7b3e
00000030: 9ecb 823e f867 2abe 2a92 953e 2084 093d
00000040: 54e9 87bd 1dff 793c e761 873e 2121 7c3f
00000050: d471 52bd cb95 563e 573c 88bd 780d 1dbd
00000060: a326 9fbc b21b 05bf 684d 61bd 9c6e a23e
00000070: b2af 75be 2f58 953e 0670 7b3e a7c6 a7be
00000080: 9412 26bf 05c0 cebe d802 2fbf c130 073f
00000090: 6ac1 c0be 570f 903c 20a1 c5be f663 2c3d
000000a0: 0c9b 29bf c4e8 a4be 5248 6d3e 4cf0 40bc
000000b0: 2575 2e3f 70cb 0f3d c6ee f9be b717 753e
000000c0: 9925 d8bc 0cae 2b3b 3d4e a2be ec6a 25bd
000000d0: 3f6d 3f3d af6c 6a3e eead bc3c 7d47 18bd
000000e0: 0d3d 0abf f13b 8e3d 97b1 833e b524 9fbe
000000f0: b5cb 823e 8f18 82bc 2b2f 803e 38d9 13bf
00000100: 497e b23c 546d d7be 01f8 01bd d202 ffbc
00000110: 2b9e 8c3b f2ec 603e da7e 4f3e 3c47 a53c
00000120: 1677 ec3e 8bdc 833e e590 bdbe e384 8c3e
00000130: 1c44 35bd 3def 85bd 7613 ab3e c3f2 383d
00000140: eed9 1e3d 13f1 e3be 6c26 863e 38d2 89be
00000150: f0b5 743e 3c67 7c3e 5f95 b63e 5fa6 713e
00000160: b5d3 d93e f0a8 593d 9535 163d 6386 e83c
00000170: 38c8 673e b22c 823e 5627 c53c 8d1d 853e
00000180: 5c45 f43e 1ee0 853e 75fc 843e ba41 743d
00000190: 3ca9 1c3d c675 c63e 4fc1 15bd 043a f5bb
000001a0: fa75 a73e b488 13be faec 2b3d bdaa 593e
000001b0: 1e77 013e 769a 413e 84c5 863c c568 753a
000001c0: 382a 973e c3b0 8f3e d408 843e ac33 783e
000001d0: d416 5cbe faa6 54bd 23e3 c0be 2571 553e
000001e0: 422c e6be 8c7f b4be 345f 7c3d 5b83 953e
000001f0: 2f6e 843e 14a5 783e 0797 873e f8a6 6f3d
00000200: 752e a8be 1c1b 5cbc 2b92 6d3e 92e4 dcbe
00000210: 426c 853e ffcb 87bc 5051 86bc f6ad a9be
00000220: 765b 6bbd a601 7f3d 8656 b6bc 15a9 a1be
00000230: 26ec 6ebd e69a 623e 8f5f 023f b54f 343d
00000240: 5777 81bc 4d4c 6bbe 1412 883e 3a76 863e
00000250: 9976 96be 2134 babe cc0c 383d 3a8c 8cbe
00000260: 9ce5 6d3e fb23 063e a298 b8be 4bea 65bd
00000270: f5f4 513e 6dfd 943c 4c80 633d 9feb 523d
00000280: ac83 a0be 466d 883e a470 9cbe 399f 6a3e
00000290: d4bb 723e 9c9a d33e f8ce 8e3e 82e4 24bf
000002a0: fa78 453e 1248 02bb b5f8 39bb 7014 d9b8
000002b0: 9bf2 ff3e 4fd5 7bbe 78c5 48bd 5189 623f
000002c0: dbbb 9fbb 5327 e4be fbab 6dbd 6531 4a3e
000002d0: 34b1 2c3e 007a 853e 9674 5abd 7103 933e
000002e0: b6bd 383e 3d11 1a3f 998a 8c3e 808b 2cbc
000002f0: 05e6 e5bc 3673 543d 13fa bb3e d801 a93e
00000300: 0f3c 09bf ea83 85bd 039a ab3c 690f e5bc
00000310: a80e 7cbe 7bab a73e 5999 653e 988e 03bf
00000320: a4ed 803e ad5c 8f3e f932 bbbe ba2d 6abe
00000330: 95d0 953e af84 39bf 7f2b 153f bb20 763e
00000340: f86e 04bf aed1 8abe 5a0d f33c 415e 9f3e
00000350: 5952 953e 5900 89be b77f 743e 0ef4 27bc
00000360: 84b3 f23a edda 06bd 3051 203e a4cc 583f
00000370: c5e4 df3c c5be 8a3e 21be 3cbd 30b5 9c3c
00000380: 609a 2abd bb2d 22bf 45ce 543b 3c80 7e3e
00000390: 2173 2abe d7fe 4e3e 6d75 4c3e e30f b5be
000003a0: 2a51 ddbe 21c8 89be 234a 39bf f0eb e43e
000003b0: e8fe b3be 0f13 83bc 6d2a e2be 0a14 e33b
000003c0: 1318 2fbf 1e18 d4be 2ef7 843e 0f41 acbc
000003d0: 1b00 673f eb36 8b3c 3bf7 dbbe 625e 963e
000003e0: 52d0 14bd 091c 1fbd 4b06 b9be 1eed 73bd
000003f0: 0ef8 003d 9c8b 753e decf 923e ec67 4bbd

l3.bias f4 [4]
-0.003687079 0.080351874 -0.008716672 0.109936535
00000000: eca2 71bb 868f a43d 5fd0 0ebc 6826 e13d
