fin/DQN/agent-limit-stop-epi/target_model.pt (torch, 340543 bytes, 6 tensors)

l1.weight f4 [400, 8]
0	0xbbeb4cc0	-0.00718078
1	0xbafe4f8e	-0.0019402371
2	0x3f3c5a13	0.7357494
3	0xbf249eea	-0.64304984
4	0x3d612114	0.054963186
5	0xbb0fc611	-0.0021938125
6	0xbef9e94b	-0.488108
7	0xbf020b25	-0.50798255
8	0x3f67eece	0.9059876
9	0xbec5ced4	-0.3863436
10	0x3e9ec5dc	0.3101033
11	0xbf100b5e	-0.56267345
12	0x3de13a61	0.10997463
13	0x3d40d05c	0.047073707
14	0x3ef7877a	0.48345548
15	0x3eec535d	0.4615735
16	0x3eba59cc	0.36396635
17	0x3e027979	0.1274165
18	0x3e47fc79	0.19529904
19	0xbef04baf	-0.46932742
20	0x3e6fb0c9	0.23407282
21	0xbe8f4394	-0.27981246
22	0xbee349af	-0.44392154
23	0xbeba00e5	-0.36328807
24	0x3babfe54	0.005248824
25	0xbe8ad48c	-0.27115285
26	0x3ddcec7d	0.10787294
27	0x3cdc6ac7	0.026906384
28	0x3eaeb453	0.3412195
29	0xbd46af4c	-0.04850702
30	0x3e8be28b	0.27321276
31	0x3d5adf4e	0.053435616
32	0xbed54c75	-0.41659895
33	0x3ed11716	0.40837926
34	0xbc5dd6c3	-0.013539973
35	0xbe89692f	-0.2683806
36	0xbd9712f8	-0.07376665
37	0xbed92cf0	-0.42417097
38	0xbc332c4c	-0.010935854
39	0xbef87615	-0.4852759
40	0x3e1b41e0	0.15161848
41	0x3ec9c750	0.39409876
42	0xbd1d49df	-0.038400527
43	0xbe5c3b74	-0.21507055
44	0xbed75684	-0.42058194
45	0xbe641bb9	-0.222762
46	0xbec5d206	-0.38636798
47	0xbe214365	-0.15748365
48	0xbe320910	-0.1738627
49	0x3ebda9a2	0.37043482
50	0x3e7ccbaf	0.24687074
51	0x3f25d833	0.6478302
52	0xbe65021a	-0.22364083
53	0x3daf2d4e	0.08553563
54	0x3da80ecd	0.08205948
55	0xbeb61de9	-0.35569695
56	0x3df3ad8f	0.11898338
57	0xbdb9b82f	-0.09068333
58	0x3d7b1e4d	0.061308194
59	0x3e311e5c	0.17296737
60	0x3e1c5d4d	0.15269966
61	0x3e5f2c81	0.2179432
62	0x3e8824b9	0.26590517
63	0x3e172839	0.14761437
64	0xbd72d49f	-0.059284803
65	0x3eca5da8	0.3952458
66	0x3e29e1f3	0.16590099
67	0x3df608b7	0.12013381
68	0xbf04aca1	-0.5182591
69	0xbee0c633	-0.43901214
70	0xbf2a2851	-0.6646777
71	0xbee84394	-0.45364058
72	0x3eb23e92	0.34813362
73	0x3e2d77b0	0.16940188
74	0x3ce467e2	0.027881566
75	0x3e80176c	0.2501787
76	0xbf52b77e	-0.82311237
77	0xbf64a4a3	-0.89313716
78	0xbf984798	-1.1896849
79	0x3f35b474	0.70978475
80	0xbc91df08	-0.017806545
81	0x3c8b57d4	0.017009653
82	0xbf24c034	-0.6435578
83	0x3ff17d91	1.8866445
84	0x3e7e17f9	0.24813832
85	0x3b17cd7e	0.0023163254
86	0x3db705f7	0.089366846
87	0xbeb32d18	-0.3499534
88	0x3e797f19	0.2436489
89	0x3e4056d6	0.18783125
90	0xbc594756	-0.013261637
91	0xbc9262a4	-0.017869301
92	0x3d7bf072	0.061508603
93	0xbd0c0131	-0.034180824
94	0x3f086dcf	0.53292555
95	0xbf4ed476	-0.8079294
96	0xbe623ab2	-0.22092703
97	0x3c56d7d2	0.013112979
98	0xbf7fda4c	-0.9994247
99	0xbe504cb2	-0.20341757
100	0x3ea01cb1	0.3127189
101	0x3f1ca277	0.611854
102	0x3f3fad3b	0.74873704
103	0xbebabb81	-0.3647118
104	0xbe83aa0a	-0.25715667
105	0x3ef2952f	0.47379443
106	0xbeabce3f	-0.3355579
107	0x3e1b18ee	0.15146229
108	0xbe15b1fc	-0.14618677
109	0xbe2f8f1a	-0.17144433
110	0x3ef3ab41	0.47591594
111	0xbf2608f5	-0.6485742
112	0xbec35b6c	-0.38155687
113	0x3e42f9e3	0.19040637
114	0x3a485b31	0.0007642983
115	0xbe3caef7	-0.18426119
116	0xbeaac422	-0.33352762
117	0xbc348983	-0.0110191135
118	0xbf44b615	-0.76840335
119	0x3dc17428	0.09445983
120	0x3e845b9d	0.25851145
121	0x3e5039b9	0.2033452
122	0xbdacec4b	-0.08443507
123	0x3f528474	0.8223336
124	0xbe1879e7	-0.14890252
125	0x3da4f623	0.08054759
126	0x3fb46e42	1.4096148
127	0x3e12434b	0.14283483
128	0x3de7a5b2	0.11310901
129	0x3d941ded	0.072322704
130	0xbe211b8f	-0.15733169
131	0x3ce10857	0.027469797
132	0xbf46db72	-0.77678597
133	0xbfa1d1ea	-1.2642186
134	0xbf30f503	-0.6912386
135	0x3f21d166	0.6321014
136	0xbe63a8d3	-0.2223237
137	0xbd9bdcdd	-0.07610486
138	0x3e883a04	0.26606762
139	0xbed55445	-0.41665855
140	0x3e8dd466	0.2770111
141	0xbd94a306	-0.07257657
142	0xbf0bb8ca	-0.5457884
143	0xbdd99017	-0.10623186
144	0x3dde1e6d	0.10845647
145	0x3c9b8d5d	0.018988306
146	0x3e212e0a	0.15740219
147	0x3e8231f8	0.25428748
148	0xbf14d751	-0.58141047
149	0xbf5d6808	-0.86486864
150	0xbdcbe545	-0.09955839
151	0x3f3b0a33	0.7306244
152	0x3f4b7dbf	0.7948875
153	0x3dc00bb2	0.09377231
154	0x3f13070d	0.57432634
155	0xbccb1587	-0.024790538
156	0xbe51e24e	-0.20496485
157	0x3f1e84ce	0.61921394
158	0x3dab4ea0	0.08364606
159	0x3ef1c666	0.47221678
160	0x3eb0014b	0.34375986
161	0x3e202af4	0.15641385
162	0xbe7d1bf7	-0.24717699
163	0x3e67861f	0.22609757
164	0xbf5828b4	-0.8443711
165	0xbf74173d	-0.9534796
166	0xbf1c50c2	-0.61060727
167	0xbea019c8	-0.3126967
168	0xbda8cb20	-0.08241868
169	0x3e9a2785	0.30108276
170	0x3d94dff4	0.07269278
171	0xbd97e9b8	-0.07417625
172	0xbcc1e9b6	-0.023671012
173	0x3db5b4e4	0.08872393
174	0x3e46df99	0.19421233
175	0xbf4bc557	-0.7959799
176	0x3e4a1052	0.19732788
177	0x3e0b0241	0.13575079
178	0x3badc204	0.0053026695
179	0xbd448914	-0.04798229
180	0xbed25315	-0.41079012
181	0x3e3cf3c6	0.18452367
182	0xbeca0583	-0.3945733
183	0xbee5f91f	-0.44916627
184	0xbf0d12cb	-0.551068
185	0xbe8e3063	-0.2777129
186	0x3ed56d35	0.4168488
187	0x3d252382	0.040317066
188	0x3dad5f65	0.08465461
189	0x3f99f57d	1.2028042
190	0x3e2c7071	0.16839768
191	0x3e95e1fa	0.2927397
192	0xbe9ae775	-0.30254713
193	0x3ec5fe5b	0.3867062
194	0xbe898aa9	-0.26863602
195	0x3dae3d4a	0.08507784
196	0x3e80b4c8	0.25137925
197	0x3f0a89c3	0.5411646
198	0x3e6fff68	0.23437274
199	0xbf7bf4fc	-0.9842069
200	0xbdaf0ad5	-0.08546988
201	0x3ea6e31a	0.3259514
202	0x3e927ec8	0.2861235
203	0xbcd0dd3e	-0.025496121
204	0xbd4121a8	-0.047151238
205	0xbe3f4afa	-0.18680945
206	0x3e8a3bf0	0.26998854
207	0xbe2e3e88	-0.17016041
208	0x3d8a3074	0.06747523
209	0x3eee9ae2	0.4660254
210	0x3eb9a29d	0.36256877
211	0x3f1c09df	0.6095256
212	0x3c303506	0.010754829
213	0x3d450188	0.048097163
214	0x3f202e0b	0.62570256
215	0xbee6853d	-0.45023528
216	0x3ea84fc3	0.32873353
217	0xbe7abd35	-0.24486239
218	0x3dbb44ba	0.09143968
219	0x3e8e2603	0.27763376
220	0x3c6ca1bf	0.01444286
221	0xbe76a362	-0.24085763
222	0xbe6672d6	-0.22504744
223	0xbcdba7b7	-0.026813371
224	0x3c3b3ebb	0.01142853
225	0xbea7d10c	-0.32776678
226	0x3e49a4fb	0.19691841
227	0xbec0c0ba	-0.3764704
228	0xbf16e600	-0.589447
229	0xbf90dfb1	-1.1318265
230	0xbf852654	-1.0402322
231	0x3ea15b92	0.31515175
232	0xbb37e2c1	-0.002805874
233	0xbd8f1a7f	-0.069874756
234	0x3f30107a	0.6877514
235	0xbf1bdf6e	-0.608878
236	0x3df2dcc2	0.118585125
237	0xbc4038f3	-0.011732328
238	0xbf001ca8	-0.50043726
239	0x3e03a876	0.12857231
240	0x3f2b6581	0.6695176
241	0xbd1525f9	-0.036413167
242	0x3eb0ab86	0.34505862
243	0xbe62c8b6	-0.22146878
244	0x3ea124fa	0.31473523
245	0x3d38dda2	0.04513324
246	0x3f0ee32c	0.55815387
247	0x3f0b5d9c	0.5443971
248	0xbe9e834a	-0.3095954
249	0x3df7e7a7	0.12104731
250	0xbe14fdc9	-0.14549936
251	0x3deae753	0.11469903
252	0x3e79bb3d	0.24387832
253	0x3f011ba9	0.5043283
254	0xbd8b9844	-0.06816152
255	0xbf5a54cf	-0.8528566

l1.bias f4 [400]
0	0xbb543d59	-0.00323852
1	0x3e806b4e	0.25081867
2	0xbca39d6e	-0.01997253
3	0x3ee6ea37	0.45100567
4	0xbe2e38f5	-0.17013915
5	0xbd98f276	-0.07468121
6	0xbeaa9a4f	-0.33320853
7	0x3e2bc868	0.16775668
8	0xbe20a7f8	-0.15689075
9	0x3d9d9ed4	0.0769631
10	0xbc5bb6d8	-0.013410293
11	0x3e9d1905	0.3068315
12	0x3e2b47b3	0.1672657
13	0xbd9c4899	-0.076310344
14	0x3e50efd8	0.20403993
15	0xbd9d9d80	-0.07696056
16	0xbdfd6724	-0.12373188
17	0x3ec7a0ba	0.38989812
18	0x3e4dc0b1	0.20093037
19	0xbe6d8037	-0.23193441
20	0xbf0771e8	-0.5290818
21	0x3c2b4e40	0.010455668
22	0x3e77c0a5	0.24194582
23	0xbd1c5c42	-0.03817392
24	0x3e57cb29	0.21073593
25	0xbe87a54e	-0.26493305
26	0xbd0ff4ba	-0.0351455
27	0xbeb557b7	-0.35418484
28	0xbe913b8a	-0.28365737
29	0x3d3045a6	0.043035172
30	0x3dd35422	0.103187814
31	0x3e8a0ead	0.26964322
32	0xbe5a5386	-0.21320924
33	0xbe04665f	-0.12929676
34	0x3a816d24	0.0009874445
35	0x3dff45f0	0.124645114
36	0x3ceceb67	0.028920842
37	0x3e5fd83a	0.21859828
38	0x3e7cc81e	0.24685714
39	0x3eab4b4f	0.33455893
40	0x3c13d2ae	0.009022398
41	0xbe4d6c82	-0.20060924
42	0x3d38217d	0.044953812
43	0x3c9bc346	0.019014012
44	0x3e02cf41	0.12774374
45	0xbb975508	-0.004618291
46	0x3eae807a	0.34082395
47	0xbea880ef	-0.3291087
48	0x3a8ef6f6	0.001090734
49	0xbd629772	-0.05532021
50	0x3e8c8a7c	0.27449405
51	0x3ca94225	0.020661423
52	0x3ec1d00d	0.37854043
53	0xbddf8307	-0.10913663
54	0xbe19e292	-0.15027836
55	0xbe20c9bf	-0.1570196
56	0xbf0a9b5e	-0.5414332
57	0xbec74980	-0.38923264
58	0x3e3c4139	0.18384255
59	0xbe20edda	-0.15715733
60	0xbe9fca26	-0.31208915
61	0x3e37f436	0.17964253
62	0x3e7c99f7	0.24668108
63	0x3ea6512d	0.32483807
64	0x3cc3c0ad	0.023895586
65	0xbe0531ba	-0.1300725
66	0xbef81fde	-0.48461813
67	0xbe82cd4b	-0.2554725
68	0x3d37a8ea	0.044838823
69	0x3e29b42e	0.1657264
70	0x3c0691ce	0.0082134735
71	0x3ecca866	0.39972228
72	0x3d9e76f6	0.07737534
73	0x3e002e59	0.1251768
74	0x3eabec57	0.3357875
75	0xbc4bc4d8	-0.012437068
76	0x3e7299db	0.23691504
77	0x3efde586	0.49589175
78	0x3dfd2321	0.12360216
79	0x3d429d14	0.047513083
80	0xbd01b5d3	-0.03166754
81	0x3d006af8	0.031352013
82	0x3e591775	0.21200354
83	0xbd199027	-0.03749099
84	0x3c546867	0.012964345
85	0x3e69a8ae	0.22818252
86	0x3e596927	0.21231519
87	0x3e057b01	0.13035204
88	0x3ea3e2ee	0.3200907
89	0x3e93606c	0.28784502
90	0xbe6d1cdd	-0.23155542
91	0x3e3c4441	0.18385412
92	0x3ec63270	0.38710356
93	0x3f06dba8	0.5267892
94	0xbdc2480b	-0.09486397
95	0xbe9a076a	-0.3008378
96	0x3e71f1f9	0.23627461
97	0x3e477abe	0.19480416
98	0xbe2379ba	-0.15964404
99	0x3def47f6	0.11683647
100	0xbda5e1a8	-0.08099681
101	0xbeafb181	-0.34315112
102	0xbe930b68	-0.2871964
103	0x3e24ed17	0.16106068
104	0xbd909c6e	-0.070610866
105	0x3e9bd8c5	0.3043882
106	0xbddcd68b	-0.10783108
107	0x3e925f9d	0.28588572
108	0xbc6586b8	-0.01400917
109	0xbea2f580	-0.31827927
110	0x3db690f3	0.089143656
111	0x3e37b791	0.17941119
112	0xbed39713	-0.41326198
113	0x3ecb72d8	0.39736056
114	0xbe2962b0	-0.16541553
115	0x3daaec85	0.08345894
116	0xbcad866f	-0.021182267
117	0x3e051804	0.12997442
118	0xba7b798d	-0.00095930026
119	0xbd8801dc	-0.0664098
120	0xbc048960	-0.008089393
121	0x3e476f5f	0.19476078
122	0x3e15e7d4	0.14639217
123	0x3e9baf58	0.30407214
124	0xbdabb5c0	-0.083842754
125	0xbe2d4d6f	-0.1692407
126	0x3e5d2d05	0.21599205
127	0x3e4714ce	0.1944153
128	0x3ecddc70	0.40207243
129	0x3e9accfc	0.30234516
130	0x3ec8c29c	0.39210975
131	0x3d42b02c	0.04753129
132	0xbdbd22ea	-0.09235175
133	0x3d61527c	0.055010304
134	0xbf022dd4	-0.5085118
135	0xbe8eed1a	-0.2791527
136	0x3db70524	0.08936527
137	0x3e68882a	0.22708192
138	0xbdbc791d	-0.09202788
139	0xbef7bba6	-0.48385352
140	0x3d853870	0.06504905
141	0x3ea295a3	0.3175479
142	0x3e62720a	0.22113815
143	0x3dfdecfd	0.123987176
144	0xbe12ba7f	-0.14328955
145	0x3ea0e616	0.31425542
146	0xbda60da9	-0.08108074
147	0x3e81e547	0.25370237
148	0x3f235204	0.6379702
149	0xbf080b2f	-0.53142065
150	0xbe8be6bb	-0.2732447
151	0xbea3a40a	-0.3196109
152	0xbe8ec8fd	-0.27887717
153	0xbd84d8d5	-0.0648667
154	0x3e83a7df	0.25714013
155	0xbcc21450	-0.023691326
156	0x3ed4ed50	0.41587305
157	0xbd835298	-0.06412238
158	0x3d0b5fe9	0.034027014
159	0xbe0b0aec	-0.13578385
160	0x3e796e5c	0.24358505
161	0xbe15dd6c	-0.14635247
162	0xbddecf22	-0.10879351
163	0xbd911e29	-0.07085831
164	0xbdd36a57	-0.10323017
165	0x3e814293	0.25246105
166	0x3ec709ea	0.3887475
167	0x3e27a108	0.16370022
168	0x3be5ae22	0.0070092836
169	0x3c9e4e49	0.019324439
170	0x3ebca345	0.36843315
171	0xbe52517d	-0.20538898
172	0xbe9b100e	-0.30285686
173	0xbda3d664	-0.07999876
174	0x3e71052c	0.23537129
175	0xbec1ecd9	-0.37876013
176	0xbd6fabd3	-0.058513474
177	0x3e7e6d05	0.24846275
178	0x3e9859d1	0.29756024
179	0x3e1cf8f4	0.15329343
180	0xbe186121	-0.14880802
181	0x3e09849d	0.13429494
182	0xbe1822e2	-0.14857057
183	0xbea277dc	-0.3173207
184	0x3dd49b58	0.10381192
185	0x3e42633a	0.18983164
186	0xbe9ab506	-0.30216235
187	0xbe02602f	-0.12732004
188	0x3c4c1b45	0.012457673
189	0x3d58eb1d	0.052958596
190	0xbe685442	-0.22688392
191	0x3e54271d	0.20718046
192	0x3dd8251b	0.10553952
193	0xbea204d6	-0.31644315
194	0xbea4d86c	-0.32196367
195	0x3e10af06	0.14129266
196	0x3e706044	0.23474222
197	0xbdbf282e	-0.093338355
198	0x3e8d1318	0.2755363
199	0xbf2f1a87	-0.6839985
200	0xbec899fa	-0.39179975
201	0x3d40cd1b	0.047070604
202	0xbd9faeb8	-0.07796997
203	0xbea13559	-0.31486014
204	0x3e9870f9	0.2977369
205	0xbd03f70b	-0.03221802
206	0xbee9f210	-0.45692492
207	0xbaf38d76	-0.0018581587
208	0xbc94d6df	-0.018168865
209	0x3dabdb11	0.08391393
210	0x3e52fbfd	0.20603938
211	0x3d081040	0.033218622
212	0xbefa1cf6	-0.4885022
213	0x3ce7796d	0.028256143
214	0xbd4b987f	-0.04970598
215	0x3eb5346a	0.3539155
216	0xbe422e66	-0.18963012
217	0xbe71b759	-0.23605098
218	0xbc0aadf6	-0.008464327
219	0xbdcc523c	-0.099766225
220	0x3cbdfd74	0.023192145
221	0x3da0f47a	0.0785913
222	0xbdc621fa	-0.09674449
223	0x3d03deb5	0.03219481
224	0xbeb6140a	-0.35562164
225	0xbe10c7dc	-0.1413874
226	0x3da51de1	0.080623396
227	0x3d40c347	0.04706123
228	0xbdffd789	-0.12492282
229	0xbd919865	-0.07109145
230	0xbe225182	-0.15851405
231	0xbc8d2fe2	-0.017234746
232	0x3e8f348f	0.27969787
233	0xbe1ac3e0	-0.15113783
234	0x3df7cefa	0.121000245
235	0x3e9fa906	0.31183642
236	0xbd416806	-0.047218345
237	0xbc4549e3	-0.012041542
238	0xbe712f89	-0.2355329
239	0xbd72daa6	-0.05929055
240	0x3ebadd42	0.3649693
241	0x3e3e90de	0.1860995
242	0x3eb79531	0.35856012
243	0x3b5a46f4	0.0033306452
244	0x3e7a39bf	0.24436091
245	0xbeaaf9d8	-0.3339374
246	0x3e189b62	0.14903024
247	0x3e2d9721	0.16952182
248	0x3df12314	0.11774269
249	0x3e9df66c	0.30852067
250	0xbe259c14	-0.1617282
251	0x3ed39ac0	0.41329002
252	0x3e7178aa	0.23581186
253	0xbe4064f5	-0.18788512
254	0x3b81e738	0.003964331
255	0xbde6a8aa	-0.11262639

l2.weight f4 [200, 400]
0	0x3e482b8a	0.19547859
1	0xbebae747	-0.36504576
2	0x3e15fba9	0.14646782
3	0x3e2add25	0.16685922
4	0x3e43a3fe	0.19105527
5	0x3e1a3e0e	0.15062734
6	0xbd72f0e4	-0.059311762
7	0x3d792f50	0.060836136
8	0x3d488999	0.04895935
9	0xbeca57e6	-0.39520186
10	0x3f4d4ce0	0.80195427
11	0x3d750e97	0.059828367
12	0xbe64335a	-0.22285214
13	0x3cc638b7	0.024196966
14	0x3d8fd3d3	0.07022824
15	0xbde117e5	-0.10990886
16	0xbee5148a	-0.44742233
17	0x3dd77506	0.10520367
18	0xbeca0766	-0.3945877
19	0xbe4bbba3	-0.19895796
20	0x3eff8613	0.49906978
21	0x3d92f4d1	0.07175601
22	0x3d8cfa0f	0.068836324
23	0xbdfd257d	-0.12360666
24	0x3e01703d	0.12640472
25	0x3e033037	0.12811361
26	0xbe444a8d	-0.19169064
27	0x3d442aea	0.04789249
28	0xbf1137b8	-0.56725645
29	0x3e4cb953	0.1999257
30	0xbdccb1df	-0.09994864
31	0x3d557fed	0.052123953
32	0x3dafd907	0.085863166
33	0xbe0647cb	-0.13113324
34	0xbd0feba6	-0.03513684
35	0x3ec45560	0.38346386
36	0x3e3c6e89	0.18401541
37	0x3ea9ec76	0.33188218
38	0x3d882f0e	0.066496
39	0x3ddefe01	0.10888291
40	0x3db916f6	0.090375826
41	0x3eab2a5d	0.33430758
42	0x3ea29099	0.31750944
43	0xbe3f238b	-0.18665902
44	0x3d967836	0.07347147
45	0xbc60dfb4	-0.01372521
46	0x3d0e9945	0.034814138
47	0x3e7a2c80	0.24431038
48	0x3e48cc10	0.19609094
49	0xbef0ee36	-0.4705674
50	0x3deab3e2	0.11460091
51	0x3dd8287f	0.10554599
52	0x3e019c95	0.12657388
53	0x3d8ccdc3	0.068751834
54	0x3cd6731d	0.026177937
55	0x3d348233	0.04406948
56	0xbe50aac0	-0.20377636
57	0x3f5f06b1	0.87119585
58	0xbe39b76f	-0.1813638
59	0x3bc71935	0.006076003
60	0xbf59e250	-0.8511095
61	0x3d5c16e7	0.05373278
62	0xbe2b3156	-0.16718039
63	0xbd87d828	-0.066330254
64	0x3dda1c65	0.10649947
65	0x3dc1746a	0.09446032
66	0xbe794521	-0.24342777
67	0x3efad568	0.4899094
68	0x3e27d831	0.16391064
69	0x3dcb25d2	0.09919323
70	0x3eb2e530	0.3494048
71	0xbefaa424	-0.48953354
72	0x3e189b33	0.14902954
73	0xbd02a5b5	-0.03189631
74	0x3e095d55	0.1341451
75	0x3da02bcf	0.07820856
76	0xbdfafe4c	-0.122555345
77	0xbe081cf4	-0.13292295
78	0x3d709dde	0.058744304
79	0xbd80e20d	-0.06293116
80	0x3e89167e	0.26774973
81	0xbd5db431	-0.054126922
82	0x3de52346	0.111883685
83	0x3e38abf1	0.1803434
84	0x3e016e08	0.1263963
85	0x3dfd6133	0.12372055
86	0x3e13b190	0.14423203
87	0x3dd19148	0.10232788
88	0x3d15ac3f	0.03654122
89	0x3e1414bf	0.14461039
90	0x3e9f574a	0.31121284
91	0x3e242892	0.16031101
92	0xbc05d6ab	-0.008168857
93	0xbe1ab23c	-0.15107054
94	0x3e96129a	0.29311067
95	0x3dd8e665	0.10590819
96	0x3da2101b	0.07913228
97	0x3e090a57	0.1338285
98	0x3de05486	0.109536216
99	0x3dac7bcd	0.084220506
100	0xbdef5541	-0.11686183
101	0x3e832b83	0.25619134
102	0xbedf4131	-0.43604425
103	0x3df47397	0.119361095
104	0x3db54489	0.08850963
105	0xbd311365	-0.043231387
106	0x3dc303d7	0.09522217
107	0x3d940933	0.07228317
108	0x3e4f6073	0.20251636
109	0x3d447109	0.04795936
110	0x3d3d7d8d	0.046262313
111	0xbeff2642	-0.49833876
112	0xbed280b0	-0.41113806
113	0x3db933c5	0.090430774
114	0x3dd9d4fa	0.10636325
115	0x3f18171e	0.59410274
116	0x3db3b254	0.08774248
117	0x3d98b242	0.07455875
118	0x3df15ff7	0.11785882
119	0x3df1badd	0.118032195
120	0xbf34064b	-0.703221
121	0x3cc7e78e	0.024402406
122	0xbe5afbf9	-0.21385182
123	0x3c36cfb6	0.011157921
124	0x3dbc7dc4	0.092036754
125	0xbd780555	-0.06055196
126	0x3eeef629	0.4667218
127	0x3deda16b	0.11603054
128	0x3dba51e0	0.09097648
129	0x3e53c284	0.2067967
130	0x3dffffe2	0.12499978
131	0xbda0e83f	-0.078567974
132	0x3e52815e	0.20557162
133	0xbe66936c	-0.22517174
134	0xbec2c6a0	-0.38042164
135	0x3e0075a4	0.12544876
136	0x3dba53b1	0.09097994
137	0x3da34684	0.07972434
138	0x3be22e93	0.0069025247
139	0xbc35bca3	-0.011092338
140	0xbdc02a9d	-0.09383128
141	0xbf190f42	-0.59788907
142	0xbd2f71d4	-0.042833164
143	0xbe2a7ed2	-0.1664994
144	0x3ede2f0e	0.43395275
145	0x3c070aeb	0.008242349
146	0xbd465956	-0.04842504
147	0x3e0df180	0.13861656
148	0xbf0b8aa4	-0.54508424
149	0xbe4ee11c	-0.2020306
150	0xbe2cffc0	-0.16894436
151	0xbf2ef0f6	-0.6833643
152	0x3da09e6b	0.07842716
153	0xbd80cebf	-0.06289434
154	0x3da2a2fb	0.07941242
155	0x3e2d8b66	0.16947708
156	0x3dc3d53a	0.09562154
157	0x3d14b0dd	0.036301482
158	0x3eb348bc	0.3501643
159	0x3b9a9c24	0.0047183204
160	0xbe251239	-0.16120233
161	0x3d8a5179	0.06753821
162	0xbf51f310	-0.8201151
163	0xbebdca3d	-0.37068358
164	0xbe76c96b	-0.24100272
165	0x3e866fc5	0.26257148
166	0xbe3d2cae	-0.18474075
167	0x3db40f16	0.0879194
168	0x3e31c7ff	0.17361449
169	0x3e2a924c	0.1665737
170	0x3d799620	0.060934186
171	0xbe779770	-0.24178863
172	0xbe043b68	-0.12913287
173	0x3d9920f0	0.074769855
174	0x3c7c2e67	0.015391923
175	0x3e8fad77	0.2806203
176	0x3cf800ea	0.030273873
177	0x3dbbc2aa	0.091679886
178	0xbe4ec1c9	-0.2019111
179	0x3d81246e	0.063057765
180	0x3d31f7c4	0.04344918
181	0xbe114b5f	-0.14188908
182	0x3c9d7d41	0.019224765
183	0x3e72c028	0.23706114
184	0x3e08828c	0.1333105
185	0x3d04f16c	0.0324568
186	0x3e6dd3ff	0.23225401
187	0x3f0e4812	0.5557872
188	0x3e0f7717	0.14010273
189	0x3e07c214	0.13257629
190	0xbe0c0707	-0.13674556
191	0x3d9911ba	0.07474084
192	0x3e58a3f2	0.2115629
193	0x3d3d584e	0.046226792
194	0x3edfd3d5	0.43716303
195	0x3eb36d10	0.35044146
196	0x3db62f63	0.08895757
197	0x3e3f61a2	0.18689588
198	0x3df54465	0.11975936
199	0xbeef5ab3	-0.46748886
200	0x3e0fc7ea	0.14041105
201	0x3f056dd1	0.5212069
202	0xbd477545	-0.04869582
203	0x3f841e7a	1.0321801
204	0x3ddf9b83	0.109183334
205	0xbe9ceb33	-0.30648193
206	0xbec1a8d6	-0.37824124
207	0xbd9d5d1f	-0.07683777
208	0x3f11be6e	0.569312
209	0x3e23d635	0.15999682
210	0xbeb4c821	-0.35308936
211	0x3d252c51	0.040325467
212	0xbe96fd15	-0.2948996
213	0x3edba125	0.4289638
214	0x3dc956a4	0.098309785
215	0x3df16ecd	0.11788712
216	0xbde6b64f	-0.11265241
217	0x3e41cc04	0.18925482
218	0x3e329462	0.17439416
219	0x3ebca03c	0.36841
220	0xbeb8ae6d	-0.36070576
221	0x3e4c4179	0.19946851
222	0xbd16561a	-0.036703207
223	0xbcbd757c	-0.02312731
224	0x3ea75878	0.32684684
225	0xbeb52725	-0.35381427
226	0xbe7d73d1	-0.24751212
227	0x3e5272fa	0.20551673
228	0xbde7c4c9	-0.11316831
229	0xbeeb2b64	-0.45931542
230	0x3df60a4e	0.12013684
231	0x3e048da9	0.12944664
232	0x3cf17c2d	0.029478157
233	0x3e5d90da	0.21637288
234	0x3d6ddc3b	0.058071356
235	0x3dd3d615	0.10343567
236	0x3effa9b8	0.49934173
237	0x3e0078a0	0.12546015
238	0xbe953f48	-0.29149842
239	0xba213584	-0.0006149637
240	0x3d52ff72	0.051513143
241	0x3e32ec63	0.17472987
242	0x3df067de	0.11738561
243	0x3dba184c	0.090866655
244	0xbe01f652	-0.1269162
245	0x3e3b30ca	0.1828033
246	0x3d8b8dc9	0.06814153
247	0x3e254ef9	0.16143407
248	0xbdf80527	-0.12110358
249	0x3dcd35df	0.10020041
250	0x3e463fba	0.19360247
251	0xbe8be651	-0.27324155
252	0xbebf4d39	-0.37363604
253	0x3e82c3dd	0.25540057
254	0x3e9b6eb6	0.30357903
255	0xbf39b92b	-0.7254817

l2.bias f4 [200]
0	0x3dbdc519	0.09266109
1	0x3d75e342	0.060031183
2	0x3c7697f5	0.015050878
3	0xbe63f4d3	-0.22261362
4	0x3d2faf38	0.04289171
5	0xbd4e621a	-0.050386526
6	0x3e066bf8	0.13127124
7	0x3dc6167a	0.09672256
8	0x3dc9ca59	0.09853048
9	0x3bd13793	0.006384799
10	0x3c06f308	0.008236654
11	0x3d17ee8b	0.037092727
12	0x3d5720fd	0.052521694
13	0xbd90d5d9	-0.07072038
14	0x3dc9cdb0	0.09853685
15	0xbd3120a0	-0.043244004
16	0xbd21a057	-0.039459553
17	0x3c20c845	0.009813373
18	0x3d103974	0.03521104
19	0x3e1cf8fc	0.15329355
20	0xbd568af4	-0.05237861
21	0x3d052270	0.032503545
22	0x3bcae982	0.006192387
23	0xbc0f1455	-0.008732875
24	0xbd46f654	-0.04857476
25	0xbd1f08ab	-0.038826626
26	0x3bcdeb07	0.006284121
27	0x3dbfecef	0.09371363
28	0x3df930ad	0.12167487
29	0x3dfad7b5	0.12248174
30	0x3d30b34e	0.04313975
31	0x3d57c0c9	0.05267409
32	0x3e2ac633	0.1667717
33	0xbebc59d1	-0.36787274
34	0x3df0e73c	0.117628545
35	0xbd7870b1	-0.060654346
36	0x3dc2dbbf	0.095145695
37	0xbc342d8f	-0.01099719
38	0x3d4bbc27	0.049739983
39	0x3d0e82bf	0.034792658
40	0xbd171796	-0.036887728
41	0x3be70d00	0.0070511103
42	0x3d54f690	0.051992953
43	0xba658135	-0.000875491
44	0xbd7dbcce	-0.061947636
45	0x3ccc8755	0.024966875
46	0xbdc1fae0	-0.09471679
47	0xbb07ba2c	-0.0020710332
48	0x3c13e62e	0.009027047
49	0xbd7d7bfe	-0.061885826
50	0x3ca68f36	0.02033196
51	0xbcf4c778	-0.02988027
52	0xbce6e3d3	-0.028184807
53	0x3dc23dcc	0.09484443
54	0xbd40fbfd	-0.047115315
55	0x3ca094e8	0.019602254
56	0xbe94f264	-0.2909118
57	0x3bdace5b	0.0066774315
58	0x3c0e668d	0.008691442
59	0xbe143e27	-0.14476834
60	0x3d8c6085	0.06854347
61	0x3c77ecdd	0.015132156
62	0x3d497d5f	0.04919183
63	0xbd4feadc	-0.05076109
64	0xbd1b17d7	-0.037864532
65	0xbe366da6	-0.17815265
66	0xbcf78fb6	-0.030219894
67	0xbcbac2b2	-0.022797916
68	0xbd151aad	-0.036402393
69	0x3dc100f8	0.09424013
70	0x3d7ad41f	0.06123745
71	0x3d6be822	0.057594426
72	0xbdc11f63	-0.09429815
73	0x3db8e5be	0.09028195
74	0x3caa5ae3	0.020795291
75	0x3da40e1e	0.08010505
76	0x3ae44418	0.0017415313
77	0xbd5edc22	-0.054409154
78	0xbd8cc783	-0.06873991
79	0xbd3ddb6f	-0.046351846
80	0xbabcbb2f	-0.0014399047
81	0x3dc67ae5	0.09691409
82	0x3df5e427	0.12006407
83	0x3d088eb6	0.033339225
84	0x3e04e4f4	0.12977964
85	0x3d876b6a	0.066122845
86	0xbe0f098f	-0.1396849
87	0x3def6ffa	0.1169128
88	0x3de3d540	0.111246586
89	0xbc64b612	-0.013959425
90	0xbd655d07	-0.05599692
91	0xbbde1e9e	-0.006778552
92	0x3dae6414	0.08515182
93	0x3dc1528b	0.09439572
94	0xb9d601e5	-0.00040818672
95	0x3db22462	0.08698346
96	0x3d97772c	0.07395777
97	0x3d87fd4c	0.066401094
98	0x3c9d2861	0.019184293
99	0xbc8c3572	-0.017115328
100	0xbbde9f04	-0.0067938585
101	0x3e02dfbc	0.1278066
102	0xbd60a462	-0.054844268
103	0xbdbf458a	-0.093394354
104	0x3d6c25dd	0.057653297
105	0xbd9bf507	-0.07615095
106	0xbd4f39d0	-0.050592244
107	0x3d6a6e98	0.057234377
108	0xbceb15a7	-0.028696848
109	0x3dd61995	0.10454098
110	0xbcf4a6b0	-0.029864639
111	0xbc1b1519	-0.009465479
112	0x3c6aaa5e	0.014322845
113	0x3d1c21e3	0.038118254
114	0x3d6622bf	0.05618548
115	0x3e189f08	0.14904416
116	0x3d5c3826	0.053764485
117	0x3b8fead5	0.004392008
118	0xbe6e3ffe	-0.23266599
119	0x3d4a61a5	0.049409527
120	0x3d4b1fe5	0.049590964
121	0x3d62dfac	0.05538909
122	0xbc13d6eb	-0.009023408
123	0x3c0ddbdd	0.0086583765
124	0x3d9fefa0	0.07809377
125	0x3db57169	0.08859522
126	0xba70f30f	-0.0009191492
127	0xbd5286b7	-0.051398005
128	0x3d8bfd5a	0.06835432
129	0xbcc984d7	-0.024599476
130	0x3e0bde89	0.13659109
131	0xbdabd78c	-0.08390722
132	0x3df08f55	0.117460884
133	0x3c8b2ad2	0.016988192
134	0xbd0d73ae	-0.03453415
135	0x3e029dee	0.12755558
136	0xbd65b9b1	-0.056085292
137	0xbc2473d9	-0.010037386
138	0x3d044e5e	0.0323013
139	0xbe9cc47b	-0.30618653
140	0xbbf7978b	-0.007555907
141	0x3da7f346	0.082006976
142	0x3d96ae33	0.073574446
143	0xbd5ccedb	-0.05390821
144	0xbd463600	-0.048391342
145	0xbdecc8b0	-0.115617156
146	0x3cb1b43d	0.02169239
147	0x3d9c7ecb	0.07641371
148	0x3c133fba	0.008987362
149	0xbe1ba7e4	-0.15200764
150	0x3c0ce7c3	0.008600178
151	0x3d874aa4	0.066060334
152	0x3e0a814f	0.1352589
153	0xbd9e7250	-0.07736647
154	0x3ca0ad42	0.019613866
155	0x3c499114	0.012302656
156	0x3d9bff46	0.07617049
157	0x3b45f1e1	0.0030203986
158	0xbd33e922	-0.043923505
159	0x3d05a4c7	0.032627847
160	0x3d31d7e2	0.043418773
161	0x3da035d4	0.07822767
162	0x3df9915f	0.121859305
163	0x3e10fffe	0.14160153
164	0xbea73b77	-0.32662556
165	0xbb4bb7ae	-0.0031084823
166	0x3dc7ebfd	0.09761808
167	0xbd9519c7	-0.07280307
168	0x3b9a2854	0.0047045145
169	0xbb8f6a5d	-0.004376693
170	0x3c64b3ae	0.013958855
171	0xbd3c9328	-0.046038777
172	0x3ca9b18f	0.02071455
173	0x3db53176	0.088473246
174	0xbd07d5c2	-0.03316284
175	0x3e623c16	0.22093233
176	0x3d6e3973	0.058160257
177	0x3cc1fa0c	0.023678802
178	0x3ceba2cf	0.028764157
179	0x3c8932ce	0.016747858
180	0x3dd0ffc7	0.10205036
181	0x3dff9370	0.12479293
182	0xbcb5d033	-0.022194004
183	0x3d3d89c8	0.046273977
184	0x3c9f5cbf	0.019453404
185	0x3d4c429a	0.049868204
186	0x3da7d7e2	0.08195473
187	0xbbba40f2	-0.0056840116
188	0x3d377b56	0.044795357
189	0xbcafd5e7	-0.021464301
190	0xbdc49510	-0.09598744
191	0x3d800273	0.06250467
192	0xbe49280b	-0.19644181
193	0x3bd32e8f	0.006444759
194	0x3cdbb9d0	0.026822
195	0xbcc3f581	-0.023920776
196	0x3ceea6b5	0.029132226
197	0x3d7ec32f	0.06219786
198	0x3cc7fd59	0.024412798
199	0xbeecf313	-0.462792

l3.weight f4 [4, 200]
0	0x3e70c282	0.23511699
1	0x3e771817	0.24130283
2	0xbe9c3367	-0.30507967
3	0xbeb7eb6b	-0.35921797
4	0x3e903fd0	0.28173685
5	0xbf30d6c4	-0.69077706
6	0x3e9c2e78	0.30504203
7	0x3e6752c5	0.22590168
8	0xbf178d14	-0.59199643
9	0xbecb0a08	-0.3965609
10	0xbd95b371	-0.07309616
11	0x3e7ca8e5	0.24673803
12	0x3e833728	0.25628018
13	0xbe36c0d8	-0.17847002
14	0x3e960149	0.29297855
15	0x3d098420	0.03357327
16	0xbd87e954	-0.06636301
17	0x3c79ff1d	0.015258578
18	0x3e87c4ab	0.26517233
19	0x3f7c4628	0.9854455
20	0xbd5271d4	-0.051378086
21	0x3e5777a3	0.21041732
22	0xbd883c57	-0.06652134
23	0xbd1d0d78	-0.038342923
24	0xbc9f26a3	-0.019427603
25	0xbf07973b	-0.52965134
26	0xbd614d68	-0.05500546
27	0x3ea2be65	0.31785884
28	0xbe747716	-0.23873553
29	0x3e95c0eb	0.29248747
30	0x3e7c12ed	0.24616595
31	0xbea80022	-0.328126
32	0xbf25df23	-0.64793605
33	0xbecec005	-0.40380874
34	0xbf2fab8e	-0.68621147
35	0x3f076212	0.5288402
36	0xbec03575	-0.37540784
37	0x3c900f57	0.01758544
38	0xbec64a44	-0.38728535
39	0x3d2c63f6	0.042087518
40	0xbf2c5f7a	-0.67333186
41	0xbea55f59	-0.32299307
42	0x3e6e43c4	0.23268038
43	0xbc40f04c	-0.011776041
44	0x3f2ee3c4	0.6831629
45	0x3d0fcb70	0.035106122
46	0xbef9968c	-0.4874767
47	0x3e7622b9	0.24036683
48	0xbcd82599	-0.026385115
49	0x3b2bae0c	0.002619627
50	0xbea22e70	-0.31676054
51	0xbd256aec	-0.04038517
52	0x3d3f6d3f	0.046735045
53	0x3e6b0d86	0.22954378
54	0x3cc385f3	0.023867583
55	0xbd18477d	-0.03717755
56	0xbf094361	-0.5361844
57	0x3d8e3bf1	0.06945027
58	0x3e842c62	0.2581511
59	0xbe9f24b5	-0.31082693
60	0x3e831a82	0.2560616
61	0xbc82188f	-0.015880851
62	0x3e808e26	0.2510845
63	0xbf16b71d	-0.5887316
64	0x3cb27e49	0.021788733
65	0xbed650c0	-0.41858482
66	0xbd01f801	-0.031730656
67	0xbcff02d2	-0.031129275
68	0x3b8c9e2b	0.004291316
69	0x3e61aacd	0.22037812
70	0x3e505b22	0.20347264
71	0x3c9e8cb9	0.019354211
72	0x3eedf818	0.46478343
73	0x3e842c59	0.25815085
74	0xbebe0fd6	-0.37121457
75	0x3e8ce267	0.2751648
76	0xbd35441c	-0.044254407
77	0xbd85ef3d	-0.06539772
78	0x3eab1376	0.33413285
79	0x3d38f2c3	0.04515339
80	0x3d1ed9ee	0.038782053
81	0xbee3ce42	-0.444933
82	0x3e86922f	0.26283404
83	0xbe898d72	-0.26865727
84	0x3e758933	0.23978119
85	0x3e7b8c14	0.24565154
86	0x3eb6c917	0.35700294
87	0x3e7253b0	0.23664737
88	0x3ed9cd54	0.42539465
89	0x3d59a8f0	0.053139627
90	0x3d163595	0.036672194
91	0x3ce88663	0.028384393
92	0x3e68715b	0.22699492
93	0x3e829b0f	0.25508925
94	0x3cc52756	0.024066608
95	0x3e857ea7	0.2607319
96	0x3ef4fcbe	0.47849077
97	0x3e863afe	0.26216882
98	0x3e857afb	0.2607039
99	0x3d7441ba	0.059632994
100	0x3d1ca93c	0.038247332
101	0x3ec704a4	0.38870728
102	0xbd15c14f	-0.036561307
103	0xbbf53a04	-0.0074837226
104	0x3ea86a25	0.32893482
105	0xbe13a906	-0.14419946
106	0x3d2becfa	0.041974045
107	0x3e5ab882	0.21359447
108	0x3e00b87d	0.12570377
109	0x3e421d2b	0.18956439
110	0x3c86c584	0.016451605
111	0x3a7568c5	0.000936162
112	0x3e97cc10	0.29647875
113	0x3e901943	0.28144273
114	0x3e846947	0.2586157
115	0x3e78f919	0.24313773
116	0xbe5bd3f4	-0.21467572
117	0xbd54a6fa	-0.051917054
118	0xbec0e323	-0.37673292
119	0x3e56936c	0.20954674
120	0xbee5d498	-0.4488876
121	0xbeb4e207	-0.35328695
122	0x3d7c5f34	0.06161423
123	0x3e960c67	0.29306337
124	0x3e84ce64	0.25938714
125	0x3e79a8fd	0.2438087
126	0x3e89095a	0.26764947
127	0x3d6fa6f8	0.058508843
128	0xbea8c4b3	-0.3296257
129	0xbc5c1b1c	-0.013434198
130	0x3e6e43a4	0.2326799
131	0xbedc0e70	-0.42979765
132	0x3e85bf03	0.26122293
133	0xbc87cbff	-0.016576765
134	0xbc865150	-0.016396195
135	0xbea91897	-0.33026573
136	0xbd6b5b76	-0.05746027
137	0x3d7f01a6	0.06225743
138	0xbcb65686	-0.022258054
139	0xbea24f99	-0.31701353
140	0xbd6eec26	-0.058330677
141	0x3e6389b8	0.22220504
142	0x3f02609c	0.50928664
143	0x3d332a74	0.04374166
144	0xbc817757	-0.015803976
145	0xbe6b4c4d	-0.22978325
146	0x3e888c47	0.26669523
147	0x3e86e240	0.2634449
148	0xbe96db7f	-0.29464337
149	0xbeb99009	-0.36242703
150	0x3d380ccc	0.04493408
151	0xbe8c98eb	-0.27460417
152	0x3e6e958d	0.23299237
153	0x3e0623fb	0.13099663
154	0xbeb8590f	-0.36005446
155	0xbd65ea4b	-0.056131642
156	0x3e52c275	0.20581992
157	0x3c94fd6d	0.01818725
158	0x3d67d33e	0.05659794
159	0x3d52eb9f	0.051494237
160	0xbea018db	-0.31268963
161	0x3e88d441	0.26724437
162	0xbe9bdafa	-0.30440503
163	0x3e6b557e	0.22981831
164	0x3e750ca5	0.23930605
165	0x3ed43635	0.41447607
166	0x3e8f2ab4	0.27962267
167	0xbf27a72d	-0.65489465
168	0x3e4646d9	0.19362964
169	0xbb024812	-0.0019879383
170	0xbb39f8b5	-0.0028377
171	0xb8d91470	-0.00010351173
172	0x3effdfad	0.4997534
173	0xbe7b01c4	-0.24512392
174	0xbd48c578	-0.049016446
175	0x3f6286b8	0.88486814
176	0xbbb222c9	-0.0054362756
177	0xbee3dab8	-0.44502807
178	0xbd6dabfb	-0.05802534
179	0x3e4b5272	0.19855669
180	0x3e2d716e	0.16937801
181	0x3e85e973	0.2615467
182	0xbd5a7496	-0.05333384
183	0x3e938044	0.28808796
184	0x3e3b1653	0.18270235
185	0x3f19f8bf	0.6014518
186	0x3e8cffed	0.27539006
187	0xbc2c8b80	-0.010531306
188	0xbce0775e	-0.027400669
189	0x3d547336	0.051867686
190	0x3ebc684e	0.36798328
191	0x3ea9a95f	0.33137032
192	0xbf091e0a	-0.5356146
193	0xbd8583ea	-0.06519301
194	0x3cab9a03	0.020947462
195	0xbce50f69	-0.02796145
196	0xbe7c1d2e	-0.24620506
197	0x3ea8082b	0.32818732
198	0x3e663a90	0.22483277
199	0xbf0277f0	-0.5096426
200	0x3e806284	0.2507516
201	0x3e8ee36f	0.27907893
202	0xbebb51f1	-0.36585954
203	0xbe6a2dba	-0.22869006
204	0x3e9535d4	0.2914263
205	0xbf397cf5	-0.72456294
206	0x3f14dcdf	0.5814952
207	0x3e7525ae	0.23940155
208	0xbf056cdb	-0.52119225
209	0xbe8b3c0a	-0.27194244
210	0x3cf30d5a	0.029669452
211	0x3e9ed2d4	0.31020224
212	0x3e94d092	0.29065377
213	0xbe89577e	-0.26824564
214	0x3e738ab8	0.23783386
215	0xbc27f40e	-0.010251058
216	0x3af2b384	0.0018516635
217	0xbd06daed	-0.032923628
218	0x3e1f7630	0.15572429
219	0x3f58afd4	0.8464329
220	0x3cdfe4c5	0.027330766
221	0x3e8a3b87	0.2699854
222	0xbd3cbe21	-0.04607976
223	0x3c9cb530	0.019129366
224	0xbd2a9a60	-0.04165113
225	0xbf222166	-0.6333221
226	0x3b54ce45	0.003247158
227	0x3e7d1dc1	0.24718381
228	0xbe2af660	-0.16695547
229	0x3e4dfc57	0.20115791
230	0x3e4baae6	0.19889411
231	0xbeb53a03	-0.35395822
232	0xbeddb843	-0.43304643
233	0xbe89c821	-0.269105
234	0xbf39057b	-0.7227399
235	0x3ee57751	0.44817594
236	0xbeb40fe0	-0.35168362
237	0xbc83130f	-0.016000299
238	0xbee26065	-0.44214168
239	0x3be3140a	0.006929879
240	0xbf2f0bf9	-0.68377644
241	0xbed49416	-0.4151923
242	0x3e846e34	0.25865328
243	0xbcac410f	-0.021027116
244	0x3f66c3e1	0.9014264
245	0x3c8b36eb	0.01699396
246	0xbedbf708	-0.42961907
247	0x3e9609ea	0.2930444
248	0xbd14d052	-0.036331482
249	0xbd1f1c09	-0.038845096
250	0xbeb95804	-0.36199963
251	0xbd73ed1e	-0.059552304
252	0x3d00f80e	0.031486563
253	0x3e74a783	0.23892026
254	0x3e92d026	0.2867443
255	0xbd4b67ec	-0.049659654

l3.bias f4 [4]
0	0xbb816688	-0.0039489903
1	0x3da0171b	0.07816907
2	0xbc0a51b5	-0.008442332
3	0x3de0c599	0.10975189
