fin/DDQN/agent-300-10-532/model.pt (torch, 340231 bytes, 6 tensors)

l1.weight f4 [400, 8]
0	0xbeb48c58	-0.35263324
1	0xbe06ae28	-0.13152373
2	0x3ef89c8e	0.48556942
3	0xbe27969b	-0.16366045
4	0xbe3d09df	-0.18460797
5	0x3ee6ca95	0.45076433
6	0xbf93a65c	-1.1535144
7	0x3e39600c	0.18103045
8	0xbe55e668	-0.20888674
9	0x3e141041	0.14459325
10	0xbf08147c	-0.53156257
11	0xbe12d35e	-0.14338443
12	0xbece425a	-0.40284997
13	0xbe703da6	-0.23461017
14	0xbfae965b	-1.3639635
15	0xbef32901	-0.4749222
16	0x3f0096f9	0.50230366
17	0x3e4e996a	0.2017571
18	0xbef1455b	-0.47123227
19	0x3d9f545f	0.077797644
20	0x3d4558b4	0.048180297
21	0xbdb9a8a2	-0.09065367
22	0xbf22770e	-0.63462913
23	0x3f453737	0.77037376
24	0xbe0c890e	-0.13724157
25	0xbe82fc94	-0.25583327
26	0xbeaf04c5	-0.34183326
27	0xbeb66a16	-0.35627812
28	0x3f527de8	0.8222337
29	0x3df6f8b7	0.12059157
30	0xbf36b1b2	-0.7136489
31	0xbe1ebfed	-0.15502901
32	0x3f01a1cc	0.5063751
33	0xbdbbe633	-0.091747664
34	0x3ea34bd2	0.31893784
35	0xbe34bd85	-0.17650421
36	0x3f722b83	0.94597644
37	0x3eee38b5	0.4652764
38	0x3d1586f8	0.03650567
39	0xbf99aef1	-1.2006513
40	0x3f0aa6a1	0.54160506
41	0xbce318bd	-0.027721757
42	0xbf12eb3e	-0.573902
43	0x3f3af73b	0.73033494
44	0xbe0c9844	-0.1372996
45	0x3e4850b2	0.19562033
46	0xbe7b55b7	-0.24544416
47	0xbf3694ec	-0.71320987
48	0x3dd315e6	0.10306911
49	0x3c6a5077	0.014301411
50	0x3eb6ea3e	0.35725588
51	0x3dbcda07	0.09221273
52	0xbe3fb0cb	-0.18719785
53	0xbf5012e2	-0.8127881
54	0xbf9f0bef	-1.2425517
55	0x3f91c39e	1.1387823
56	0xbc8f173b	-0.017467132
57	0xbec74170	-0.38917112
58	0xbf243572	-0.6414405
59	0x3e93fa2d	0.28901806
60	0x3e94302f	0.2894301
61	0x3f4a74b1	0.79084307
62	0x3f1b9c32	0.6078521
63	0xbf2ddbfa	-0.6791378
64	0xbef02303	-0.46901712
65	0x3e042fd4	0.1290887
66	0x3f2f4f28	0.6848016
67	0xbeb30256	-0.3496272
68	0x3e3e2b68	0.18571246
69	0x3ecb5b59	0.3971813
70	0x3eaae181	0.3337517
71	0xbf89b51b	-1.0758394
72	0x3f16d1d7	0.5891394
73	0x3e1f8cef	0.15581106
74	0xbe945275	-0.2896916
75	0x3e0ed5c9	0.1394874
76	0x3ebf177b	0.37322602
77	0xbe8e7f5b	-0.2783154
78	0xbf691dbd	-0.91061
79	0xbd95d44c	-0.07315883
80	0xbde5fb61	-0.11229587
81	0x3f143a5f	0.5790157
82	0xbe8f0e93	-0.27940807
83	0xbed3f69d	-0.41399089
84	0xbe39c1f4	-0.18140393
85	0x3ed4ce61	0.41563705
86	0xbf9d30ec	-1.2280555
87	0xbf9c723b	-1.222236
88	0xbd62a535	-0.055333335
89	0x3e0a736c	0.13520592
90	0xbcb8225c	-0.022477321
91	0x3eae9837	0.34100506
92	0x3e913b12	0.2836538
93	0x3f11ebe9	0.57000595
94	0xbe016d5e	-0.12639377
95	0x3ed111a0	0.4083376
96	0x3eee269a	0.46513826
97	0xbf74fb5b	-0.9569604
98	0x3d5aaff6	0.053390466
99	0xbd3d4009	-0.046203647
100	0xbdc0cbcd	-0.09413872
101	0xbef338e1	-0.47504333
102	0xbf61f634	-0.882663
103	0x3e9a72dc	0.30165756
104	0x3dc05698	0.093915164
105	0x3e2b7b94	0.1674636
106	0xbda1a466	-0.07892685
107	0xbf31f047	-0.6950726
108	0xbf2e2b62	-0.68034947
109	0x3cff5cc5	0.031172166
110	0xbf4df67e	-0.8045424
111	0xbef02ee2	-0.4691077
112	0x392c1dae	0.00016414255
113	0xbbb3ad9e	-0.0054833433
114	0x3ef0bab2	0.47017437
115	0x402f57a8	2.739725
116	0x3d86bca5	0.0657895
117	0x3c6b4b1a	0.014361167
118	0xbd20d064	-0.039261237
119	0xbf011ba4	-0.504328
120	0x3e9d6ac1	0.3074551
121	0x3e016d61	0.12639381
122	0x3e1e1941	0.15439321
123	0x3d15bf59	0.036559436
124	0xbcf30512	-0.029665504
125	0xbf4e91e2	-0.8069135
126	0x3f56e836	0.83948076
127	0xbf266b3c	-0.65007377
128	0x3e029057	0.12750374
129	0x3c8d0993	0.01721648
130	0x3ea98a76	0.3311345
131	0x3f2543fb	0.64556855
132	0x3e33c578	0.17555797
133	0x3e0cd82b	0.13754337
134	0xbe365b0c	-0.17808169
135	0xbe24e33c	-0.16102308
136	0xbf29c47b	-0.6631543
137	0xbf474698	-0.7784209
138	0xbf43c042	-0.7646524
139	0x3f0eaea6	0.5573524
140	0x3e550f42	0.20806602
141	0x3f87ec3e	1.061897
142	0x3db88a3a	0.090107396
143	0x3ec5d013	0.3863531
144	0xbf96c9cc	-1.1780334
145	0x3e1d8d55	0.15385945
146	0xbe8867d9	-0.2664173
147	0x3e8cff7b	0.27538666
148	0xbf22ae33	-0.63547057
149	0xbd07760f	-0.033071574
150	0x3f2475f7	0.642425
151	0xbeb1787c	-0.34662235
152	0x3f40b0cd	0.75269777
153	0xbe58f82f	-0.21188425
154	0x3f811b68	1.0086489
155	0x3ef1d780	0.47234726
156	0x3e43a0f6	0.1910437
157	0x3f02e13d	0.51124936
158	0x3f1bacf9	0.6081081
159	0xbefe4f54	-0.49669898
160	0xbe4e36ae	-0.20138046
161	0x3e2b8bdf	0.16752575
162	0xbdf1d6d9	-0.11808557
163	0x3b6e902c	0.003640185
164	0x3f2b07b6	0.6680864
165	0x3f4805bf	0.7813377
166	0xbf6c6dc6	-0.92355
167	0xbcb66fc5	-0.022270093
168	0x3f6c81e7	0.92385715
169	0xbcfc167c	-0.03077244
170	0x3cf5311f	0.02993065
171	0x3db12ee3	0.08651521
172	0xbdcb4d6e	-0.09926878
173	0xbe9aefc8	-0.30261064
174	0xbf3f1581	-0.7464219
175	0xbe480b66	-0.19535598
176	0xbce36bca	-0.027761359
177	0x3ba6e52a	0.0050932365
178	0xbe615672	-0.22005633
179	0xbf80efd8	-1.0073195
180	0xbf1e71f1	-0.6189261
181	0x3d8608de	0.0654466
182	0xbf963fec	-1.1738257
183	0xbf61d8da	-0.88221514
184	0xbf559a7e	-0.8343886
185	0xbf314f2d	-0.6926144
186	0x3f52f5c7	0.82406276
187	0x3e1b2298	0.15149915
188	0xbe3c0ec4	-0.18365008
189	0x3d564fd4	0.052322224
190	0x3ec19b8c	0.37813985
191	0xbf5c490b	-0.86048955
192	0xbbf6c129	-0.0075303507
193	0xbc15e3c2	-0.00914854
194	0xbc90859b	-0.017641833
195	0xbc464200	-0.012100697
196	0x40383cea	2.878718
197	0xbe07859e	-0.13234565
198	0xbd958a41	-0.073017605
199	0x3d94154f	0.07230627
200	0xbec3e91a	-0.3826378
201	0x3e97c217	0.29640266
202	0x3da250bc	0.07925555
203	0xbe8af6bd	-0.2714137
204	0xbd5234cd	-0.051319886
205	0xbe2a1e25	-0.16613062
206	0xbf4a1d40	-0.7895088
207	0xbf1b6288	-0.6069722
208	0xbdbd3f5e	-0.09240602
209	0xbdf6505a	-0.120270446
210	0xbd18438b	-0.03717379
211	0x3f2ac4ab	0.6670634
212	0x3f4b4fce	0.7941865
213	0xbe348c3f	-0.17631625
214	0x3d897884	0.0671244
215	0x3e085b39	0.13316049
216	0xbe2bca26	-0.16776332
217	0x3e885d14	0.26633513
218	0x3f221707	0.63316387
219	0x3eb14a29	0.34626892
220	0x3e86b60d	0.2631077
221	0x3f0c483a	0.5479771
222	0xbebee11f	-0.3728113
223	0x3eadf310	0.33974504
224	0x3fa5e52b	1.2960562
225	0xbf7d01c3	-0.98830813
226	0x3ec97d20	0.39353275
227	0x3e76fcac	0.24119824
228	0xbf8ec776	-1.1154621
229	0xbef9282a	-0.48663455
230	0xbec9d079	-0.39416865
231	0x3e9d9cf6	0.30783814
232	0x3e9267c9	0.28594807
233	0xbd3ce70d	-0.046118785
234	0x3e8e1ce6	0.27756423
235	0xbe23285f	-0.15933369
236	0x3db2114b	0.086947046
237	0xbf565aca	-0.83732283
238	0xbf4ab9ea	-0.7918993
239	0xbb328973	-0.002724257
240	0xbeb0b2a6	-0.34511298
241	0xbd759aa6	-0.059961937
242	0xbf113d11	-0.56733805
243	0x3efd129d	0.49428263
244	0xbcbe0984	-0.023197897
245	0xbf6b09f0	-0.9181204
246	0x3e22db24	0.15903908
247	0xbe6f5715	-0.23373063
248	0xbed083e4	-0.40725625
249	0xbe9d2749	-0.30694035
250	0xbd5d3e6b	-0.054014605
251	0x3e1ac70e	0.15114996
252	0x3e1f01ba	0.15528002
253	0x3ed0b3bd	0.4076213
254	0xbebd09a4	-0.36921418
255	0x3eecee15	0.46275392

l1.bias f4 [400]
0	0x3e07029d	0.1318459
1	0x3dfca4ca	0.123361185
2	0xbf097669	-0.53696305
3	0xbec62ebb	-0.38707528
4	0x3e468470	0.19386458
5	0xbf097ce0	-0.5370617
6	0xbf1bb2cc	-0.608197
7	0xbf19f121	-0.6013356
8	0xbe01f40a	-0.1269075
9	0xbf169b56	-0.58830774
10	0xbc6762c1	-0.014122666
11	0x3e6925d2	0.22768334
12	0xbe8f7ca0	-0.2802477
13	0x3e01df24	0.12682778
14	0x3b71aa9f	0.003687538
15	0xbf13ff74	-0.57811666
16	0xbf2582f4	-0.64652944
17	0xbf328175	-0.69728786
18	0xbe953da4	-0.2914859
19	0xbe9bfc32	-0.30465847
20	0x3e967202	0.29383856
21	0xbe4e9d89	-0.20177282
22	0x3e9d905b	0.30774197
23	0x3d0824ab	0.033238094
24	0x3a7487a9	0.0009328076
25	0x3c89ea12	0.016835246
26	0xbecfc786	-0.40581912
27	0xbf1b2515	-0.6060346
28	0xbe5b3826	-0.21408138
29	0xbf439e19	-0.7641311
30	0xbf3d9bf9	-0.7406612
31	0x3d1cc017	0.03826913
32	0x3da47aa3	0.080312036
33	0xbba56a3b	-0.005048064
34	0x3e80a25a	0.25123864
35	0x3cb1e2e2	0.021714631
36	0x3ea3193a	0.31855184
37	0x3e6921f0	0.22766852
38	0x3da9fee7	0.08300572
39	0xbeddb490	-0.4330182
40	0x3e26fdb9	0.16307725
41	0xbf1cc4e5	-0.6123794
42	0x3c19b32a	0.009381095
43	0xbf27eeea	-0.6559893
44	0xbf173a17	-0.59073013
45	0x3ea890d9	0.3292301
46	0xbde819ac	-0.113330215
47	0xbdec777a	-0.11546226
48	0xbe337d5f	-0.17528294
49	0xbf0ed02b	-0.5578639
50	0x3db95769	0.09049875
51	0xbde0736f	-0.10959517
52	0xbc86052d	-0.01635989
53	0xbc17d9f5	-0.009268274
54	0x3df17975	0.11790744
55	0xbdd5c9e8	-0.10438901
56	0x3e7fd8e8	0.24985087
57	0xbe916028	-0.28393674
58	0x3d3b3465	0.045704264
59	0xbf0242ab	-0.5088298
60	0xbf1fbc56	-0.6239675
61	0xbdf2fcd0	-0.118646264
62	0xbeeee6b3	-0.46660385
63	0x3e08bba9	0.13352837
64	0xbe8bcaf1	-0.2730327
65	0xbf34c7c5	-0.70617324
66	0x3e2db151	0.16962172
67	0xbf0105df	-0.50399584
68	0x3c8cb9fd	0.01717853
69	0x3eb716ac	0.35759485
70	0xbe4b98d6	-0.19882521
71	0xbeb62754	-0.3557688
72	0x3e19d228	0.15021574
73	0xbed294af	-0.41129062
74	0xbebdf673	-0.37102088
75	0xbf4b4dda	-0.7941567
76	0xbe4dc5e2	-0.20095018
77	0xbdc0d5ee	-0.09415804
78	0x3e8070a7	0.25085947
79	0x3ce117ee	0.02747723
80	0xbf0bbc1a	-0.54583895
81	0xbef5dc41	-0.48019603
82	0xbe6ee81d	-0.23330732
83	0x3d33b529	0.04387394
84	0x3d4456cf	0.04793435
85	0xbf1ca429	-0.6118799
86	0xbe30958c	-0.17244548
87	0x3d909d2b	0.070612274
88	0xbe943ea6	-0.28954047
89	0xbe7fa595	-0.24965508
90	0x3ee7de0b	0.45286593
91	0xbedb8d59	-0.42881277
92	0x3ed3e553	0.41385898
93	0xbea0ced9	-0.31407812
94	0xbe5ba8b3	-0.21451072
95	0xbf4a682f	-0.7906522
96	0xbf8dc298	-1.107501
97	0xbf0b0a18	-0.54312277
98	0x3bf7375b	0.0075444407
99	0xbf6b3314	-0.91874814
100	0xbf0e8bc2	-0.55682003
101	0xbf2649ba	-0.6495625
102	0xbeba8d37	-0.36435863
103	0xbf3cdfe2	-0.7377912
104	0xbe36dfe8	-0.17858851
105	0xbede8473	-0.43460426
106	0xbf56669d	-0.83750325
107	0xbf37de76	-0.71823823
108	0x3e8c3f21	0.27391914
109	0x3d4cb58e	0.04997783
110	0x3e6a9f32	0.2291229
111	0x3bfc1b68	0.0076936968
112	0x3e94be01	0.2905121
113	0xbf301c95	-0.6879361
114	0xbf1cdc70	-0.6127386
115	0x3edcb48a	0.4310649
116	0x3cff5064	0.031166263
117	0xbf5018f4	-0.81288075
118	0xbe2a54b4	-0.16633874
119	0xbf234719	-0.6378036
120	0x3e48475d	0.19558473
121	0xbece08e0	-0.40241146
122	0xbf159a2d	-0.5843838
123	0xbed51bee	-0.4162287
124	0xbe023bcd	-0.12718125
125	0x3e9a9454	0.3019129
126	0x3dd6283a	0.10456891
127	0xbe933d89	-0.28757885
128	0xbf107af1	-0.56437594
129	0xbd909f43	-0.07061627
130	0x3ead846b	0.3389009
131	0xbed529ac	-0.41633356
132	0xbf10213f	-0.5630073
133	0xbd3b38fd	-0.045708645
134	0x3ddbd15e	0.10733293
135	0x3b9df50b	0.004820471
136	0x3dff2d4f	0.12459814
137	0x3e3b0cda	0.18266621
138	0xbeb4ea34	-0.35334933
139	0xbf3ea296	-0.74466836
140	0xbea234ab	-0.31680807
141	0xbe68c13f	-0.22729968
142	0xbeaf0747	-0.3418524
143	0xbe9e4c07	-0.3091738
144	0xbecb0ae8	-0.39656758
145	0xbf292c82	-0.6608354
146	0x3eb98318	0.3623283
147	0x3e172e39	0.14763726
148	0x3be3cf5f	0.006952211
149	0xbf27052e	-0.6524228
150	0x3d2ab2ee	0.041674547
151	0x3c29d02e	0.010364575
152	0xbc331741	-0.010930837
153	0x3e8b325b	0.27186856
154	0xbedeb3d7	-0.43496582
155	0xbeabc88e	-0.3355145
156	0x3ec4f7e6	0.38470381
157	0xbeb25202	-0.34828192
158	0x3df8e117	0.121523075
159	0x3d601aef	0.054713186
160	0xbec03efa	-0.37548047
161	0xbe353148	-0.1769458
162	0x3e57fe98	0.21093214
163	0x3ee8a0d2	0.45435196
164	0xbec62ab5	-0.38704458
165	0xbec70c1b	-0.38876423
166	0x3d14d942	0.036340006
167	0xbd9af3fe	-0.07566069
168	0x3e701895	0.23446877
169	0xbf211988	-0.6292958
170	0xbed912fd	-0.423973
171	0xbe7a156e	-0.24422237
172	0x3e9be6c5	0.304495
173	0xbee99d6a	-0.4562791
174	0xbf570e0f	-0.84005827
175	0xbe8a4281	-0.27003863
176	0x3e04db89	0.12974371
177	0xbcd40f44	-0.025886185
178	0xbe742d90	-0.23845506
179	0xbe88d619	-0.26725844
180	0xbf2f8a99	-0.6857086
181	0xbee430da	-0.4456852
182	0x3cd1ef93	0.025626933
183	0xbeae3805	-0.34027115
184	0x3e521f99	0.20519866
185	0xbf34660f	-0.7046823
186	0xbeb2b405	-0.3490297
187	0xbdd3240b	-0.10309609
188	0x3e562124	0.2091108
189	0xbc84c915	-0.016209165
190	0xbecb1710	-0.39666033
191	0x3e8cb34a	0.27480537
192	0xbf08e31f	-0.5347156
193	0xbd3631f0	-0.044481218
194	0xbe3cbf81	-0.18432428
195	0x3e3307e5	0.1748348
196	0xbf1cbb4e	-0.61223304
197	0xbcaea707	-0.02131988
198	0xbe723d28	-0.23656142
199	0x3e1b08aa	0.15140024
200	0x3b2581bf	0.0025254337
201	0xbe7c76f8	-0.24654758
202	0x3e17a138	0.14807594
203	0xbe390893	-0.18069677
204	0x3d5f9d09	0.05459312
205	0xbf36c39f	-0.71392244
206	0xbd72e637	-0.05930158
207	0xbaed69ea	-0.001811323
208	0xbf2b28ee	-0.6685933
209	0xbf116cb0	-0.5680647
210	0xbec3c0a5	-0.38232914
211	0x3d093ba1	0.033504132
212	0x3e18d2e6	0.14924201
213	0xbeee18a4	-0.46503174
214	0xbee188c8	-0.44049668
215	0xbb1ef198	-0.0024252888
216	0xbd120226	-0.03564658
217	0xbc6c2a64	-0.014414404
218	0x3ed3f3e5	0.41397014
219	0x3ea06cca	0.31333
220	0xbe92e230	-0.28688192
221	0xbed39283	-0.41322717
222	0xbf276815	-0.6539319
223	0xbf053751	-0.5203753
224	0xbf11a841	-0.5689736
225	0xbf3476ad	-0.70493585
226	0x3e2f8abd	0.17142768
227	0xbf20eb26	-0.6285881
228	0x3e071bf6	0.1319426
229	0x3d324198	0.043519586
230	0x3e10fb5b	0.14158385
231	0x3eaabf10	0.33348894
232	0x3cf87c07	0.030332578
233	0xbf1fad76	-0.62374055
234	0xbe69a0b4	-0.2281521
235	0xbeb42631	-0.35185388
236	0x3dd78997	0.1052429
237	0xbf0fa9e5	-0.56118613
238	0xbd286e6a	-0.041120924
239	0xbf2077d8	-0.6268287
240	0xbb0b284b	-0.0021233733
241	0xbe9806f3	-0.29692802
242	0xbe404099	-0.18774642
243	0xbf153e2f	-0.5829801
244	0xbdbb495e	-0.09144853
245	0x3e136abc	0.14396185
246	0xbc18c03c	-0.009323176
247	0xbcf6d5f7	-0.030131323
248	0xbd9aa86e	-0.07551657
249	0x3b6c2bb1	0.0036036784
250	0xbe01a293	-0.12659673
251	0x3e23e193	0.16004018
252	0xbf1bc80d	-0.6085213
253	0x3ccb579e	0.024822053
254	0x3dc5d37a	0.096594766
255	0xbee5fcd8	-0.44919467

l2.weight f4 [200, 400]
0	0xbe3a6644	-0.18203074
1	0x3d0fa626	0.03507056
2	0x3dedb231	0.11606253
3	0x3d8edeae	0.069760665
4	0xbc9db31f	-0.01925045
5	0xbd63c337	-0.055606093
6	0xbe632ba6	-0.2218462
7	0x3e30dfd4	0.17272884
8	0xbe67c5e2	-0.2263408
9	0x3da0982e	0.07841526
10	0x3e68cd58	0.22734582
11	0x3d8102c2	0.06299354
12	0x3e8919ac	0.267774
13	0x3e59d44a	0.21272388
14	0x3f83d893	1.0300468
15	0xbf59b852	-0.85046875
16	0x3e5e6fe9	0.21722378
17	0xbe8ba84e	-0.27276844
18	0xbca2b7cf	-0.019863037
19	0xbdd75fdc	-0.105163306
20	0x3ddb9fcd	0.10723839
21	0x3e06f24f	0.13178371
22	0x3e8ad15c	0.27112854
23	0xbdab505f	-0.08364939
24	0x3f4d5302	0.80204785
25	0x3e6101ca	0.21973339
26	0x3e051257	0.12995277
27	0xbc051e31	-0.008124874
28	0x3e6dce49	0.23223223
29	0xbf28ca58	-0.6593375
30	0xbe58a165	-0.21155317
31	0x3e0b0307	0.13575374
32	0xbdab23bb	-0.083564244
33	0xbd63aef3	-0.055586766
34	0xbc51fcd9	-0.012816631
35	0xbee56281	-0.44801715
36	0xbda6a72b	-0.081373535
37	0x3e0590eb	0.13043563
38	0x3e0eccb8	0.13945282
39	0x3e1d38a5	0.1535364
40	0xbd85cc42	-0.065331
41	0xbed7ab47	-0.42122862
42	0x3f4994ad	0.78742486
43	0xbed57341	-0.41689494
44	0x3e0e3d1b	0.13890497
45	0xbb4845fa	-0.0030559287
46	0x3e33c794	0.17556602
47	0x3e3c7748	0.18404877
48	0xbcddf0bc	-0.02709233
49	0xbf3b1f18	-0.7309432
50	0xbd4e48f3	-0.05036254
51	0xbd2bd9cc	-0.041955754
52	0x3efad77e	0.48992532
53	0x3d220d02	0.039563186
54	0x3ccec034	0.025238134
55	0x3e7501d5	0.2392648
56	0xbbeb78b2	-0.007186019
57	0x3e6d76d9	0.23189868
58	0xbd93d7fd	-0.07218931
59	0xbe0a7417	-0.13520847
60	0xbf187556	-0.5955404
61	0x3e3cfbe3	0.18455462
62	0x3ea224ff	0.3166885
63	0xbe79c046	-0.24389753
64	0x3c3d909c	0.011570122
65	0x3f1a25a1	0.6021367
66	0x3e08cd29	0.13359512
67	0xbd0df612	-0.0346585
68	0x3e287284	0.16449934
69	0x3dbf9f5d	0.09356568
70	0x3ec7bf44	0.39013112
71	0xbe1a2c58	-0.15055978
72	0x3e284d03	0.16435628
73	0x3e4dce1f	0.2009816
74	0x3ed68ec6	0.41905802
75	0xbc1865c5	-0.0093016075
76	0x3e1a75b0	0.15083957
77	0x3d00dfb2	0.031463332
78	0x3e064289	0.13111319
79	0x3e2fcf5d	0.17168947
80	0xbda07ccd	-0.07836304
81	0x3c928c57	0.017889185
82	0x3c77eeae	0.015132589
83	0x3dc14f60	0.09438968
84	0xbe5723e4	-0.21009785
85	0xbebc8993	-0.3682371
86	0x3ddc602f	0.10760533
87	0x3b2fc01e	0.0026817392
88	0x3dc51a36	0.0962414
89	0x3e5a0eda	0.21294728
90	0xbe4da591	-0.2008269
91	0xbeea5614	-0.45768797
92	0x3e0fb761	0.14034797
93	0x3e189f01	0.14904405
94	0x3de3c6c6	0.111218974
95	0xbebb5143	-0.36585435
96	0xbd6eac5f	-0.058269855
97	0x3df14eb1	0.11782587
98	0x3e93f203	0.28895578
99	0x3d1e69c9	0.038675103
100	0xbef5b00d	-0.4798588
101	0x3c41c3d2	0.011826472
102	0x3e67b107	0.22626124
103	0xbf2993a3	-0.662409
104	0xbf34e217	-0.70657486
105	0x3e905c10	0.28195238
106	0xbf1f23e3	-0.62164134
107	0x3ed0b02f	0.40759417
108	0x3d225c2d	0.039638687
109	0xbebe14ed	-0.3712534
110	0x3e636afe	0.22208783
111	0x3ef2db2c	0.4743284
112	0xbe56685f	-0.20938252
113	0xbeb395a5	-0.35075107
114	0xbf29989f	-0.66248506
115	0xbd09680c	-0.033546492
116	0x3e26df70	0.16296172
117	0x3e0244bd	0.12721534
118	0x3ed6b678	0.41936088
119	0xbf05e409	-0.5230108
120	0xbef29a17	-0.47383186
121	0xbe47a31b	-0.19495814
122	0xbf95ac13	-1.1693138
123	0xbe7f6801	-0.24942018
124	0x3e4ee014	0.20202667
125	0x3c534469	0.012894728
126	0xbd912ac3	-0.07088234
127	0xbd4ab4c3	-0.049488794
128	0xbe21a749	-0.1578647
129	0x3e84d9e8	0.259475
130	0xbf233d0e	-0.6376504
131	0x3e747c97	0.23875652
132	0x3e437790	0.19088578
133	0x3e0496b2	0.1294811
134	0x3d0c4422	0.034244664
135	0x3f5753bd	0.8411215
136	0x3e5d30f1	0.21600701
137	0x3dc59d60	0.096491575
138	0x3ca4d19d	0.020119483
139	0x3ee2388c	0.44183767
140	0x3e29eab1	0.16593434
141	0xbe644d14	-0.22295028
142	0x3e3dc4cb	0.18532102
143	0x3e5cecde	0.21574733
144	0x3e6cd5bb	0.23128407
145	0xbd0d4d42	-0.034497507
146	0xbe8e9ba8	-0.2785313
147	0x3e0827f6	0.13296494
148	0x3f54f28b	0.8318259
149	0x3e95ca9f	0.2925615
150	0x3c75d617	0.015004656
151	0x3e8a259c	0.2698182
152	0x3cdf8a42	0.027287606
153	0x3e30df2a	0.1727263
154	0x3dbb3ff0	0.091430545
155	0x3eb883e0	0.36038113
156	0xbe7fa25d	-0.2496428
157	0x3ec0c80b	0.3765262
158	0x3e7f0c68	0.24907076
159	0xbdd85f9e	-0.105651125
160	0x3e4c4cc1	0.19951154
161	0x3e51438f	0.20435928
162	0x3e4831ff	0.19550322
163	0xbf17bf24	-0.5927603
164	0x3dee49c4	0.116351634
165	0x3e259526	0.16170177
166	0x3e8d4552	0.2759195
167	0xbe9dac50	-0.30795527
168	0x3dafe612	0.08588804
169	0x3e1f5846	0.15561017
170	0x3e8e5dd4	0.2780596
171	0xbcab9e7f	-0.0209496
172	0x3baba256	0.005237858
173	0x3e100bdb	0.14067023
174	0x3f547e42	0.83005154
175	0x3cbeebcd	0.023305798
176	0x3ddd9735	0.10819856
177	0xbdaf8417	-0.08570116
178	0x3e78c1bd	0.24292655
179	0x3e82db1d	0.25557795
180	0x3e01155d	0.12605806
181	0x3e7f0120	0.24902773
182	0x3e80c105	0.25147262
183	0xbda9d0ab	-0.082917534
184	0x3e109029	0.14117493
185	0xbdb2028e	-0.086918935
186	0xbc1851f8	-0.009296887
187	0x3e7b861a	0.24562874
188	0x3d526904	0.051369682
189	0x3d885344	0.06656507
190	0xbe28dda9	-0.16490807
191	0x3ef12b00	0.4710312
192	0x3e00a029	0.12561096
193	0xbe9e7e5f	-0.30955788
194	0x3e3894dd	0.18025537
195	0x3d9a210d	0.07525835
196	0xbf127678	-0.5721202
197	0xbeee687b	-0.46564087
198	0x3e1088ff	0.1411476
199	0x3cd9b2df	0.02657455
200	0x3eb7ee5d	0.35924044
201	0x3e069aab	0.13144939
202	0xbe5d7a3f	-0.21628664
203	0x3e52cd0f	0.20586036
204	0xbc9f31ef	-0.01943299
205	0xbeb0ff19	-0.34569624
206	0x3e396587	0.18105136
207	0x3de91061	0.11380077
208	0xbf316610	-0.6929636
209	0xbe3c5b20	-0.18394136
210	0x3dc083ed	0.09400163
211	0x3dc5750f	0.09641468
212	0xbb84b411	-0.004049786
213	0xbe932b7a	-0.28744107
214	0xbc586b1c	-0.013209131
215	0x3eb61009	0.3555911
216	0x3d3f8f99	0.046767805
217	0x3d44d21a	0.04805193
218	0xbe20aaab	-0.15690105
219	0x3bc0696a	0.0058719413
220	0xbeed2bbc	-0.4632243
221	0x3eae5673	0.3405033
222	0xb914224e	-0.0001412716
223	0xbf634d09	-0.8878942
224	0xbea565cc	-0.32304227
225	0xbed4837e	-0.4150657
226	0x3da171cc	0.07883033
227	0xbe551d07	-0.20811854
228	0xbe68250b	-0.22670381
229	0x3dfb6a2c	0.1227611
230	0xbf1814cc	-0.59406734
231	0xbe70ec0c	-0.23527545
232	0x3e298792	0.16555622
233	0x3c803421	0.015649857
234	0xbeab4b4c	-0.33455884
235	0xbeca7a01	-0.39546207
236	0x3d431042	0.047622927
237	0x3e967bc5	0.29391304
238	0xbd1b9b6e	-0.037990026
239	0xbe7105f2	-0.23537424
240	0x3eb769b9	0.35822847
241	0x3ecce641	0.4001942
242	0x3e267221	0.16254474
243	0xbe23c6f8	-0.1599387
244	0xbe6be51c	-0.23036617
245	0x3ec58434	0.38577425
246	0x3e1aec7c	0.15129274
247	0xbdd53b2e	-0.10411678
248	0xbbe5944c	-0.0070062038
249	0x3d09838f	0.03357273
250	0x3dfeb239	0.12436337
251	0xbe8b2a44	-0.27180684
252	0xbed9d531	-0.42545465
253	0x3a9c9873	0.0011947289
254	0x3e59cfe7	0.21270715
255	0xbe0c03f0	-0.13673377

l2.bias f4 [200]
0	0x3e325ee7	0.17419015
1	0xbe93606e	-0.28784508
2	0xbee549b0	-0.44782782
3	0xbe079659	-0.13240947
4	0x3e0e9496	0.13923869
5	0xbd628607	-0.0553036
6	0xbdb1aa62	-0.08675076
7	0x3e468039	0.1938485
8	0x3801bca6	3.093169e-05
9	0xbbf82666	-0.007572937
10	0x3b68b6d6	0.003550937
11	0xbebe7f98	-0.3720672
12	0x3e4cb935	0.19992526
13	0x3dc12302	0.09430505
14	0xbc711c94	-0.014716286
15	0x3e4a0706	0.19729242
16	0x3b937859	0.0045004305
17	0x3d598290	0.05310303
18	0xbdb7e64f	-0.08979475
19	0xbe2efd65	-0.1708885
20	0xbd1fffd7	-0.039062347
21	0x3e56f1fc	0.20990747
22	0xbd8287b2	-0.06373538
23	0x3eb0c6e9	0.34526756
24	0xbd3d62df	-0.04623687
25	0x3e8243db	0.25442395
26	0xbd2ee754	-0.04270108
27	0x3d007a7e	0.031366818
28	0xbdf77f60	-0.12084842
29	0xbda9f4ca	-0.08298643
30	0x3c85e45b	0.01634424
31	0xbe4b57ae	-0.19857666
32	0x3d6ffc66	0.058590315
33	0xbd44f9db	-0.048089843
34	0x3dec670a	0.11543091
35	0xbdfac3b7	-0.12244361
36	0x3ddbd68f	0.10734283
37	0x3d7503eb	0.05981819
38	0xbd558394	-0.052127436
39	0x3e625883	0.22104077
40	0xbbb643a9	-0.005562265
41	0x3e462c20	0.1935277
42	0x3dfe5ce4	0.12420061
43	0xbec4ffc2	-0.38476378
44	0xbe9b7943	-0.30365953
45	0x3e0bacca	0.13640133
46	0xbd877a90	-0.06615174
47	0xbdb91513	-0.09037223
48	0xbcf17bb2	-0.029477928
49	0xbe3dadb9	-0.18523301
50	0x3d68d50b	0.0568438
51	0xbc5a41cb	-0.01332135
52	0x3c4429a6	0.01197282
53	0x3d017d50	0.031613648
54	0x3e125562	0.14290383
55	0xbd188a10	-0.03724104
56	0xbe808c43	-0.2510701
57	0xbdc01f9b	-0.09381028
58	0xbe5e47ef	-0.21707128
59	0x3da9e888	0.08296305
60	0x3e249896	0.16073832
61	0xbd710aaa	-0.05884806
62	0x3e503dd1	0.20336081
63	0x3e94bb5a	0.29049188
64	0x3e5bf84c	0.21481436
65	0xbd952b3c	-0.07283637
66	0x3dd7d80d	0.10539255
67	0x3da48181	0.080325134
68	0xbea51941	-0.3224583
69	0xbd69150d	-0.05690484
70	0x3d6fdea9	0.058561955
71	0xbe1e641b	-0.15467875
72	0x3e4bafe7	0.1989132
73	0xbe3f57d4	-0.18685848
74	0x3e285381	0.16438104
75	0x3be3eaba	0.006955472
76	0xbe2f7d13	-0.17137556
77	0xbe0a1604	-0.13484961
78	0xbe8a9563	-0.27067098
79	0xbc849baf	-0.016187517
80	0x3cbdae3c	0.02315437
81	0x3d9e6440	0.07733965
82	0xbd821bb5	-0.06352941
83	0xbd9495cd	-0.07255135
84	0xbe129d40	-0.14317799
85	0xbde36f7c	-0.11105248
86	0x3df7f7c1	0.12107802
87	0xbc15a895	-0.009134431
88	0xbd1e373e	-0.0386269
89	0xbe0372cb	-0.12836759
90	0x3e543939	0.20724954
91	0x3dd0482f	0.10170018
92	0x3e383813	0.1799014
93	0x3ea66435	0.32498327
94	0x3c868ad8	0.016423628
95	0x3e5d583f	0.21615694
96	0xbca558e6	-0.020183992
97	0x3e546dbb	0.20744984
98	0xbe3191ba	-0.17340747
99	0xbcc44c08	-0.023962036
100	0x3e6a28e8	0.22867167
101	0x3db369da	0.08760424
102	0xbe6a6597	-0.22890316
103	0xbd0d6cfe	-0.03452777
104	0xbe9d3b6b	-0.30709395
105	0x3e113cc1	0.14183332
106	0xbcd1ad20	-0.025595248
107	0xbe15bc76	-0.14622673
108	0xbc3f4412	-0.011673944
109	0x3d518adb	0.051157814
110	0x3ce49725	0.027904103
111	0xbb916609	-0.0044372124
112	0xbe4cab6b	-0.19987266
113	0x3d8c3c0f	0.06847393
114	0xbc475d0b	-0.012168179
115	0x3d9a3014	0.075287014
116	0x3df4eff0	0.11959827
117	0x3db3ca7c	0.08778855
118	0x3c846f02	0.016166214
119	0x3d1bc74c	0.03803186
120	0x3d8418c4	0.06450036
121	0x3d708239	0.05871794
122	0x3dafbd71	0.08581055
123	0x3e2d2216	0.16907534
124	0xbe3fd4e8	-0.18733561
125	0x3e634db9	0.22197618
126	0xbd17b368	-0.03703633
127	0x3cc25c6b	0.023725709
128	0xbd900270	-0.07031715
129	0x382f1189	4.1739582e-05
130	0x3ce1c64a	0.027560372
131	0xbce4e320	-0.027940333
132	0x3d389779	0.04506633
133	0xbc8c766d	-0.017146314
134	0x3ea39001	0.31945804
135	0xbc60fb9b	-0.013731862
136	0xbdeb429e	-0.114873156
137	0x3e7d326f	0.2472627
138	0x3d06c448	0.032902032
139	0xbc192c42	-0.009348931
140	0x3e127ee2	0.14306214
141	0x3cc71d64	0.024306007
142	0x3e05dde7	0.1307293
143	0x3dae9b82	0.085257545
144	0xbdce2001	-0.10064698
145	0xbe1ccdc2	-0.15312865
146	0x3ea88e2e	0.32920974
147	0xbd9fea12	-0.07808317
148	0x3dc4bffb	0.0960693
149	0xbe701c7d	-0.23448367
150	0xbd333eb0	-0.043760955
151	0x3ec31c00	0.381073
152	0x3de4a4a3	0.111642145
153	0x3b38ff29	0.002822826
154	0x3d4a1230	0.04933375
155	0x3decea10	0.115680814
156	0xbf0d9a4d	-0.5531357
157	0x3e59bc44	0.21263224
158	0x3dbececb	0.093167864
159	0xbd084b9d	-0.033275235
160	0x3d456be2	0.04819859
161	0x3df5682a	0.11982758
162	0x3dbaea3e	0.091267094
163	0x3ebe768e	0.37199825
164	0x3e95d52c	0.292642
165	0x3e9fa9a3	0.3118411
166	0x3e47c2db	0.19507925
167	0xbc862936	-0.016377073
168	0x3dc22b1a	0.09480877
169	0xbd38d4b8	-0.04512474
170	0xbe946d41	-0.28989604
171	0xbcbd1df7	-0.023085577
172	0x3d80592b	0.062670074
173	0xbea8c7f8	-0.32965064
174	0x3dde0e66	0.1084259
175	0x3c69b68a	0.014264712
176	0x3e3c42ad	0.1838481
177	0xbca311e8	-0.019906
178	0xbd382549	-0.044957433
179	0x3e62fdb4	0.22167093
180	0x3e9e929d	0.30971232
181	0xbe09e3c5	-0.13465793
182	0xbd492180	-0.049104214
183	0xbe17326c	-0.14765328
184	0xbc91ca94	-0.017796792
185	0xbddddac1	-0.108327396
186	0xbc8915af	-0.016733972
187	0x3ca878f9	0.020565497
188	0x3ca9d02c	0.020729147
189	0x3e6fc084	0.23413283
190	0xbeaabd25	-0.3334743
191	0xbd6e978c	-0.058249995
192	0x3e49b94b	0.1969959
193	0x3e86c1fa	0.26319867
194	0x3bb721d8	0.0055887513
195	0xbd8f4a57	-0.06996601
196	0xbcac7ce5	-0.021055648
197	0x3e3bfbd3	0.18357782
198	0x3ed51d0b	0.4162372
199	0xbe8e72b1	-0.27821878

l3.weight f4 [4, 200]
0	0x3eabdbdc	0.33566177
1	0x3f8dcf9e	1.1078985
2	0xbf77b4a5	-0.96760017
3	0x3d2bbad8	0.041926235
4	0xbe92e3e0	-0.2868948
5	0xbdc89fca	-0.09796102
6	0xbebc289b	-0.3674973
7	0xbe1679a3	-0.14694838
8	0x3bd32a0d	0.006444222
9	0xbe2339d1	-0.15940024
10	0xbcd2807b	-0.02569603
11	0x3f0af671	0.5428229
12	0xbe91581e	-0.2838754
13	0xbe3404ea	-0.1758
14	0xbe149b3f	-0.14512347
15	0xbe46ad05	-0.19401939
16	0xbd1f114d	-0.03883486
17	0xbea0a007	-0.3137209
18	0xbe82efb2	-0.25573498
19	0x3f9f73cc	1.2457213
20	0xbd339c1f	-0.04385006
21	0xbea8a9f2	-0.32942158
22	0xbf1cf8a4	-0.61316895
23	0x3f255b69	0.64592606
24	0x3cf4a407	0.02986337
25	0x3f075322	0.52861226
26	0x3c11c2c4	0.008896533
27	0xbea6a679	-0.32548884
28	0x3d5e923e	0.054338686
29	0x3d97b9eb	0.07408508
30	0xbed8138e	-0.4220242
31	0xbec970b4	-0.39343798
32	0xbead07af	-0.33794925
33	0x3ca462b4	0.020066597
34	0xbe5dbbaf	-0.21653627
35	0x3f28a20d	0.6587227
36	0xbf3ba53c	-0.73299
37	0x3f865ce5	1.0497099
38	0xbd7794cd	-0.06044464
39	0x3cfe9b8a	0.031080026
40	0x395ff7ea	0.00021359292
41	0x3e0e76af	0.13912462
42	0xbea026c6	-0.31279582
43	0xbf0c0d08	-0.54707384
44	0x3f96f18a	1.1792462
45	0xbf2c899a	-0.67397463
46	0xbe7512d7	-0.23932968
47	0xbf896945	-1.0735251
48	0xbcaee985	-0.021351585
49	0xbee06d8a	-0.43833572
50	0x3f05a512	0.52205
51	0xbeeae9ee	-0.458816
52	0xbd185b02	-0.037196167
53	0x3d2f8d5d	0.042859424
54	0x3edce709	0.43145016
55	0xbf0a7ab8	-0.54093504
56	0x3f4e84c2	0.8067132
57	0xbcd55ac5	-0.026044259
58	0xbf03f7a5	-0.5154975
59	0xbe43d05f	-0.19122456
60	0xbe609ddb	-0.21935217
61	0xbd6d297e	-0.0579009
62	0x3f773d5c	0.96578
63	0xbecd7c91	-0.401341
64	0xbf21160f	-0.62924284
65	0xbd7f9c88	-0.06240514
66	0xbe38217b	-0.17981522
67	0xbeb7cd98	-0.35899043
68	0xbf20340c	-0.6257942
69	0x3e1f1490	0.15535188
70	0xbdb3b43d	-0.08774612
71	0xbe1f0622	-0.15529683
72	0xbea320dc	-0.31861007
73	0xbf035e4e	-0.5131577
74	0x3ed9d794	0.42547286
75	0x3d66e148	0.05636719
76	0x3f8332a0	1.0249825
77	0x3f2d769d	0.67759115
78	0xbeb8a4b4	-0.3606316
79	0x38b8d57b	8.8135675e-05
80	0xbda770e5	-0.0817583
81	0xbe9bd450	-0.3043542
82	0xbeb556c7	-0.35417768
83	0xbc9ed31a	-0.01938777
84	0xbf27a175	-0.6548074
85	0xbe8b1140	-0.27161598
86	0xbe749b91	-0.23887469
87	0xbeba2975	-0.36359754
88	0x3f8b244e	1.0870454
89	0x3f9aa602	1.2081912
90	0xbdbb3457	-0.091408424
91	0xbe87c4d4	-0.26517355
92	0x3f86c694	1.0529351
93	0x3f21bed4	0.63181806
94	0x3ca8ad24	0.020590372
95	0x3f0130a6	0.50464857
96	0xbe1990b5	-0.14996608
97	0x3f23f554	0.64046216
98	0xbf375948	-0.7162061
99	0x3d0fc864	0.035103217
100	0xbe18c556	-0.14919028
101	0xbe99cb62	-0.3003798
102	0xbed778b8	-0.4208429
103	0x3ce47fe4	0.027893014
104	0xbe8df664	-0.27727044
105	0xbe1ff1cd	-0.15619583
106	0x3cd83b33	0.026395416
107	0xbf499bd3	-0.78753394
108	0x3ea936ef	0.33049724
109	0xbe267157	-0.16254173
110	0xbcf13ff3	-0.029449439
111	0xbefa2c7a	-0.48862058
112	0x3faf131a	1.3677704
113	0xbec6071c	-0.386773
114	0xbdcd7301	-0.10031701
115	0xbeee55e0	-0.46549892
116	0x3bd9a475	0.0066419193
117	0xbe35fd27	-0.17772351
118	0x3e0b61c0	0.13611507
119	0xbdf11676	-0.11771862
120	0xbd18ad5d	-0.037274707
121	0xbec32b8d	-0.38119164
122	0x3eee87ca	0.46587974
123	0xbe7c9d64	-0.24669415
124	0x3e4c2ac0	0.19938183
125	0xbe8ea32f	-0.27858874
126	0x3d28bb81	0.041194443
127	0xbea0e6c8	-0.31426072
128	0xbece89c1	-0.40339473
129	0xbd572372	-0.052524038
130	0x3d1b20fe	0.03787326
131	0xbc11e014	-0.008903522
132	0xbe7d1cf0	-0.2471807
133	0xbec7947c	-0.38980472
134	0x3f1b1fae	0.60595214
135	0x3c97ca2a	0.018529017
136	0x3d079bad	0.03310745
137	0xbee44958	-0.44587207
138	0xbe87391e	-0.26410764
139	0xbe644cdd	-0.22294946
140	0xbe7919f7	-0.24326311
141	0xbe21a75e	-0.15786502
142	0xbe4193ba	-0.1890401
143	0x3e7d87ba	0.24758807
144	0xbf38eed7	-0.7223944
145	0xbf5cc5db	-0.86239403
146	0x3f204122	0.62599385
147	0xbd63125c	-0.05543743
148	0x3ee4538d	0.44594994
149	0x3f13b508	0.57698107
150	0x3d77d12b	0.060502212
151	0x3ef05971	0.46943238
152	0x3e01e078	0.12683284
153	0x3d32e401	0.043674473
154	0x3f0a7cb7	0.5409655
155	0xbed7f49b	-0.42178807
156	0xbee3faa0	-0.4452715
157	0x3f080c86	0.5314411
158	0xbc97bc66	-0.018522453
159	0x3d577c8e	0.05260902
160	0xbf0be39f	-0.546442
161	0x3eeab1dc	0.4583882
162	0xbebff912	-0.37494713
163	0x3f232f44	0.63743997
164	0xbeff3d04	-0.4985124
165	0x3f17b965	0.59267265
166	0xbf35cf65	-0.71019584
167	0xbcda16ec	-0.026622258
168	0xbea4618d	-0.32105675
169	0xbcd5133c	-0.026010148
170	0x3eb1ed94	0.3475157
171	0xbea57523	-0.3231593
172	0xbec74ed3	-0.38927326
173	0x3eac4587	0.33646795
174	0xbe877da0	-0.26463032
175	0xbe9e12fc	-0.3087386
176	0xbf6beb3a	-0.921558
177	0x3d8aabfa	0.06771083
178	0xbe571760	-0.2100501
179	0xbea7ebc4	-0.32797062
180	0x3ed642ea	0.41847926
181	0xbf15738a	-0.58379424
182	0xbd5bc03e	-0.053650133
183	0xbe8f5003	-0.27990732
184	0xbea658ac	-0.32489526
185	0x3dffd60d	0.12491999
186	0xbdb82ca6	-0.08992891
187	0xbe33bf21	-0.17553379
188	0xbf52624f	-0.82181257
189	0xbf7b19a2	-0.9808599
190	0x3f1e0a5b	0.6173455
191	0x3d636e7e	0.055525295
192	0x3e33689c	0.17520374
193	0x3f2c5b6e	0.6732701
194	0xbba29db1	-0.004962646
195	0xbeeca488	-0.46219277
196	0x3ec2c574	0.3804127
197	0xbe91614f	-0.28394553
198	0xbf332074	-0.69971395
199	0x3f62df28	0.8862176
200	0x3e22c693	0.15896063
201	0x3f9561f6	1.167052
202	0xbf681084	-0.906502
203	0x3d87749c	0.06614038
204	0xbe6857c5	-0.22689731
205	0x3d906058	0.07049626
206	0xbe91194a	-0.28339607
207	0xbd13c102	-0.03607274
208	0x3d4a638c	0.04941134
209	0xbd806c04	-0.06270602
210	0xbd7dc619	-0.0619565
211	0x3f28a7a3	0.65880793
212	0xbeb1f12a	-0.34754306
213	0xbe72d80d	-0.2371523
214	0x3e1d4a1a	0.15360299
215	0xbe334470	-0.17506576
216	0x3ce04af7	0.027379496
217	0xbd801779	-0.06254477
218	0xbe93ed02	-0.2889176
219	0x3f6615be	0.89876926
220	0xbd46db50	-0.048548996
221	0xbece8f79	-0.40343836
222	0xbef0da4c	-0.47041547
223	0x3f24406c	0.641608
224	0x3d5e4f33	0.05427475
225	0x3f07adcb	0.5299956
226	0x3d0d1a03	0.034448635
227	0x3b99e1cf	0.004696108
228	0x3dff66f9	0.12470812
229	0x3ce693a1	0.028146567
230	0xbec662f9	-0.38747385
231	0xbee0b3ec	-0.4388727
232	0xbe549588	-0.20760167
233	0xbbaa0a39	-0.005189207
234	0xbe3c3922	-0.1838117
235	0x3f1e982c	0.61950946
236	0xbf34b5bc	-0.70589805
237	0x3f5c25e1	0.859953
238	0x3b7af73a	0.0038294331
239	0x3e23f87d	0.1601276
240	0xbd332e56	-0.04374536
241	0x3e33391d	0.17502256
242	0xbe6ee9f8	-0.2333144
243	0xbeae53c3	-0.3404828
244	0xbc139db3	-0.009009766
245	0xbf1eacc9	-0.619824
246	0xbec58c1a	-0.38583452
247	0xbf67dc1d	-0.9057024
248	0xbd69b446	-0.057056688
249	0xbe3a0522	-0.1816602
250	0x3f0030be	0.50074375
251	0xbf2ac8e1	-0.66712767
252	0xbc88fba5	-0.016721556
253	0x3c48db10	0.01225926
254	0x3efeb712	0.49749047
255	0xbf190b6f	-0.5978307

l3.bias f4 [4]
0	0x3e679ae8	0.22617686
1	0x3e99c1b3	0.30030593
2	0x3e734e83	0.23760419
3	0x3d612436	0.054966174
