fin/DDQN/agent-300-10-532/target_model.pt (torch, 340543 bytes, 6 tensors)

l1.weight f4 [400, 8]
00000000: 178c b4be f6aa 06be d6d9 f83e 0ee9 27be
00000010: 1b26 3dbe 31b2 e63e c1a6 93bf 1758 393e
00000020: 75ec 55be 9f43 143e d028 08bf 1c19 13be
00000030: b6c8 cdbe 4227 6fbe 5b96 aebf 0129 f3be
00000040: 6b7f 003f b374 4e3e cf52 f1be 13dd 9f3d
00000050: b12b 453d 0ede b9bd 0e77 22bf d34d 453f
00000060: 5dcf 0cbe 4006 83be cc62 aebe 1dca b5be
00000070: 081b 523f aaec f53d b2b1 36bf fdb3 1ebe
00000080: 7195 013f e320 bcbd 2a2a a33e 6dfc 34be
00000090: 6e6a 723f 47a6 ee3e 4174 153d f1ae 99bf
000000a0: b7a5 0a3f 24b9 e0bc 34fc 12bf 1e08 3b3f
000000b0: 1a97 0cbe 7b7c 483e b755 7bbe ec94 36bf
000000c0: 68a7 d23d a9c2 643c a4bd b63e 5194 bd3d
000000d0: 8e8a 3fbe ec02 50bf ef0b 9fbf f7cf 913f
000000e0: 1885 91bc ab6b c6be 2aad 24bf 31f0 923e
000000f0: ff2a 953e 2f9c 4a3f de8a 1b3f 0fdc 2dbf
00000100: 0b23 f0be 0833 043e 453d 2f3f 2635 b3be
00000110: 1726 3f3e d8b6 cb3e 9cb9 aa3e 1bb5 89bf
00000120: 7ec1 163f 1f40 1f3e a92f 94be c30c 0f3e
00000130: 0e0c bf3e d17c 8ebe bd1d 69bf 4cd4 95bd
00000140: 2f54 e6bd 973e 143f a321 8fbe 7a15 d4be
00000150: 565d 39be 2b10 d53e ec30 9dbf 3b72 9cbf
00000160: 4dc3 61bd 7270 0a3e de44 b8bc 1c95 ae3e
00000170: b34e 913e 8ce5 113f 749f 01be 2ede d03e
00000180: 9b1a ee3e 79fa 74bf 549c 5a3d a24e 3dbd
00000190: 77c4 c0bd 1a41 f3be 34f6 61bf d0a7 9a3e
000001a0: 2316 c03d 857c 2b3e 04e5 a1bd 5af8 31bf
000001b0: 800e 2ebf a136 033d 6bf7 4dbf e22e f0be
000001c0: 76cb 9239 65d7 adbb 72a2 f03e d95b 2f40
000001d0: a241 873d eba5 6a3c 54fa 1ebd a41b 01bf
000001e0: 6947 9d3e 0f15 013e c8ac 1d3e 1863 173d
000001f0: 9ace f1bc 827e 4ebf 40d1 563f 346b 26bf
00000200: 5790 023e 9309 8d3c 768a a93e fb43 253f
00000210: 78c5 333e 2bd8 0c3e 0c5b 36be 3ce3 24be
00000220: b6cc 29bf 4881 47bf 5a97 43bf a903 0f3f
00000230: 8e3b 543e f9e9 873f 35ea b83d 7a1b c63e
00000240: f8c4 96bf 0396 1d3e f755 88be c31e 8d3e
00000250: 74a0 22bf 7da1 05bd 4b71 243f 786e b1be
00000260: 0da5 403f ad52 59be b213 813f 3ce5 f13e
00000270: d060 433e 75cd 023f 2eac 1b3f e44e febe
00000280: 5d6a 4ebe f65d 2b3e 19b1 f0bd 91cc 663b
00000290: 24ef 2a3f 1e00 483f 846e 6cbf 2053 b8bc
000002a0: f67e 6c3f be85 fcbc 4594 f53c 5be0 b03d
000002b0: 93ae cbbd cb08 9bbe 8115 3fbf a600 48be
000002c0: 1858 e4bc b46c a73b 3777 61be 5cf4 80bf
000002d0: 8850 1ebf 03bc 873d a43f 96bf dad8 61bf
000002e0: 2d93 55bf 2765 31bf 3605 533f 1d52 1b3e
000002f0: 3326 3cbe 6552 583d 10ae c13e 0b49 5cbf
00000300: 00af fcbb ec27 14bc 075e 94bc f483 4abc
00000310: bc47 3840 85a1 07be 8cfc 95bd dff8 933d
00000320: a200 c4be 97bc 973e 101e a23d e809 8bbe
00000330: a183 50bd e344 29be 401d 4abf 8862 1bbf
00000340: 9b28 bdbd 5e3b f6bd 6743 18bd 24c3 2a3f
00000350: 7d49 4b3f 787e 34be f00b 893d 9c35 083e
00000360: 2425 2bbe 507e 883e 4b28 223f 9c41 b13e
00000370: 9feb 863e 805b 0c3f 24e0 bebe 1df3 ad3e
00000380: 71e8 a53f 840f 7dbf d06c c93e 383f 773e
00000390: 4dc5 8ebf 39fe f8be 7fcd c9be c468 9d3e
000003a0: 9d41 923e 0d7e 3ebd ddea 8d3e b7c1 22be
000003b0: 3e5b b23d c449 56bf eab9 4abf 8dfb 2fbb
000003c0: 88b6 b0be 088e 75bd f63b 11bf 6b13 fd3e
000003d0: bf17 bebc 8708 6bbf 24db 223e 3f61 6fbe
000003e0: 6773 d0be de52 9dbe e5b8 5ebd dd03 1a3e
000003f0: 0f0c 203e fbbd d03e 56e6 bcbe 1619 ed3e
-0.3526313 -0.13151154 0.48603696 -0.16397497 -0.18471567 0.45057824 -1.1535264 0.1810001
-0.20890982 0.1447892 -0.53187275 -0.14365047 -0.40192193 -0.2335482 -1.3639635 -0.4749222
0.50194424 0.20161705 -0.4713349 0.078058384 0.04813737 -0.09075557 -0.63462913 0.77071875
-0.13750978 -0.25590706 -0.3405975 -0.35505763 0.82072496 0.12008031 -0.7136489 -0.15498348
0.50618654 -0.0918596 0.31868106 -0.17674418 0.9469365 0.46611235 0.03648782 -1.2006513
0.5415911 -0.027432032 -0.5741608 0.7305926 -0.13729516 0.19578736 -0.24544416 -0.71320987
0.102858365 0.013962426 0.3569156 0.09256805 -0.18705198 -0.8125446 -1.2425517 1.1391591
-0.01776366 -0.3875402 -0.6432673 0.28698877 0.29134366 0.7914457 0.6075877 -0.6791391
-0.46901736 0.12910092 0.68452865 -0.35001487 0.18666874 0.39787936 0.33344734 -1.0758394
0.58888996 0.15551804 -0.28942612 0.13969712 0.37313884 -0.27829602 -0.91061 -0.07315883
-0.112465255 0.57908005 -0.2795535 -0.41422635 -0.18102011 0.41613898 -1.2280555 -1.222236
-0.055117894 0.13519457 -0.022493776 0.34098136 0.28380355 0.56990886 -0.12658483 0.4079451
0.46504673 -0.9569469 0.053371742 -0.04621757 -0.09412473 -0.47510606 -0.882663 0.30206156
0.09379222 0.16746719 -0.079050094 -0.6951958 -0.67990875 0.03203452 -0.80455655 -0.4691077
0.0002799888 -0.005305218 0.46998936 2.739981 0.06604315 0.0143217845 -0.03881295 -0.504328
0.30718544 0.1260569 0.15397942 0.036959738 -0.02951746 -0.80661786 0.8391304 -0.6500733
0.12750374 0.01721648 0.3311345 0.64556855 0.17555797 0.13754337 -0.17808169 -0.16102308
-0.6632799 -0.7793164 -0.7640282 0.5586496 0.20725843 1.0618278 0.090290464 0.38692838
-1.177886 0.15389256 -0.26628086 0.27562532 -0.6352608 -0.03262471 0.6423537 -0.34654593
0.7525185 -0.21222945 1.0084136 0.47245204 0.190799 0.5109475 0.608096 -0.49669564
-0.20157762 0.16735062 -0.11752529 0.0035217146 0.6677115 0.7812518 -0.92356133 -0.022500575
0.92381227 -0.030825492 0.029977927 0.086365424 -0.09945407 -0.30280146 -0.7464219 -0.19531497
-0.027874038 0.005109394 -0.22018133 -1.0074573 -0.6184163 0.06627657 -1.1738172 -0.88221514
-0.834277 -0.6929497 0.82429826 0.15168042 -0.18373947 0.052812953 0.37828112 -0.86048955
-0.0077112913 -0.009042721 -0.018111242 -0.012360562 2.8793783 -0.13245209 -0.0732356 0.07225203
-0.38281733 0.2963607 0.0791589 -0.27155995 -0.05090678 -0.16530184 -0.7895088 -0.6069722
-0.092362605 -0.12023042 -0.037173655 0.6670401 0.7940901 -0.17626369 0.0669173 0.133017
-0.16713387 0.2665887 0.6334273 0.34620368 0.2635164 0.5482712 -0.3728038 0.33974543
1.296156 -0.988518 0.3934083 0.2414521 -1.1153961 -0.48631456 -0.39414594 0.30743992
0.28565684 -0.04650693 0.2771825 -0.15894209 0.08708809 -0.8370631 -0.7918993 -0.0026852817
-0.3451426 -0.059949905 -0.5673212 0.49428877 -0.023204682 -0.91809887 0.15903908 -0.2337694
-0.40713045 -0.30727285 -0.054375548 0.15040536 0.156296 0.40769944 -0.36894482 0.46308202

l1.bias f4 [400]
00000000: 79fe 063e 2504 fd3d 926b 09bf 4f9e c6be
00000010: 3696 463e 866a 09bf aabd 1bbf b1c0 19bf
00000020: 07c8 01be 47ad 16bf beaa 65bc 520f 693e
00000030: ac66 8fbe ede7 013e 5d98 803b 321e 14bf
00000040: f482 25bf 6573 32bf 393f 95be ce1c 9cbe
00000050: cc59 963e d6a4 4ebe 6298 9d3e 7690 083d
00000060: b117 683a 096a 8a3c 34de cfbe 8210 1bbf
00000070: 8d92 5bbe 21b6 43bf 9d9d 3dbf 1f2e 1d3d
00000080: 2b7e a43d 448c a3bb aca4 803e 3148 af3c
00000090: de1a a33e b341 693e ee6e a93d f86c ddbe
000000a0: 8bfc 263e 71c7 1cbf 8e5a 1a3c 6706 28bf
000000b0: a72b 17bf fc7a a83e 5fec e7bd 2eb5 ecbd
000000c0: 5f7d 33be 71d7 0ebf 0fa2 b93d 8749 e0bd
000000d0: 37fb 83bc 6bc6 14bc a98e f13d af56 d5bd
000000e0: ebef 7f3e 2960 91be 03a9 3b3d 4734 02bf
000000f0: b2ca 1fbf 64bf f2bd 308d eebe be84 083e
00000100: 55cc 8bbe 09ee 34bf 1ac8 2d3e a226 01bf
00000110: 6164 8c3c 0a20 b73e 6aa2 4bbe c34e b6be
00000120: 14a7 193e 14a0 d2be a60b bebe 0d47 4bbf
00000130: 18d4 4dbe 31e2 bfbd e96c 803e e896 e23c
00000140: b7c1 0bbf 41dc f5be 2f0a 6fbe 200d 343d
00000150: 55b3 433d b78e 1cbf 9e3c 30be 5771 913d
00000160: 9622 94be 5fd7 7fbe faf7 e73e adde dbbe
00000170: 35f3 d33e 13eb a0be c2de 5bbe d479 4abf
00000180: 23c1 8dbf 4c02 0bbf 74b6 ed3b 3b2d 6bbf
00000190: 847f 0ebf 2f8a 26bf 61a2 babe 00e2 3cbf
000001a0: b8f1 36be 6cb1 debe a464 56bf b1e5 37bf
000001b0: c222 8c3e 6bce 4c3d d3a1 6a3e 9433 ff3b
000001c0: 71e3 943e 802a 30bf 5ef1 1cbf e1b8 dc3e
000001d0: cb74 003d f34a 50bf 5b7d 2abe a72e 23bf
000001e0: 2083 483e efaf cdbe a589 15bf 445b d5be
000001f0: bc4d 02be 4e95 9a3e 867f d63d 7a52 93be
00000200: 956e 10bf ce8d 90bd 7285 ad3e 6088 d5be
00000210: 6421 10bf 6c27 3bbd a29b db3d 0103 953b
00000220: 9a23 ff3d e31e 3b3e f34a b5be c6a2 3ebf
00000230: 6451 a2be 53c6 68be 850d afbe b34f 9ebe
00000240: 9f1d cbbe 822c 29bf d473 b93e eb24 173e
00000250: 63ea e43b a914 27bf 53a6 2a3d ce7b 263c
00000260: 2411 2fbc b632 8b3e cfb3 debe f7f2 abbe
00000270: f1f4 c43e 2460 b2be dca8 f83d 2a63 5f3d
00000280: f83e c0be 761f 35be a61b 583e 2cba e83e
00000290: c208 c6be 6d28 c7be 638b 143d d558 9bbd
000002a0: f0ff 6f3e 8819 21bf 3d31 d9be c0df 79be
000002b0: d6fb 9b3e 6e7d e9be a50e 57bf d44c 8abe
000002c0: ceae 043e c65f d3bc 6327 74be 8ee2 88be
000002d0: c5eb 2fbf ba5d e4be 70a9 d03c 6a50 aebe
000002e0: 7d52 523e 2768 34bf 05b4 b2be 22d6 d3bd
000002f0: 6934 563e 551c 85bc 6311 cbbe f2b9 8c3e
00000300: a9e2 08bf 2981 36bd 0ff5 3cbe 5327 333e
00000310: 6bcd 1cbf 2bb0 afbc bc75 72be 1e02 1b3e
00000320: c2da 253b d1b7 7cbe 5b98 173e d945 39be
00000330: d2ca 5f3d 6bd9 36bf 41a9 71bd c72f f4ba
00000340: 1c41 2bbf 766d 11bf 9ebc c3be 4dfd 093d
00000350: f272 193e e05c eebe 3983 e1be 34b3 0cbb
00000360: 58ee 12bd ff22 6fbc 4de3 d33e 107b a03e
00000370: 1500 93be af5d d3be dc72 27bf 1940 05bf
00000380: 5181 11bf b24c 34bf 32a9 2f3e 8513 21bf
00000390: 342c 073e 8a40 303d b7ea 103e 009e aa3e
000003a0: fd1c fa3c 70b8 1fbf eeac 69be 72bb b4be
000003b0: fcc2 d73d 59b6 0fbf 0bb0 28bd d877 20bf
000003c0: 9cac ffba d822 98be 6d2d 40be 332a 15bf
000003d0: ffc8 babd 6e90 133e 9121 17bc da58 f4bc
000003e0: ace3 9abd 139b 4d3b bb6b 01be c628 243e
000003f0: 6fd1 1bbf 9582 cc3c fe2d c63d cbf8 e5be
0.13183011 0.12354306 -0.53679764 -0.38792655 0.19393238 -0.53678167 -0.6083628 -0.6005965
-0.1267396 -0.5885815 -0.014017759 0.2275975 -0.2800802 0.12686129 0.003924413 -0.57858574
-0.64652944 -0.6970733 -0.29149798 -0.30490726 0.29365385 -0.20180067 0.3078032 0.033340894
0.0008853628 0.016896265 -0.40599215 -0.60572064 -0.21442623 -0.7644978 -0.74068624 0.038374063
0.08031877 -0.004991086 0.25125635 0.021396728 0.31856436 0.22778969 0.08273111 -0.432472
0.16307275 -0.61241823 0.009421004 -0.6563477 -0.59050983 0.3290633 -0.11324381 -0.11557995
-0.17528294 -0.5579749 0.09064113 -0.10951524 -0.016111 -0.00908051 0.117947884 -0.10416924
0.24993865 -0.28393677 0.04581548 -0.5086102 -0.62418664 -0.11852911 -0.46592093 0.13331887
-0.2730433 -0.7067571 0.16970864 -0.50449574 0.017137708 0.3576663 -0.19886175 -0.35606965
0.15005141 -0.41137755 -0.37118262 -0.7940529 -0.20100439 -0.093693145 0.25083092 0.027659848
-0.5459246 -0.48019603 -0.23343728 0.04395783 0.047778446 -0.61155266 -0.17210624 0.07101696
-0.28932637 -0.24984501 0.4530638 -0.42943326 0.4139649 -0.31429347 -0.21471694 -0.79092145
-1.1074566 -0.5430038 0.007254416 -0.9186589 -0.55663323 -0.650546 -0.3645201 -0.7378235
-0.17865646 -0.43494737 -0.83747315 -0.71834856 0.27370268 0.050001543 0.22913294 0.007788131
0.29079774 -0.6881485 -0.613058 0.431098 0.031361382 -0.81364363 -0.16649382 -0.6374306
0.1958127 -0.4017329 -0.58413154 -0.41671193 -0.12724966 0.30192035 0.10473542 -0.28773862
-0.56418735 -0.07058297 0.33890873 -0.41705608 -0.5630095 -0.045691893 0.10723044 0.0045474772
0.12457962 0.18273501 -0.35408744 -0.7446712 -0.3170272 -0.22731905 -0.34190002 -0.3092018
-0.39671037 -0.6608354 0.36221182 0.14760177 0.006985949 -0.652659 0.041662525 0.010161353
-0.010685239 0.27187127 -0.43496558 -0.33583805 0.38468125 -0.34838974 0.12141582 0.05453793
-0.3754804 -0.17687783 0.21104297 0.45454538 -0.38678557 -0.3889803 0.036265742 -0.07585303
0.23437476 -0.6292958 -0.42420378 -0.2440176 0.30465573 -0.45603508 -0.8400672 -0.2701174
0.12957308 -0.025802504 -0.2384315 -0.26735348 -0.6871913 -0.44602758 0.02547142 -0.34045726
0.2053928 -0.70471424 -0.3490297 -0.10343577 0.2091843 -0.016248861 -0.39661703 0.27485615
-0.53470856 -0.04455677 -0.18452857 0.1749547 -0.6125094 -0.021446308 -0.23677725 0.15137526
0.0025307392 -0.24679495 0.14804213 -0.18093051 0.054636784 -0.71425503 -0.058999304 -0.0018629961
-0.66896224 -0.5680765 -0.3822984 0.033688832 0.14985254 -0.46555233 -0.44045427 -0.0021469118
-0.035871834 -0.014595746 0.41384354 0.3134389 -0.28711 -0.41282412 -0.65409636 -0.5205093
-0.56837946 -0.7042953 0.17154387 -0.6292041 0.13200456 0.0430303 0.14152037 0.3332367
0.0305314 -0.62390804 -0.22819874 -0.3529926 0.10535237 -0.56137615 -0.041183513 -0.6268287
-0.0019506398 -0.29714084 -0.18767329 -0.58267516 -0.09120368 0.14410564 -0.009224311 -0.029827524
-0.07562956 0.003137295 -0.12638752 0.16031179 -0.60866445 0.02496461 0.09676741 -0.44916376

l2.weight f4 [200, 400]
00000000: bb3c 3abe 586a 0f3d 7668 ed3d 26e1 903d
00000010: e37d 9dbc 2be4 63bd 880c 63be 4723 313e
00000020: 43a4 67be c06d a03d c5da 683e ea40 813d
00000030: aa19 893e 98db 593e a8db 833f feac 59bf
00000040: e96f 5e3e 9ba7 8bbe bc09 a3bc a201 d8bd
00000050: 75f1 db3d e2f5 063e f1d7 8a3e 391a abbd
00000060: 3861 4d3f b00a 613e 7e11 053e c3a4 06bc
00000070: 1ad9 6d3e acc1 28bf acb8 58be 5605 0b3e
00000080: f9d5 aabd 4000 63bd 4ea6 4ebc 904d e5be
00000090: 0a73 a6bd 55a3 053e 54ff 0e3e b584 1d3e
000000a0: 6368 85bd 369a d7be 14a3 493f 286b d5be
000000b0: 882a 0e3e 5eeb 4bbb 4ace 333e 208f 3c3e
000000c0: bcf0 ddbc ae1b 3bbf 9abd 4dbd 6ec3 2abd
000000d0: 43f0 fa3e 0671 213d f1c3 ce3c 8c5d 753e
000000e0: 7ab7 e8bb 6d73 6d3e cd01 94bd f481 0abe
000000f0: fc6b 18bf 70fb 3c3e 1720 a23e 93ae 79be
00000100: 7372 3e3c ff40 1a3f 28c3 083e a0a2 0dbd
00000110: a26a 283e 3fb4 bf3d bfb8 c73e 431b 1abe
00000120: 3356 283e 4fa3 4d3e ab8d d63e f56e 18bc
00000130: d5bf 1a3e db0a 003d 2360 063e 22ad 2f3e
00000140: 8b9d a0bd 578c 923c 3850 793c 3d97 c13d
00000150: 7314 57be a0ad bcbe 0540 dc3d cb9f 333b
00000160: df2d c53d e2e5 593e 18fb 4dbe 74d7 e9be
00000170: 45c8 0f3e 51d8 183e 7ac0 e43d 743e bbbe
00000180: 71b5 6ebd 92f3 f13d b2e5 933e c969 1e3d
00000190: 11ca f5be 80f6 4c3c f3f3 673e 6193 29bf
000001a0: b6c2 34bf 4851 903e e323 1fbf 13b0 d03e
000001b0: f450 223d 7feb bdbe dd72 633e c5f1 f23e
000001c0: c76a 56be 8a7b b3be e594 29bf 9240 09bd
000001d0: e600 273e 3f81 023e 6cd5 d63e 09e4 05bf
000001e0: f87d f2be 0af4 47be 77a0 95bf 724d 7fbe
000001f0: 5021 4f3e 3538 543c 1bcf 90bd 2597 4abd
00000200: 2ea3 21be 66da 843e 5439 23bf d835 753e
00000210: 1b56 433e b18a 043e c702 0d3d 175c 573f
00000220: b425 5d3e b7b2 c53d cc86 a43c 5c9c e23e
00000230: e5f2 293e de24 64be 70da 3d3e 6ae2 5c3e
00000240: 22db 6c3e 424d 0dbd ed94 8ebe 8a23 083e
00000250: 1600 553f 112d 963e ea1a 7b3c a51d 8a3e
00000260: bf11 df3c 16df 303e f03f bb3d f184 b83e
00000270: 9c9c 7fbe b5de c03e 2f2f 7f3e 8584 d8bd
00000280: bf4c 4c3e 3d24 513e cb48 483e 12aa 17bf
00000290: 9421 ee3d 82bc 253e 6e5d 8d3e 01b7 9dbe
000002a0: 701f b03d 4658 1f3e 2c5c 8e3e fa96 abbc
000002b0: aef1 af3b fbf8 0f3e 848a 543f fdf3 be3c
000002c0: 038c dd3d 1c53 afbd a2a0 783e 80cf 823e
000002d0: 3e5a 013e c5d8 7e3e b9ad 803e 92fe a9bd
000002e0: 0d5f 103e f303 b2bd f851 18bc 597e 7b3e
000002f0: c1a0 523d b125 883d 75b3 28be fd38 f13e
00000300: 8e9c 003e 0a56 9ebe dc5e 383e 12fe 993d
00000310: 366c 12bf 806e eebe e894 103e c4e8 d93c
00000320: 2705 b83e 78fb 063e d97d 5dbe bdfa 523e
00000330: f58e 9ebc 5fe5 b0be 5c76 393e 776b e93d
00000340: 3564 31bf 205b 3cbe f261 c23d 2252 c63d
00000350: 9e1f 82bb 092a 93be 253e 59bc 9607 b63e
00000360: cb50 3f3d d26d 453d 55ab 20be 7de2 c13b
00000370: b133 edbe c66a ae3e f40e 7338 2c0c 63bf
00000380: f069 a5be 8083 d4be e570 a13d 7efe 54be
00000390: cffb 67be cac2 fb3d be14 18bf 37d5 70be
000003a0: 9372 293e 132d 7e3c 6d36 abbe 421d cabe
000003b0: 4e38 433d c6b7 963e e8f2 1bbd f205 71be
000003c0: ee69 b73e b7d6 cc3e df7b 263e 90d6 23be
000003d0: 2226 6cbe 1480 c53e 54f9 1a3e 327d d5bd
000003e0: f681 ecbb ce74 093d c593 fe3d 034b 8bbe
000003f0: 94b3 d9be ab4a ac3a c1cb 593e fafd 0bbe
-0.1818723 0.035013527 0.1159219 0.07074194 -0.019225067 -0.05563752 -0.22172749 0.17298613
-0.22621255 0.07833433 0.22739704 0.063112095 0.26777393 0.21275175 1.0301409 -0.8502959
0.21722378 -0.2727631 -0.019902103 -0.105471864 0.10739414 0.13179734 0.27117875 -0.08354611
0.8022647 0.21976733 0.12994954 -0.008217993 0.23227349 -0.6592052 -0.21164197 0.13576254
-0.08341593 -0.05542016 -0.012612892 -0.44785738 -0.08127411 0.13050587 0.13964587 0.15382655
-0.06514051 -0.4210984 0.7876446 -0.41683316 0.13883412 -0.0031115632 0.17559162 0.18413973
-0.02709233 -0.7308911 -0.050229646 -0.041690283 0.4901143 0.03941443 0.025239917 0.23961467
-0.0071019502 0.23188563 -0.07226906 -0.13526136 -0.5953977 0.18455291 0.31665108 -0.24383001
0.0116239665 0.60255426 0.13355696 -0.03457892 0.16446927 0.09360551 0.39008138 -0.15049462
0.16439132 0.20081829 0.4190496 -0.009303798 0.1511224 0.031260353 0.13122611 0.17155889
-0.07842549 0.017889185 0.01521688 0.094526745 -0.21003895 -0.36851215 0.10754398 0.0027408476
0.0962789 0.212791 -0.20115316 -0.4567219 0.1404124 0.14926268 0.111695245 -0.36571085
-0.058278505 0.118140355 0.2888618 0.038675103 -0.48005727 0.012509942 0.22651653 -0.6624051
-0.70609605 0.28187013 -0.62164134 0.40759334 0.039627984 -0.37093732 0.22211786 0.4745008
-0.2093917 -0.3505519 -0.6624282 -0.033508845 0.16308936 0.12744616 0.41959703 -0.5230108
-0.47361732 -0.19526687 -1.1689595 -0.24931887 0.20227551 0.012952854 -0.07070752 -0.04946055
-0.15784904 0.25947875 -0.6375935 0.23946321 0.19075815 0.12943532 0.034426477 0.8412489
0.21596414 0.09653228 0.020083807 0.44259918 0.16596563 -0.22279689 0.18540359 0.21570745
0.23130468 -0.034497507 -0.27847996 0.13294807 0.83203256 0.29331258 0.015326241 0.26975742
0.027230142 0.172726 0.091430545 0.36038926 -0.24962085 0.37669912 0.24920343 -0.10572151
0.19951151 0.2042398 0.19559018 -0.5924388 0.11627498 0.16185191 0.27610344 -0.30803683
0.08599746 0.15561017 0.27804697 -0.020946015 0.0053693866 0.14059822 0.8302386 0.023309702
0.10817721 -0.08560774 0.24280027 0.25548935 0.12632081 0.24887379 0.2513254 -0.083005086
0.14098759 -0.086921595 -0.009296887 0.24559917 0.051422838 0.06647814 -0.16474707 0.4711379
0.12559721 -0.30925018 0.18004936 0.07519163 -0.57196367 -0.4656868 0.14119303 0.02660025
0.3594143 0.13181865 -0.21630038 0.20603462 -0.019355277 -0.34549996 0.18111557 0.113974504
-0.6929353 -0.18394136 0.09491338 0.09683634 -0.003971054 -0.28743008 -0.013259445 0.35552663
0.04670791 0.048200436 -0.15690358 0.005916892 -0.463285 0.34065837 5.794964e-05 -0.8869045
-0.32307386 -0.41506577 0.07882861 -0.20800206 -0.22654651 0.122930124 -0.5940665 -0.23518835
0.16547613 0.015513676 -0.3343996 -0.39475447 0.04766112 0.29437083 -0.03807345 -0.23537424
0.35823005 0.40007564 0.1625819 -0.15999818 -0.23061422 0.38574278 0.15134174 -0.1042427
-0.007217641 0.03355866 0.124305286 -0.27205667 -0.4251982 0.0013144811 0.21269132 -0.13671103

l2.bias f4 [200]
00000000: 0960 323e ae6e 93be 4a55 e5be 5996 07be
00000010: 8693 0e3e 0786 62bd 244e b1bd f707 463e
00000020: a6bc 0138 6626 f8bb d6b6 683b 987f bebe
00000030: bf6e 4c3e 24e9 c03d 941c 71bc b3d7 493e
00000040: 5978 933b 9082 593d 6186 b8bd 99c5 2ebe
00000050: d7ff 1fbd 2dd9 563e b287 82bd 92d0 b03e
00000060: df62 3dbd 8c42 823e 54e7 2ebd f8d6 003d
00000070: 607f f7bd d1c6 a9bd a353 833c 90ec 4bbe
00000080: 9ac5 6f3d dbf9 44bd db62 ec3d 1dec f9bd
00000090: 8dd6 db3d 5a93 743d 9483 55bd 9c48 623e
000000a0: a943 b6bb 1a3b 463e 622e fe3d c2ff c4be
000000b0: 4379 9bbe 0196 0b3e 9ba1 87bd 9524 b9bd
000000c0: b27b f1bc b9ad 3dbe 6245 693d cb41 5abc
000000d0: a629 443c e042 013d 9c59 123e ef16 18bd
000000e0: 4e17 80be 9b1f c0bd a2e8 5dbe 7abb a93d
000000f0: 1377 243e aa0a 71bd 2535 503e 51b4 943e
00000100: 0abd 5c3e 3c2b 95bd 6d42 d73d 43a3 a43d
00000110: 94fb a4be c314 69bd a9de 6f3d 3d6d 1ebe
00000120: 47b0 4b3e bcae 3fbe 1968 283e baea e33b
00000130: 3852 2fbe 7240 0abe 6395 8abe af9b 84bc
00000140: e730 c13c 8d0a 9e3d 821f 84bd cd95 94bd
00000150: 1e58 12be 9b98 e3bd 6266 f73d 95a8 15bc
00000160: 1214 1cbd c0ab 03be aa12 543e 88c3 cf3d
00000170: 063e 383e a768 a63e 3b8b 863c 7250 5d3e
00000180: e658 a5bc af9f 543e 6915 32be 084c c4bc
00000190: 5031 6a3e aba9 b23d 8637 6bbe fe6c 0dbd
000001a0: 6b3b 9dbe 824a 113e 20ad d1bc e3a5 15be
000001b0: 7ddc 40bc 8e16 513d 76b4 e43c 0966 91bb
000001c0: ecb7 4cbe de05 8c3d 7c52 51bc 4efe 993d
000001d0: 79b6 f53d aa83 b33d 026f 843c d9ec 1a3d
000001e0: e656 843d 9340 703d 4ebe af3d 4819 2d3e
000001f0: e8d4 3fbe 28fe 623e 68b3 17bd 16e8 c23c
00000200: a039 90bd 8911 2f38 4ac6 e13c 20e3 e4bc
00000210: 7997 383d 9a3c 8cbc 2e93 a33e 9bfb 60bc
00000220: 9e42 ebbd 6f32 7d3e b087 063d e2a2 1ebc
00000230: f249 123e d0a0 cd3c d202 063e 2bda ae3d
00000240: c51d cebd 3681 1cbe 419b a83e 12ea 9fbd
00000250: 03fb c43d 7b76 70be b03e 33bd f61e c33e
00000260: 8571 e43d 29ff 383b 486a 4a3d f2c7 ec3d
00000270: 4d9a 0dbf 63df 593e 4820 bf3d 9d4b 08bd
00000280: b08e 453d 11a0 f53d e2cc b93d 0883 be3e
00000290: 7ac9 953e ecac 9f3e dbc2 473e 3629 86bc
000002a0: c2a8 c13d b8d4 38bd 416d 94be 4b55 bcbc
000002b0: 6f60 7e3d f8c7 a8be e910 df3d ab34 683c
000002c0: 1ba5 3c3e 3d20 a3bc 4925 38bd 6e24 633e
000002d0: 9994 9e3e c5e3 09be 8021 49bd 6c32 17be
000002e0: 94ca 91bc c1da ddbd af15 89bc f978 a83c
000002f0: 93c5 a93c 2ce9 6f3e 25bd aabe 8c97 6ebd
00000300: 87a5 493e 97d1 863e d821 b73b 574a 8fbd
00000310: 1b0e abbc 51c5 3b3e 0d18 d53e b172 8ebe
0.17419447 -0.2879538 -0.44791633 -0.13240947 0.13923463 -0.0553036 -0.08657482 0.19338976
3.093169e-05 -0.007572937 0.003550937 -0.3720672 0.19964121 0.09419468 -0.014716286 0.19711189
0.0045004305 0.05310303 -0.09010006 -0.17067565 -0.039062347 0.20981283 -0.06373538 0.34534127
-0.04623687 0.25441396 -0.04270108 0.03145501 -0.12084842 -0.08289874 0.016031092 -0.1991446
0.058538057 -0.048089843 0.11542293 -0.12203238 0.10734282 0.059710838 -0.052127436 0.22098011
-0.005562265 0.19358483 0.124111906 -0.38476378 -0.30365953 0.1363144 -0.06622621 -0.090401806
-0.029477928 -0.18523301 0.056950934 -0.01332135 0.01197282 0.031557918 0.14291996 -0.037131246
-0.2501778 -0.09381028 -0.21670774 0.082877114 0.16061048 -0.05884806 0.20332773 0.2904382
0.21556488 -0.07283637 0.105107166 0.08038952 -0.3222319 -0.056904566 0.058561955 -0.15471359
0.19891463 -0.18719 0.1644596 0.006955472 -0.17121208 -0.13501146 -0.27067098 -0.016187517
0.023582889 0.07716856 -0.06451322 -0.07255135 -0.14291427 -0.111130916 0.12080075 -0.009134431
-0.038105078 -0.12858486 0.20710245 0.101447165 0.1799241 0.32501718 0.016423812 0.21612719
-0.020183992 0.2076404 -0.1739098 -0.023962036 0.22870374 0.08723768 -0.229704 -0.03452777
-0.30709395 0.14188579 -0.025595248 -0.14614062 -0.0117713185 0.0510469 0.027918082 -0.0044372124
-0.19992036 0.068370566 -0.012776013 0.07519208 0.119976945 0.08765347 0.016166214 0.03782353
0.06461887 0.058655333 0.085812196 0.16904175 -0.18733561 0.22167265 -0.03703633 0.023792308
-0.07042241 4.1739582e-05 0.027560372 -0.027940333 0.04506633 -0.01711874 0.31948227 -0.013731862
-0.114873156 0.2472627 0.032844245 -0.009682389 0.1428602 0.025101095 0.13087013 0.08537706
-0.10064272 -0.15283665 0.3293095 -0.07808317 0.09618189 -0.23482697 -0.043760955 0.3810956
0.11154465 0.002822826 0.049417764 0.11561574 -0.5531357 0.21276622 0.09332329 -0.033275235
0.04823178 0.11993421 0.090722814 0.37209344 0.29255277 0.31186616 0.19507925 -0.016377073
0.09456016 -0.04512474 -0.28989604 -0.02298989 0.062103685 -0.32965064 0.10891897 0.014172713
0.18422358 -0.019912833 -0.044957433 0.22181866 0.30972746 -0.13465793 -0.049104214 -0.14765328
-0.017796792 -0.108327396 -0.016733972 0.020565497 0.020724094 0.23428792 -0.3334743 -0.058249995
0.1969205 0.2633178 0.0055887513 -0.06996601 -0.02088075 0.18336989 0.41619912 -0.27821878

l3.weight f4 [4, 200]
00000000: 890b ac3e 48cd 8d3f 83b4 77bf d8ba 2b3d
00000010: 3ded 92be ca9f c8bd 9b28 bcbe f55b 16be
00000020: 0d2a d33b d139 23be 7b80 d2bc 71f6 0a3f
00000030: 9cbd 90be e2de 33be 3f9b 14be f9cd 45be
00000040: 4d11 1fbd 07a0 a0be 912c 83be d474 9f3f
00000050: 1f9c 33bd 4142 a8be a4f8 1cbf 8175 253f
00000060: 07a4 f43c ab6b 073f c4c2 113c 79a6 a6be
00000070: 3e92 5e3d e8bb 973d 9013 d8be e170 c9be
00000080: dd07 adbe b462 a43c 9093 5dbe 1f8f 283f
00000090: 3ca5 3bbf f55d 863f cd94 77bd fe2d 003d
000000a0: eaf7 5f39 cfbc 0f3e 3e2e a0be 080d 0cbf
000000b0: 8af1 963f 647f 2cbf 700c 75be 4569 89bf
000000c0: 85e9 aebc 8a6d e0be 07ec 053f eee9 eabe
000000d0: 025b 18bd 4b01 2f3d 391a dd3e 3c9c 0abf
000000e0: 1085 4e3f c55a d5bc 39f8 03bf d53c 43be
000000f0: e501 60be 7e29 6dbd bf5d 773f 45f1 ccbe
00000100: ee1d 21bf 889c 7fbd 0839 37be 70c7 b7be
00000110: ba3e 20bf e11a 1f3e 3db4 b3bd 3d06 1fbe
00000120: b0d5 a2be cb5e 03bf e70a da3e 48e1 663d
00000130: e529 833f 9872 2d3f b4a4 b8be 7bd5 b838
00000140: 1524 a6bd 90bf 9bbe c756 b5be 1ad3 9ebc
00000150: 83aa 27bf 2beb 8abe 6534 74be 7529 babe
00000160: 3842 8b3f 3daa 9a3f 057e babd 3ab4 87be
00000170: 6fd4 863f 94d8 213f 4aad a83c b247 013f
00000180: b590 19be a7f4 233f 4859 37bf 64c8 0f3d
00000190: 214e 18be b0be 99be b878 d7be e47f e43c
000001a0: 64f6 8dbe 9a79 1fbe 333b d83c f6aa 49bf
000001b0: cdd4 a83e c270 26be f53f f1bc 7a2c fabe
000001c0: 1113 af3f 8cee c5be 0173 cdbd 9116 eebe
000001d0: c0e0 f03b fc68 35be c061 0b3e d2e7 f0bd
000001e0: 1d3e 15bd 7d1f c3be 58bc ee3e bed3 7bbe
000001f0: c02a 4c3e 0f5c 8ebe 81bb 283d f0e3 a0be
00000200: 3488 cebe 7223 57bd fe20 1b3d 14e0 11bc
00000210: f01c 7dbe 2693 c7be 6a39 1b3f 2aca 973c
00000220: ad9b 073d 5849 e4be d83d 87be 4f45 64be
00000230: e87f 78be cc1e 21be b8b5 40be 53e6 7c3e
00000240: d7ee 38bf 97d1 5cbf d15c 203f 5c12 63bd
00000250: d38c e43e 54b3 133f 2bd1 773d 628b f03e
00000260: b855 023e 01e4 323d d191 0a3f c4b3 d7be
00000270: a0fa e3be ac34 083f 2b85 8ebc 8e7c 573d
00000280: 5aea 0bbf 49fd ea3e 12f9 bfbe a749 233f
00000290: 55d6 febe cfd2 173f 65cf 35bf ec16 dabc
000002a0: 87e3 a3be 3c13 d5bc 94ed b13e 4a7a a5be
000002b0: a64c c7be 8745 ac3e d37d 87be fc12 9ebe
000002c0: 5bf8 6bbf f5ac 8a3d 6017 57be 7821 a8be
000002d0: ee8c d63e 8a73 15bf 3ec0 5bbd 0350 8fbe
000002e0: ac58 a6be 0dd6 ff3d a62c b8bd 21bf 33be
000002f0: 4f62 52bf a219 7bbf 5b0a 1e3f 7e6e 633d
00000300: c6d0 333e c974 2c3f b19d a2bb 88a4 ecbe
00000310: 47b2 c23e 2022 91be 81f5 32bf 28df 623f
00000320: 88d9 223e b85a 953f b810 68bf 9c74 873d
00000330: de90 68be 5860 903d 6918 91be bfdf 14bd
00000340: 8c63 4a3d 046c 80bd 19c6 7dbd a3a7 283f
00000350: 4ef3 b1be 3cc9 72be 1a4a 1d3e 8e2b 33be
00000360: f74a e03c 7917 80bd 9af0 93be c215 663f
00000370: 50db 46bd f071 cebe 4cda f0be 5443 243f
00000380: 334f 5e3d 9aa6 073f 031a 0d3d 61e2 993b
00000390: f966 ff3d 999f e63c f962 c6be e2b3 e0be
000003a0: 12a2 54be 390a aabb db37 3cbe 35a5 1e3f
000003b0: bcb5 34bf ab1a 5c3f 3af7 7a3b cbef 233e
000003c0: 562e 33bd 7f31 333e bf00 6fbe c353 aebe
000003d0: b39d 13bc 44af 1ebf a794 c5be 53dd 67bf
000003e0: 46b4 69bd 2205 3abe 5f31 003f e1c8 2abf
000003f0: a5fb 88bc 10db 483c 5cac fe3e 210b 19bf
0.3360255 1.1078272 -0.96759814 0.041926235 -0.28696623 -0.09796102 -0.3674973 -0.14683516
0.006444222 -0.15940024 -0.02569603 0.5428229 -0.2826966 -0.17565492 -0.14512347 -0.19316854
-0.03883486 -0.3137209 -0.2561994 1.2457528 -0.04385006 -0.32863048 -0.61316895 0.6463242
0.02986337 0.52898663 0.008896533 -0.32548884 0.054338686 0.07408887 -0.42202425 -0.39343932
-0.33795062 0.020066597 -0.21638322 0.65843385 -0.73299 1.0497423 -0.06044464 0.03129386
0.00021359292 0.14036869 -0.3128528 -0.54707384 1.1792462 -0.6738188 -0.23930526 -1.0735251
-0.021351585 -0.43833572 0.52313274 -0.458816 -0.037196167 0.042725842 0.4318407 -0.54144645
0.8067179 -0.026044259 -0.5155063 -0.19066174 -0.21875723 -0.0579009 0.9662742 -0.40027824
-0.62936294 -0.06240514 -0.1789285 -0.35894346 -0.62595713 0.15537597 -0.08774612 -0.15529723
-0.31803656 -0.5131652 0.42586443 0.05636719 1.024716 0.6775298 -0.3606316 8.8135675e-05
-0.08112351 -0.30419588 -0.35417768 -0.01938777 -0.65494555 -0.27132544 -0.23848112 -0.36359754
1.0879583 1.2083203 -0.091060676 -0.2650469 1.053358 0.63221097 0.020590443 0.50500023
-0.14996608 0.64045185 -0.7162061 0.035103217 -0.14873554 -0.30028296 -0.4208429 0.027893014
-0.27727044 -0.15573731 0.026395416 -0.7877649 0.32974854 -0.16253951 -0.029449442 -0.48862058
1.3677694 -0.3865856 -0.10031701 -0.46501592 0.007351011 -0.1771583 0.13611507 -0.11762966
-0.03643619 -0.3810996 0.4662807 -0.24592492 0.19938183 -0.2780461 0.041194443 -0.31423903
-0.4033829 -0.052524038 0.03787326 -0.008903522 -0.2471807 -0.38979453 0.6063448 0.018529017
0.03310745 -0.44587207 -0.2641437 -0.22292064 -0.24267542 -0.15734404 -0.1881932 0.24697237
-0.7223944 -0.8625731 0.62641627 -0.05543743 0.4463869 0.5769551 0.060502212 0.4698134
0.12728012 0.043674473 0.5412875 -0.42129338 -0.4452715 0.5320537 -0.017397484 0.05260902
-0.5465447 0.45896366 -0.37494713 0.6378426 -0.49772897 0.59306043 -0.71019584 -0.026622258
-0.32009527 -0.026010148 0.3475157 -0.32319862 -0.38925666 0.33646795 -0.26463184 -0.3087386
-0.92175835 0.0677127 -0.2100501 -0.32838035 0.41904396 -0.58379424 -0.053650133 -0.27990732
-0.32489526 0.12491999 -0.08992891 -0.17553379 -0.82181257 -0.9808599 0.6173455 0.055525295
0.1756011 0.673657 -0.004962646 -0.46219277 0.3802664 -0.28346348 -0.6990586 0.8862176
0.15903294 1.166831 -0.9065051 0.06614038 -0.22711512 0.07049626 -0.28338936 -0.036346193
0.04941134 -0.06270602 -0.0619565 0.65880793 -0.3475594 -0.23709577 0.15360299 -0.17497084
0.027379496 -0.06254477 -0.28894502 0.8987695 -0.048548996 -0.40321302 -0.47041547 0.64165235
0.05427475 0.5298859 0.034448635 0.004696176 0.12470812 0.028152274 -0.38747385 -0.4388724
-0.2076495 -0.005189207 -0.18380682 0.61970836 -0.70589805 0.8597819 0.0038294331 0.16009443
-0.04374536 0.1749935 -0.23340128 -0.3404828 -0.009009766 -0.61986184 -0.38589975 -0.9057209
-0.057056688 -0.1816602 0.50075334 -0.66712767 -0.016721556 0.01225926 0.49740875 -0.59782606

l3.bias f4 [4]
00000000: f006 683e 95ae 993e 6139 733e 899e 603d
0.22658896 0.30016008 0.23752357 0.05483869
