fin/DQN/agent-300-10-586/model.pt (torch, 340231 bytes, 6 tensors)

l1.weight f4 [400, 8]
0	0x3e1403ec	0.14454621
1	0x3d749d90	0.059720576
2	0xbc1acb08	-0.0094478205
3	0x3e9b8c0f	0.30380294
4	0xbe0a1f7e	-0.13488576
5	0xbed374a1	-0.41299918
6	0xbf959aa2	-1.1687815
7	0x3e0962c2	0.1341658
8	0x3e3bb6c2	0.18331435
9	0xbd2ab140	-0.041672945
10	0x3f1bcdaf	0.60860723
11	0x3e56cc66	0.2097641
12	0xbeb9c6d6	-0.36284512
13	0xbf44aa2f	-0.7682218
14	0xbf1f3284	-0.62186456
15	0xbed9d366	-0.42544097
16	0xbd85576d	-0.06510816
17	0x3d13df41	0.036101583
18	0x3ef5d8d6	0.48016995
19	0x3e9f24f1	0.31082872
20	0xbd196f71	-0.037459794
21	0xbf4a97cf	-0.7913789
22	0xbf28b997	-0.6590819
23	0x3efe3e5a	0.49656945
24	0x3f8701c6	1.0547416
25	0xbebe3522	-0.37149912
26	0xbf6c264c	-0.92245936
27	0x3da53ca7	0.08068209
28	0xbd0c5031	-0.034256164
29	0xbf552c98	-0.8327117
30	0x3ef4a854	0.47784674
31	0xbe8365ac	-0.25663507
32	0x3dbebf40	0.09313822
33	0xbd99045f	-0.07471537
34	0x3f281441	0.65655905
35	0x3e326621	0.17421772
36	0xbd8520da	-0.065004066
37	0x3f125dbc	0.5717428
38	0xbfea671b	-1.8312715
39	0xbf62d4a4	-0.88605714
40	0xbc02465f	-0.007951348
41	0xba1599d8	-0.00057068234
42	0x3ed5c7d2	0.41754013
43	0xbff10d4e	-1.8832185
44	0x3d175ebf	0.03695559
45	0xbc111715	-0.008855601
46	0xbfc77a3f	-1.5584182
47	0xbef863ba	-0.48513585
48	0x3dd92ec3	0.10604622
49	0xbca5a308	-0.02021934
50	0x3d4dce25	0.050245423
51	0x3e1ccf3e	0.15313432
52	0x3e4d4f19	0.20049705
53	0x3c1c6352	0.009545164
54	0xbd7d92d5	-0.061907608
55	0xbc4fdef8	-0.012687437
56	0x3fa70c5d	1.3050648
57	0xbd015a42	-0.031580217
58	0x3f6d6d48	0.92744875
59	0x3ce1f5a3	0.027582949
60	0x3e52297b	0.20523636
61	0x3eebff09	0.46093014
62	0x3f7502bc	0.957073
63	0xbf82e9b9	-1.0227576
64	0xbe8e2e8b	-0.27769884
65	0x3da45144	0.08023313
66	0xbf16706b	-0.58765286
67	0x3ea06826	0.3132946
68	0x3f08b466	0.53400266
69	0x3f8b778f	1.0895861
70	0xbe365033	-0.17804031
71	0xbf246170	-0.6421118
72	0x3ec17fc5	0.37792793
73	0xbf0d9a31	-0.553134
74	0xbd1f27c2	-0.038856275
75	0xbe8a26fb	-0.26982865
76	0xbf01c4ca	-0.506909
77	0xbeaaa665	-0.33330074
78	0xbf4af5fa	-0.7928158
79	0xbf629596	-0.885095
80	0xbdfaf353	-0.12253442
81	0x3df20021	0.11816431
82	0xbf072413	-0.5278942
83	0xbe193f4d	-0.14965554
84	0xbe182130	-0.1485641
85	0xbf6d016b	-0.9258029
86	0xbef12ecf	-0.47106025
87	0xbd8cb44f	-0.06870329
88	0xbd20b01c	-0.03923045
89	0xbe89301c	-0.26794517
90	0xbdd1e67f	-0.10249042
91	0xbecb156f	-0.3966479
92	0xbf0cb779	-0.5496746
93	0xbee8fff1	-0.45507768
94	0xbf98a1f2	-1.1924422
95	0xbeca15c2	-0.39469725
96	0x3e5ad694	0.21370918
97	0x3ed5645d	0.41678134
98	0x3dfcf448	0.123512805
99	0xbe18c33e	-0.14918229
100	0xbd8a37e7	-0.06748944
101	0x3e6c31fb	0.23065941
102	0x3ee73a71	0.45161775
103	0xbf0add70	-0.54244137
104	0xbf0d5bd0	-0.5521822
105	0x3d414288	0.04718259
106	0xbed2205f	-0.41040322
107	0x3cafaf26	0.021445822
108	0x3f44e63c	0.7691381
109	0x3e8a479d	0.27007762
110	0xbecdb482	-0.4017678
111	0x3e9c38f0	0.3051219
112	0x3d469925	0.048485894
113	0x3de8ab8d	0.11360846
114	0xbe667085	-0.2250386
115	0xbe4ae9af	-0.19815706
116	0xbdac8f9f	-0.08425831
117	0x3f180252	0.5937854
118	0xbf545dd7	-0.8295569
119	0xbf06f0c3	-0.52711123
120	0xbf5cf1bc	-0.8630636
121	0x3c95d635	0.018290618
122	0x3e8dd696	0.2770278
123	0xbeddc666	-0.43315428
124	0xbf190aa0	-0.5978184
125	0xbf084ea4	-0.53244996
126	0x3d48c5e1	0.049016837
127	0xbe95d7d2	-0.2926622
128	0x3f19c2f6	0.6006311
129	0x3e4d1910	0.20029092
130	0x3de855c8	0.113444865
131	0xbf0d0b5d	-0.55095464
132	0x3e5ac78a	0.2136518
133	0x3ed62bcd	0.41830292
134	0xbf6f1c20	-0.9340229
135	0xbe69c07f	-0.22827338
136	0xbe1d1f9a	-0.15344086
137	0xbd31491c	-0.043282613
138	0xbd084c20	-0.033275723
139	0x3e58dc25	0.21177728
140	0x3e2e9b75	0.1705149
141	0xbdd71d61	-0.105036505
142	0xbe4d840f	-0.20069908
143	0xbd6e6190	-0.05819851
144	0x3f40f4c4	0.7537348
145	0x3e1739ba	0.14768115
146	0x3db2e5b7	0.08735221
147	0xbf0df22e	-0.5544766
148	0x3e18a696	0.14907297
149	0x3eb89729	0.36052826
150	0xbf168498	-0.5879607
151	0xbeac5649	-0.3365958
152	0xba4556cb	-0.0007527887
153	0xbd32b35e	-0.04362809
154	0x3f6520bd	0.8950308
155	0x3f59d2b4	0.8508713
156	0x3d4e1afe	0.05031871
157	0x3d8ac7f3	0.067764185
158	0x3f57d3dd	0.8430765
159	0xbd2a3e5d	-0.04156338
160	0xbe99915b	-0.2999371
161	0xbe2704b6	-0.16310391
162	0x3f5e8a1d	0.86929494
163	0x3f1a761e	0.6033648
164	0xbf479eaf	-0.77976507
165	0x3ebb0885	0.36529937
166	0x3ec3472c	0.38140237
167	0x3ee262c8	0.4421599
168	0x3de0ed47	0.10982757
169	0x3e8c3cee	0.27390236
170	0xbee44363	-0.44582662
171	0xbe905162	-0.2818709
172	0x3e52c6b6	0.20583615
173	0xbef28579	-0.47367457
174	0xbf0cbef4	-0.5497887
175	0xbf8ded68	-1.1088076
176	0xbe357b39	-0.17722787
177	0xbe679748	-0.22616303
178	0x3f8f4d3b	1.1195444
179	0x3f2a77c5	0.66589004
180	0xbe8b17d5	-0.2716662
181	0xbd2f7869	-0.04283944
182	0xbf0ab9ee	-0.54189956
183	0xbef27431	-0.47354272
184	0x3f5f3634	0.8719208
185	0xbd93e5d4	-0.072215706
186	0x3e19f17b	0.15033524
187	0xbf330f54	-0.69945264
188	0x3eea1d4e	0.45725483
189	0x3e4cf1ed	0.20014162
190	0x3eea7b7f	0.45797345
191	0xbbe7ccf5	-0.0070739933
192	0x3dd1d9ef	0.10246646
193	0xbe27e947	-0.16397582
194	0xbd08d52f	-0.033406433
195	0x3d9af0f4	0.075654894
196	0xbd390984	-0.04517509
197	0xbef521a5	-0.4787723
198	0xbf9cd7a5	-1.225331
199	0xbdc5cafe	-0.09657858
200	0xbed691a2	-0.41907984
201	0xbcf2bcb4	-0.029630996
202	0x3ead0c57	0.33798477
203	0xbec93328	-0.39296842
204	0xbdce0e52	-0.10061325
205	0x3f85e035	1.0459048
206	0x3f1d55f0	0.61459255
207	0xbf28664d	-0.657811
208	0xbdf8a06a	-0.121399716
209	0xbc351c97	-0.01105418
210	0xbf19a111	-0.6001139
211	0xbe2aa9ce	-0.16666338
212	0xbf5253dd	-0.82159215
213	0x3e86118b	0.2618526
214	0x3dd73d48	0.10509735
215	0xbf0aecad	-0.5426739
216	0xbd6f3fb4	-0.05841036
217	0xbefad857	-0.4899318
218	0x3e9161d5	0.28394952
219	0x3f8b3b9d	1.0877568
220	0x3daaae8a	0.08334072
221	0x3e27dc87	0.16392718
222	0x3f46f095	0.7771085
223	0xbee88f50	-0.4542184
224	0x3e8941dc	0.2680806
225	0xbf4e037c	-0.80474067
226	0xbf9acb1f	-1.2093238
227	0x3f83dba1	1.03014
228	0xbe3d4efd	-0.18487163
229	0x3f30ce40	0.6906471
230	0x3ecfa953	0.40558872
231	0xbdf03fc3	-0.117309116
232	0xbea4f4fe	-0.32218164
233	0xbe839587	-0.25700018
234	0xbe5bf2ff	-0.21479414
235	0xbec57f63	-0.3857375
236	0x3cc587b2	0.024112556
237	0xbdbc352b	-0.091898285
238	0xbf9fa863	-1.2473263
239	0xbdb9cdbb	-0.09072443
240	0xbe69999d	-0.22812505
241	0xbe9dfa38	-0.30854964
242	0x3dcbbf8c	0.09948644
243	0xbeef3bb7	-0.46725246
244	0xbe941fc3	-0.28930482
245	0x3f75558f	0.9583368
246	0xbda49c4d	-0.080376245
247	0x3e9a9e41	0.30198863
248	0xbf2c90e8	-0.6740861
249	0xbe3d0496	-0.1845878
250	0xbf803833	-1.0017151
251	0xbd0327a8	-0.03202024
252	0x3ea84214	0.32862914
253	0x3d176e1c	0.036970243
254	0xbea0725f	-0.31337258
255	0x3ea18937	0.3155

l1.bias f4 [400]
0	0xbf126757	-0.57188934
1	0xbf1a8f24	-0.60374665
2	0xbebf1459	-0.37320212
3	0xbebec71c	-0.37261283
4	0xbf49a057	-0.78760284
5	0xbb85da05	-0.004084828
6	0xbead110d	-0.3380207
7	0x3d0bbd47	0.034116056
8	0xbf60a35d	-0.8774927
9	0xbebc7b30	-0.36812735
10	0xbe5a81ae	-0.21338531
11	0x3f060489	0.5235067
12	0x3d2e91ab	0.04261939
13	0xbf1e1ccc	-0.6176269
14	0xbf19fd58	-0.60152197
15	0xbea701ec	-0.32618654
16	0xbd9defb5	-0.07711736
17	0xbeb5b46a	-0.35489208
18	0xbbda3ba7	-0.006659943
19	0xbf11681c	-0.56799483
20	0xbf34f0d0	-0.7067995
21	0xbe549d2e	-0.20763084
22	0xbe8b6217	-0.27223274
23	0x3d376db6	0.044782363
24	0xbf310e7a	-0.69162714
25	0xbf4a6908	-0.79066515
26	0xbe544684	-0.20730025
27	0xbea3bc3a	-0.31979543
28	0xbe928daa	-0.28623706
29	0x3f1a618d	0.603051
30	0xbf3c27fa	-0.734985
31	0x3d9db4d7	0.07700508
32	0xbdd27fd5	-0.10278288
33	0xbf494d9f	-0.78634065
34	0xbed5b9b3	-0.4174324
35	0xbf5284f5	-0.82234126
36	0xbe1c4b8c	-0.15263194
37	0xbf408540	-0.75203323
38	0xbf23b2c7	-0.6394467
39	0xbf49927b	-0.78739136
40	0x3d2e8e88	0.042616397
41	0xbee17b8a	-0.44039565
42	0xbd4d9e99	-0.05020008
43	0x3e8d2b34	0.27572024
44	0xbf3bbdbf	-0.73336405
45	0x3d92aea6	0.07162218
46	0xbeb4b535	-0.352945
47	0xbf08b9db	-0.5340859
48	0xbc59cd13	-0.013293522
49	0xbd0bc90e	-0.034127288
50	0xbf19460d	-0.59872514
51	0xbf367d39	-0.71284825
52	0xbee2c51f	-0.44291016
53	0x3e63ea9b	0.22257464
54	0xbf5c0cac	-0.85956836
55	0xbea25cad	-0.3171133
56	0x3efc86c7	0.49321577
57	0xbf01b7f2	-0.50671303
58	0xbead5a40	-0.33857918
59	0xbea70acc	-0.32625425
60	0x3f11adb1	0.5690566
61	0xbee44f01	-0.44591525
62	0xbb9fc1e5	-0.004875409
63	0x3c336acf	0.010950758
64	0xbf0e9385	-0.55693847
65	0xbedd1fb9	-0.43188265
66	0x3c45c8ef	0.012071832
67	0xbd235947	-0.039880063
68	0xbf0b48cf	-0.5440797
69	0xbf4708a1	-0.7774754
70	0x3f1b9f2d	0.6078976
71	0x3e7249dd	0.23660989
72	0xbe8a3de5	-0.27000347
73	0xbf4684ae	-0.77546203
74	0xbe89ea6f	-0.2693667
75	0xbf01f11e	-0.5075854
76	0x3b80fc05	0.003936293
77	0xbd3a91c2	-0.04554916
78	0x3f2c2bca	0.67254317
79	0xbd53c608	-0.05170253
80	0xbddc9cde	-0.107721075
81	0xbcebe00a	-0.028793354
82	0xbe4bfbbf	-0.19920252
83	0x3db901ae	0.090335235
84	0xbe44190f	-0.19150184
85	0xbe9279d6	-0.28608578
86	0xbf35ea60	-0.7106075
87	0xbf3aff7d	-0.73046094
88	0xbe6bfce0	-0.23045683
89	0xbebb065b	-0.36528286
90	0xbf039f42	-0.51414883
91	0x3deee989	0.11665637
92	0xbf0ac073	-0.54199904
93	0xbe735665	-0.23763426
94	0xbedcbbac	-0.43111932
95	0x3ea191cb	0.31556544
96	0xbe906cf0	-0.28208113
97	0x3ed66648	0.4187491
98	0xbed72e8b	-0.42027697
99	0x3d7347e8	0.059394747
100	0xbd44f217	-0.048082437
101	0xbf1d147b	-0.61359376
102	0xbc80f0dc	-0.01573985
103	0xbec27779	-0.37981775
104	0x3b55d88e	0.0032630297
105	0xbe4bc53c	-0.19899458
106	0xbef0e53e	-0.47049898
107	0x3cf608d4	0.030033506
108	0xbb3fafa5	-0.002924898
109	0xbf101cbe	-0.5629386
110	0x3e1a50d0	0.1506989
111	0xbf06a699	-0.5259796
112	0x3e601c77	0.21885858
113	0xbe0e7bb5	-0.13914378
114	0x3eb1d03a	0.34729177
115	0x3daed361	0.08536411
116	0xbded0550	-0.11573279
117	0xbf42aa82	-0.76041424
118	0x3f11e7ae	0.5699414
119	0x3e8b4963	0.27204427
120	0xbd623476	-0.055225812
121	0xbe245ba6	-0.16050586
122	0xbed4517f	-0.41468427
123	0xbdc1cc28	-0.09462768
124	0xbe4ebdfe	-0.20189664
125	0x3d7746d3	0.060370278
126	0xbe0c69b8	-0.13712204
127	0x3e4a2c7c	0.19743532
128	0xbefb054f	-0.49027488
129	0xbea78287	-0.32716772
130	0xbf042159	-0.51613384
131	0xbec6b689	-0.38811138
132	0xbf163817	-0.58679336
133	0xbec80835	-0.3906876
134	0xbeacc852	-0.33746582
135	0xbf32851a	-0.69734347
136	0xbeb6f98b	-0.3573726
137	0xbe69a334	-0.22816163
138	0xbe33b980	-0.17551231
139	0xbf3eee89	-0.74582726
140	0xbdec2f7a	-0.11532493
141	0xbe1d7fc8	-0.15380776
142	0xbf149fef	-0.5805654
143	0xbe5eb63f	-0.21749209
144	0x3e08ce8a	0.13360038
145	0x3ee7ce1c	0.45274436
146	0xbe1515e4	-0.14559132
147	0xbf625e95	-0.8842557
148	0xbe5e91de	-0.21735331
149	0xbf6cc605	-0.92489654
150	0xbe90a476	-0.28250474
151	0xbeb9ff1a	-0.3632744
152	0x3ebd0077	0.36914417
153	0xbeb6d47a	-0.35708982
154	0xbe8c569b	-0.27409825
155	0xbeefa37b	-0.46804413
156	0xbe3d513c	-0.1848802
157	0x3e9afa5e	0.3026914
158	0xbf537d3d	-0.82612973
159	0x3d4b82a4	0.049685135
160	0x3ea91d51	0.3303018
161	0x3ed4ae2f	0.41539142
162	0xbe92a7e8	-0.28643727
163	0xbe2c163c	-0.16805357
164	0xbf220088	-0.6328206
165	0xbe9b80d1	-0.30371717
166	0xbf00f2cc	-0.5037048
167	0x3e70c094	0.23510963
168	0xbe783a96	-0.24241099
169	0xbde1b2a7	-0.11020403
170	0xbf4a3c65	-0.78998405
171	0xbf33cea9	-0.70237213
172	0xbe9b7a37	-0.3036668
173	0xbf066875	-0.5250314
174	0xbeb6e06a	-0.3571809
175	0x3e3c8795	0.18411095
176	0x3e98fdc9	0.29881123
177	0xbeeaa019	-0.4582527
178	0xbf57f21e	-0.84353817
179	0xb89c48ba	-7.452206e-05
180	0xbe6c7332	-0.23090819
181	0xbecd973b	-0.40154442
182	0x3e0b8f0a	0.13628784
183	0xbee39719	-0.44451216
184	0xbeda48c5	-0.42633644
185	0xbd8dc693	-0.06922641
186	0xbe6c71f9	-0.23090352
187	0x3eb429a9	0.35188034
188	0xbf2e199a	-0.68007815
189	0xbb898821	-0.004197136
190	0xbec9771b	-0.39348683
191	0xbeaec40e	-0.34133953
192	0xbea9a7a4	-0.33135712
193	0xbd5ab793	-0.053397726
194	0x3e8da54a	0.27665168
195	0x3d9f1507	0.077676825
196	0xbd000736	-0.031256877
197	0xbea9916c	-0.3311876
198	0xbf148e4e	-0.5802964
199	0xbd096793	-0.03354604
200	0xbba90788	-0.0051583685
201	0x3e95e5fb	0.29277024
202	0xbe428ed5	-0.18999799
203	0x3ee7ae48	0.45250154
204	0xbe15f4ab	-0.14644115
205	0xbd475f4e	-0.048674874
206	0x3f00e355	0.5034688
207	0xbee07741	-0.43840984
208	0xbd36cec4	-0.04463078
209	0xbe9895b6	-0.2980172
210	0x3edbce8b	0.42931017
211	0xbe8212ac	-0.2540487
212	0xbf2c3c58	-0.6727958
213	0x3a00f73c	0.00049196533
214	0xbf2c853f	-0.6739082
215	0xbeb608c2	-0.35553557
216	0x3e80b302	0.25136572
217	0x3e78260f	0.24233268
218	0xbbffa212	-0.0078013027
219	0xbed4c345	-0.4155523
220	0xbdb84592	-0.089976445
221	0xbf29049c	-0.6602266
222	0xbf0cbc0c	-0.54974437
223	0x3b5ec62c	0.0033992631
224	0x3ca8cd6a	0.020605762
225	0xbf2c39ec	-0.6727588
226	0xbf2a8df6	-0.66622865
227	0xbcde8081	-0.027160885
228	0xbed8da47	-0.42354032
229	0xbbc6bf90	-0.0060653165
230	0xbe0be860	-0.13662863
231	0x3edf171d	0.43572322
232	0xbe456f01	-0.19280626
233	0x3e31e5c7	0.1737281
234	0xbf3f6eab	-0.7477824
235	0xbf221097	-0.63306564
236	0x3e7f9348	0.24958527
237	0xbc6b9303	-0.014378312
238	0xbf26bb05	-0.6512912
239	0xbefd7ed0	-0.49510813
240	0xbdadc352	-0.0848452
241	0xbf09cb67	-0.5382599
242	0xbf08f063	-0.534918
243	0xbf0f658f	-0.5601434
244	0xbef75bda	-0.48312265
245	0xbf04bd76	-0.51851594
246	0x3ca69903	0.020336634
247	0x3e869a1d	0.26289454
248	0xbef867bc	-0.48516643
249	0x3e33447b	0.17506592
250	0xbf62d7da	-0.88610613
251	0x3eddd1cd	0.43324128
252	0x3d5e72f3	0.054308843
253	0xbed01ef7	-0.40648624
254	0x3e09ded4	0.13463908
255	0xbf31e533	-0.69490355

l2.weight f4 [200, 400]
0	0xbd34829e	-0.04406988
1	0xbe9cbbfb	-0.30612168
2	0xbef4489c	-0.47711647
3	0x3e19ee93	0.15032415
4	0xbf074595	-0.5284055
5	0x3f17c684	0.59287286
6	0x3dabd3cc	0.083900064
7	0xbe9c16c3	-0.30486116
8	0xbf25d660	-0.64780235
9	0xbef6e775	-0.48223463
10	0xbf04e063	-0.51904887
11	0xbeacbcad	-0.33737698
12	0x3e6ccc98	0.23124921
13	0x3ea84262	0.32863146
14	0x3da6f8e1	0.08152939
15	0x3cf48b55	0.029851595
16	0x3e61caeb	0.22050063
17	0xbc5ec599	-0.013596916
18	0x3e5da064	0.21643215
19	0xbec198ee	-0.3781199
20	0x3dc88cde	0.09792493
21	0xbbef5394	-0.0073036645
22	0x3e86139e	0.26186842
23	0x3e5b8111	0.21435954
24	0xbf17801e	-0.59179866
25	0xbed48657	-0.41508743
26	0x3e25b42a	0.16182008
27	0x3d8e3614	0.06943908
28	0x3ebb33cf	0.36562964
29	0x3f071cf5	0.5277856
30	0xbef21a4d	-0.4728569
31	0x3dac2ce9	0.084070034
32	0xbd518328	-0.05115047
33	0xbf6e2361	-0.93022734
34	0x3e751613	0.23934202
35	0xbe852454	-0.2600428
36	0xbdf3d7a2	-0.11906363
37	0xbf630b3e	-0.8868903
38	0xbdf3f115	-0.11911217
39	0xbeddf55b	-0.43351254
40	0x3d65493f	0.055978056
41	0xbed282f2	-0.41115528
42	0xbd98f521	-0.0746863
43	0x3e338628	0.17531645
44	0xbe5dcc70	-0.21660018
45	0x3df608f8	0.120134294
46	0xbddccf59	-0.10781736
47	0x3e82f480	0.25577164
48	0x3f167e5e	0.5878657
49	0x3c194d62	0.009356828
50	0x3dbcefca	0.09225424
51	0xbe23c443	-0.15992837
52	0x3eae809e	0.34082502
53	0x3d6517f8	0.05593106
54	0xbe477ab1	-0.19480397
55	0x3c437ee0	0.011932105
56	0xbebf812f	-0.37403247
57	0x3e8d10a8	0.2755177
58	0xbed392e1	-0.41322997
59	0xbe58502b	-0.21124332
60	0x3da5a3c8	0.080878794
61	0x3de65bf7	0.1124801
62	0x3f3c6fed	0.73608285
63	0x3fc38679	1.5275413
64	0x3ead925c	0.33900726
65	0xbc7d1bbc	-0.015448507
66	0xbeecfad2	-0.4628511
67	0x3e0ba1a5	0.13635881
68	0xbdbc63db	-0.091987334
69	0xbf0a61a7	-0.54055256
70	0xbee29c36	-0.44259804
71	0x3ebc840e	0.368195
72	0xbf29b806	-0.6629642
73	0xbe0d1731	-0.13778378
74	0xbd61554f	-0.055012997
75	0xbe66bbc7	-0.22532569
76	0x3f2ec720	0.6827259
77	0x3e5f9b33	0.21836548
78	0xbef1e919	-0.47248152
79	0x3e5d42be	0.21607491
80	0xbea01c06	-0.3127138
81	0xbe55d18d	-0.20880719
82	0xbee41221	-0.4454508
83	0x3e3b3fb7	0.18286024
84	0x3e0d9670	0.13826919
85	0x3ddc3f1f	0.10754227
86	0x3ecadb68	0.3962052
87	0x3e833b99	0.25631407
88	0xbe3526fd	-0.17690654
89	0x3f5c0017	0.8593764
90	0xbf80a619	-1.0050689
91	0xbe8383bd	-0.25686446
92	0xbd36d861	-0.04463995
93	0x3f09ca59	0.53824383
94	0xbf13dcec	-0.57758975
95	0xbdda959f	-0.10673069
96	0x3e594d6b	0.21220939
97	0x3e1b1170	0.1514337
98	0xbe928401	-0.28616336
99	0x3cbddac7	0.02317561
100	0x3e1e39e0	0.15451765
101	0xbfb246ae	-1.392782
102	0x3f5698e8	0.83827066
103	0x3dcad334	0.09903565
104	0x3f424de7	0.7590012
105	0xbe8f5eb7	-0.2800195
106	0xbf2370d9	-0.63844067
107	0xbe908884	-0.28229153
108	0x3e45eac8	0.19327843
109	0xbdd85f6d	-0.10565076
110	0x3eb9c948	0.36286378
111	0xbea8eb66	-0.32992095
112	0x3de8a3d9	0.113593765
113	0xbe7accaf	-0.24492143
114	0x3e0b0bb8	0.13578689
115	0x3e01cbf2	0.12675455
116	0xbecc9255	-0.39955392
117	0x3e30b3e0	0.17256117
118	0xbc38cc5a	-0.01127919
119	0x3c96ee31	0.018424125
120	0x3bdda56c	0.0067641046
121	0xbeef09e8	-0.46687245
122	0x3def8370	0.116949916
123	0x3f04d084	0.5188067
124	0xbebd431a	-0.36965257
125	0x3de2a92e	0.11067425
126	0xbf3a0400	-0.72662354
127	0x3d911a4a	0.07085092
128	0xbe5b55b1	-0.21419407
129	0x3e84095e	0.25788397
130	0xbedf2491	-0.43582585
131	0x3ed867e4	0.42266762
132	0x3d2e497a	0.04255054
133	0xbe1030d2	-0.14081123
134	0x3e40a631	0.18813397
135	0xbf2d5fcd	-0.67724305
136	0xbf19a060	-0.6001034
137	0x3d8c1e7c	0.06841752
138	0x3e5093c8	0.20368874
139	0xbe0bb16b	-0.13641898
140	0xbddbada1	-0.107264765
141	0xbd826b4f	-0.06368124
142	0xbfae83eb	-1.3634008
143	0x3d496c07	0.04917529
144	0x3dafaf0e	0.08578311
145	0xbea62c02	-0.3245545
146	0x3d1c1101	0.038102154
147	0xbf924339	-1.1426765
148	0xbe06a21a	-0.13147774
149	0xbf431b6a	-0.76213706
150	0x3d0a3bbf	0.033748385
151	0xbf1a7272	-0.6033088
152	0x3d599590	0.05312115
153	0x3d8c7d9e	0.06859897
154	0x3e757e9d	0.2397408
155	0xbf77778e	-0.966668
156	0x3e27f977	0.16403757
157	0x3dad8d04	0.08474162
158	0xbe310add	-0.172893
159	0x3e3aded4	0.18249065
160	0xbe50db62	-0.20396188
161	0xbd416c71	-0.04722256
162	0xbe852a46	-0.26008815
163	0xbd2d931d	-0.042376626
164	0x3e006bc1	0.12541105
165	0x3ed8e15f	0.42359444
166	0x3e55d6d6	0.20882735
167	0x3eac4df9	0.33653238
168	0xbcc02ade	-0.02345794
169	0x3ea9a19b	0.33131108
170	0x3eb29cdd	0.34885302
171	0xbdec8e5c	-0.115505904
172	0x3de2c160	0.110720396
173	0xbd90b9fc	-0.07066724
174	0x3e0ed549	0.1394855
175	0xbd059901	-0.03261662
176	0x3e787b8c	0.2426588
177	0x3c49f6f2	0.012326943
178	0x3ed791d9	0.4210346
179	0x3f3e2e4e	0.74289405
180	0xbde7f641	-0.11326266
181	0xbf9e24df	-1.2355002
182	0x3e8898e5	0.2667915
183	0xbe9a36c9	-0.30119923
184	0x3e80197b	0.2501944
185	0x3ecf15f0	0.40446424
186	0xbe9da3e6	-0.30789107
187	0x3f140b09	0.5782934
188	0x3ef2fd02	0.47458655
189	0xbeb87a69	-0.36030892
190	0xbda61e1b	-0.08111211
191	0xbdb48414	-0.088142544
192	0xbf0e718a	-0.55641997
193	0x3e35516f	0.17706846
194	0x3dba752d	0.09104381
195	0x3ea8aaa5	0.3294269
196	0xbf11dd3d	-0.5697821
197	0xbeaea60c	-0.3411106
198	0xbe6b98e1	-0.23007537
199	0xbe170118	-0.14746511
200	0x3e1be269	0.15223087
201	0xbed787a7	-0.42095682
202	0xbe95a4f2	-0.29227406
203	0x3e2b5a46	0.16733655
204	0x3edbda9a	0.42940217
205	0x3e51d554	0.20491534
206	0x3e21dbc8	0.15806496
207	0x3c846e7a	0.01616596
208	0xbf061b22	-0.5238515
209	0xbe02a3ac	-0.12757748
210	0xbd38b24b	-0.04509191
211	0xbe7591b5	-0.23981364
212	0xbe5d6381	-0.21619989
213	0x3f000dbe	0.5002097
214	0xbf15981e	-0.5843524
215	0xbeb83327	-0.35976526
216	0xbf11cfca	-0.56957686
217	0x3e1333f6	0.1437529
218	0x3f307b88	0.68938494
219	0x3d53490d	0.05158334
220	0xbec735a9	-0.38908127
221	0xbf40cf36	-0.7531618
222	0xbef76d9f	-0.48325822
223	0x3e21c044	0.15796
224	0xbea9e3dd	-0.33181658
225	0xbea165bb	-0.31522927
226	0xbeb04e83	-0.344349
227	0x3db7badb	0.08971187
228	0xbe6ae1ba	-0.2293767
229	0x3ec59b87	0.3859522
230	0x3e0db63c	0.13839048
231	0xbecf24a6	-0.40457648
232	0xbd170e65	-0.036878962
233	0xbea9390b	-0.33051333
234	0x3e2276a6	0.15865573
235	0xbe1f84d0	-0.15578008
236	0x3e95196f	0.29120967
237	0x3dc01cdc	0.093805045
238	0xbe1d6a1c	-0.15372509
239	0x3d5a99c7	0.05336931
240	0x3eb0bf6b	0.3452104
241	0x3edb46ba	0.42827398
242	0x3ef68f80	0.48156357
243	0x3d481150	0.048844635
244	0x3a65dc91	0.00087685237
245	0x3eb59dae	0.35471863
246	0xbef8e4f7	-0.48612186
247	0xbc00bde8	-0.007857777
248	0xbecaf546	-0.39640254
249	0x3d9b43cc	0.075812906
250	0xbf3629ca	-0.71157515
251	0xbcf0b4ab	-0.029383024
252	0xbf004f6a	-0.50121176
253	0xbe88b23c	-0.26698482
254	0xbf0f001e	-0.55859554
255	0xbf278fbf	-0.65453714

l2.bias f4 [200]
0	0x3e39ddb0	0.18150973
1	0xbd2eeba4	-0.042705193
2	0xbd894a75	-0.06703655
3	0xbd28e8f1	-0.041237775
4	0xbe7158d9	-0.23569049
5	0xbe0a03bf	-0.13477992
6	0xbc73980c	-0.014867794
7	0xbd1cf264	-0.0383171
8	0xbf166c47	-0.5875897
9	0xbe32762e	-0.17427894
10	0xbbab0df7	-0.0052201706
11	0xbdafa259	-0.08575887
12	0x3eb8ea62	0.3611632
13	0xbc471523	-0.0121510355
14	0xbe77ee7c	-0.24212068
15	0x3c0c62c3	0.0085684685
16	0xbce74403	-0.028230673
17	0xbd68ce3b	-0.0568373
18	0xbe29c1bb	-0.16577809
19	0x3d418dd8	0.047254413
20	0xbe5794f0	-0.21052909
21	0x3e3ec943	0.18631463
22	0xbf32e2b0	-0.6987715
23	0xbd60ad07	-0.05485251
24	0x3e0c6c1f	0.1371312
25	0x3ce83b43	0.02834857
26	0xbe16f53f	-0.14741991
27	0xbd40742f	-0.0469858
28	0xbc76d67e	-0.015065787
29	0x3b8b331a	0.004248035
30	0x3d2d26a2	0.04227317
31	0xbdeff7cf	-0.117171876
32	0xbdd396e0	-0.103315115
33	0x3d30e8bf	0.043190714
34	0xbd375ea7	-0.044768002
35	0xbdd9c934	-0.106340796
36	0x3ec23fe9	0.37939385
37	0xbe0daeca	-0.13836208
38	0xbe19bad2	-0.15012673
39	0xbd49490a	-0.04914192
40	0xbead6a3a	-0.33870107
41	0x3ebbb6c2	0.3666287
42	0xbdb90a75	-0.09035198
43	0xbd57aab7	-0.05265304
44	0x3e0e82fe	0.13917157
45	0x3ebce279	0.36891535
46	0xbed9fdf2	-0.42576557
47	0x3d0cd18b	0.034379523
48	0xbe38171a	-0.17977563
49	0x3dc3f560	0.09568286
50	0xbe8de253	-0.27711734
51	0xbe88aa56	-0.26692456
52	0x3c9f39f5	0.019436816
53	0xbca3ef4c	-0.020011567
54	0x3cae01d7	0.021241112
55	0xbcf64e46	-0.03006662
56	0xbd3f2d92	-0.04667432
57	0x3d4ccf38	0.050002307
58	0x3e08c9aa	0.13358179
59	0xbbcaff00	-0.006194949
60	0xbe3e3280	-0.18573952
61	0x3d0afd56	0.033933006
62	0x3c8b5e02	0.0170126
63	0xbd6511a5	-0.05592503
64	0x3c5785b6	0.013154438
65	0xbec0894a	-0.37604743
66	0xbd151eec	-0.036406443
67	0xbddadab5	-0.10686246
68	0x3cb8e42a	0.022569735
69	0xbdc7399b	-0.09727784
70	0xbc9f8862	-0.019474212
71	0xbd40920a	-0.047014274
72	0x3e734dc0	0.23760128
73	0xbd29b5a9	-0.04143301
74	0xbbc8efdb	-0.0061321086
75	0x3d5f5974	0.05452867
76	0xbdb261da	-0.0871007
77	0xbe1538c0	-0.1457243
78	0xbe86db72	-0.26339298
79	0xbdba68bc	-0.09102008
80	0x3d290de6	0.04127302
81	0xbe12134d	-0.14265175
82	0x3caad58a	0.020853776
83	0x3e0b1282	0.13581279
84	0xbd154b0d	-0.036448527
85	0xbe033ec3	-0.1281691
86	0xbd8749ed	-0.06605897
87	0x3cc4415e	0.02395695
88	0x3bfeb43d	0.007772951
89	0x3eebbe5b	0.46043667
90	0xbc874b12	-0.016515289
91	0x3db82cd3	0.089929245
92	0x3bbf3a76	0.0058358265
93	0x3e6336f7	0.22188936
94	0xbdb3ab4c	-0.08772907
95	0xbec8d947	-0.3922827
96	0x3e200e0c	0.15630358
97	0xbdc1bfff	-0.094604485
98	0xbc22b777	-0.009931437
99	0xbdf81efb	-0.12115284
100	0x3df043dd	0.11731694
101	0x3b21cc7d	0.0024688535
102	0x3c64da25	0.013968025
103	0xbd6356e7	-0.0555028
104	0x3ca94f36	0.020667654
105	0xbebc2653	-0.3674799
106	0x3c321964	0.010870311
107	0xbe26f4ee	-0.16304371
108	0x3d01a032	0.031646915
109	0xbe1f452e	-0.15553734
110	0xbe0ad391	-0.13557269
111	0xbd9d6ebf	-0.07687139
112	0x3b7a541f	0.0038197113
113	0x3d4a2363	0.049350154
114	0x3e15a7e7	0.14614831
115	0x3e31b8a3	0.1735559
116	0xbe32a2e6	-0.17444953
117	0x3d8d3c0a	0.06896217
118	0x3cef6145	0.029221186
119	0x3e92ba2b	0.2865766
120	0xbec7c18a	-0.39014846
121	0xbd1c930d	-0.038226176
122	0xbe1d6902	-0.15372089
123	0x3e9958ac	0.29950464
124	0xbcbd63ae	-0.02311882
125	0xbcc03434	-0.023462392
126	0xbdb1e447	-0.086861186
127	0xbd78584e	-0.06063109
128	0x3b50bf85	0.0031852436
129	0xbc9bdab4	-0.019025184
130	0xbe07a727	-0.13247357
131	0x3db978a2	0.09056212
132	0xbd77fcea	-0.060543932
133	0xbba16c85	-0.0049262666
134	0xbbd3d2e4	-0.006464349
135	0x3e8e2c62	0.27768236
136	0x3c693f0d	0.014236224
137	0x3c0f9175	0.008762707
138	0xbe6adf5f	-0.22936772
139	0xbd40a510	-0.047032416
140	0x3db1ff0b	0.08691224
141	0x3eb2a7fd	0.3489379
142	0x3e429a83	0.19004254
143	0xbd10f109	-0.03538612
144	0x3b977b3a	0.004622844
145	0x3d7ca82b	0.061683815
146	0xbc8acac6	-0.016942393
147	0x3e9b0324	0.30275834
148	0xbc9184e6	-0.017763566
149	0xbe4de658	-0.201074
150	0x3d7d7450	0.061878502
151	0x3d9d8f1f	0.07693314
152	0xbcc4ab8e	-0.024007585
153	0x3c0826e7	0.008310056
154	0x3d2477a4	0.04015316
155	0xbc8b36f2	-0.016993973
156	0x3de0327a	0.10947128
157	0xbe0c636b	-0.137098
158	0xbd850384	-0.06494811
159	0xbdf4609a	-0.11932488
160	0xbd1c425f	-0.038149234
161	0xbda6a0bd	-0.08136127
162	0x3d8c70f8	0.068574846
163	0x3ead4155	0.33838907
164	0x3de069d3	0.10957684
165	0x3e2e2303	0.17005543
166	0x3d3986df	0.04529464
167	0x3c9790b6	0.01850162
168	0xbedaaf90	-0.4271207
169	0xbe16c3ff	-0.14723204
170	0xbed81281	-0.42201617
171	0xbe1ada00	-0.15122223
172	0xbc728deb	-0.014804344
173	0x3e71bed8	0.23607957
174	0xbe33c5ca	-0.1755592
175	0x3e6c2e08	0.23064435
176	0xbc10ed39	-0.008845621
177	0x3c58cb28	0.01323203
178	0xbd7e6f33	-0.062117767
179	0x3d624e19	0.05525026
180	0x3e30d0f3	0.17267208
181	0xbd03ef66	-0.03221073
182	0x3dd556d7	0.10416954
183	0xbe7f28c8	-0.249179
184	0x3e96bae7	0.2943947
185	0x3ce491d8	0.027901575
186	0x3d813e40	0.06310701
187	0x3e03b606	0.12862405
188	0xbd76da1b	-0.060266595
189	0x3d118391	0.035525862
190	0x3edb0301	0.4277573
191	0xbda00b31	-0.078146346
192	0xbe01513d	-0.12628646
193	0xbf5df852	-0.8670703
194	0xbce7400a	-0.028228778
195	0xbdfa1cbd	-0.12212513
196	0xbd5b6301	-0.053561214
197	0x3c7dc006	0.0154876765
198	0x3cacd959	0.021099733
199	0x3e188fe4	0.1489864

l3.weight f4 [4, 200]
0	0x3ea1f9b1	0.31635812
1	0xbe91ce9f	-0.28477952
2	0xbeb90863	-0.3613921
3	0x3ea42e61	0.32066634
4	0x3ce105c4	0.02746857
5	0xbe7b84bb	-0.24562351
6	0xbb999a6b	-0.0046875975
7	0x3e7641c5	0.24048527
8	0xbf00354e	-0.50081336
9	0xbeb669f1	-0.35627702
10	0x3d6c5381	0.057696823
11	0xbec07ace	-0.37593693
12	0xbf8b34f5	-1.0875536
13	0xbca66b3c	-0.020314805
14	0xbf035445	-0.5130046
15	0x3d597344	0.05308844
16	0xbc20ee04	-0.009822372
17	0x3d8b57cd	0.06803856
18	0xbf0204f1	-0.5078879
19	0x3f2a6ba5	0.665705
20	0xbe82361f	-0.25431916
21	0xbe8a62dc	-0.2702855
22	0xbf189e3f	-0.59616464
23	0xbd7e12d9	-0.062029693
24	0xbeb8756f	-0.36027095
25	0x3e3ba1e8	0.18323481
26	0x3ecebfe1	0.40380767
27	0x3ecee0d5	0.40405908
28	0x3ed01a99	0.40645292
29	0xbf0c5f31	-0.5483275
30	0x3f974777	1.1818684
31	0xbe8093fd	-0.25112906
32	0xbd824a7c	-0.06361863
33	0xbd3c87b2	-0.046027847
34	0x3d73ec83	0.059551727
35	0xbe96fcfa	-0.2948988
36	0x3ee9d970	0.45673704
37	0xbebe18e9	-0.3712838
38	0xbefb8648	-0.49125886
39	0x3dea8a7d	0.11452196
40	0xbf13be7f	-0.5771255
41	0x3f504d72	0.8136817
42	0x3ea15110	0.31507158
43	0xbea26e1f	-0.3172464
44	0xbe48f812	-0.19625881
45	0x3f123a39	0.5712009
46	0xbf15774a	-0.58385146
47	0xbe6e6be9	-0.23283352
48	0xbe5feb9a	-0.21867219
49	0xbe737d4a	-0.23778263
50	0xbe8da15b	-0.27662167
51	0x3e83cf65	0.25744167
52	0xbdbd3574	-0.09238711
53	0xbe829210	-0.25502062
54	0xbe74d8d2	-0.23910835
55	0x3d26a46d	0.040684152
56	0x3d12f9d0	0.03588277
57	0xbd418952	-0.0472501
58	0x3f9d6237	1.2295598
59	0xbd5d26d2	-0.0539921
60	0xbf2826ec	-0.6568439
61	0x3d766515	0.060154993
62	0xbe52dc37	-0.20591818
63	0x3c5ae736	0.013360789
64	0x3ca93786	0.020656358
65	0xbf15ccb6	-0.5851549
66	0xbe906e4a	-0.28209144
67	0x3e5abf23	0.21361975
68	0x3d94289a	0.07234307
69	0xbf063eec	-0.5243976
70	0x3e4e7cac	0.20164746
71	0x3d306cc6	0.043072484
72	0x3e302883	0.17202954
73	0xbf06e5b0	-0.52694225
74	0xbcfb0c8a	-0.030645628
75	0xbde40007	-0.11132818
76	0xbe391e80	-0.18078041
77	0xbda5feb8	-0.08105224
78	0xbf57a8ee	-0.8424214
79	0xbebbdb6f	-0.36690852
80	0xbe4e2ea4	-0.2013498
81	0x3db57b8a	0.08861454
82	0xbca5f1ff	-0.020256994
83	0xbe692188	-0.22766697
84	0xbd5920f2	-0.053009935
85	0xbdf54f32	-0.11977996
86	0xbb839e54	-0.004016677
87	0xbe7ffbe6	-0.24998435
88	0xbe81a81c	-0.2532357
89	0x3f11d3ea	0.5696398
90	0x3be9cd62	0.0071350792
91	0x3f0bb348	0.54570436
92	0xbca0f4af	-0.019647924
93	0xbf1ba65b	-0.60800713
94	0xbe0a5b23	-0.13511328
95	0xbf3a2ad2	-0.7272159
96	0xbec89568	-0.39176488
97	0xbd0132e3	-0.03154267
98	0xbe2274b3	-0.1586483
99	0x3ebf83bc	0.37405193
100	0x3fc15b57	1.5106
101	0x3dce28ac	0.10066351
102	0xbd5bc894	-0.053658083
103	0xbec4104c	-0.38293684
104	0xbf1da060	-0.6157284
105	0xbf82c8f3	-1.0217575
106	0x3b8c9194	0.004289815
107	0x3f7c8e5c	0.98654723
108	0xbd19280e	-0.037391715
109	0x3e83b31c	0.25722587
110	0xbed7a9ce	-0.42121738
111	0xbe188eb6	-0.1489819
112	0xbeacd00e	-0.33752483
113	0xbea61248	-0.32435822
114	0xbe1b7a9f	-0.15183495
115	0x39ddd73e	0.00042312773
116	0xbeb90075	-0.3613316
117	0xbd87312d	-0.066011764
118	0x3dd9a04a	0.10626276
119	0x3ed7be48	0.4213736
120	0x3f5714d9	0.84016186
121	0x3e71b25f	0.236032
122	0x3ee40e0a	0.4454196
123	0x3ed2c54c	0.4116615
124	0xbe8f602b	-0.28003058
125	0x3e853cbf	0.26022908
126	0xbe17fac0	-0.14841747
127	0x3d82a690	0.063794255
128	0x3e7247d2	0.2366021
129	0xbf1d9065	-0.61548454
130	0x3eba9fe3	0.3645011
131	0xbef4d862	-0.47821337
132	0x3d1cb9fd	0.03826331
133	0x3f23d1b0	0.6399183
134	0x3ce37267	0.027764512
135	0x3fa9566e	1.3229501
136	0x3d9fe2ab	0.07806905
137	0x3e83e2f6	0.25759095
138	0x3e8c0153	0.2734476
139	0xbd96acdf	-0.07357191
140	0xbe59e937	-0.2128037
141	0x3f8f5307	1.1197213
142	0xbeef0dda	-0.46690255
143	0xbe8733fc	-0.26406848
144	0xbd713900	-0.05889225
145	0xbe8c9ca4	-0.27463257
146	0x3c3ffd13	0.011718052
147	0x3f011608	0.5042424
148	0xbdb0d43c	-0.086342305
149	0xbe87f91b	-0.2655724
150	0x3cb7f712	0.02245668
151	0xbdfea8cf	-0.124345414
152	0x3d621704	0.05519773
153	0x3d6cb700	0.05779171
154	0x3bcd28ed	0.0062609822
155	0x3e872e28	0.26402402
156	0x3f2b9690	0.67026615
157	0x3f1e1dde	0.61764324
158	0x3d66a3c7	0.056308534
159	0xbeb6a0fa	-0.3566969
160	0xbe70a063	-0.23498683
161	0xbe52a6dd	-0.20571466
162	0xbe6f2f87	-0.23357974
163	0x3f3d919c	0.7405031
164	0xbe798648	-0.2436763
165	0x3e9e30d7	0.30896637
166	0xbf349298	-0.70536184
167	0xbf2d9378	-0.67803144
168	0xbeec4046	-0.46142787
169	0x3ecab6d7	0.3959262
170	0xbf9ffb91	-1.2498647
171	0xbd2d26ab	-0.042273205
172	0x3f2fc651	0.6866198
173	0x3ea251bc	0.31702983
174	0xbe408182	-0.18799403
175	0x3d2fd9df	0.042932387
176	0xbdbae436	-0.09125559
177	0x3ca7651d	0.020433957
178	0xbe88720d	-0.26649514
179	0x3eaf5179	0.34241846
180	0xbeb14d79	-0.3462942
181	0xbe9cf398	-0.30654597
182	0xbea991bb	-0.33118996
183	0xbe982a64	-0.2971984
184	0x3ecc50b2	0.39905316
185	0xbe98054e	-0.29691547
186	0xbeca0c3f	-0.39462468
187	0xbec63604	-0.38713086
188	0xbe93ae7f	-0.28844067
189	0x3f89fb67	1.0779847
190	0x3f01d42c	0.50714374
191	0xbc299677	-0.010350815
192	0xbf199b2c	-0.600024
193	0xbf29a6c8	-0.66270113
194	0x3cc844e4	0.024446912
195	0x3fe28c3f	1.769905
196	0xbefe4640	-0.49662971
197	0x3cd875c2	0.026423339
198	0xbe0d0265	-0.13770445
199	0xbe9a78dc	-0.30170333
200	0x3e1c9e33	0.15294723
201	0xbe8061af	-0.25074527
202	0xbed3a825	-0.41339222
203	0x3ccf8235	0.025330642
204	0xbf66a8a8	-0.901011
205	0xbd832143	-0.064028285
206	0x3d8ae112	0.0678121
207	0x3e9588ed	0.2920603
208	0xbee32b5c	-0.44369018
209	0xbe99e5a6	-0.3005802
210	0x3cce29ba	0.025166381
211	0xbe8a1de1	-0.2697592
212	0xbf2f1c24	-0.68402314
213	0x3cb34d17	0.021887345
214	0xbf0ff540	-0.56233597
215	0xba8aba3b	-0.0010584065
216	0x3cb857a2	0.022502724
217	0x3d600251	0.05468971
218	0xbed67e65	-0.41893306
219	0x3f25ec8a	0.64814055
220	0xbe803241	-0.2503834
221	0xbf06483d	-0.52453977
222	0xbee6179c	-0.44939888
223	0x3cbe96db	0.023265293
224	0xbe96fe33	-0.29490814
225	0x3e20f54e	0.15718576
226	0x3ec170b2	0.37781292
227	0xbdf820f2	-0.12115659
228	0x3eb15393	0.34634075
229	0x3dc902c8	0.098149836
230	0xbd228021	-0.039672974
231	0xbef65494	-0.48111403
232	0xbd67b0bb	-0.056565028
233	0xbd26e22a	-0.04074303
234	0x3d8b438e	0.067999944
235	0xbe68626c	-0.22693795
236	0x3f0cc1aa	0.5498301
237	0xbed45136	-0.4146821
238	0xbeb2ff59	-0.3496044
239	0x3e2756b1	0.16341664
240	0x3d520572	0.051274724
241	0x3f65d5d9	0.8977943
242	0x3f1008cc	0.5626342
243	0xbe74f0b1	-0.23919941
244	0xbe863343	-0.26210985
245	0x3f188529	0.59578186
246	0xbf22f45d	-0.6365412
247	0xbe70be58	-0.2351011
248	0xbe9901c5	-0.29884163
249	0xbe1e9421	-0.15486194
250	0xbe99aac8	-0.30013108
251	0x3ea94606	0.33061236
252	0x3d584957	0.052804317
253	0xbe9101a5	-0.28321567
254	0xbe2fa353	-0.17152147
255	0x3d6134ba	0.054981925

l3.bias f4 [4]
0	0x3ecf51d6	0.40492123
1	0x3f1b20ae	0.6059674
2	0x3e20bdd1	0.15697409
3	0x3e20199a	0.15634766
