fin/DQN/agent-300-10-586/target_model.pt (torch, 340543 bytes, 6 tensors)

l1.weight f4 [400, 8]
0	0x3e1403ec	0.14454621
1	0x3d749d90	0.059720576
2	0xbc1acb08	-0.0094478205
3	0x3e9b8c0f	0.30380294
4	0xbe0a1f7e	-0.13488576
5	0xbed374a1	-0.41299918
6	0xbf959aa2	-1.1687815
7	0x3e0962c2	0.1341658
8	0x3e3bafaa	0.1832873
9	0xbd2a4701	-0.04157162
10	0x3f1bcdd5	0.6086095
11	0x3e56d14b	0.20978276
12	0xbeb9c9a8	-0.36286664
13	0xbf44aafb	-0.76823395
14	0xbf1f3284	-0.62186456
15	0xbed9d366	-0.42544097
16	0xbd849e64	-0.06475523
17	0x3d119618	0.03554353
18	0x3ef5a94c	0.47980726
19	0x3e9f1dc7	0.31077406
20	0xbd1aaf91	-0.03776509
21	0xbf4aa88e	-0.79163444
22	0xbf28b99b	-0.6590821
23	0x3efeb6bb	0.49748787
24	0x3f86ee9c	1.0541568
25	0xbebe8927	-0.37214014
26	0xbf6c2571	-0.9224463
27	0x3da6a278	0.08136457
28	0xbd0aef93	-0.033919882
29	0xbf54fdac	-0.8319957
30	0x3ef4ba0e	0.47798198
31	0xbe839932	-0.25702816
32	0x3dbebf40	0.09313822
33	0xbd99045f	-0.07471537
34	0x3f281441	0.65655905
35	0x3e326621	0.17421772
36	0xbd8520da	-0.065004066
37	0x3f125dbc	0.5717428
38	0xbfea671b	-1.8312715
39	0xbf62d4a4	-0.88605714
40	0xbbf42d7e	-0.007451712
41	0xba4f0ce0	-0.0007898342
42	0x3ed621f0	0.41822767
43	0xbff1166c	-1.8834968
44	0x3d16535a	0.036700584
45	0xbc1174a9	-0.008877912
46	0xbfc78703	-1.5588077
47	0xbef8c2fe	-0.48586267
48	0x3dd92ec3	0.10604622
49	0xbca5a308	-0.02021934
50	0x3d4dce25	0.050245423
51	0x3e1ccf3e	0.15313432
52	0x3e4d4f19	0.20049705
53	0x3c1c6352	0.009545164
54	0xbd7d92d5	-0.061907608
55	0xbc4fdef8	-0.012687437
56	0x3fa7002a	1.3046925
57	0xbd00de5f	-0.03146207
58	0x3f6d5f10	0.9272318
59	0x3ce74e0c	0.028235458
60	0x3e533c1e	0.20628402
61	0x3eec7912	0.4618612
62	0x3f75030d	0.9570778
63	0xbf82eb02	-1.0227969
64	0xbe8e3c16	-0.27780217
65	0x3da28ae4	0.079366475
66	0xbf1653d4	-0.5872166
67	0x3ea0666e	0.31328148
68	0x3f089bd7	0.5336279
69	0x3f8b775b	1.0895799
70	0xbe365033	-0.17804031
71	0xbf246170	-0.6421118
72	0x3ec09cca	0.3761962
73	0xbf0d9691	-0.5530787
74	0xbd22294d	-0.03959017
75	0xbe892bc4	-0.26791203
76	0xbf01930f	-0.5061502
77	0xbeaa8712	-0.33306175
78	0xbf4af5fa	-0.7928158
79	0xbf629596	-0.885095
80	0xbdfbb579	-0.122904725
81	0x3df2e97b	0.11860939
82	0xbf073bd4	-0.52825665
83	0xbe19a22e	-0.15003273
84	0xbe18c14e	-0.1491749
85	0xbf6d2225	-0.92630225
86	0xbef12ed5	-0.47106043
87	0xbd8c5b18	-0.06853312
88	0xbd211bda	-0.039333202
89	0xbe8942fe	-0.26808923
90	0xbdd2800b	-0.102783285
91	0xbecadd61	-0.39622024
92	0xbf0cacbd	-0.5495108
93	0xbee8ea13	-0.45491084
94	0xbf989a8c	-1.1922164
95	0xbec97fbd	-0.3935527
96	0x3e5b3650	0.21407437
97	0x3ed552f1	0.41664842
98	0x3dfdb385	0.12387756
99	0xbe192e82	-0.14959148
100	0xbd8b5c13	-0.06804671
101	0x3e6b8378	0.2299937
102	0x3ee78cc3	0.4522458
103	0xbf0a9a2b	-0.5414149
104	0xbf0d4781	-0.5518723
105	0x3d43d05e	0.047806136
106	0xbed24c5a	-0.41073877
107	0x3cafb212	0.021447215
108	0x3f44fe03	0.7695009
109	0x3e8a4da9	0.27012375
110	0xbecdfb63	-0.40230855
111	0x3e9c12f7	0.3048322
112	0x3d4694ea	0.04848186
113	0x3de8abd8	0.113609016
114	0xbe6670ab	-0.22503917
115	0xbe4aea7a	-0.19816008
116	0xbdac8d15	-0.08425347
117	0x3f1802bd	0.5937918
118	0xbf545dd7	-0.8295569
119	0xbf06f0c3	-0.52711123
120	0xbf5c9344	-0.8616221
121	0x3c8def2c	0.01732596
122	0x3e8e238a	0.2776149
123	0xbede83fb	-0.43460068
124	0xbf192a2a	-0.5982996
125	0xbf084dc4	-0.5324366
126	0x3d48bc2d	0.049007583
127	0xbe95d48a	-0.29263717
128	0x3f19f317	0.6013655
129	0x3e4d074e	0.20022318
130	0x3de91198	0.11380309
131	0xbf0d282b	-0.55139416
132	0x3e5a4cbf	0.21318339
133	0x3ed594fd	0.41715232
134	0xbf6f3e36	-0.934543
135	0xbe69c07f	-0.22827338
136	0xbe1d1f9a	-0.15344086
137	0xbd31491c	-0.043282613
138	0xbd084c20	-0.033275723
139	0x3e58dc25	0.21177728
140	0x3e2e9b75	0.1705149
141	0xbdd71d61	-0.105036505
142	0xbe4d840f	-0.20069908
143	0xbd6e6190	-0.05819851
144	0x3f411697	0.75425094
145	0x3e170f41	0.14751913
146	0x3db39a45	0.08769659
147	0xbf0e0103	-0.55470294
148	0x3e18843e	0.14894196
149	0x3eb82f1c	0.35973442
150	0xbf169937	-0.5882754
151	0xbeac5649	-0.3365958
152	0xbab77fb3	-0.0013999849
153	0xbd32d19c	-0.04365693
154	0x3f652cc0	0.8952141
155	0x3f59d72e	0.85093963
156	0x3d4d9e46	0.05019977
157	0x3d8934f7	0.06699555
158	0x3f5777eb	0.84167355
159	0xbd2d94a4	-0.042378083
160	0xbe99adde	-0.30015463
161	0xbe26949b	-0.16267626
162	0x3f5e995c	0.8695276
163	0x3f1a81e8	0.6035447
164	0xbf47b0e3	-0.7800428
165	0x3ebafa1a	0.36518937
166	0x3ec321f5	0.38111845
167	0x3ee25a61	0.4420958
168	0x3de14d34	0.110010535
169	0x3e8c14ca	0.2735961
170	0xbee41dda	-0.44554025
171	0xbe902a30	-0.28157187
172	0x3e5338f6	0.20627198
173	0xbef2478d	-0.47320214
174	0xbf0cbef4	-0.5497887
175	0xbf8ded68	-1.1088076
176	0xbe3573e3	-0.17719989
177	0xbe669529	-0.22517838
178	0x3f8f6b19	1.1204559
179	0x3f2a6fd1	0.6657687
180	0xbe8b1470	-0.2716403
181	0xbd303c00	-0.04302597
182	0xbf0ab9ee	-0.54189956
183	0xbef27431	-0.47354272
184	0x3f5f349e	0.8718966
185	0xbd9441c0	-0.07239103
186	0x3e19ffeb	0.15039031
187	0xbf3328e6	-0.6998428
188	0x3ee9e77e	0.45684427
189	0x3e4d21c4	0.20032412
190	0x3eeab61a	0.45842057
191	0xbbd05625	-0.0063579255
192	0x3dd1d9ef	0.10246646
193	0xbe27e947	-0.16397582
194	0xbd08d52f	-0.033406433
195	0x3d9af0f4	0.075654894
196	0xbd390984	-0.04517509
197	0xbef521a5	-0.4787723
198	0xbf9cd7a5	-1.225331
199	0xbdc5cafe	-0.09657858
200	0xbed67b92	-0.41891152
201	0xbcf1ee39	-0.029532539
202	0x3ead05a9	0.3379338
203	0xbec95338	-0.39321303
204	0xbdce2ee5	-0.10067538
205	0x3f85e595	1.0460688
206	0x3f1d7b86	0.61516607
207	0xbf28664d	-0.657811
208	0xbdf898d5	-0.121385254
209	0xbc30360f	-0.010755076
210	0xbf19ab61	-0.6002713
211	0xbe2ae4f0	-0.16688895
212	0xbf524158	-0.82130957
213	0x3e864779	0.26226404
214	0x3dd85116	0.10562341
215	0xbf0aecad	-0.5426739
216	0xbd73791d	-0.059441675
217	0xbefac0f8	-0.48975348
218	0x3e91dfc0	0.2849102
219	0x3f8b3cb1	1.0877897
220	0x3daa0aa8	0.08302814
221	0x3e27d75b	0.16390745
222	0x3f46c016	0.7763685
223	0xbee8acac	-0.45444238
224	0x3e8997f0	0.26873732
225	0xbf4db50c	-0.8035438
226	0xbf9ad9a5	-1.209767
227	0x3f83d2a9	1.0298663
228	0xbe3cef2c	-0.18450612
229	0x3f308de3	0.689665
230	0x3ed032ec	0.4066385
231	0xbdee0360	-0.116217375
232	0xbea4f93a	-0.32221395
233	0xbe83c8c9	-0.25739124
234	0xbe5bf110	-0.21478677
235	0xbec5b943	-0.38617906
236	0x3cc39c5f	0.023878274
237	0xbdbcdba9	-0.09221584
238	0xbf9fa863	-1.2473263
239	0xbdbb9388	-0.09158999
240	0xbe69a4ed	-0.2281682
241	0xbe9dfb3a	-0.30855733
242	0x3dcbc84c	0.09950313
243	0xbeef3f7a	-0.46728116
244	0xbe941c07	-0.28927633
245	0x3f7558c5	0.95838577
246	0xbda49c4d	-0.080376245
247	0x3e9aabb8	0.30209136
248	0xbf2c81a8	-0.6738534
249	0xbe3cef67	-0.184507
250	0xbf80428e	-1.0020311
251	0xbd040a3e	-0.03223633
252	0x3ea88b35	0.32918707
253	0x3d180269	0.037111674
254	0xbea0762f	-0.31340167
255	0x3ea1c585	0.31596008

l1.bias f4 [400]
0	0xbf126757	-0.57188934
1	0xbf1a8d3f	-0.60371774
2	0xbebef2b6	-0.3729455
3	0xbebf2954	-0.37336218
4	0xbf49a057	-0.78760284
5	0xbb8063e3	-0.0039181574
6	0xbead110d	-0.3380207
7	0x3d0ac60a	0.03388027
8	0xbf60b1d1	-0.87771326
9	0xbebd2f29	-0.36950043
10	0xbe5a1753	-0.2129796
11	0x3f05fb9d	0.52337056
12	0x3d2f6aa2	0.042826302
13	0xbf1e13a5	-0.61748725
14	0xbf19fd1e	-0.6015185
15	0xbea6e414	-0.32595885
16	0xbd9d53db	-0.0768201
17	0xbeb5b46a	-0.35489208
18	0xbbd5a66f	-0.0065200846
19	0xbf11ac2e	-0.5690335
20	0xbf34f399	-0.706842
21	0xbe54eb3d	-0.20792861
22	0xbe8aeae2	-0.27132326
23	0x3d38dd79	0.045133088
24	0xbf310e7a	-0.69162714
25	0xbf4a47b5	-0.79015666
26	0xbe541686	-0.20711717
27	0xbea41cae	-0.3205313
28	0xbe924230	-0.28566122
29	0x3f1a5a37	0.60293907
30	0xbf3c2377	-0.73491615
31	0x3d9df5ca	0.07712896
32	0xbdd33af5	-0.103139795
33	0xbf494d9f	-0.78634065
34	0xbed5c4d5	-0.41751733
35	0xbf5284f5	-0.82234126
36	0xbe1cc814	-0.15310699
37	0xbf40822b	-0.7519862
38	0xbf23d9f7	-0.6400446
39	0xbf496de2	-0.7868329
40	0x3d301fc0	0.04299903
41	0xbee168e2	-0.44025332
42	0xbd50c810	-0.050972044
43	0x3e8d2fd5	0.27575555
44	0xbf3bc8c1	-0.733532
45	0x3d9189ee	0.07106386
46	0xbeb44c02	-0.3521424
47	0xbf08b9db	-0.5340859
48	0xbc4eecc7	-0.012629694
49	0xbd0d31e9	-0.034471426
50	0xbf192fac	-0.59838367
51	0xbf368c1b	-0.71307534
52	0xbee2de6b	-0.44310316
53	0x3e642a15	0.22281678
54	0xbf5c0cac	-0.85956836
55	0xbea25cad	-0.3171133
56	0x3efc630f	0.49294326
57	0xbf019ee1	-0.50633055
58	0xbeadf7d7	-0.3397815
59	0xbea62f45	-0.3245794
60	0x3f11aefc	0.5690763
61	0xbee44f01	-0.44591525
62	0xbb9ac1c2	-0.0047228048
63	0x3c2a9f80	0.010414004
64	0xbf0e6ab7	-0.55631584
65	0xbedd0985	-0.43171325
66	0x3c3beef5	0.011470546
67	0xbd209271	-0.039202157
68	0xbf0b5eb7	-0.544414
69	0xbf470eb2	-0.777568
70	0x3f1ba450	0.60797596
71	0x3e724bb2	0.23661688
72	0xbe8af97f	-0.27143475
73	0xbf46a5fb	-0.77597016
74	0xbe89ec61	-0.26938155
75	0xbf0233c5	-0.50860244
76	0x3b890099	0.0041809794
77	0xbd39a1a5	-0.045320172
78	0x3f2c28f3	0.67249984
79	0xbd53ba81	-0.051691536
80	0xbddd322d	-0.10800586
81	0xbcea84f2	-0.028627846
82	0xbe4b1106	-0.19830713
83	0x3db917a6	0.09037714
84	0xbe443872	-0.19162157
85	0xbe928da7	-0.28623697
86	0xbf35cb53	-0.71013373
87	0xbf3b03e7	-0.7305283
88	0xbe6c57b7	-0.23080336
89	0xbebb0a23	-0.3653117
90	0xbf03ca2e	-0.51480377
91	0x3def7f0f	0.116941564
92	0xbf0ac073	-0.54199904
93	0xbe73a5ef	-0.23793767
94	0xbedc82a4	-0.4306842
95	0x3ea19a52	0.3156305
96	0xbe90a6e2	-0.2825232
97	0x3ed671b5	0.41883627
98	0xbed72e8b	-0.42027697
99	0x3d7308f6	0.059334718
100	0xbd438808	-0.04773715
101	0xbf1d0275	-0.61331874
102	0xbc7d7169	-0.015468934
103	0xbec2968d	-0.38005486
104	0x3b30de81	0.0026988091
105	0xbe4ac875	-0.19803031
106	0xbef0d39e	-0.4703645
107	0x3cf3eccc	0.029776
108	0xbb35f82a	-0.0027766326
109	0xbf10058f	-0.5625848
110	0x3e1a5a20	0.15073442
111	0xbf06a631	-0.5259734
112	0x3e5ff7e2	0.21871904
113	0xbe0de6b9	-0.13857545
114	0x3eb1d587	0.3473322
115	0x3dae00f4	0.084962755
116	0xbdeeabe0	-0.11653876
117	0xbf428234	-0.75979924
118	0x3f1207ca	0.57043135
119	0x3e8b9f9a	0.27270204
120	0xbd618b83	-0.05506469
121	0xbe23de7c	-0.1600284
122	0xbed4b49c	-0.41544044
123	0xbdc160eb	-0.09442314
124	0xbe4e8ba1	-0.20170452
125	0x3d77f44b	0.06053571
126	0xbe0b60a4	-0.13611084
127	0x3e4a1cca	0.19737545
128	0xbefb1db9	-0.49046114
129	0xbea79824	-0.32733262
130	0xbf044589	-0.516686
131	0xbec744d4	-0.389197
132	0xbf15ee3f	-0.5856666
133	0xbec804db	-0.39066204
134	0xbeacb615	-0.33732668
135	0xbf327f5a	-0.69725573
136	0xbeb6e249	-0.35719517
137	0xbe69d3c4	-0.22834688
138	0xbe341f42	-0.17590049
139	0xbf3eeda8	-0.74581385
140	0xbdebe0ed	-0.115175106
141	0xbe1cc3e6	-0.15309104
142	0xbf149870	-0.580451
143	0xbe5e3ba5	-0.2170244
144	0x3e08bb1a	0.13352624
145	0x3ee7dd78	0.45286155
146	0xbe152f9d	-0.14568944
147	0xbf626ddb	-0.88448876
148	0xbe5e51c2	-0.21710876
149	0xbf6cb355	-0.9246114
150	0xbe90a476	-0.28250474
151	0xbeb9bc9c	-0.3627671
152	0x3ebd3741	0.36956218
153	0xbeb727d3	-0.3577257
154	0xbe8c6548	-0.2742102
155	0xbeefd91a	-0.46845323
156	0xbe3d7a7c	-0.18503755
157	0x3e9b2cea	0.30307704
158	0xbf5397c0	-0.8265343
159	0x3d4c508c	0.049881503
160	0x3ea90369	0.33010414
161	0x3ed4605b	0.41479763
162	0xbe928fcc	-0.28625333
163	0xbe2be03c	-0.16784757
164	0xbf220088	-0.6328206
165	0xbe9b8f54	-0.30382788
166	0xbf00f2f2	-0.50370705
167	0x3e70c0cb	0.23511045
168	0xbe782f43	-0.24236779
169	0xbde1be51	-0.11022628
170	0xbf4a50e1	-0.7902966
171	0xbf33d565	-0.7024749
172	0xbe9b7f46	-0.3037054
173	0xbf0681cf	-0.5254182
174	0xbeb7032b	-0.35744604
175	0x3e3c6385	0.18397339
176	0x3e9902f3	0.29885063
177	0xbeea9adb	-0.4582127
178	0xbf5809ba	-0.8438984
179	0xba492fd8	-0.0007674671
180	0xbe6d6505	-0.23183067
181	0xbecd5396	-0.40102834
182	0x3e0bb925	0.13644846
183	0xbee3b616	-0.44474858
184	0xbedab485	-0.4271585
185	0xbd8d62e0	-0.069036245
186	0xbe6c209a	-0.23059312
187	0x3eb43279	0.35194758
188	0xbf2dfa6a	-0.67960227
189	0xbb914e02	-0.004434348
190	0xbec9492c	-0.39313638
191	0xbeaf48d8	-0.34235263
192	0xbea9b74e	-0.33147663
193	0xbd5b13e6	-0.053485774
194	0x3e8da9a3	0.27668485
195	0x3d9f53b6	0.077796385
196	0xbd026ea9	-0.031843815
197	0xbeaa40a7	-0.3325245
198	0xbf14815b	-0.5800988
199	0xbd090db0	-0.03346032
200	0xbba33d0e	-0.0049816435
201	0x3e95f4a6	0.29288214
202	0xbe425dc9	-0.18981089
203	0x3ee7d754	0.4528147
204	0xbe15d8f0	-0.14633536
205	0xbd43a57c	-0.04776524
206	0x3f00d73f	0.5032844
207	0xbee07741	-0.43840984
208	0xbd38660f	-0.045019206
209	0xbe9895b6	-0.2980172
210	0x3edbbdf2	0.42918354
211	0xbe81ee4b	-0.25377116
212	0xbf2c22c8	-0.6724057
213	0x3a78cbf8	0.0009490843
214	0xbf2c7f25	-0.6738151
215	0xbeb60d6f	-0.35557124
216	0x3e80658e	0.2507748
217	0x3e782f6b	0.24236839
218	0xbbeb55af	-0.007181845
219	0xbed40b1f	-0.41414735
220	0xbdb69e52	-0.08916916
221	0xbf28d69f	-0.65952486
222	0xbf0d0548	-0.55086184
223	0x3b5cb314	0.0033676075
224	0x3ca6aba2	0.020345513
225	0xbf2c3976	-0.6727518
226	0xbf2a318a	-0.6648184
227	0xbcdb4257	-0.026765032
228	0xbed8df20	-0.4235773
229	0xbbc7287c	-0.006077824
230	0xbe0be0e2	-0.13660005
231	0x3edeec4c	0.43539655
232	0xbe45ce27	-0.19316922
233	0x3e31f2cb	0.17377774
234	0xbf3f3421	-0.7468892
235	0xbf221097	-0.63306564
236	0x3e7f91e6	0.24958
237	0xbc674b9c	-0.014117148
238	0xbf26bb05	-0.6512912
239	0xbefd49d7	-0.49470398
240	0xbdad0c87	-0.08449655
241	0xbf09a3db	-0.5376565
242	0xbf094b43	-0.53630465
243	0xbf0f6eb9	-0.56028324
244	0xbef75bda	-0.48312265
245	0xbf04ba08	-0.5184636
246	0x3ca4fefd	0.02014112
247	0x3e86be57	0.26317093
248	0xbef7bf77	-0.48388264
249	0x3e336fed	0.17523165
250	0xbf629e3c	-0.88522696
251	0x3eddd886	0.43329257
252	0x3d5d904f	0.0540927
253	0xbed05e8a	-0.40697128
254	0x3e093b47	0.13401519
255	0xbf31eadf	-0.6949901

l2.weight f4 [200, 400]
0	0xbd34829e	-0.04406988
1	0xbe9cbc5d	-0.3061246
2	0xbef475a8	-0.47746015
3	0x3e1a2e39	0.15056695
4	0xbf074595	-0.5284055
5	0x3f17e756	0.59337366
6	0x3dabd3cc	0.083900064
7	0xbe9bff31	-0.30468133
8	0xbf25c1d8	-0.6474891
9	0xbef66867	-0.48126528
10	0xbf04f0e3	-0.51930064
11	0xbeac8edb	-0.3370274
12	0x3e6cdcab	0.23131053
13	0x3ea86854	0.32892096
14	0x3da6f850	0.081528306
15	0x3cf31527	0.029673172
16	0x3e6200c5	0.22070606
17	0xbc5ec599	-0.013596916
18	0x3e5de5d7	0.21669708
19	0xbec1a3ab	-0.3782018
20	0x3dc8cd87	0.09804826
21	0xbbf0978b	-0.007342284
22	0x3e86337f	0.26211163
23	0x3e5bfba7	0.21482717
24	0xbf17801e	-0.59179866
25	0xbed4975e	-0.41521734
26	0x3e258e28	0.1616751
27	0x3d8e2aad	0.069417335
28	0x3ebb4fa2	0.36584193
29	0x3f07290e	0.5279702
30	0xbef21fa6	-0.4728977
31	0x3dac096d	0.08400235
32	0xbd527b37	-0.051387038
33	0xbf6e2361	-0.93022734
34	0x3e75319e	0.23944709
35	0xbe852454	-0.2600428
36	0xbdf316aa	-0.11869557
37	0xbf630b9d	-0.88689595
38	0xbdf2fe76	-0.11864941
39	0xbede1edd	-0.43382922
40	0x3d65d54b	0.056111615
41	0xbed285c9	-0.41117695
42	0xbd9902f0	-0.074712634
43	0x3e33ac99	0.1754631
44	0xbe5dc1c1	-0.21655942
45	0x3df6c5b0	0.12049425
46	0xbdddbc48	-0.108269274
47	0x3e82f480	0.25577164
48	0x3f169681	0.588234
49	0x3c1b9558	0.009496056
50	0x3dbcfd00	0.092279434
51	0xbe236427	-0.15956174
52	0x3eae73b3	0.34072646
53	0x3d65b33d	0.056079138
54	0xbe477ab1	-0.19480397
55	0x3c437ee0	0.011932105
56	0xbebf503e	-0.37365907
57	0x3e8d3797	0.27581474
58	0xbed30fcf	-0.41222998
59	0xbe591228	-0.21198332
60	0x3da5e823	0.08100917
61	0x3de65bf7	0.1124801
62	0x3f3c967b	0.73667115
63	0x3fc37b27	1.5271958
64	0x3eadc0e1	0.33936217
65	0xbc7f91b4	-0.015598703
66	0xbeecd9ff	-0.46260068
67	0x3e0b349b	0.13594286
68	0xbdbc38a5	-0.091904916
69	0xbf0a6302	-0.54057324
70	0xbee26d74	-0.4422413
71	0x3ebc9c59	0.36838034
72	0xbf296ae7	-0.66178745
73	0xbe0cd658	-0.1375364
74	0xbd61554f	-0.055012997
75	0xbe66f142	-0.2255297
76	0x3f2ec5b6	0.6827043
77	0x3e5fd0b1	0.21856953
78	0xbef1c626	-0.47221488
79	0x3e5dc082	0.21655467
80	0xbe9ff5b8	-0.31242156
81	0xbe55f06b	-0.20892493
82	0xbee44296	-0.4458205
83	0x3e3b266a	0.18276373
84	0x3e0dbe0e	0.13842031
85	0x3ddcce7b	0.107815705
86	0x3ecb0084	0.3964883
87	0x3e832c78	0.25619864
88	0xbe3520ce	-0.17688295
89	0x3f5c19b7	0.8597674
90	0xbf8085f2	-1.0040877
91	0xbe83a6e3	-0.25713262
92	0xbd36d861	-0.04463995
93	0x3f09cdce	0.5382966
94	0xbf13d960	-0.5775356
95	0xbdda3d5b	-0.10656234
96	0x3e59a87f	0.21255682
97	0x3e1b472f	0.15163873
98	0xbe928401	-0.28616336
99	0x3cbab5f7	0.022791846
100	0x3e1e5d06	0.15465173
101	0xbfb22fb3	-1.3920807
102	0x3f56b080	0.8386307
103	0x3dca6263	0.09882047
104	0x3f4255b9	0.7591205
105	0xbe8f7c29	-0.28024414
106	0xbf235efd	-0.63816816
107	0xbe905c06	-0.28195208
108	0x3e45f45a	0.19331494
109	0xbdd8321a	-0.10556431
110	0x3eb9c3db	0.36282238
111	0xbea8c0bc	-0.32959545
112	0x3de97d51	0.11400855
113	0xbe7b12d5	-0.24518903
114	0x3e0b215e	0.13586947
115	0x3e01c073	0.1267107
116	0xbecc5db0	-0.39915228
117	0x3e30f9a4	0.1728273
118	0xbc389039	-0.011264854
119	0x3c950319	0.018189954
120	0x3be619c4	0.0070221145
121	0xbeef18ed	-0.46698704
122	0x3def65f4	0.11689368
123	0x3f04cb7a	0.5187298
124	0xbebcf135	-0.36902776
125	0x3de29d17	0.11065119
126	0xbf3a122a	-0.72683966
127	0x3d9189aa	0.071063355
128	0xbe5b551e	-0.21419188
129	0x3e8403b6	0.2578408
130	0xbedeb35d	-0.43496218
131	0x3ed86f3f	0.42272374
132	0x3d2ce4d7	0.042210426
133	0xbe102d4e	-0.14079782
134	0x3e40b660	0.1881957
135	0xbf2d5fe3	-0.67724437
136	0xbf198ee2	-0.59983647
137	0x3d8bd8ec	0.06828484
138	0x3e509e92	0.2037299
139	0xbe0b5af7	-0.13608919
140	0xbddc1d58	-0.107477844
141	0xbd84debe	-0.06487797
142	0xbfae67ef	-1.3625468
143	0x3d47dc11	0.048793856
144	0x3daf6bcb	0.08565482
145	0xbea6088d	-0.324284
146	0x3d1c0a9e	0.038096063
147	0xbf923a0a	-1.1423962
148	0xbe070825	-0.131867
149	0xbf4310df	-0.7619762
150	0x3d0a3bbf	0.033748385
151	0xbf1a69af	-0.6031751
152	0x3d5905d9	0.052984092
153	0x3d8d3ea4	0.068967134
154	0x3e75418d	0.23950787
155	0xbf775e9d	-0.96628743
156	0x3e282126	0.16418895
157	0x3dae38c7	0.08506923
158	0xbe30a313	-0.17249708
159	0x3e3ad94a	0.18246952
160	0xbe508c86	-0.20366105
161	0xbd3fe0c2	-0.046845205
162	0xbe853d0a	-0.26023132
163	0xbd2f1637	-0.042745795
164	0x3e006bc1	0.12541105
165	0x3ed8d783	0.42351922
166	0x3e55d657	0.20882545
167	0x3eac627a	0.33668882
168	0xbcc11b73	-0.02357266
169	0x3ea9a20d	0.33131447
170	0x3eb2b6d6	0.34905118
171	0xbdebd5a2	-0.115153566
172	0x3de293b7	0.110633306
173	0xbd904fba	-0.07046457
174	0x3e0f12b9	0.13971986
175	0xbd0476d4	-0.032339886
176	0x3e788d9d	0.24272771
177	0x3c49f6c2	0.012326898
178	0x3ed78b51	0.42098477
179	0x3f3e1fdd	0.7426737
180	0xbde84925	-0.11342076
181	0xbf9e30e4	-1.235867
182	0x3e88a0b4	0.26685107
183	0xbe9a1d12	-0.30100304
184	0x3e808465	0.2510101
185	0x3ecf2f6a	0.40465862
186	0xbe9d5cc3	-0.30734834
187	0x3f141326	0.5784172
188	0x3ef32deb	0.4749597
189	0xbeb85ee1	-0.36009887
190	0xbda6b2c8	-0.081395686
191	0xbdb49def	-0.08819186
192	0xbf0e6cb4	-0.5563462
193	0x3e35531c	0.17707485
194	0x3dbabbd9	0.0911786
195	0x3ea8b70e	0.3295216
196	0xbf11cab4	-0.56949925
197	0xbeaec51d	-0.3413476
198	0xbe6b9c30	-0.230088
199	0xbe16cdd2	-0.14726952
200	0x3e1bdde5	0.15221365
201	0xbed75aca	-0.42061454
202	0xbe9587b4	-0.29205096
203	0x3e2b57d3	0.16732721
204	0x3edbc8c1	0.429266
205	0x3e520818	0.205109
206	0x3e221da8	0.15831625
207	0x3c846e7a	0.01616596
208	0xbf0604c5	-0.5235103
209	0xbe02a3ac	-0.12757748
210	0xbd37b10e	-0.044846587
211	0xbe756dea	-0.2396771
212	0xbe5d575c	-0.21615356
213	0x3f002860	0.5006161
214	0xbf159837	-0.58435386
215	0xbeb84736	-0.3599183
216	0xbf11a6b0	-0.5689497
217	0x3e137f46	0.1440402
218	0x3f308587	0.68953747
219	0x3d50c6f2	0.05097098
220	0xbec735c2	-0.389082
221	0xbf40c981	-0.7530747
222	0xbef708d7	-0.48248932
223	0x3e21dd58	0.15807092
224	0xbeaa071c	-0.3320855
225	0xbea16626	-0.31523246
226	0xbeb03104	-0.34412396
227	0x3db7bb62	0.08971287
228	0xbe6ae1ba	-0.2293767
229	0x3ec59bb1	0.38595346
230	0x3e0da833	0.13833694
231	0xbecf0880	-0.40436172
232	0xbd12db5f	-0.03585374
233	0xbea9102e	-0.33020157
234	0x3e227562	0.1586509
235	0xbe1f84d0	-0.15578008
236	0x3e952c14	0.2913519
237	0x3dc05318	0.09390849
238	0xbe1d6a1c	-0.15372509
239	0x3d5bff2f	0.05371016
240	0x3eb10899	0.34576872
241	0x3edb682f	0.42852923
242	0x3ef6b794	0.48186934
243	0x3d49629d	0.04916631
244	0x3a65dc91	0.00087685237
245	0x3eb584eb	0.3545297
246	0xbef8df38	-0.48607802
247	0xbc0165a7	-0.007897771
248	0xbecb18e8	-0.3966744
249	0x3d9b3ce6	0.07579975
250	0xbf36162d	-0.7112759
251	0xbcf10f94	-0.029426374
252	0xbf003aa9	-0.5008951
253	0xbe888cac	-0.26669824
254	0xbf0eed00	-0.55830383
255	0xbf27a003	-0.65478534

l2.bias f4 [200]
0	0x3e39f602	0.18160251
1	0xbd2eeba4	-0.042705193
2	0xbd895757	-0.06706112
3	0xbd2b8de3	-0.04188336
4	0xbe70a80f	-0.2350161
5	0xbe09f72c	-0.13473195
6	0xbc73980c	-0.014867794
7	0xbd1cd3c8	-0.038287908
8	0xbf16ada5	-0.5885871
9	0xbe3267e1	-0.17422439
10	0xbbab0df7	-0.0052201706
11	0xbdaebdf0	-0.085323215
12	0x3eb97935	0.36225286
13	0xbc471523	-0.0121510355
14	0xbe77e712	-0.2420924
15	0x3c0c62c3	0.0085684685
16	0xbce74403	-0.028230673
17	0xbd68ce3b	-0.0568373
18	0xbe29c1bb	-0.16577809
19	0x3d3e7e61	0.046507243
20	0xbe576e01	-0.21038057
21	0x3e3f40c1	0.18677045
22	0xbf32cb9d	-0.6984194
23	0xbd60ad07	-0.05485251
24	0x3e0c9d8a	0.13731971
25	0x3ce83b43	0.02834857
26	0xbe173cab	-0.14769237
27	0xbd40742f	-0.0469858
28	0xbc765b49	-0.0150364125
29	0x3b8b331a	0.004248035
30	0x3d2d26a6	0.042273186
31	0xbdf0335e	-0.117285475
32	0xbdd396e0	-0.103315115
33	0x3d307505	0.04308035
34	0xbd375ea7	-0.044768002
35	0xbdd995e4	-0.106242925
36	0x3ec24515	0.3794333
37	0xbe0ccb44	-0.13749415
38	0xbe196e1f	-0.14983414
39	0xbd49490a	-0.04914192
40	0xbead6a3a	-0.33870107
41	0x3ebbc426	0.36673087
42	0xbdb998ba	-0.090623334
43	0xbd57aab7	-0.05265304
44	0x3e0e6b34	0.13908082
45	0x3ebce731	0.36895135
46	0xbeda823e	-0.42677492
47	0x3d0bc9a7	0.034127858
48	0xbe38171a	-0.17977563
49	0x3dc35b21	0.09538866
50	0xbe8de253	-0.27711734
51	0xbe88ae80	-0.26695633
52	0x3c9f39f5	0.019436816
53	0xbca5c8f7	-0.020237429
54	0x3cab69e1	0.02092451
55	0xbcf64e46	-0.03006662
56	0xbd3f2d92	-0.04667432
57	0x3d4c07cb	0.04981212
58	0x3e07ee91	0.132746
59	0xbbcaff00	-0.006194949
60	0xbe3e2896	-0.1857017
61	0x3d084c52	0.03327591
62	0x3c8b5e02	0.0170126
63	0xbd6511a5	-0.05592503
64	0x3c5785b6	0.013154438
65	0xbec0894a	-0.37604743
66	0xbd1495a1	-0.03627551
67	0xbddadab5	-0.10686246
68	0x3cb8e42a	0.022569735
69	0xbdc7399b	-0.09727784
70	0xbc9f8862	-0.019474212
71	0xbd40920a	-0.047014274
72	0x3e73c4bc	0.23805517
73	0xbd299f12	-0.041411467
74	0xbbc8efdb	-0.0061321086
75	0x3d5e2590	0.05423504
76	0xbdb261da	-0.0871007
77	0xbe1538c0	-0.1457243
78	0xbe86b449	-0.26309422
79	0xbdba68bc	-0.09102008
80	0x3d26a77a	0.04068706
81	0xbe11e0e6	-0.14245948
82	0x3caad58a	0.020853776
83	0x3e0b16d3	0.13582925
84	0xbd154b0d	-0.036448527
85	0xbe033efa	-0.12816992
86	0xbd8749ed	-0.06605897
87	0x3cc3992c	0.023876749
88	0x3bffef06	0.0078104762
89	0x3eebc5cb	0.46049342
90	0xbc874b12	-0.016515289
91	0x3db8e960	0.09028888
92	0x3bbf3a76	0.0058358265
93	0x3e6339e6	0.22190055
94	0xbdb3ab4c	-0.08772907
95	0xbec8c560	-0.39213085
96	0x3e1fed89	0.15617956
97	0xbdc1bfff	-0.094604485
98	0xbc245d58	-0.0100320205
99	0xbdf8392e	-0.12120281
100	0x3def0edc	0.11672756
101	0x3b3cdd3a	0.0028818385
102	0x3c64da25	0.013968025
103	0xbd65248a	-0.05594305
104	0x3cac62ac	0.021043144
105	0xbebbfe2e	-0.3671736
106	0x3c321964	0.010870311
107	0xbe27cec5	-0.1638747
108	0x3d015a71	0.031580392
109	0xbe1f452e	-0.15553734
110	0xbe0aa33d	-0.13538833
111	0xbd9d6ebf	-0.07687139
112	0x3b6bf60a	0.0036004805
113	0x3d4915cd	0.049093056
114	0x3e159090	0.14605927
115	0x3e31b893	0.17355566
116	0xbe32874b	-0.17434423
117	0x3d8d0e51	0.06887496
118	0x3cef6145	0.029221186
119	0x3e92c9dc	0.2866963
120	0xbec7c18a	-0.39014846
121	0xbd1ca112	-0.038239546
122	0xbe1d9278	-0.15387905
123	0x3e9956e3	0.29949102
124	0xbcc02f3e	-0.023460027
125	0xbcbcba0f	-0.023037938
126	0xbdb14344	-0.08655408
127	0xbd78584e	-0.06063109
128	0x3b50bf85	0.0031852436
129	0xbc93ab01	-0.018025877
130	0xbe07a6f4	-0.13247281
131	0x3db93f3f	0.09045266
132	0xbd77fcea	-0.060543932
133	0xbba167f3	-0.004925722
134	0xbbd3d2e4	-0.006464349
135	0x3e8dd4e1	0.27701476
136	0x3c68ebaa	0.014216343
137	0x3c11b0ea	0.008892277
138	0xbe6adf5f	-0.22936772
139	0xbd40a510	-0.047032416
140	0x3db16427	0.08661681
141	0x3eb2ad58	0.34897876
142	0x3e426623	0.18984275
143	0xbd117a8b	-0.035517257
144	0x3b9c902c	0.004777929
145	0x3d7b8a1d	0.061411012
146	0xbc8acac6	-0.016942393
147	0x3e9aff5c	0.3027295
148	0xbc9184e6	-0.017763566
149	0xbe4de658	-0.201074
150	0x3d79d3a5	0.060992856
151	0x3d9e4a18	0.07728976
152	0xbcc4ab8e	-0.024007585
153	0x3c0826e7	0.008310056
154	0x3d2391a0	0.0399338
155	0xbc8c411c	-0.01712089
156	0x3de03703	0.10947993
157	0xbe0cf99d	-0.13767095
158	0xbd850384	-0.06494811
159	0xbdf4609a	-0.11932488
160	0xbd1be7f4	-0.038063005
161	0xbda6a0bd	-0.08136127
162	0x3d8cc080	0.06872654
163	0x3ead4b8b	0.33846697
164	0x3de06825	0.10957364
165	0x3e2e6b1e	0.1703305
166	0x3d3c3a83	0.04595424
167	0x3c96995a	0.01838367
168	0xbedacbf2	-0.42733723
169	0xbe16c3ff	-0.14723204
170	0xbed7e7b9	-0.42168978
171	0xbe1ada00	-0.15122223
172	0xbc74cf7f	-0.014942049
173	0x3e71cad3	0.23612528
174	0xbe33c5ca	-0.1755592
175	0x3e6c1b14	0.23057204
176	0xbc10ed39	-0.008845621
177	0x3c58cb28	0.01323203
178	0xbd7cb892	-0.061699457
179	0x3d61dbbb	0.055141192
180	0x3e30d084	0.17267042
181	0xbd0483e7	-0.032352354
182	0x3dd45c3b	0.10369154
183	0xbe7f44ed	-0.24928637
184	0x3e96cee9	0.29454735
185	0x3ce491d8	0.027901575
186	0x3d81471e	0.06312393
187	0x3e03b97a	0.12863722
188	0xbd77c986	-0.060494922
189	0x3d1205e8	0.035650164
190	0x3edb06d2	0.4277864
191	0xbda00b31	-0.078146346
192	0xbe00f20d	-0.12592335
193	0xbf5e2a44	-0.8678324
194	0xbce7400a	-0.028228778
195	0xbdfa1b79	-0.12212271
196	0xbd5b6301	-0.053561214
197	0x3c7dc006	0.0154876765
198	0x3cb08e20	0.021552145
199	0x3e186c52	0.14885071

l3.weight f4 [4, 200]
0	0x3ea1ca33	0.31599578
1	0xbe91ce9f	-0.28477952
2	0xbeb8a849	-0.3606589
3	0x3ea3dc22	0.32003886
4	0x3ce0b5c9	0.027430432
5	0xbe7b9159	-0.24567164
6	0xbb999a6b	-0.0046875975
7	0x3e75fa5a	0.24021283
8	0xbeff93ba	-0.49917394
9	0xbeb669ed	-0.3562769
10	0x3d6c5381	0.057696823
11	0xbec0694b	-0.37580332
12	0xbf8b5920	-1.0886574
13	0xbca66b3c	-0.020314805
14	0xbf0357db	-0.5130593
15	0x3d597344	0.05308844
16	0xbc20ee04	-0.009822372
17	0x3d8b57cd	0.06803856
18	0xbf0204f1	-0.5078879
19	0x3f2a27ad	0.6646679
20	0xbe823e22	-0.2543803
21	0xbe8a6c43	-0.27035722
22	0xbf189e3f	-0.59616464
23	0xbd7e12d9	-0.062029693
24	0xbeb8e726	-0.36113852
25	0x3e3ba1e8	0.18323481
26	0x3eceb6ed	0.40373936
27	0x3ecee0d5	0.40405908
28	0x3ed06aa9	0.40706375
29	0xbf0c5f31	-0.5483275
30	0x3f974777	1.1818684
31	0xbe8099ad	-0.25117245
32	0xbd824a7c	-0.06361863
33	0xbd3ca29e	-0.04605352
34	0x3d73ec83	0.059551727
35	0xbe96fe03	-0.2949067
36	0x3ee9da73	0.45674476
37	0xbebddca4	-0.37082398
38	0xbefb9279	-0.49135187
39	0x3dea8a7d	0.11452196
40	0xbf13be7f	-0.5771255
41	0x3f504a4b	0.8136336
42	0x3ea141de	0.31495565
43	0xbea26e1f	-0.3172464
44	0xbe495213	-0.19660215
45	0x3f12376f	0.57115835
46	0xbf14c580	-0.5811386
47	0xbe6de08c	-0.23230189
48	0xbe5feb9a	-0.21867219
49	0xbe7389c7	-0.23783027
50	0xbe8da15b	-0.27662167
51	0x3e83cf65	0.25744167
52	0xbdbd3574	-0.09238711
53	0xbe8277d0	-0.25482035
54	0xbe7453cd	-0.23860092
55	0x3d26a46d	0.040684152
56	0x3d12f9d0	0.03588277
57	0xbd446ef3	-0.047957372
58	0x3f9d2ff1	1.2280256
59	0xbd5d26d2	-0.0539921
60	0xbf2826f6	-0.6568445
61	0x3d756845	0.059913892
62	0xbe52dc37	-0.20591818
63	0x3c5ae736	0.013360789
64	0x3ca93786	0.020656358
65	0xbf15ccb6	-0.5851549
66	0xbe9070a0	-0.28210926
67	0x3e5abf23	0.21361975
68	0x3d94289a	0.07234307
69	0xbf063eec	-0.5243976
70	0x3e4e7cac	0.20164746
71	0x3d306cc6	0.043072484
72	0x3e2fa831	0.17154004
73	0xbf06e776	-0.5269693
74	0xbcfb0c8a	-0.030645628
75	0xbde3195f	-0.110888235
76	0xbe391e80	-0.18078041
77	0xbda5feb8	-0.08105224
78	0xbf57b09b	-0.84253854
79	0xbebbdb6f	-0.36690852
80	0xbe4ccd20	-0.20000124
81	0x3db5595b	0.08854934
82	0xbca5f1ff	-0.020256994
83	0xbe68beb9	-0.22729005
84	0xbd5920f2	-0.053009935
85	0xbdf54f32	-0.11977996
86	0xbb839e54	-0.004016677
87	0xbe7fa507	-0.24965297
88	0xbe814704	-0.25249493
89	0x3f11d29b	0.56961983
90	0x3be9cd62	0.0071350792
91	0x3f0b6c43	0.5446207
92	0xbca0f4af	-0.019647924
93	0xbf1bd5c2	-0.60873044
94	0xbe0a5b23	-0.13511328
95	0xbf3a2ec8	-0.7272763
96	0xbec8dbe2	-0.39230257
97	0xbd0132e3	-0.03154267
98	0xbe226c29	-0.15861572
99	0x3ebf83bc	0.37405193
100	0x3fc18ef6	1.5121753
101	0x3dcdca9f	0.100484125
102	0xbd5bc894	-0.053658083
103	0xbec43390	-0.3832059
104	0xbf1da691	-0.61582285
105	0xbf82cc94	-1.0218682
106	0x3b8c9194	0.004289815
107	0x3f7c85a2	0.9864141
108	0xbd16469a	-0.036688425
109	0x3e83b31c	0.25722587
110	0xbed7ac03	-0.42123422
111	0xbe188eb6	-0.1489819
112	0xbeacd6f0	-0.33757734
113	0xbea61248	-0.32435822
114	0xbe1be4e9	-0.15224041
115	0x3980f72e	0.00024598226
116	0xbeb90666	-0.36137694
117	0xbd884821	-0.066543825
118	0x3dd9a04a	0.10626276
119	0x3ed789e4	0.4209739
120	0x3f5714d9	0.84016186
121	0x3e71b25f	0.236032
122	0x3ee445fa	0.44584638
123	0x3ed2af0a	0.4114917
124	0xbe8f4086	-0.27978915
125	0x3e856cf2	0.2605968
126	0xbe17fce9	-0.14842571
127	0x3d82a690	0.063794255
128	0x3e7247d2	0.2366021
129	0xbf1de0cb	-0.6167113
130	0x3eba9fe3	0.3645011
131	0xbef49c94	-0.4777571
132	0x3d1cb9fd	0.03826331
133	0x3f23d1b0	0.6399183
134	0x3ce37267	0.027764512
135	0x3fa94c22	1.3226359
136	0x3d9eca7d	0.07753465
137	0x3e83fece	0.25780338
138	0x3e8c0153	0.2734476
139	0xbd96acdf	-0.07357191
140	0xbe5a82a0	-0.21338892
141	0x3f8f5ac6	1.1199577
142	0xbeef1279	-0.4669378
143	0xbe86ddaf	-0.26341006
144	0xbd6ff8df	-0.05858695
145	0xbe8cb017	-0.27478096
146	0x3c3ffd13	0.011718052
147	0x3f010b1b	0.5040757
148	0xbdb0d43c	-0.086342305
149	0xbe87f91b	-0.2655724
150	0x3cb5f3b9	0.022210943
151	0xbdfed432	-0.12442817
152	0x3d621704	0.05519773
153	0x3d6cb700	0.05779171
154	0x3bca5a54	0.0061753187
155	0x3e872e28	0.26402402
156	0x3f2b52aa	0.6692301
157	0x3f1e1ddf	0.6176433
158	0x3d66a3c7	0.056308534
159	0xbeb6a0fa	-0.3566969
160	0xbe709b2d	-0.23496695
161	0xbe52a6dd	-0.20571466
162	0xbe6ec251	-0.23316313
163	0x3f3d9b01	0.7406464
164	0xbe7a1199	-0.24420775
165	0x3e9e149c	0.308751
166	0xbf34cd8b	-0.70626134
167	0xbf2d91e2	-0.67800725
168	0xbeeb48ac	-0.45953882
169	0x3ecab6d7	0.3959262
170	0xbf9fff77	-1.2499837
171	0xbd2d26ab	-0.042273205
172	0x3f2fc3d1	0.6865817
173	0x3ea2246e	0.3166842
174	0xbe408182	-0.18799403
175	0x3d2e68d3	0.042580437
176	0xbdbae436	-0.09125559
177	0x3ca7651d	0.020433957
178	0xbe8876b3	-0.2665306
179	0x3eaf5043	0.34240922
180	0xbeb17bbe	-0.3466472
181	0xbe9cd5ca	-0.30631858
182	0xbea95a7d	-0.3307685
183	0xbe983224	-0.29725754
184	0x3ecc27a2	0.39873987
185	0xbe98054e	-0.29691547
186	0xbeca61d6	-0.39527768
187	0xbec61125	-0.38684955
188	0xbe932924	-0.28742325
189	0x3f89f717	1.0778531
190	0x3f01c04f	0.50684065
191	0xbc299677	-0.010350815
192	0xbf19a3aa	-0.60015357
193	0xbf28fc5b	-0.66010064
194	0x3cc844e4	0.024446912
195	0x3fe28c3f	1.769905
196	0xbefe4640	-0.49662971
197	0x3cd875c2	0.026423339
198	0xbe0d55ab	-0.13802211
199	0xbe9a74ee	-0.30167335
200	0x3e1bef93	0.15228109
201	0xbe8061af	-0.25074527
202	0xbed3aa6d	-0.41340962
203	0x3ccf975e	0.025340732
204	0xbf66a8a8	-0.901011
205	0xbd832143	-0.064028285
206	0x3d8ae112	0.0678121
207	0x3e95c3b8	0.29250884
208	0xbee32b5c	-0.44369018
209	0xbe99e57a	-0.3005789
210	0x3cce29ba	0.025166381
211	0xbe8a189f	-0.2697191
212	0xbf2f1c70	-0.6840277
213	0x3cb34d17	0.021887345
214	0xbf0ff64c	-0.56235194
215	0xba8aba3b	-0.0010584065
216	0x3cb857a2	0.022502724
217	0x3d600251	0.05468971
218	0xbed67e65	-0.41893306
219	0x3f25d027	0.6477074
220	0xbe8031b1	-0.25037912
221	0xbf06486c	-0.52454257
222	0xbee61a52	-0.44941956
223	0x3cbe96db	0.023265293
224	0xbe96a76f	-0.29424617
225	0x3e20f54e	0.15718576
226	0x3ec15b18	0.37764812
227	0xbdf820f2	-0.12115659
228	0x3eb0e6c6	0.34551066
229	0x3dc902c8	0.098149836
230	0xbd228021	-0.039672974
231	0xbef65494	-0.48111403
232	0xbd67b0bb	-0.056565028
233	0xbd260042	-0.04052759
234	0x3d8b438e	0.067999944
235	0xbe686633	-0.22695236
236	0x3f0c97e1	0.5491925
237	0xbed441fb	-0.4145659
238	0xbeb2ff59	-0.3496044
239	0x3e2756b1	0.16341664
240	0x3d520572	0.051274724
241	0x3f65bf21	0.89744765
242	0x3f100d31	0.5627013
243	0xbe74f0b1	-0.23919941
244	0xbe862571	-0.2620044
245	0x3f185b58	0.5951438
246	0xbf22f45d	-0.6365412
247	0xbe704249	-0.23462786
248	0xbe9901c5	-0.29884163
249	0xbe1ea23a	-0.15491572
250	0xbe99aac8	-0.30013108
251	0x3ea93c25	0.330537
252	0x3d584957	0.052804317
253	0xbe90f2f8	-0.2831037
254	0xbe2f6712	-0.17129162
255	0x3d6134ba	0.054981925

l3.bias f4 [4]
0	0x3ecf04d0	0.4043336
1	0x3f1b3727	0.6063103
2	0x3e20ba8c	0.15696162
3	0x3e20ca5f	0.15702198
