fin/DDQN/agent-300-10-442/model.pt (torch, 340231 bytes, 6 tensors)

l1.weight f4 [400, 8]
00000000: 0604 4bbe 0fa3 b33e 7cdb 483e 3ac0 c13e
00000010: 89c4 22bf 6a56 3dbe fb2d a3bd 83bc 4dbe
00000020: 6f13 533f b817 46be 873e 8e3e 612f 0540
00000030: 4aec 89bd 0388 04be c3c2 4f3f a22d 8abf
00000040: 163f 4a3e 4c49 4b3e 6004 6b3e 81a3 e33e
00000050: d326 783e bbad 553f 6e5c 6e3f 45e4 8dbf
00000060: 1f6d a53b 4509 0f3e e5b5 a03d 2686 47bf
00000070: 39a8 873e eb41 883d 99a5 803c f9fc 793d
00000080: 380d 1bbf b674 c63e 122f ddbe 176a 223f
00000090: 62cf 583f f62b 933f 55f9 40be 7de5 0abf
000000a0: 4b3c 9abe 0de1 2abe b02e 30be 6bc9 5dbf
000000b0: b74b debe e7f8 163e fff5 3cbd f067 c13e
000000c0: 7ce3 1f3f 8430 0b3e 868e a5be 6a7c ac3e
000000d0: 9ca5 263f ca5d 80bd 70e6 823f b047 0cbf
000000e0: e45d 66bf e190 ce3e 44ae 5dbe 85c1 263f
000000f0: 803b 8b3f 2de1 093f 755d 36be c2df c0bd
00000100: e5bf 5d3e f61f bebd 3e5f 44bd dfd9 c23e
00000110: bd22 0e3e eec8 04bf d1c6 293d 7ffd ebbf
00000120: 7528 97bc aa5e 79bd 88df 31bf f4d0 88bc
00000130: 8a6d 3a3f f92f 4ebd 8b98 a0bd 84d6 d6be
00000140: cda4 bebe 41ea bb3e 8213 583d 2cb1 dfbd
00000150: 879d 28be c7c5 403e 6bde 3cbe 9ce5 653e
00000160: 1783 f3bc 6e00 5c3d 03b6 5f3f b7af 893e
00000170: ef85 50bd 0bbd 803f 9b49 7abb b536 d53e
00000180: 142a 11be 20ec 74bf 4252 1fbf 94dc 99bf
00000190: d532 12be 7e64 d23e eb71 873f 24dd 93bf
000001a0: 8008 1a3f 0ad1 b13b 241c b43e 7bed 4c3e
000001b0: 632c 9a3f d0d7 9a3d 6c34 6c3e f3eb 4fbf
000001c0: d44f cbbe 0f22 023d be32 52bf 883b cf3d
000001d0: dc1d 993f f177 363e fe20 82bf 5b04 57be
000001e0: 60bf 953e 3330 963e 936a 8c3c 2930 abbe
000001f0: a64b c43e bb61 693e 6097 163e fc1e 3cbf
00000200: aab4 4a3f 3718 05be fdee 7f3e 8ed9 8e3e
00000210: 7665 033f 2888 a5be 3cd1 433f c13c 43bf
00000220: ce7a 303d 6e62 1a3f 6f27 753c 0136 4dbe
00000230: 8c19 fe3c 547a be3b 532c 16be 35bc c4bc
00000240: 9736 573d c763 663e 6f84 39be b77e aa3e
00000250: 7329 76be 227e 7e3f eeea 96be 3f05 89bf
00000260: 55be 3a3e cb12 6c3d d0f1 5a3e 634d c2bd
00000270: d9e4 e2be 5fc8 62be e476 96bf 11e1 82be
00000280: fa19 0dbf ebbb 893e 749b 693e d4d7 e03e
00000290: 30fd 803f 466f 9a3e 7943 a03f d176 f3bd
000002a0: 2f3c 033e 312e c83d 804c 703e d161 9d3e
000002b0: 8e97 29bf df43 023f bbfd a7bc 296b 52bf
000002c0: b003 1b3f 7131 47be a67e 543e 4a98 4dbe
000002d0: 4df8 743f b65c 00be 596d 54bf 3e19 123e
000002e0: 28a9 38be 0c08 2d3e 5b71 623e 01f8 603d
000002f0: 362f 0e3d 75e1 293d a5eb 22bf 8a5d 61be
00000300: 4d65 8e3f cb0c a03d da19 803f 2796 1c3f
00000310: 80cf 8e3f aa55 1d3f 9fc7 0d3d c307 353e
00000320: 2b03 943f 4fcc 673e c1f3 123f eed6 743b
00000330: 8e46 dabe a200 cfbd e50c 163d c197 ecbb
00000340: e3f7 8fbe 9fc2 153d 486a 6dbe 43aa a1bd
00000350: 8451 2a3f 0ef7 323f eec3 2cbe afb5 b6be
00000360: 7cd4 59bf db91 87be fc65 84bd 8451 e1be
00000370: 358f b33d 22ca 263f 6cf1 d53d bdb1 1ebf
00000380: 8f27 35bf 5e0d 9cbd ea33 153d 200c 5d3e
00000390: 6ca1 42be 6826 0a3d 294e 24bf 39f8 19bf
000003a0: 39a1 78bf 7934 063e c6a1 95be c738 44bf
000003b0: 874d c5be 77b9 fd3d 9310 63bf d886 bebf
000003c0: ffcb b8bd 4dae 063f bada 013d 041b 48be
000003d0: 4565 5bbe 183b 97be 8d15 0bbf 36ab a1bd
000003e0: 4e4a 34bf 04eb 083f 0331 a5ba 3645 10bf
000003f0: dfdc c4be c132 a03e 8e75 eebe 5460 a4bf
-0.19825754 0.3508534 0.19614977 0.3784197 -0.6358114 -0.18489996 -0.079677545 -0.20091443
0.8245153 -0.19344985 0.2778208 2.0810168 -0.06734522 -0.1294251 0.8115656 -1.0795176
0.19750628 0.1985218 0.22950888 0.4446068 0.2423356 0.83468217 0.93109787 -1.1085287
0.0050484086 0.1396838 0.07847194 -0.7793907 0.2649553 0.06653198 0.015703963 0.06103227
-0.60567045 0.38760918 -0.43199974 0.6344313 0.8469144 1.1497791 -0.18845113 -0.5425642
-0.30124125 -0.16687413 -0.1720531 -0.86635464 -0.4341714 0.14743386 -0.046133038 0.3777461
0.6245649 0.13592726 -0.323353 0.3368867 0.6509645 -0.06267889 1.0226574 -0.54796886
-0.89987016 0.4034491 -0.21648508 0.6513904 1.0877533 0.53859216 -0.17809089 -0.094176784
0.21655233 -0.0928344 -0.047942393 0.38056847 0.13880439 -0.51869094 0.04144937 -1.8436736
-0.018451909 -0.060881294 -0.69481707 -0.0167012 0.72823393 -0.05033872 -0.07841595 -0.41960537
-0.37235108 0.3670216 0.05275298 -0.10922465 -0.16466342 0.18825446 -0.1844422 0.2245087
-0.029725594 0.053711347 0.873871 0.26891872 -0.05090898 1.0057691 -0.0038190845 0.416433
-0.14176208 -0.956728 -0.6223489 -1.202044 -0.14277203 0.41092294 1.058164 -1.1551862
0.6016922 0.0054265307 0.3517772 0.20012467 1.2044796 0.07560694 0.23066872 -0.81219405
-0.39709342 0.031770762 -0.82108676 0.101187766 1.1962237 0.17819192 -1.0166318 -0.20997755
0.2924757 0.29333648 0.017140662 -0.3343518 0.38338965 0.22791187 0.14706182 -0.7348478
0.7918192 -0.12997518 0.2499351 0.27900356 0.5132669 -0.3233044 0.7649114 -0.7626458
0.043085866 0.6030644 0.014963015 -0.20040132 0.031018041 0.0058129225 -0.14665346 -0.024015525
0.052542295 0.22499 -0.18116926 0.332998 -0.24039249 0.99411213 -0.29476112 -1.0704726
0.18236668 0.05763511 0.21381307 -0.094874166 -0.44315222 -0.22146748 -1.1755033 -0.25562337
-0.5511776 0.26901183 0.22813207 0.43914664 1.0077267 0.3016302 1.2520591 -0.11887897
0.12815927 0.09774435 0.23466682 0.3073869 -0.6624688 0.50884813 -0.02050673 -0.82194763
0.605525 -0.19452454 0.20751438 -0.20077625 0.95691377 -0.12535366 -0.8297935 0.14267442
-0.18033278 0.16897601 0.22113554 0.054924015 0.034712993 0.04147478 -0.63640815 -0.22008339
1.1124665 0.0781494 1.0007889 0.61166614 1.1157074 0.6145884 0.0346142 0.17678742
1.1563467 0.22636531 0.5740319 0.0037359553 -0.42631954 -0.101075426 0.03663339 -0.007220239
-0.2811881 0.03656256 -0.23185074 -0.07893803 0.6653063 0.69908226 -0.16871616 -0.3568549
-0.8508985 -0.26478466 -0.064647645 -0.44007504 0.08767549 0.6515218 0.10446438 -0.6198996
-0.70763487 -0.07619737 0.036426462 0.21586657 -0.1900689 0.033728033 -0.6418176 -0.6014438
-0.97121006 0.13105954 -0.29224986 -0.76649135 -0.3853571 0.1238889 -0.88697165 -1.4884901
-0.09023284 0.5260971 0.031702735 -0.19541556 -0.2142535 -0.29537272 -0.5432976 -0.07893984
-0.7042588 0.53483605 -0.0012603108 -0.5635561 -0.3844976 0.31288722 -0.46574062 -1.2841897

l1.bias f4 [400]
00000000: 0e52 77bf 7055 11bf 272a edbe 2c27 9e3d
00000010: b06e ad3e 1892 c23e 40a1 e93e 7bba bf3e
00000020: b815 55bf bf98 21bf 53c4 fdbd 1cd7 d6be
00000030: e2e5 9bbe 8411 b63d db4f 1b3d a068 f0bd
00000040: 5015 b3be 144e c7bd 1472 293e f266 c43d
00000050: 9b3d f33e 6788 403d 0a25 9f3d 6989 dfbe
00000060: 145a 1fbd 44a1 61bd 43e1 3d3e 7ed5 cebe
00000070: 2686 94be 3a95 8e3e d3f6 17be 8fcd 90bd
00000080: b77f 273e 15ee 893e fd22 4dbf 4f13 6e3e
00000090: 7ec4 013f cbb3 c13e c744 19bf 67c9 a4bf
000000a0: a078 02bd 1a5a 333e 4efe ef3e 6a81 59be
000000b0: d8f0 b23e 02e0 cbbc f4db 57bf ba92 543c
000000c0: ec67 22be ff5a 71bb 096c 8a3d 336a 6fbe
000000d0: dafa e3be 2851 f33d 4d17 b43c 44db 5c3d
000000e0: 519a 1bbf d2c5 8f3e 92d8 fdbe a9c1 0b3e
000000f0: 64a4 28bd 4130 c6be dbe0 c9be ef72 22be
00000100: 3d21 133f c96d ebbe be56 46bf fe92 01bf
00000110: c263 99be 2859 80be 1f05 10bf a9f4 d13d
00000120: 05fb 493d 1a1a c13e 82b3 b9be cab8 4cbc
00000130: 201f 263e 11e1 733e 3d99 b6be bbd2 afbe
00000140: 9317 dcbe 462d 8bbd 41d3 27be 0351 e5bc
00000150: d4f6 c63d 4c2d fcbd bfe2 edbd 2c27 38bc
00000160: b1f7 fabe 8c2a 95bf 65b9 a1bc 18e8 84be
00000170: 2f67 9e3e 2c05 543e b7bb 5e3d 1375 dbb9
00000180: 33bf 1cbe 38a7 a23d 54e8 1a3e 3ed9 413e
00000190: 40b1 313e 1ff1 88be 911e 8f3c 3259 00bc
000001a0: 3d61 d5be 1c06 663e 37ab bf3d cee7 b2be
000001b0: 960e 64be f63a 62bc 7ed2 543e 7eea 28bf
000001c0: 2442 7e3e f1da aebe b649 c13a 4cfe a9be
000001d0: 6dbf 8a3e 7419 0abf df54 92bd 222a 3cbf
000001e0: ce34 3b3e 1822 943d 6d1f 92bf a9cc 06be
000001f0: e749 9f3e 50bf 64bc 30dc c13d 082c d5bd
00000200: 42f3 c0be be87 7c3e f14b 34bd 995a 5cbe
00000210: a9b1 09be c911 d3bd 0fb9 d6be 890e ffbe
00000220: c1e0 083f f470 b0bc 56b7 36be 73dd 813e
00000230: c3fd 0b3e 069d 19bf a95d 69be 1484 9bbd
00000240: 37c8 45bf b12d dcbe 8095 5bbe 2db7 37bf
00000250: 8af0 23be 3877 82be 8630 803e c8f1 e13e
00000260: 7c18 95bb 981e 983e d54b 6bbd a864 23bf
00000270: d5a0 783e 8f8a 82bc 7bf4 55be 693f 3cbf
00000280: 6f5f 123d a518 d53c e5f4 653e c73c 24bd
00000290: 42d4 5abf 911c babe 54f4 963e 6a26 18bf
000002a0: fd3b 953e 8640 e53a 7d1b ae3c 1723 77be
000002b0: f674 00bf 8bd5 6a3e 13f3 a1be 3bcf c8be
000002c0: 897f 303e 0f34 0a3e 369e 363e 5c84 e5be
000002d0: 2ef7 1bbd 8c67 cebe 8ca2 dabe 3717 83bd
000002e0: 28b5 1ebc 686a 0f3b de85 6c3e 36ae fcbb
000002f0: 171c 6b3b fcd0 b03d 429d 91be 781d 68bf
00000300: 263d 2cbe 680a a6be 50c9 ca3d ad6b 0fbc
00000310: a5c1 b33d c3e5 b7bd 6d8a 513e b200 2f3e
00000320: 8df3 243e 6a99 c5be 6547 d7bd 9a0c c73e
00000330: b6df 51be 9630 903e f1f1 0b3f 43b6 193e
00000340: a63d bc3e c501 e3bd c206 ef39 21f9 3cbe
00000350: f8ce 313e 5963 bfbb 28a1 2c3f 8e92 af3e
00000360: f144 c2be f732 b8be 0e29 f2bd 59ab 4abe
00000370: eaf9 db3d 87de 5fbd 2bb0 ec3c b51f cb3e
00000380: 8611 2f3e d06c 883e 64ff 11be c66f 1ebf
00000390: ce26 62be a305 253b 98d7 4c3e 5183 933e
000003a0: bb91 373e 249e 573d bb42 053e 7a4f ea3b
000003b0: d3d8 b13d 7ca8 e8be 3125 00bf f3b4 c0be
000003c0: 435d a8bd d948 a5be 04be 23be aed0 b83c
000003d0: 600c 31bd 0570 533e 0674 e6bd 5e5f febe
000003e0: 3fb4 15bf 42ba 2b3e 2576 a2be 3c86 c6be
000003f0: 7e0c cabd 4da6 f73e 791b f8be e71b 64be
-0.9660958 -0.5677099 -0.46321222 0.07722315 0.3387351 0.38002086 0.45630836 0.3744696
-0.83236265 -0.631237 -0.123909615 -0.4196099 -0.30448824 0.088900596 0.037917953 -0.11738706
-0.34977198 -0.09731689 0.16547424 0.09589948 0.4750794 0.047005083 0.077707365 -0.43659523
-0.038904265 -0.055085436 0.18542962 -0.40397257 -0.29008597 0.27848226 -0.1484025 -0.07070457
0.16357313 0.26939455 -0.8013151 0.23249553 0.5069045 0.37832484 -0.5987057 -1.2873963
-0.03185332 0.1751484 0.46873707 -0.21240774 0.34949374 -0.024887089 -0.84319997 0.012974435
-0.15859956 -0.003682792 0.06758887 -0.23380356 -0.44527322 0.11880714 0.021983767 0.053920045
-0.60782343 0.28080612 -0.49579293 0.13648094 -0.0411724 -0.3870869 -0.39429364 -0.15864156
0.5747259 -0.45982197 -0.7747611 -0.5061492 -0.29958922 -0.2506802 -0.56257814 0.10251743
0.049311657 0.37715226 -0.36269766 -0.012495229 0.16222811 0.23816325 -0.35663787 -0.34340462
-0.42986736 -0.067957446 -0.1638918 -0.027992731 0.097150475 -0.12313327 -0.11615514 -0.011239808
-0.490171 -1.1653609 -0.019741723 -0.25958323 0.30938098 0.20705098 0.054378238 -0.00041858162
-0.15307312 0.07942051 0.15127689 0.18930528 0.17352772 -0.2674646 0.01747063 -0.007833766
-0.4167575 0.22463268 0.093588285 -0.34942478 -0.22271189 -0.013808003 0.20783421 -0.65982807
0.24829918 -0.34151414 0.0014746699 -0.33201826 0.2709917 -0.5394509 -0.07145094 -0.7350179
0.18281862 0.07233065 -1.141584 -0.13164009 0.3111107 -0.013961628 0.094658256 -0.10408789
-0.3768559 0.24661157 -0.044017736 -0.21518935 -0.13446678 -0.103061266 -0.41938064 -0.49815777
0.5346795 -0.021538235 -0.17843375 0.25364265 0.13671021 -0.60005224 -0.22789635 -0.07593551
-0.7725863 -0.4300361 -0.21443748 -0.7176388 -0.16009727 -0.25481582 0.2503702 0.44129777
-0.004550038 0.2971084 -0.057445366 -0.63825464 0.24280103 -0.01593521 -0.20894043 -0.73534256
0.035735544 0.026012728 0.22456701 -0.040097024 -0.8548013 -0.3634992 0.29483283 -0.59433615
0.2914733 0.0017490543 0.021253342 -0.2413448 -0.5017847 0.22933023 -0.31630763 -0.39220604
0.17236151 0.13496421 0.1783379 -0.44827545 -0.038077526 -0.40313375 -0.42702138 -0.06400912
-0.009686746 0.0021883491 0.23097941 -0.0077111972 0.0035874897 0.086336106 -0.2844029 -0.90669966
-0.16820201 -0.32429814 0.099016786 -0.008753699 0.08777169 -0.089793704 0.20462961 0.17090109
0.16108532 -0.38593608 -0.10511664 0.38876802 -0.20495495 0.28162068 0.5466605 0.15010934
0.36765784 -0.11084322 0.00045590667 -0.1845441 0.17364109 -0.0058407006 0.67433405 0.342915
-0.37943223 -0.35976383 -0.11824237 -0.19791926 0.10741027 -0.054655578 0.028892597 0.39672628
0.17096528 0.26645517 -0.1425758 -0.618893 -0.22085115 0.0025180362 0.20004117 0.28811124
0.17926686 0.05264105 0.13013737 0.0071505876 0.08683934 -0.45441043 -0.5005675 -0.37638053
-0.08220913 -0.3228214 -0.15990454 0.022560444 -0.043224692 0.20648201 -0.112525985 -0.49682134
-0.5847816 0.1677027 -0.31730762 -0.38774288 -0.09865664 0.48369065 -0.4845846 -0.22276269

l2.weight f4 [200, 400]
00000000: f1d3 353d b72c 183d 16a5 943c 072d 88bc
00000010: aefa 323d af24 51bd 59a1 9abc df42 4bbd
00000020: efc3 c1bc 8332 e0bc df43 83bb 0f3c 913b
00000030: 3b4f fcbb 3129 44ba 54e5 873c 34f1 b13c
00000040: 5f4a 853b e374 76bd 18f4 d0bb ad29 e2bc
00000050: 86e5 2d3d 422a 763b 3b36 7b3c 71b1 7abd
00000060: 7f9e ec3a 9eb1 1bbd 4095 b63b e959 adbc
00000070: 8e5b ba3b 4d4b 1d3d 616a 83bb e726 0dbb
00000080: 6598 88bc 0e68 b43c 9229 25bd 5c27 ef3b
00000090: 0278 5bbc 2e62 b1bc 28bf 093d 32b9 b03c
000000a0: 39df 0ebd 3317 3dbd 67d3 07ba dd50 3fbd
000000b0: 4f5a 0a3d 9225 c63c a5b9 06bd f279 1bbc
000000c0: 6b39 5b3c dd9c 693b 1489 5fbc dfdf 223d
000000d0: 9375 2a3d 88e0 8b3c 60fe 00bd d336 14bd
000000e0: aff2 893c c49b 6db9 a07e 6fbd 1a44 3cbd
000000f0: 817e 883c 847d f1bc 08fb 20bc 560c 32bd
00000100: 936d 013d 76bb 1fbc 5b2c eebc efa2 83bc
00000110: 0235 d0bc 52a8 9ebc 256f 33bd 20e0 af3b
00000120: aa5f e43c f613 8f3c 4d59 b73c b2e5 983b
00000130: 305e f03a 4ca5 043d 27dd a3bc 2c84 3bbd
00000140: 61c5 31bd c753 f63c 8a68 9abc 2b61 45bd
00000150: 8f68 19bd 89b2 2abc 5c24 60bd d220 8b3c
00000160: e931 423d 0640 23bd 9445 4cbd 660c df3b
00000170: 6aa2 20bb 2b74 463b f0d8 173a 82c1 c93c
00000180: 20f6 ecbc f38e b2bc 561d 21bc 807a 603b
00000190: ab20 99bc d1bc aabc 897d a33c 9d83 063c
000001a0: a426 7f3c b285 043d b703 a33c 2868 75bc
000001b0: ac9b 50bd 3113 5d3c 891a cfbb b6a7 1ebc
000001c0: da88 8dbc cf06 8abc bfe5 c1bc 0143 de3c
000001d0: 15f0 7fbb f523 d03c 9c35 d13c 48b3 78bd
000001e0: c09e 28bd 4304 be3c b5c5 00bd 87db 21bd
000001f0: 84d8 2f3d 4166 023d 0695 32bd 4f00 81bd
00000200: 3899 b3bc 4a17 153d 7882 2f3c 402e ab3a
00000210: d07b e7bc 8d56 49bd 7890 783b 279b 80bd
00000220: 6035 103c 294f eabb e688 063d c806 73bd
00000230: f032 07bd 1725 ecbc 679b c53c 993d 42bc
00000240: b902 093d 35bb cb3c 9efb 973c fefc 66bc
00000250: 806a 2a3c e2ba 0b3d 74ce e3bb 5857 3a3d
00000260: f09d 8dbb 6a06 9fbc 3072 ac3c 979c 083d
00000270: 1809 f6bc 3ff9 2ebd 6785 fe3c eeeb 19bc
00000280: 4715 86bc 397a 86bc 0920 04bd 3f4a f43c
00000290: 8fa3 1cbd e0d1 733c a7d1 173d d529 08bd
000002a0: 8339 48bd 9fc6 14bd 9094 d73b 222f 0e3d
000002b0: a4ce 9c3c 811e f5bc 6ef2 213c 9940 663c
000002c0: 99b9 e83c 06f1 383c f480 db3c b46b 233c
000002d0: e4bf ebba 7236 3abc 969d e03c cc53 99bb
000002e0: 0c95 0ebd c155 483c 98ae 9fbb 65d0 d6ba
000002f0: 86dc 0dbb f454 d53c ab7e 0a3d 5ce6 023c
00000300: 5116 413d 3ac5 45bd ae08 e3bc 1e80 15bd
00000310: f92e 31bd 9f9d b03c 5a29 0d3d e9fa f03c
00000320: 140b 443c 65aa 2cbd 8de5 79bd 4866 1abc
00000330: 26bf d63c 89cf 0abb 6952 c9bc 166a 52bc
00000340: 70bf 99bc 26e2 8d3c 0b13 66bd b561 3e3c
00000350: 9c6b f43c 61a0 a83c b838 c5bc c35a 6cbb
00000360: db7b 99b9 53ab bcbc 7d1f f1bc 7eab 27bc
00000370: 96ed 0bbd a034 77bd 6940 61bd adb1 1e3d
00000380: b23e 3ebc 7f16 e5bb 7170 473c e8fb ab3c
00000390: c66b 47bd 6650 643c 673f f6bc a61f ee3c
000003a0: 362b 5ebd a463 713c 2b40 47bc d5c8 78bd
000003b0: 3fc8 13bc c3ab 023d ed7d fbbc 9258 b43c
000003c0: a116 81bb df01 aabc c979 0d3d 9cac 33bd
000003d0: 47b1 e0bc 0a7b a3bc 7b02 2f3c aa61 62bc
000003e0: a43a 6dbd 03f1 233d 7381 333d 95b9 69bc
000003f0: 6051 efb9 4579 45bd d760 96bc d508 853c
0.044391576 0.03715202 0.018145125 -0.016623033 0.043696098 -0.051060375 -0.018875765 -0.04962432
-0.023652999 -0.027367836 -0.0040058936 0.0044322084 -0.0076998747 -0.00074829446 0.016588844 0.02172146
0.0040677036 -0.060170066 -0.0063767545 -0.027607763 0.04245522 0.0037561809 0.015332754 -0.061204378
0.0018052607 -0.038011186 0.005571991 -0.021161037 0.0056871837 0.03840189 -0.004010484 -0.002153808
-0.01667423 0.022022273 -0.040322848 0.007298393 -0.013395311 -0.021653261 0.033629566 0.021572683
-0.03488085 -0.046164703 -0.0005181343 -0.046707977 0.03377753 0.024187837 -0.03289189 -0.009489523
0.013380389 0.0035646476 -0.013643522 0.03976428 0.041616034 0.017074838 -0.03149259 -0.036185097
0.016839353 -0.00022660109 -0.05847037 -0.045963384 0.016661884 -0.029478796 -0.0098254755 -0.043468796
0.03159864 -0.009749284 -0.029073885 -0.016068904 -0.025415901 -0.01936737 -0.043807168 0.005367294
0.027877647 0.017465573 0.02238145 0.0046660537 0.0018338617 0.032384202 -0.020002915 -0.045780346
-0.043401126 0.030069245 -0.018848676 -0.04818837 -0.03745323 -0.010418543 -0.054722175 0.016983423
0.04741088 -0.03985598 -0.049871042 0.006806898 -0.0024510869 0.0030281644 0.0005792519 0.024628405
-0.028925955 -0.02179668 -0.009833654 0.0034252703 -0.018692335 -0.020841988 0.01995732 0.00821009
0.0155731775 0.032354064 0.019899232 -0.014978446 -0.05092971 0.013493345 -0.006320302 -0.00968354
-0.01727717 -0.01684895 -0.023669122 0.02713156 -0.0039053012 0.02540777 0.025538258 -0.06071785
-0.04116702 0.023195392 -0.031438548 -0.039516 0.042931095 0.0318358 -0.04359915 -0.06298887
-0.021923646 0.036399163 0.0107122585 0.0013060048 -0.02825728 -0.049154807 0.0037927907 -0.06279593
0.008801788 -0.00715055 0.0328454 -0.05933264 -0.033007562 -0.02882628 0.024121953 -0.011855506
0.033449862 0.02486954 0.018552598 -0.014098404 0.010401368 0.034113772 -0.0069521014 0.045493454
-0.004321806 -0.019412238 0.021050543 0.03335246 -0.030033633 -0.04271817 0.03106947 -0.009394629
-0.016367568 -0.016415702 -0.032257114 0.02982056 -0.03824192 0.014881581 0.037065174 -0.03324302
-0.048882972 -0.036322232 0.0065789893 0.034712918 0.019141503 -0.029921772 0.00988446 0.014053487
0.028408812 0.011287933 0.026794888 0.009974409 -0.0017986265 -0.01136552 0.027418893 -0.004679179
-0.03481011 0.012227477 -0.004873108 -0.0016389011 -0.0021646335 0.026041485 0.033812206 0.007989492
0.047140423 -0.048283793 -0.0277141 -0.036499135 -0.043257687 0.021559535 0.034463264 0.029416518
0.011965532 -0.04215469 -0.061009932 -0.0094238 0.026214194 -0.002118083 -0.024575429 -0.012842676
-0.018768042 0.01731975 -0.056170505 0.011619975 0.029836468 0.020584287 -0.024074897 -0.003606484
-0.00029274714 -0.023030913 -0.02943396 -0.010233758 -0.034162126 -0.06035292 -0.054993067 0.038743664
-0.011611627 -0.006991207 0.012172804 0.020994142 -0.048686765 0.013935184 -0.03005953 0.029067826
-0.054240428 0.014733229 -0.012161295 -0.060738403 -0.00901991 0.031902086 -0.030699695 0.02201489
-0.003939465 -0.020752845 0.03453997 -0.043865785 -0.027428282 -0.01995613 0.010681744 -0.01381723
-0.057917252 0.04002477 0.043824624 -0.014265438 -0.0004564626 -0.048211355 -0.018356724 0.016239563

l2.bias f4 [200]
00000000: 0089 cd3b 2a06 4d3e a7ff 6c3c 1c4e 6ebd
00000010: 04c7 98bd 6f3c 25bd c98d 35bd 492f 2dbe
00000020: 6782 b8bd ccf2 303f b925 82bc b356 12be
00000030: d874 1e3e c93d aabc d95d 70bd 3d4f 02bc
00000040: 3fe2 ebbc f9a8 1ebd 7d20 373e ff1b bfbc
00000050: 91ce ef3c a100 fd3b 7937 9fbe 4d3a 16bd
00000060: 856f e0bd a3fc 953d 0d00 2ebe 1b37 0bbd
00000070: 5fb8 80bd c395 0a3e 8be0 b8bd 93a4 ebbc
00000080: 35f5 7b3e 2aa5 ca3d 8f0a 383e d496 00be
00000090: 7c0e ad3a c34d 183e 7851 2bbd 8818 483e
000000a0: 94a3 003c 0e5c 1a3e caae 8e3e bab3 333e
000000b0: fc01 333e 8dc1 36bc 2365 8d3e 814a c6bd
000000c0: 622d 00be 50c6 52bd 3add 90bd 0e4b 32bd
000000d0: ba9a 3dbd 3ac6 74bd 4c62 37be eeda aebd
000000e0: eaec 54bd 1dcf 16be 10c0 a4bc c642 8dbd
000000f0: 33f4 13be 659d 10be 2cfe 92bd d5d0 ba3d
00000100: b774 37be 610e ec3c ef14 85be 416d 5f3e
00000110: 0044 3bbe c204 893c 5c1c 8c3b 86f6 d6bc
00000120: 84f9 db3d 3ee2 0cbe c61c 01bd f6f5 5c3e
00000130: 5038 bd3d 41e2 66be 2f8e 4dbe bc5d 9cbc
00000140: a4bd 0bbd 7ad1 75bc b879 7cbd 4ee6 283e
00000150: e6bd cfbd 849b 9bbd d193 3d3e 6de0 123d
00000160: 401b c3bc afa1 72bd 1d7e f3be 3a79 0bba
00000170: 5f1f 733d 5e20 593c 8c13 813d ec75 003d
00000180: 7911 04be 626b 8ebd 1510 94bd 30c9 d7bc
00000190: 8fc9 34bd 8f25 4dbc 428f fcbd 1ba0 473d
000001a0: fe93 25be fe86 bd3c 340a bbbd 43e1 3abe
000001b0: 2878 633b fb86 413e ca3a 46bd 86cd 793c
000001c0: b6ac 25be 0f7d 84bd dbd6 1fbd dc3b cb3d
000001d0: bc3a 03bd b329 473e 03fc 24be 86a2 91bd
000001e0: 7105 c3bd a793 a53d 9150 9abb 7391 56bd
000001f0: f452 04be d070 2ebf 9610 54bd 67b8 33be
00000200: 9385 f8bc 9be2 8a3d faa3 b2bd 1091 b9bc
00000210: 72d3 31be 3201 423e b39c a0bc b4c2 18be
00000220: ba88 f5bd 4364 9dbd 0341 86be 7719 953e
00000230: 8557 6b3e 49d9 f13d afa0 d83c 6daa d3bd
00000240: 4253 02be 3810 0f3e 1b45 abba b87a 783e
00000250: a1c6 31bc f8e4 94bc 4b3b dcbd 1abc 223e
00000260: 1489 50bd 8419 7b3e e603 b03c 3388 b03c
00000270: 4d57 063e d605 ffbe 0231 fa3c 559a adbd
00000280: 6007 103e 6f17 3abd caf8 3dbe 8b57 3a3e
00000290: e354 12bd 51cf e0bd 10c1 a7bc a561 0abe
000002a0: 7383 463d 4d71 c23e 882e 04bd 3926 c33c
000002b0: eb5e 923c 383c 79bd b370 02bd 3cbf 193d
000002c0: 27dd 44be cd57 fa3d 52eb 5ebc abf1 423e
000002d0: f151 823d 56ca d1bd 18cf b8bd d5d4 233d
000002e0: d58a 183c 5c74 93bd b16f 73bd 2958 5ebd
000002f0: e525 9c3d 843a f6be 2cfd 2f3e 23da 21bb
00000300: 3257 06be aadf 25be 9981 3d3e a537 d7bd
00000310: 7b36 a4bc baca 223e a055 d93c e368 1ebd
0.006272435 0.20021883 0.014465249 -0.05817996 -0.07459834 -0.040340837 -0.04432467 -0.16912569
-0.09009247 0.6912048 -0.015887128 -0.14290886 0.1547426 -0.020781415 -0.05868325 -0.007953462
-0.028794406 -0.038735364 0.17883487 -0.02332878 0.029273303 0.0077210222 -0.3109701 -0.036676694
-0.10958771 0.07323577 -0.16992207 -0.0339881 -0.06285166 0.13533692 -0.09027203 -0.028764999
0.24605258 0.09894784 0.17972778 -0.12557536 0.0013203169 0.14873414 -0.04182574 0.19540608
0.0078515 0.15074179 0.27867728 0.17549029 0.17481226 -0.011154545 0.27616224 -0.09682179
-0.12517312 -0.051458657 -0.070734456 -0.04352861 -0.046290137 -0.059759356 -0.17908591 -0.08537851
-0.05198375 -0.14727445 -0.020111114 -0.06897502 -0.14448623 -0.14122541 -0.07177386 0.09121863
-0.17915617 0.02881545 -0.25992534 0.21819021 -0.18287659 0.016725902 0.0042758416 -0.026240598
0.10740951 -0.1375818 -0.03152158 0.21578202 0.092392564 -0.22547247 -0.2007377 -0.019087665
-0.034116402 -0.015003556 -0.061639518 0.16494104 -0.10143642 -0.075980216 0.18513419 0.03585856
-0.023816705 -0.059236225 -0.47557154 -0.00053204934 0.05935609 0.013252346 0.063025564 0.03136246
-0.1289729 -0.069540754 -0.0722963 -0.02634105 -0.044137534 -0.012521162 -0.12332012 0.048736673
-0.16169736 0.023135658 -0.091328055 -0.18249993 0.003470907 0.18899147 -0.04839591 0.0152467545
-0.16179165 -0.064691655 -0.03902326 0.09923527 -0.032038435 0.194495 -0.1611176 -0.07111077
-0.09522522 0.08084803 -0.0047093113 -0.052384805 -0.12922269 -0.6814089 -0.05177363 -0.17550813
-0.03033713 0.06781503 -0.08722682 -0.022652179 -0.17365816 0.18945768 -0.01960597 -0.14918023
-0.11988969 -0.07685139 -0.26221475 0.2912099 0.22982605 0.11809022 0.026443807 -0.103352405
-0.12727073 0.1397103 -0.001306686 0.24265563 -0.0108505795 -0.018175587 -0.10753497 0.15892068
-0.050911978 0.24521452 0.021486234 0.02154932 0.1311924 -0.4980914 0.030540947 -0.08476702
0.14065313 -0.045432504 -0.18551937 0.18197457 -0.035725486 -0.109770425 -0.020477802 -0.13513811
0.048465203 0.37977067 -0.03227094 0.023821937 0.017867526 -0.060848445 -0.03184576 0.03753589
-0.19224988 0.12223778 -0.013605909 0.19037502 0.06363285 -0.10243671 -0.09023875 0.039997894
0.009310444 -0.07199928 -0.05943269 -0.054283295 0.07624415 -0.4809152 0.17186421 -0.002469667
-0.131192 -0.16198602 0.18506469 -0.1050866 -0.02004551 0.15897647 0.026530087 -0.038674247

l3.weight f4 [4, 200]
00000000: 262c bcbc 849c b93e 8925 cbbe e4e5 18bf
00000010: 8bf6 8bbe b1a1 82be f88b 39bc a20f 01bf
00000020: 8ace 97be d02c 1c3f bb76 dfbe 558f 97be
00000030: fac3 77be f676 043f b237 873d efb7 febe
00000040: 5298 343d fa90 04be 5c62 cd3e cc45 77bd
00000050: abfa c7be ea73 84bd bef4 7b3e ec0b 7cbd
00000060: 664c bfbe 85de a5be b250 fa3e ccca dabe
00000070: 4683 c9bb ebbd d33e 1b0a 8cbe 1da7 48bd
00000080: ea8f 043f 720c a93e 050a b6be f2be 65be
00000090: e95a 113d 7339 be3f 9a84 85bd 5c90 783e
000000a0: 2ee7 5abd 021d c33e 54d8 c0be 49f1 15bf
000000b0: a53e b83e e59c 2b3b d50a 033f 8cd7 8abd
000000c0: 4e96 c8be 558d 6b3d bddd c43e 4e00 2fbd
000000d0: 471d 7fbc f42c bfbe 21f0 76be b7a5 33be
000000e0: 1688 7d3c 73f4 debd 80c6 923d a584 e7bd
000000f0: 4f8c babe 9f6a 943f ad5a 16bf 5393 3cbf
00000100: 128f a6be 09bc 01be 1db2 a5be 9de4 f13e
00000110: 741a 5f3f 6d45 9ebe c04c 07bf af77 0f3d
00000120: 9263 1dbf ed8d 293f ddf4 053d 3068 d33e
00000130: b061 aa3e 61ec 09bf c367 cfbe 6d01 353d
00000140: 3240 de3c 4353 453d 90b8 fbba bd23 b63e
00000150: f1ca d7be 7e0b c3be 6f2f 9e3e 9d75 5fbf
00000160: d32b 4b3d 42c5 b3bc fab6 27bf 1884 05bf
00000170: 9cba ecbe e1f0 a33c aa4b f1be 475c f23c
00000180: 4606 95be caf9 a7be 3c40 e0be a4c1 93bc
00000190: a235 1a3d e4fc 233c 849a 8dbe d387 08bf
000001a0: 3aa0 c0be c018 8b3e b0b9 413f 6dd0 803e
000001b0: e805 5f3f 76c9 bdbe 13ba 7fbd 47f0 16bc
000001c0: 5d07 fb3e aab2 cf3c 2f36 d73c 3ac6 3f3f
000001d0: b557 ccbe 9ca3 ff3e 4a68 80bf afc2 3cbe
000001e0: e0b6 68be f5ef 273f a9d9 e2bc 2ccd b0bd
000001f0: 2e10 96be 436e aabf 156f 2dbc 5347 a1be
00000200: def2 a23c 4446 f7be 70c5 b03f 4cd1 58be
00000210: 9c18 debe 8baa cabe 357a 2abd 09a3 8fbe
00000220: 4368 93be c681 35bf 1abe ccbe d755 63be
00000230: f0f8 fa3e 7fc6 e8be d308 40bf 342e 02bf
00000240: caad 17bf a2b4 423f 0e95 cdbe 3957 283f
00000250: e784 28bf 9355 8ebe 2405 d8be 2d4b da3e
00000260: 35e5 bdbb 6add c0be 0c43 2cbf 550d efbe
00000270: e0ad c0be 6081 03bf bb62 ab3c 7d7d 69be
00000280: 8828 1dbf 5649 20be 7614 fe3e 34b1 cb3e
00000290: e941 a83d 5772 e7be fa97 2ebf b611 36be
000002a0: 33eb 403d e5fa 13bf 28d2 03be 59cc 14bb
000002b0: c9f6 9b3b 9e76 573d 98df 75bc df7b bfbe
000002c0: 3f04 00bf 0e35 3ebf 4e4c 3d3d 382c d73e
000002d0: de55 ecbe d046 233e 6d5d 04bf d40a aabe
000002e0: 5e8f b9bc cec2 9bbe 50cb 033f a5ec fbbc
000002f0: 80f3 77bd 1936 2c3f 2eaf c03e 0e99 9f3c
00000300: a676 c2be c743 12bf febb 8e3f b330 f3be
00000310: 0aed dd3c 3adb ab3e 214b 7a3d 88c2 3dbf
00000320: 5c8a 54bd f34c 9b3e e32f c6be 5e72 0ebf
00000330: 56ed c9bd 1bdf 09be a6d7 c1bc 90c7 1ebf
00000340: 4b66 9abe f793 4c3f a519 e2be dd38 c6be
00000350: 79bd fcbe 4dfc 0d3f 4fb4 33bd 2cb9 0abf
00000360: 7c47 2abd 1ddc 65bc aa40 de3e 4792 7d3d
00000370: 3bd7 43bf b475 a93b 7064 363f d585 82bc
00000380: 9711 bbbe 9ab3 babe a146 273f 4270 ccbe
00000390: 4ac9 cdbc abda b43e 5118 a6be 3414 8d3d
000003a0: efdb c63e 3e07 393e 34c6 6dbe 989e 83be
000003b0: fe3e 8d3d b4e1 ba3f 4708 23bd 0024 ad3e
000003c0: b397 ba3b 3762 a93e 19f6 a7be 7638 f5be
000003d0: 717f 0f3f 73cb 5f3d b6d9 063f cd25 02be
000003e0: 8e87 debe 4039 77bd ae73 d43e ac3e 333d
000003f0: feb8 71bd 8471 98be 8daf c6be f9c1 a1be
-0.02297027 0.36252224 -0.39677075 -0.59725785 -0.27336535 -0.25513986 -0.011324875 -0.5041448
-0.29649764 0.6100588 -0.43645272 -0.2960154 -0.24195853 0.5174402 0.0660242 -0.49749705
0.044090576 -0.12945929 0.40114105 -0.060369298 -0.39058432 -0.06467421 0.2460508 -0.061534807
-0.37362975 -0.3239633 0.4888969 -0.42732847 -0.006149682 0.41355833 -0.2735146 -0.048987497
0.51782095 0.33017308 -0.3555452 -0.22436121 0.03548709 1.4861282 -0.06519432 0.24273819
-0.053443126 0.3810807 -0.37665045 -0.58571297 0.35985294 0.0026186046 0.51188403 -0.067793936
-0.39177173 0.05750783 0.38450423 -0.0427249 -0.015570945 -0.37338984 -0.2411504 -0.17543684
0.01547434 -0.10886469 0.07166767 -0.11304597 -0.36435172 1.1595038 -0.5873211 -0.736623
-0.3253103 -0.12669386 -0.32362452 0.4724473 0.8714974 -0.30912343 -0.52851486 0.03502625
-0.6148006 0.66232187 0.032704223 0.41290426 0.33277655 -0.5387631 -0.4050885 0.044190813
0.02713022 0.048175108 -0.0019204784 0.3557414 -0.4214702 -0.38094705 0.30895564 -0.8728884
0.04960234 -0.021944646 -0.65513575 -0.52154684 -0.46236122 0.020012321 -0.4712804 0.029585017
-0.2910635 -0.3280776 -0.43799007 -0.018036671 0.037648804 0.010009024 -0.2765695 -0.5333225
-0.37622243 0.2716732 0.7567396 0.25159016 0.8711839 -0.37067765 -0.062433314 -0.00921256
0.49029055 0.025353748 0.026270954 0.74911845 -0.39910665 0.49929512 -1.0031826 -0.18433641
-0.22726011 0.6560052 -0.02769168 -0.086328834 -0.2930922 -1.3314899 -0.010585566 -0.3149973
0.019891199 -0.48295796 1.3810253 -0.2117359 -0.4337815 -0.3958324 -0.041620452 -0.28054073
-0.28790483 -0.70901144 -0.39988786 -0.22200714 0.4901805 -0.4546394 -0.75013465 -0.5085175
-0.59249556 0.76056874 -0.40152782 0.6575809 -0.6582779 -0.27799663 -0.42191422 0.4263548
-0.005795146 -0.37668926 -0.67289805 -0.4668986 -0.37632656 -0.51369286 0.020921102 -0.22801776
-0.6138997 -0.15652975 0.49624985 0.39783633 0.08215696 -0.45204422 -0.6820065 -0.17780194
0.047099303 -0.5780471 -0.12873137 -0.0022704809 0.0047596437 0.052603357 -0.015006922 -0.37399194
-0.5000648 -0.74299705 0.046215348 0.42025924 -0.4615926 0.15944982 -0.51705056 -0.33211386
-0.02265137 -0.30422062 0.51482105 -0.03075249 -0.060534954 0.67270046 0.37633651 0.019482162
-0.37981147 -0.5713467 1.1151121 -0.47498092 0.027090568 0.33565694 0.061106805 -0.74124956
-0.051889762 0.30332145 -0.3870841 -0.5564326 -0.09859721 -0.13464014 -0.0236624 -0.6202326
-0.30156168 0.79913276 -0.4416019 -0.38715258 -0.49363306 0.55463105 -0.043873128 -0.541888
-0.04157208 -0.01402953 0.4340871 0.06190708 -0.7650029 0.005171502 0.71247005 -0.015932957
-0.36536857 -0.3646515 0.65342146 -0.39929396 -0.025120396 0.3532308 -0.32440427 0.06888619
0.3883967 0.18069169 -0.2322014 -0.25706935 0.068967804 1.4600129 -0.039802816 0.33816528
0.0056943535 0.33082744 -0.32804945 -0.4789464 0.56053835 0.054637384 0.5267595 -0.12709732
-0.43462795 -0.060357332 0.41494507 0.04376094 -0.059014313 -0.29774106 -0.3880581 -0.31593302

l3.bias f4 [4]
00000000: 7457 3e3e c45f 633e c4d0 053e aff1 76bd
0.18588048 0.222045 0.13067919 -0.06028908
