fin/DDQN/agent-300-10-442/target_model.pt (torch, 340543 bytes, 6 tensors)

l1.weight f4 [400, 8]
-0.198987 0.3501247 0.19517407 0.37894338 -0.6353169 -0.1843344 -0.079677545 -0.20091443
0.824289 -0.19366995 0.27755994 2.0811636 -0.06729189 -0.1295858 0.81186336 -1.0795176
0.1977141 0.19790553 0.22890362 0.44474646 0.24195094 0.83429974 0.93137634 -1.1085284
0.004292468 0.13988015 0.07908531 -0.77945834 0.26424223 0.0667665 0.01586522 0.061476562
-0.60545224 0.3875388 -0.43257385 0.6341859 0.84687394 1.149579 -0.18808587 -0.5426609
-0.30211246 -0.16674116 -0.17151286 -0.866373 -0.43479952 0.14754982 -0.045896392 0.37827834
0.623261 0.1354971 -0.32423455 0.33736032 0.65133387 -0.0624803 1.0211444 -0.5489427
-0.899375 0.40335113 -0.21708904 0.6511403 1.0879875 0.5385057 -0.17860523 -0.09504554
0.21655233 -0.0928344 -0.047942393 0.38056847 0.13880439 -0.51869094 0.04144937 -1.8436736
-0.018470095 -0.06087985 -0.69477075 -0.016670056 0.7282291 -0.05031393 -0.07841595 -0.41960537
-0.37235832 0.36728868 0.052904475 -0.10954825 -0.16468379 0.18815936 -0.18440856 0.22395666
-0.029146282 0.054026723 0.8745058 0.26871303 -0.05087269 1.0065553 -0.003210588 0.41700822
-0.14101686 -0.9567593 -0.6235415 -1.201789 -0.1420112 0.41112447 1.058322 -1.1553622
0.6017779 0.005412696 0.35174555 0.19962831 1.2044315 0.07548354 0.23120388 -0.8132632
-0.39695728 0.03164942 -0.8213753 0.10032702 1.1962924 0.17810224 -1.0166318 -0.2099164
0.2921021 0.29354477 0.017813763 -0.3343767 0.3828422 0.228297 0.14663967 -0.7348478
0.79026425 -0.13111426 0.25002503 0.2793856 0.51357627 -0.32298276 0.7639606 -0.76532316
0.04305617 0.60319847 0.015592447 -0.20050956 0.03057151 0.00560949 -0.14665346 -0.024033396
0.052847162 0.22480153 -0.18197389 0.3332217 -0.24010365 0.99394363 -0.29504448 -1.0704726
0.18189822 0.057751667 0.21408956 -0.09491712 -0.4435325 -0.22163726 -1.1755033 -0.25562507
-0.55119115 0.26883453 0.22714111 0.439242 1.008566 0.3016576 1.2512338 -0.11987401
0.12773572 0.09793494 0.23461054 0.30727544 -0.6620067 0.5096164 -0.020480996 -0.82194763
0.60558367 -0.19467619 0.20713347 -0.20072766 0.9572815 -0.12545085 -0.8287657 0.14280516
-0.18033278 0.16897601 0.22113554 0.054924015 0.034712993 0.04147478 -0.63640815 -0.22008339
1.1129869 0.07789924 1.0002617 0.6121973 1.1156275 0.6131691 0.033858497 0.17607789
1.1570225 0.22643216 0.5737859 0.0038827106 -0.42593142 -0.10142961 0.0366966 -0.0072641205
-0.28096604 0.036467683 -0.23206548 -0.079238914 0.66560435 0.69882464 -0.1687382 -0.35692182
-0.8499359 -0.26540503 -0.06578035 -0.43947625 0.08825226 0.6508649 0.104166485 -0.6198996
-0.7079409 -0.07628271 0.036553726 0.21590793 -0.190141 0.033900585 -0.6418176 -0.6014438
-0.97133327 0.13125092 -0.29183978 -0.7663601 -0.3856777 0.123886324 -0.88697165 -1.4884901
-0.09043722 0.52619684 0.032134537 -0.19556977 -0.21481717 -0.29562584 -0.5432976 -0.078946486
-0.7043896 0.5350646 -0.000845992 -0.5635388 -0.3849694 0.31268737 -0.46607158 -1.2841897
00000000: 40c3 4bbe 8b43 b33e b6db 473e de04 c23e
00000010: 21a4 22bf 28c2 3cbe fb2d a3bd 83bc 4dbe
00000020: 9b04 533f 6a51 46be 561c 8e3e c931 0540
00000030: 55d0 89bd 24b2 04be 47d6 4f3f a22d 8abf
00000040: 9175 4a3e bfa7 4a3e b665 6a3e cfb5 e33e
00000050: fdc1 773e ab94 553f ae6e 6e3f 42e4 8dbf
00000060: d5a7 8c3b be3c 0f3e 7bf7 a13d 958a 47bf
00000070: c24a 873e e0bc 883d c7f7 813c d9ce 7b3d
00000080: ebfe 1abf 7c6b c63e 527a ddbe 025a 223f
00000090: bbcc 583f 6825 933f 9599 40be d3eb 0abf
000000a0: 7cae 9abe 32be 2abe 11a1 2fbe 9fca 5dbf
000000b0: 0b9e debe 4d17 173e dbfd 3bbd b3ad c13e
000000c0: 088e 1f3f c0bf 0a3e 1202 a6be 7eba ac3e
000000d0: d1bd 263f 58eb 7fbd dcb4 823f 8287 0cbf
000000e0: 713d 66bf 0a84 ce3e 974c 5ebe 21b1 263f
000000f0: 2d43 8b3f 82db 093f 4ae4 36be 3ca7 c2bd
00000100: e5bf 5d3e f61f bebd 3e5f 44bd dfd9 c23e
00000110: bd22 0e3e eec8 04bf d1c6 293d 7ffd ebbf
00000120: 994e 97bc 265d 79bd 7fdc 31bf a48f 88bc
00000130: 396d 3a3f fb15 4ebd 8b98 a0bd 84d6 d6be
00000140: c0a5 bebe 430d bc3e 5db2 583d d55a e0bd
00000150: dea2 28be d9ac 403e 99d5 3cbe e554 653e
00000160: 2fc4 eebc 204b 5d3d 9ddf 5f3f c194 893e
00000170: e25f 50bd ced6 803f ba68 52bb 1a82 d53e
00000180: b966 10be 2dee 74bf 6aa0 1fbf 39d4 99bf
00000190: 626b 11be e87e d23e 1877 873f e9e2 93bf
000001a0: 1e0e 1a3f fc5c b13b fe17 b43e 5d6b 4c3e
000001b0: d02a 9a3f 1d97 9a3d b6c0 6c3e 0432 50bf
000001c0: fc3d cbbe d2a2 013d a745 52bf 4178 cd3d
000001d0: 1c20 993f 6f60 363e fe20 82bf 53f4 56be
000001e0: 688e 953e 804b 963e 2bee 913c 6c33 abbe
000001f0: e503 c43e b0c6 693e b628 163e fc1e 3cbf
00000200: c24e 4a3f d142 06be 4803 803e a10b 8f3e
00000210: bc79 033f ff5d a5be ec92 433f 38ec 43bf
00000220: ab5b 303d 376b 1a3f 7677 7f3c 6152 4dbe
00000230: 1a71 fa3c d0cf b73b 532c 16be afe1 c4bc
00000240: 4476 583d 5f32 663e 5d57 3abe 099c aa3e
00000250: bbdd 75be 1773 7e3f 1210 97be 3f05 89bf
00000260: 8743 3a3e 038d 6c3d 4b3a 5b3e e863 c2bd
00000270: b116 e3be e1f4 62be e476 96bf 4ae1 82be
00000280: dd1a 0dbf aea4 893e ae97 683e 54e4 e03e
00000290: b118 813f dd72 9a3e 6e28 a03f 8180 f5bd
000002a0: 27cd 023e 1d92 c83d bf3d 703e 3553 9d3e
000002b0: 4579 29bf 3876 023f c3c7 a7bc 296b 52bf
000002c0: 8807 1b3f 3259 47be cc1a 543e 8d8b 4dbe
000002d0: 6610 753f 3076 00be fd29 54bf 843b 123e
000002e0: 28a9 38be 0c08 2d3e 5b71 623e 01f8 603d
000002f0: 362f 0e3d 75e1 293d a5eb 22bf 8a5d 61be
00000300: 5b76 8e3f a389 9f3d 9308 803f f6b8 1c3f
00000310: e2cc 8e3f a6f8 1c3f 35af 0a3d c34d 343e
00000320: 5019 943f d5dd 673e a2e3 123f 1375 7e3b
00000330: af13 dabe 54ba cfbd 2d4f 163d dc07 eebb
00000340: c8da 8fbe 235f 153d 93a2 6dbe 0348 a2bd
00000350: 0c65 2a3f 2ce6 323f b5c9 2cbe 75be b6be
00000360: 6695 59bf 2be3 87be d9b7 86bd 0803 e1be
00000370: 9abd b43d 159f 263f 3d55 d53d bdb1 1ebf
00000380: 9d3b 35bf 1c3a 9cbd 5cb9 153d f816 5d3e
00000390: 53b4 42be 57db 0a3d 294e 24bf 39f8 19bf
000003a0: 4ca9 78bf a466 063e 066c 95be 2d30 44bf
000003b0: 8c77 c5be 1db8 fd3d 9310 63bf d886 bebf
000003c0: 2637 b9bd d6b4 063f 819f 033d 7143 48be
000003d0: 08f9 5bbe 455c 97be 8d15 0bbf b2ae a1bd
000003e0: e052 34bf fef9 083f 90c5 5dba 1444 10bf
000003f0: b61a c5be 8f18 a03e efa0 eebe 5460 a4bf

l1.bias f4 [400]
-0.96672344 -0.5674416 -0.46339887 0.07740297 0.33886102 0.38017556 0.45566526 0.3743285
-0.83236265 -0.63128287 -0.1235067 -0.41878775 -0.30439684 0.0892847 0.03798596 -0.1172606
-0.35089514 -0.097220786 0.16535947 0.095892064 0.47482073 0.047341835 0.07786999 -0.43659523
-0.03944807 -0.054975584 0.18542118 -0.40534568 -0.28962246 0.27863514 -0.14831309 -0.07041185
0.16353318 0.26905242 -0.7991227 0.23254453 0.5067934 0.377827 -0.59800255 -1.2869649
-0.032069024 0.17523648 0.46867916 -0.21226925 0.34914836 -0.024733296 -0.84319997 0.013299125
-0.15845825 -0.0038087573 0.067717224 -0.23326492 -0.44465405 0.11900008 0.021908747 0.05414606
-0.60782343 0.28091937 -0.49670032 0.13639168 -0.041090976 -0.38715953 -0.3942451 -0.1586841
0.57488614 -0.45993152 -0.7746238 -0.50705886 -0.29958922 -0.25028977 -0.56248385 0.10250534
0.049323056 0.37739837 -0.36311442 -0.012145107 0.16232656 0.23825663 -0.35694686 -0.34296006
-0.4297599 -0.06752029 -0.16319631 -0.027818631 0.09707636 -0.123411395 -0.11623757 -0.011659236
-0.49048308 -1.165146 -0.019720564 -0.26003742 0.3093557 0.20658879 0.054130003 -0.00023613064
-0.15304652 0.07905179 0.1514813 0.18928032 0.17357723 -0.26803008 0.017828124 -0.00785228
-0.41601053 0.22375539 0.093924604 -0.34942478 -0.22263037 -0.013466017 0.20790786 -0.66022176
0.24828 -0.34152055 0.0020385 -0.33221596 0.27102745 -0.53930044 -0.071076885 -0.7350179
0.1828744 0.07213507 -1.1413776 -0.1315466 0.31122935 -0.013701242 0.094788365 -0.10464314
-0.37665534 0.2462731 -0.04372545 -0.21513104 -0.13438606 -0.10292846 -0.41913638 -0.4976426
0.53462124 -0.021471106 -0.1785584 0.25366133 0.13683255 -0.60003686 -0.22815782 -0.07642235
-0.7729707 -0.42921507 -0.21399285 -0.71690613 -0.16056366 -0.25481904 0.2503964 0.4414911
-0.004582817 0.29708916 -0.057026137 -0.63811404 0.24247473 -0.016253218 -0.20927662 -0.7355236
0.035239182 0.025726471 0.22478874 -0.040207017 -0.85468745 -0.363067 0.2947009 -0.5936388
0.29174966 0.0018732544 0.021213781 -0.24184366 -0.5021449 0.22953834 -0.31569818 -0.39275518
0.17274901 0.13511422 0.17853348 -0.44881767 -0.03785975 -0.40376502 -0.42785126 -0.064103566
-0.009767306 0.0024140994 0.2312075 -0.007460794 0.0041584997 0.08650533 -0.28436646 -0.90669966
-0.16824372 -0.32441172 0.09926431 -0.008881836 0.088001885 -0.089898214 0.20467015 0.17100696
0.16088775 -0.38629627 -0.10477438 0.38889593 -0.20519374 0.28136498 0.54645354 0.15014495
0.36765435 -0.11086925 0.0003141203 -0.18552773 0.1734944 -0.005859674 0.6743895 0.34306142
-0.379389 -0.36047915 -0.11838051 -0.19750373 0.107588544 -0.054699864 0.029604705 0.396693
0.17151262 0.2665112 -0.1421193 -0.61808574 -0.22141787 0.002671882 0.19988662 0.28821218
0.17916913 0.05252577 0.13024114 0.007175416 0.0869598 -0.45458347 -0.50130785 -0.37724626
-0.082176454 -0.3234769 -0.16107486 0.022791523 -0.04336429 0.20672476 -0.11228959 -0.49729136
-0.5849835 0.16784485 -0.31792924 -0.38773978 -0.09826258 0.48372877 -0.4842284 -0.22268097
00000000: 307b 77bf da43 11bf 9e42 edbe 7385 9e3d
00000010: 317f ad3e 5fa6 c23e f54c e93e fca7 bf3e
00000020: b815 55bf c19b 21bf 15f1 fcbd 596b d6be
00000030: e7d9 9bbe e6da b63d 2a97 1b3d 5326 f0bd
00000040: 87a8 b3be b11b c7bd fe53 293e 0f63 c43d
00000050: b41b f33e 83e9 413d 4d7a 9f3d 6989 dfbe
00000060: 4d94 21bd 142e 61bd 0ddf 3d3e 7889 cfbe
00000070: 6549 94be 44a9 8e3e 63df 17be 1734 90bd
00000080: 3e75 273e 3dc1 893e 4e93 4cbf 2720 6e3e
00000090: 36bd 013f 8a72 c13e b216 19bf 44bb a4bf
000000a0: cf5a 03bd 3171 333e b7f6 ef3e 1c5d 59be
000000b0: 93c3 b23e 7b9d cabc f4db 57bf 93e4 593c
000000c0: e142 22be 589c 79bb 54af 8a3d 00dd 6ebe
000000d0: b2a9 e3be 50b6 f33d f979 b33c 42c8 5d3d
000000e0: 519a 1bbf aad4 8f3e 814f febe 43aa 0b3e
000000f0: 034f 28bd c639 c6be 7eda c9be 167e 22be
00000100: bd2b 133f 257c ebbe bf4d 46bf 9cce 01bf
00000110: c263 99be fb25 80be f1fe 0fbf 52ee d13d
00000120: f906 4a3d 5c3a c13e 22ea b9be 45fc 46bc
00000130: ef38 263e 8cf9 733e bdc1 b6be 7698 afbe
00000140: 7d09 dcbe 1448 8abd ef1c 27be e6e3 e3bc
00000150: f8cf c63d 1dbf fcbd f70d eebd 6106 3fbc
00000160: 9920 fbbe 8123 95bf 058d a1bc a023 85be
00000170: df63 9e3e 038c 533e 6cb7 5d3d d699 77b9
00000180: 3ab8 1cbe e8e5 a13d ea1d 1b3e b3d2 413e
00000190: 3bbe 313e 3d3b 89be 490c 923c d9a6 00bc
000001a0: 55ff d4be 2220 653e 8b5b c03d cee7 b2be
000001b0: 37f9 63be 92a0 5cbc cce5 543e 4b04 29bf
000001c0: 1d3d 7e3e c8db aebe 5b98 053b 3618 aabe
000001d0: 1cc4 8a3e 980f 0abf c290 91bd 222a 3cbf
000001e0: 6d43 3b3e 8dbb 933d a918 92bf 27b4 06be
000001f0: 7459 9f3e 2d7b 60bc 6720 c23d 254f d6bd
00000200: f8d8 c0be 042f 7c3e 7519 33bd 504b 5cbe
00000210: 809c 09be 28cc d2bd 0b99 d6be 03cb febe
00000220: f0dc 083f 2ce4 afbc 03d8 36be e6df 813e
00000230: d51d 0c3e 049c 19bf 34a2 69be 5283 9cbd
00000240: 68e1 45bf 14c2 dbbe f120 5bbe 2987 37bf
00000250: cd6a 24be a477 82be f533 803e 1f0b e23e
00000260: 752b 96bb 121c 983e 3d94 69bd 715b 23bf
00000270: 4c4b 783e 7825 85bc 9c4c 56be 464b 3cbf
00000280: f656 103d 52c0 d23c 052f 663e 1db0 24bd
00000290: cccc 5abf ebe3 b9be 09e3 963e b6f8 17bf
000002a0: 3660 953e fd87 f53a 86c8 ad3c dda5 77be
000002b0: 918c 00bf 190c 6b3e 31a3 a1be 3517 c9be
000002c0: 1ee5 303e 625b 0a3e 7bd1 363e 6ecb e5be
000002d0: d312 1bbd 4aba cebe 520f dbbe bb48 83bd
000002e0: 0d07 20bc de35 1e3b a9c1 6c3e ad79 f4bb
000002f0: 0644 883b b529 b13d 7b98 91be 781d 68bf
00000300: 1548 2cbe 4b19 a6be 164b cb3d 1f85 11bc
00000310: 553a b43d 8e1c b8bd 0d95 513e 731c 2f3e
00000320: c2bf 243e a0c8 c5be f393 d6bd 5e1d c73e
00000330: 4f1e 52be 120f 903e 61e4 0b3f 99bf 193e
00000340: 313d bc3e 6b0f e3bd 83b0 a439 fbfa 3dbe
00000350: 84a8 313e 8202 c0bb caa4 2c3f bfa5 af3e
00000360: 463f c2be b990 b8be 7b71 f2bd 6b3e 4abe
00000370: 6257 dc3d f70c 60bd 9185 f23c 581b cb3e
00000380: 01a1 2f3e 2874 883e b987 11be de3a 1ebf
00000390: 5ebb 62be be1a 2f3b 14af 4c3e 8c90 933e
000003a0: 1d78 373e 4325 573d ef5d 053e c11f eb3b
000003b0: fb17 b23d 2abf e8be b655 00bf 6c26 c1be
000003c0: 214c a8bd c49e a5be cff0 24be 4ab5 ba3c
000003d0: c19e 31bd a8af 533e 16f8 e5bd f99c febe
000003e0: 7bc1 15bf 85df 2b3e 9fc7 a2be d485 c6be
000003f0: e43d c9bd 4cab f73e c9ec f7be 7b06 64be

l2.weight f4 [200, 400]
0.044391576 0.03715202 0.018145125 -0.016623033 0.043696098 -0.051060375 -0.018875765 -0.04962432
-0.023652999 -0.027367836 -0.0040058936 0.0044322084 -0.0076998747 -0.00074829446 0.016588844 0.02172146
0.0040677036 -0.060170066 -0.0063767545 -0.027607763 0.04245522 0.0037561809 0.015332754 -0.061204378
0.0018052607 -0.038011186 0.005571991 -0.021161037 0.0056871837 0.03840189 -0.004010484 -0.002153808
-0.01667423 0.022022273 -0.040322848 0.007298393 -0.013395311 -0.021653261 0.033629566 0.021572683
-0.03488085 -0.046164703 -0.0005181343 -0.046707977 0.03377753 0.024187837 -0.03289189 -0.009489523
0.013380389 0.0035646476 -0.013643522 0.03976428 0.041616034 0.017074838 -0.03149259 -0.036185097
0.016839353 -0.00022660109 -0.05847037 -0.045963384 0.016661884 -0.029478796 -0.0098254755 -0.043468796
0.03159864 -0.009749284 -0.029073885 -0.016068904 -0.025415901 -0.01936737 -0.043807168 0.005367294
0.027877647 0.017465573 0.02238145 0.0046660537 0.0018338617 0.032384202 -0.020002915 -0.045780346
-0.043401126 0.030069245 -0.018848676 -0.04818837 -0.03745323 -0.010418543 -0.054722175 0.016983423
0.04741088 -0.03985598 -0.049871042 0.006806898 -0.0024510869 0.0030281644 0.0005792519 0.024628405
-0.028925955 -0.02179668 -0.009833654 0.0034252703 -0.018692335 -0.020841988 0.01995732 0.00821009
0.0155731775 0.032354064 0.019899232 -0.014978446 -0.05092971 0.013493345 -0.006320302 -0.00968354
-0.01727717 -0.01684895 -0.023669122 0.02713156 -0.0039053012 0.02540777 0.025538258 -0.06071785
-0.04116702 0.023195392 -0.031438548 -0.039516 0.042931095 0.0318358 -0.04359915 -0.06298887
-0.021923646 0.036399163 0.0107122585 0.0013060048 -0.02825728 -0.049154807 0.0037927907 -0.06279593
0.008801788 -0.00715055 0.0328454 -0.05933264 -0.033007562 -0.02882628 0.024121953 -0.011855506
0.033449862 0.02486954 0.018552598 -0.014098404 0.010401368 0.034113772 -0.0069521014 0.045493454
-0.004321806 -0.019412238 0.021050543 0.03335246 -0.030033633 -0.04271817 0.03106947 -0.009394629
-0.016367568 -0.016415702 -0.032257114 0.02982056 -0.03824192 0.014881581 0.037065174 -0.03324302
-0.048882972 -0.036322232 0.0065789893 0.034712918 0.019141503 -0.029921772 0.00988446 0.014053487
0.028408812 0.011287933 0.026794888 0.009974409 -0.0017986265 -0.01136552 0.027418893 -0.004679179
-0.03481011 0.012227477 -0.004873108 -0.0016389011 -0.0021646335 0.026041485 0.033812206 0.007989492
0.047140423 -0.048283793 -0.0277141 -0.036499135 -0.043257687 0.021559535 0.034463264 0.029416518
0.011965532 -0.04215469 -0.061009932 -0.0094238 0.026214194 -0.002118083 -0.024575429 -0.012842676
-0.018768042 0.01731975 -0.056170505 0.011619975 0.029836468 0.020584287 -0.024074897 -0.003606484
-0.00029274714 -0.023030913 -0.02943396 -0.010233758 -0.034162126 -0.06035292 -0.054993067 0.038743664
-0.011611627 -0.006991207 0.012172804 0.020994142 -0.048686765 0.013935184 -0.03005953 0.029067826
-0.054240428 0.014733229 -0.012161295 -0.060738403 -0.00901991 0.031902086 -0.030699695 0.02201489
-0.003939465 -0.020752845 0.03453997 -0.043865785 -0.027428282 -0.01995613 0.010681744 -0.01381723
-0.057917252 0.04002477 0.043824624 -0.014265438 -0.0004564626 -0.048211355 -0.018356724 0.016239563
00000000: f1d3 353d b72c 183d 16a5 943c 072d 88bc
00000010: aefa 323d af24 51bd 59a1 9abc df42 4bbd
00000020: efc3 c1bc 8332 e0bc df43 83bb 0f3c 913b
00000030: 3b4f fcbb 3129 44ba 54e5 873c 34f1 b13c
00000040: 5f4a 853b e374 76bd 18f4 d0bb ad29 e2bc
00000050: 86e5 2d3d 422a 763b 3b36 7b3c 71b1 7abd
00000060: 7f9e ec3a 9eb1 1bbd 4095 b63b e959 adbc
00000070: 8e5b ba3b 4d4b 1d3d 616a 83bb e726 0dbb
00000080: 6598 88bc 0e68 b43c 9229 25bd 5c27 ef3b
00000090: 0278 5bbc 2e62 b1bc 28bf 093d 32b9 b03c
000000a0: 39df 0ebd 3317 3dbd 67d3 07ba dd50 3fbd
000000b0: 4f5a 0a3d 9225 c63c a5b9 06bd f279 1bbc
000000c0: 6b39 5b3c dd9c 693b 1489 5fbc dfdf 223d
000000d0: 9375 2a3d 88e0 8b3c 60fe 00bd d336 14bd
000000e0: aff2 893c c49b 6db9 a07e 6fbd 1a44 3cbd
000000f0: 817e 883c 847d f1bc 08fb 20bc 560c 32bd
00000100: 936d 013d 76bb 1fbc 5b2c eebc efa2 83bc
00000110: 0235 d0bc 52a8 9ebc 256f 33bd 20e0 af3b
00000120: aa5f e43c f613 8f3c 4d59 b73c b2e5 983b
00000130: 305e f03a 4ca5 043d 27dd a3bc 2c84 3bbd
00000140: 61c5 31bd c753 f63c 8a68 9abc 2b61 45bd
00000150: 8f68 19bd 89b2 2abc 5c24 60bd d220 8b3c
00000160: e931 423d 0640 23bd 9445 4cbd 660c df3b
00000170: 6aa2 20bb 2b74 463b f0d8 173a 82c1 c93c
00000180: 20f6 ecbc f38e b2bc 561d 21bc 807a 603b
00000190: ab20 99bc d1bc aabc 897d a33c 9d83 063c
000001a0: a426 7f3c b285 043d b703 a33c 2868 75bc
000001b0: ac9b 50bd 3113 5d3c 891a cfbb b6a7 1ebc
000001c0: da88 8dbc cf06 8abc bfe5 c1bc 0143 de3c
000001d0: 15f0 7fbb f523 d03c 9c35 d13c 48b3 78bd
000001e0: c09e 28bd 4304 be3c b5c5 00bd 87db 21bd
000001f0: 84d8 2f3d 4166 023d 0695 32bd 4f00 81bd
00000200: 3899 b3bc 4a17 153d 7882 2f3c 402e ab3a
00000210: d07b e7bc 8d56 49bd 7890 783b 279b 80bd
00000220: 6035 103c 294f eabb e688 063d c806 73bd
00000230: f032 07bd 1725 ecbc 679b c53c 993d 42bc
00000240: b902 093d 35bb cb3c 9efb 973c fefc 66bc
00000250: 806a 2a3c e2ba 0b3d 74ce e3bb 5857 3a3d
00000260: f09d 8dbb 6a06 9fbc 3072 ac3c 979c 083d
00000270: 1809 f6bc 3ff9 2ebd 6785 fe3c eeeb 19bc
00000280: 4715 86bc 397a 86bc 0920 04bd 3f4a f43c
00000290: 8fa3 1cbd e0d1 733c a7d1 173d d529 08bd
000002a0: 8339 48bd 9fc6 14bd 9094 d73b 222f 0e3d
000002b0: a4ce 9c3c 811e f5bc 6ef2 213c 9940 663c
000002c0: 99b9 e83c 06f1 383c f480 db3c b46b 233c
000002d0: e4bf ebba 7236 3abc 969d e03c cc53 99bb
000002e0: 0c95 0ebd c155 483c 98ae 9fbb 65d0 d6ba
000002f0: 86dc 0dbb f454 d53c ab7e 0a3d 5ce6 023c
00000300: 5116 413d 3ac5 45bd ae08 e3bc 1e80 15bd
00000310: f92e 31bd 9f9d b03c 5a29 0d3d e9fa f03c
00000320: 140b 443c 65aa 2cbd 8de5 79bd 4866 1abc
00000330: 26bf d63c 89cf 0abb 6952 c9bc 166a 52bc
00000340: 70bf 99bc 26e2 8d3c 0b13 66bd b561 3e3c
00000350: 9c6b f43c 61a0 a83c b838 c5bc c35a 6cbb
00000360: db7b 99b9 53ab bcbc 7d1f f1bc 7eab 27bc
00000370: 96ed 0bbd a034 77bd 6940 61bd adb1 1e3d
00000380: b23e 3ebc 7f16 e5bb 7170 473c e8fb ab3c
00000390: c66b 47bd 6650 643c 673f f6bc a61f ee3c
000003a0: 362b 5ebd a463 713c 2b40 47bc d5c8 78bd
000003b0: 3fc8 13bc c3ab 023d ed7d fbbc 9258 b43c
000003c0: a116 81bb df01 aabc c979 0d3d 9cac 33bd
000003d0: 47b1 e0bc 0a7b a3bc 7b02 2f3c aa61 62bc
000003e0: a43a 6dbd 03f1 233d 7381 333d 95b9 69bc
000003f0: 6051 efb9 4579 45bd d760 96bc d508 853c

l2.bias f4 [200]
0.006272435 0.20026226 0.014790043 -0.057251252 -0.07459834 -0.040340837 -0.04432467 -0.16870993
-0.09009247 0.69115305 -0.01607852 -0.14290886 0.15457618 -0.02063966 -0.05868325 -0.00791183
-0.028794406 -0.038735364 0.17880568 -0.02332878 0.029236125 0.0077210222 -0.3109701 -0.036676694
-0.10958771 0.07350725 -0.16992772 -0.034067985 -0.06285166 0.13544212 -0.09027203 -0.028764999
0.24622053 0.09905607 0.18021508 -0.12557536 0.0013203169 0.14921467 -0.04182574 0.19567509
0.0078515 0.15098661 0.27864426 0.17585644 0.17501558 -0.011154545 0.27638274 -0.09682179
-0.12517312 -0.051458657 -0.07077802 -0.043527726 -0.046290137 -0.059759356 -0.17908591 -0.08537851
-0.05198375 -0.14727445 -0.020111114 -0.06890488 -0.14425625 -0.14047506 -0.07112547 0.091524296
-0.17915617 0.02881545 -0.25992534 0.2184025 -0.18244486 0.016725902 0.0037397873 -0.026240598
0.10740715 -0.13769002 -0.03156848 0.2157186 0.09247089 -0.22559442 -0.2007377 -0.019087665
-0.034116402 -0.015003556 -0.061639518 0.16517471 -0.10143642 -0.075980216 0.18534903 0.034830812
-0.023816705 -0.059236225 -0.47539094 -0.00018464438 0.05966619 0.013252346 0.063894525 0.03136246
-0.1289729 -0.069540754 -0.072423264 -0.02634105 -0.044137534 -0.012521162 -0.12332012 0.04935518
-0.16169736 0.023378883 -0.09119699 -0.18249993 0.0039964695 0.18949473 -0.04839591 0.0152467545
-0.16179165 -0.064691655 -0.03902326 0.0993287 -0.03235957 0.19465362 -0.16116312 -0.07111077
-0.09522522 0.08105539 -0.0047093113 -0.052384805 -0.12922269 -0.68150777 -0.05177363 -0.17550813
-0.03033713 0.068421 -0.087133564 -0.022651387 -0.17336196 0.18970501 -0.01960597 -0.14918023
-0.11988969 -0.07668388 -0.26221475 0.29114562 0.22979401 0.11832918 0.026826216 -0.10364618
-0.12722962 0.13975966 -0.00148257 0.24283846 -0.010811782 -0.018365307 -0.10753497 0.15910447
-0.050911978 0.24542587 0.022300273 0.02220894 0.13142791 -0.49784812 0.030540947 -0.08476702
0.14048505 -0.045432504 -0.18587513 0.1821542 -0.036249183 -0.109770425 -0.020477802 -0.13513811
0.048494164 0.37952316 -0.03227094 0.023821937 0.017867526 -0.060848445 -0.03184576 0.03809606
-0.19192906 0.12254168 -0.013605909 0.190592 0.06349278 -0.10243671 -0.09023875 0.0397773
0.009310444 -0.07185961 -0.05914799 -0.054283295 0.075541236 -0.4809152 0.17204495 -0.002469667
-0.131192 -0.16248345 0.18523419 -0.1050866 -0.02004551 0.15902591 0.026530087 -0.0386668
00000000: 0089 cd3b 8d11 4d3e f051 723c 4a80 6abd
00000010: 04c7 98bd 6f3c 25bd c98d 35bd 4cc2 2cbe
00000020: 6782 b8bd 68ef 303f 1ab7 83bc b356 12be
00000030: 3849 1e3e 8114 a9bc d95d 70bd 9fa0 01bc
00000040: 3fe2 ebbc f9a8 1ebd d618 373e ff1b bfbc
00000050: 9980 ef3c a100 fd3b 7937 9fbe 4d3a 16bd
00000060: 856f e0bd f88a 963d 8801 2ebe df8a 0bbd
00000070: 5fb8 80bd 57b1 0a3e 8be0 b8bd 93a4 ebbc
00000080: 3c21 7c3e e9dd ca3d 4d8a 383e d496 00be
00000090: 7c0e ad3a bbcb 183e 7851 2bbd 0d5f 483e
000000a0: 94a3 003c 3c9c 1a3e 76aa 8e3e b613 343e
000000b0: 4937 333e 8dc1 36bc 0a82 8d3e 814a c6bd
000000c0: 622d 00be 50c6 52bd 11f4 90bd 214a 32bd
000000d0: ba9a 3dbd 3ac6 74bd 4c62 37be eeda aebd
000000e0: eaec 54bd 1dcf 16be 10c0 a4bc 001e 8dbd
000000f0: e9b7 13be b2d8 0fbe 3baa 91bd 1771 bb3d
00000100: b774 37be 610e ec3c ef14 85be e8a4 5f3e
00000110: d3d2 3abe c204 893c 3817 753b 86f6 d6bc
00000120: 48f8 db3d 9dfe 0cbe f34d 01bd 56e5 5c3e
00000130: 6161 bd3d 3902 67be 2f8e 4dbe bc5d 9cbc
00000140: a4bd 0bbd 7ad1 75bc b879 7cbd 8f23 293e
00000150: e6bd cfbd 849b 9bbd 23cc 3d3e c1aa 0e3d
00000160: 401b c3bc afa1 72bd 7166 f3be 199d 41b9
00000170: 8964 743d 5e20 593c 22db 823d ec75 003d
00000180: 7911 04be 626b 8ebd a652 94bd 30c9 d7bc
00000190: 8fc9 34bd 8f25 4dbc 428f fcbd a828 4a3d
000001a0: fe93 25be 1285 bf3c 7dc5 babd 43e1 3abe
000001b0: d1f4 823b e80a 423e ca3a 46bd 86cd 793c
000001c0: b6ac 25be 0f7d 84bd dbd6 1fbd d86c cb3d
000001d0: 788b 04bd 4753 473e f207 25be 86a2 91bd
000001e0: 7105 c3bd 5e00 a63d 9150 9abb 7391 56bd
000001f0: f452 04be 4b77 2ebf 9610 54bd 67b8 33be
00000200: 9385 f8bc 4f20 8c3d 1573 b2bd 678f b9bc
00000210: cc85 31be 0842 423e b39c a0bc b4c2 18be
00000220: ba88 f5bd 700c 9dbd 0341 86be 0a11 953e
00000230: 1f4f 6b3e 9256 f23d a7c2 db3c 7344 d4bd
00000240: 7b48 02be 281d 0f3e cb52 c2ba a5aa 783e
00000250: e723 31bc d772 96bc 4b3b dcbd 48ec 223e
00000260: 1489 50bd eb50 7b3e 10af b63c 86ef b53c
00000270: 0a95 063e f3e5 febe 0231 fa3c 559a adbd
00000280: 50db 0f3e 6f17 3abd 0d56 3ebe a186 3a3e
00000290: 067a 14bd 51cf e0bd 10c1 a7bc a561 0abe
000002a0: d1a1 463d dc50 c23e 882e 04bd 3926 c33c
000002b0: eb5e 923c 383c 79bd b370 02bd 9d0a 1c3d
000002c0: 0d89 44be 22f7 fa3d 52eb 5ebc 8d2a 433e
000002d0: 8108 823d 56ca d1bd 18cf b8bd 86ed 223d
000002e0: d58a 183c 222b 93bd 2a45 72bd 2958 5ebd
000002f0: 5db5 9a3d 843a f6be 8d2c 303e 23da 21bb
00000300: 3257 06be 1062 26be 08ae 3d3e a537 d7bd
00000310: 7b36 a4bc b0d7 223e a055 d93c 1461 1ebd

l3.weight f4 [4, 200]
-0.02297027 0.36329398 -0.39872053 -0.59971654 -0.27336535 -0.25513986 -0.011324875 -0.5049807
-0.29649764 0.60976154 -0.4356235 -0.2960154 -0.24104472 0.51851934 0.0660242 -0.49749595
0.044090576 -0.12945929 0.40187165 -0.060369298 -0.390583 -0.06467421 0.2460508 -0.061534807
-0.37362975 -0.3257517 0.48889333 -0.42692336 -0.006149682 0.4141934 -0.2735146 -0.048987497
0.51871157 0.33105662 -0.35690713 -0.22436121 0.03548709 1.4868836 -0.06519432 0.24346823
-0.053443126 0.38210306 -0.375977 -0.58702916 0.36077914 0.0026186046 0.5127962 -0.067793936
-0.39177173 0.05750783 0.38450423 -0.0427261 -0.015570945 -0.37338984 -0.2411504 -0.17543684
0.01547434 -0.10886469 0.07166767 -0.112496436 -0.36435172 1.1595027 -0.5892036 -0.73746854
-0.3253103 -0.12669386 -0.32362452 0.473064 0.8715456 -0.30912343 -0.52721405 0.03502625
-0.61479837 0.66222167 0.032704037 0.41307396 0.33346927 -0.53840816 -0.4050885 0.044190813
0.02713022 0.048175108 -0.0019204784 0.35658506 -0.4214702 -0.38094705 0.30974206 -0.87281406
0.04960234 -0.021944646 -0.6551862 -0.523578 -0.46362412 0.020012321 -0.47162992 0.029585017
-0.2910635 -0.3280776 -0.43758738 -0.018036671 0.037648804 0.010009024 -0.2765695 -0.5352668
-0.37622243 0.2724946 0.7559053 0.25159016 0.8718005 -0.37240988 -0.062433314 -0.00921256
0.49029055 0.025353748 0.026270954 0.74984443 -0.39854932 0.49988493 -1.0031816 -0.18433641
-0.22726011 0.65696007 -0.02769168 -0.086328834 -0.2930922 -1.3314899 -0.010585566 -0.3149973
0.019891199 -0.48312348 1.3808559 -0.2117326 -0.43378133 -0.39680105 -0.041620452 -0.28054073
-0.28790483 -0.70900965 -0.39988786 -0.22162592 0.49084505 -0.45660996 -0.752388 -0.50867796
-0.5925502 0.761288 -0.40073845 0.6579835 -0.6582766 -0.27799663 -0.42191422 0.4272134
-0.005795146 -0.37668884 -0.6747216 -0.46937254 -0.37645122 -0.51415926 0.020921102 -0.22801776
-0.6135072 -0.15652975 0.49518055 0.3986765 0.08329595 -0.45204422 -0.6820065 -0.17780194
0.04721162 -0.57711 -0.12873137 -0.0022704809 0.0047596437 0.052603357 -0.015006922 -0.37574068
-0.50056213 -0.74248344 0.046215348 0.4211803 -0.461592 0.15944982 -0.51705056 -0.33115438
-0.02265137 -0.30351683 0.5148236 -0.03075249 -0.060119808 0.67270046 0.3771765 0.019482162
-0.37981147 -0.5711181 1.115204 -0.47498092 0.027090568 0.3363741 0.061106805 -0.74124676
-0.051889762 0.30324966 -0.38707682 -0.5564326 -0.09859721 -0.13464014 -0.0236624 -0.6196632
-0.30156168 0.799101 -0.44172597 -0.38715258 -0.49400517 0.5543542 -0.043873128 -0.54097974
-0.04157208 -0.01402953 0.43397775 0.06190708 -0.7640356 0.005171502 0.71247005 -0.015932957
-0.36536857 -0.36463508 0.65342146 -0.3989731 -0.025120396 0.3532156 -0.32440427 0.06888619
0.3881404 0.18070428 -0.23241019 -0.25706935 0.068967804 1.4598274 -0.039802816 0.33821595
0.0056943535 0.33084223 -0.32811487 -0.47852534 0.56064314 0.054637384 0.52672505 -0.12709732
-0.43462795 -0.060357332 0.41492966 0.04376103 -0.059014313 -0.29774106 -0.3880581 -0.31593302
00000000: 262c bcbc ab01 ba3e 1925 ccbe 0687 19bf
00000010: 8bf6 8bbe b1a1 82be f88b 39bc 6a46 01bf
00000020: 8ace 97be 5519 1c3f 0b0a dfbe 558f 97be
00000030: 6dd4 76be afbd 043f b237 873d cab7 febe
00000040: 5298 343d fa90 04be 1fc2 cd3e cc45 77bd
00000050: 7ffa c7be ea73 84bd bef4 7b3e ec0b 7cbd
00000060: 664c bfbe edc8 a6be 3a50 fa3e b395 dabe
00000070: 4683 c9bb 2811 d43e 1b0a 8cbe 1da7 48bd
00000080: 48ca 043f 4180 a93e 88bc b6be f2be 65be
00000090: e95a 113d 3452 be3f 9a84 85bd bc4f 793e
000000a0: 2ee7 5abd 03a3 c33e 0f80 c0be 8b47 16bf
000000b0: 0bb8 b83e e59c 2b3b 9d46 033f 8cd7 8abd
000000c0: 4e96 c8be 558d 6b3d bddd c43e 9001 2fbd
000000d0: 471d 7fbc f42c bfbe 21f0 76be b7a5 33be
000000e0: 1688 7d3c 73f4 debd 80c6 923d 8864 e6bd
000000f0: 4f8c babe 966a 943f 0cd6 16bf bdca 3cbf
00000100: 128f a6be 09bc 01be 1db2 a5be 7235 f23e
00000110: 9d1d 5f3f 6d45 9ebe 80f7 06bf af77 0f3d
00000120: 6d63 1dbf 5c87 293f abf4 053d 6e7e d33e
00000130: 7cbc aa3e 1ed5 09bf c367 cfbe 6d01 353d
00000140: 3240 de3c 4353 453d 90b8 fbba 5192 b63e
00000150: f1ca d7be 7e0b c3be 8396 9e3e be70 5fbf
00000160: d32b 4b3d 42c5 b3bc 48ba 27bf 3509 06bf
00000170: 2460 edbe e1f0 a33c 7a79 f1be 475c f23c
00000180: 4606 95be caf9 a7be 740b e0be a4c1 93bc
00000190: a235 1a3d e4fc 233c 849a 8dbe 3f07 09bf
000001a0: 3aa0 c0be 6a84 8b3e 0283 413f 6dd0 803e
000001b0: 512e 5f3f 82ac bebe 13ba 7fbd 47f0 16bc
000001c0: 5d07 fb3e aab2 cf3c 2f36 d73c cef5 3f3f
000001d0: a80e ccbe ebf0 ff3e 4168 80bf afc2 3cbe
000001e0: e0b6 68be 892e 283f a9d9 e2bc 2ccd b0bd
000001f0: 2e10 96be 436e aabf 156f 2dbc 5347 a1be
00000200: def2 a23c f65b f7be e3bf b03f 6ed0 58be
00000210: 9618 debe 8229 cbbe 357a 2abd 09a3 8fbe
00000220: 4368 93be a881 35bf 1abe ccbe e8f1 62be
00000230: 0b50 fb3e c8c8 e9be 809c 40bf b838 02bf
00000240: 5fb1 17bf c5e3 423f 972d cdbe 9b71 283f
00000250: d184 28bf 9355 8ebe 2405 d8be b7bb da3e
00000260: 35e5 bdbb 5cdd c0be 8eba 2cbf 9951 f0be
00000270: 37be c0be f19f 03bf bb62 ab3c 7d7d 69be
00000280: cf0e 1dbf 5649 20be 4e88 fd3e 541f cc3e
00000290: 1197 aa3d 5772 e7be fa97 2ebf b611 36be
000002a0: f960 413d 7bbd 13bf 28d2 03be 59cc 14bb
000002b0: c9f6 9b3b 9e76 573d 98df 75bc 1561 c0be
000002c0: d724 00bf 6513 3ebf 4e4c 3d3d f2a4 d73e
000002d0: c955 ecbe d046 233e 6d5d 04bf 118d a9be
000002e0: 5e8f b9bc 8f66 9bbe 7bcb 033f a5ec fbbc
000002f0: 3040 76bd 1936 2c3f 471d c13e 0e99 9f3c
00000300: a676 c2be cc34 12bf 01bf 8e3f b330 f3be
00000310: 0aed dd3c 3a39 ac3e 214b 7a3d 59c2 3dbf
00000320: 5c8a 54bd 8a43 9b3e ef2e c6be 5e72 0ebf
00000330: 56ed c9bd 1bdf 09be a6d7 c1bc 3fa2 1ebf
00000340: 4b66 9abe e291 4c3f e829 e2be dd38 c6be
00000350: 3fee fcbe 28ea 0d3f 4fb4 33bd a67d 0abf
00000360: 7c47 2abd 1ddc 65bc 5532 de3e 4792 7d3d
00000370: d697 43bf b475 a93b 7064 363f d585 82bc
00000380: 9711 bbbe 73b1 babe a146 273f 3446 ccbe
00000390: 4ac9 cdbc add8 b43e 5118 a6be 3414 8d3d
000003a0: 57ba c63e 8b0a 393e f0fc 6dbe 989e 83be
000003b0: fe3e 8d3d a0db ba3f 4708 23bd a42a ad3e
000003c0: b397 ba3b 2764 a93e acfe a7be 4601 f5be
000003d0: 4f86 0f3f 73cb 5f3d 74d7 063f cd25 02be
000003e0: 8e87 debe 4039 77bd a971 d43e c43e 333d
000003f0: feb8 71bd 8471 98be 8daf c6be f9c1 a1be

l3.bias f4 [4]
0.18675292 0.22183247 0.13083923 -0.060753863
00000000: 283c 3f3e 0d28 633e b8fa 053e 0bd9 78bd
