fin/DDQN/agent-300-10-332/model.pt (torch, 340231 bytes, 6 tensors)

l1.weight f4 [400, 8]
0	0xbe43a69c	-0.19106525
1	0xbe1111b2	-0.14166906
2	0x3e274a7f	0.16337012
3	0xbdc156f6	-0.094404146
4	0xbe726040	-0.23669529
5	0xbd1fc5dd	-0.039007057
6	0xbf0b421f	-0.5439777
7	0xbe935d61	-0.2878218
8	0xbcdb2ea0	-0.026755631
9	0x3d8edf7f	0.06976222
10	0x3e537182	0.20648769
11	0x3f42549e	0.75910366
12	0x3daafca7	0.08348971
13	0xbdfccb43	-0.123434566
14	0xbea0a34a	-0.3137458
15	0x3ed2d5f4	0.41178858
16	0xbe0a355c	-0.13496917
17	0x3e149bfa	0.14512625
18	0xbdd46496	-0.10370748
19	0x3f03f828	0.5155053
20	0xbfb5f281	-1.4214631
21	0xbe49c662	-0.19704583
22	0xbe9a1c59	-0.30099753
23	0xbe427ed7	-0.18993698
24	0x3f10ee74	0.5661385
25	0x3ec47fd9	0.3837879
26	0xbe906c03	-0.28207406
27	0xbeb7630d	-0.35817757
28	0x3e0ee894	0.13955909
29	0xbde37c6c	-0.11107716
30	0xbeeaeb47	-0.45882627
31	0xbf24f128	-0.64430475
32	0x3e8605b8	0.26176238
33	0x3ee0d7fb	0.4391478
34	0xbeb6a9da	-0.3567646
35	0xbec90818	-0.39263988
36	0xbe67d678	-0.22640407
37	0xbe78b5e2	-0.24288133
38	0xbe5844bc	-0.2111997
39	0xbe9a2357	-0.30105087
40	0x3f1bbb5c	0.6083276
41	0x3d829c2b	0.06377443
42	0x3ebaceae	0.3648581
43	0x3e9f345c	0.31094635
44	0x3e9cc5ba	0.30619603
45	0x3f4a4663	0.7901365
46	0xbf314cd6	-0.6925787
47	0x3e53a473	0.20668201
48	0xbd822d45	-0.06356291
49	0x3e80f347	0.25185606
50	0x3e035c07	0.12828074
51	0x3e78412c	0.24243611
52	0xbf3d9107	-0.7404942
53	0xbf3e350c	-0.74299693
54	0xbf8cc5ef	-1.0997905
55	0xbf1fbc05	-0.6239627
56	0xbd624c1c	-0.055248365
57	0xbdba3641	-0.09092379
58	0xbc28ecb5	-0.010310342
59	0xbd84e63b	-0.064892255
60	0xbf5d4af2	-0.8644248
61	0xbc821a42	-0.015881661
62	0xbe6581bc	-0.22412771
63	0x3e165c58	0.14683664
64	0xbf46694b	-0.77504414
65	0xbdf9e11f	-0.122011416
66	0xbefa69b0	-0.48908758
67	0x3f1f7327	0.62285084
68	0xbf26ae67	-0.65109867
69	0xbe8307a6	-0.25591773
70	0x3ed683f6	0.41897553
71	0x3e5da7fc	0.21646112
72	0x3c8ed8a1	0.017437281
73	0xbd421869	-0.04738656
74	0x3e6b4c64	0.2297836
75	0x3ebe0a14	0.37117064
76	0xbfb4a83e	-1.4113843
77	0xbf16ec89	-0.58954674
78	0xbe12fcd6	-0.14354262
79	0x3a90e502	0.0011054578
80	0xbe6d76d8	-0.23189867
81	0xbd0ec2dc	-0.0348538
82	0xbea443db	-0.3208302
83	0x3e32c075	0.17456229
84	0x3edfecb0	0.43735266
85	0x3eb7d8a1	0.35907462
86	0xbeb60273	-0.35548744
87	0x3e2d37da	0.16915837
88	0x3f3f4033	0.74707335
89	0xbf08cfb4	-0.5344193
90	0x3ef3ea9b	0.47639927
91	0x3db6ebe9	0.08931715
92	0xba059af2	-0.0005096636
93	0x3e3e9ae0	0.18613768
94	0xbf1d47ee	-0.6143788
95	0x3ed0fc42	0.40817457
96	0x3e764095	0.24048074
97	0x3df53fbb	0.11975046
98	0x3e112d10	0.14177346
99	0x3e2fa4b9	0.1715268
100	0x3e0607a7	0.13088857
101	0x3f4ec4e1	0.80769163
102	0xbf589019	-0.84594876
103	0x3e6a2c18	0.22868383
104	0xbe2943b4	-0.16529733
105	0xbc8e128e	-0.017342832
106	0x3f11064c	0.56650233
107	0x3e4b5259	0.19855632
108	0xbf2a6454	-0.6655934
109	0xbe004aee	-0.12528583
110	0xbf266876	-0.65003145
111	0x3e07cef7	0.13262545
112	0xbe7bb6e9	-0.24581493
113	0xbdffd160	-0.12491107
114	0xbf436998	-0.76333
115	0x3d0e32cc	0.034716412
116	0x3f3b4f55	0.73167926
117	0x3e48c1ab	0.19605128
118	0xbab14b8d	-0.0013526544
119	0x3ebfcbdc	0.3746022
120	0xbeada022	-0.33911234
121	0xbec56420	-0.38552952
122	0x3e8d55ee	0.27604622
123	0xbf4d3516	-0.8015913
124	0xbe914402	-0.28372198
125	0xbf7fa393	-0.9985897
126	0xbf391326	-0.72294843
127	0x3f1cc784	0.61241937
128	0x3e81a09f	0.25317857
129	0x3d8e44b1	0.069466956
130	0x3f189cbe	0.5961417
131	0x3ec9a251	0.3938165
132	0xbeb78faf	-0.3585181
133	0xbe4b860b	-0.19875352
134	0xbf19185b	-0.5980279
135	0x3e43dc7a	0.19127074
136	0x3fa77c4a	1.3084805
137	0xbe21c2b8	-0.15796936
138	0x3e72900f	0.23687766
139	0xbec60e56	-0.38682812
140	0x3e0ac2c0	0.13550854
141	0x3e85cebb	0.26134285
142	0x3f156cbd	0.58369046
143	0xbf1d7054	-0.61499524
144	0x3db72500	0.08942604
145	0xbe049e16	-0.1295093
146	0x3b483280	0.0030547678
147	0x3d88d490	0.06681168
148	0xbc312180	-0.01081121
149	0x3ce611f0	0.028084725
150	0xbe396c30	-0.18107677
151	0x3d82db14	0.06389442
152	0x3fa9449b	1.3224062
153	0xbc14ebd8	-0.009089433
154	0x3f18c1b1	0.5967055
155	0x3eb96734	0.3621155
156	0x3df0ed6e	0.11764036
157	0x3f2cadda	0.67452776
158	0xbc269829	-0.010168114
159	0xbe1ffd86	-0.15624055
160	0xbf499c1c	-0.7875383
161	0x3e80d294	0.25160658
162	0x3f0a46b1	0.54014117
163	0xbe3a3323	-0.1818357
164	0x3e577504	0.21040732
165	0xbe35de55	-0.17760594
166	0xbec8ec44	-0.39242756
167	0x3e89957c	0.2687186
168	0xbdb9ae15	-0.09066407
169	0x3c13ae64	0.009013746
170	0x3bd8b120	0.006612912
171	0xbd97cfe9	-0.074127026
172	0x3fe172c5	1.761315
173	0xb8dc1ab4	-0.00010495391
174	0xbec5a2df	-0.38600823
175	0xbe16d61c	-0.14730114
176	0xbcc7366d	-0.024317944
177	0x398b54e9	0.0002657541
178	0x3f54ec93	0.83173484
179	0xbf27082f	-0.6524686
180	0xbb3aeee9	-0.002852375
181	0xbc242b2f	-0.010020061
182	0xbfc15e39	-1.510688
183	0x3cff80c3	0.031189328
184	0xbdccab2c	-0.09993586
185	0xbec8aea7	-0.3919575
186	0x3e10e762	0.14150766
187	0xbe6b0a6b	-0.22953193
188	0x3df8afb6	0.12142889
189	0x3de5720f	0.112033956
190	0xbe281f62	-0.16418222
191	0xbf300700	-0.6876068
192	0x3e614513	0.21999006
193	0xbd8ec73b	-0.06971594
194	0x3fc861b6	1.5654819
195	0xbd0256f8	-0.03182122
196	0xbe4197be	-0.18905541
197	0xbd260fc7	-0.04054239
198	0x3e8ab0eb	0.27088103
199	0xbe9934cd	-0.29923096
200	0xbd60beb7	-0.05486938
201	0x3e1e01e3	0.15430407
202	0xbddbf8a8	-0.10740787
203	0x3e71f254	0.23627597
204	0x3e35616d	0.17712946
205	0xbf08db9f	-0.53460115
206	0xbfaf0d56	-1.3675945
207	0x3d40d285	0.047075767
208	0xbec50b44	-0.38485157
209	0xbe2714a4	-0.16316468
210	0x3f00ce36	0.5031465
211	0xbf32c86d	-0.69837075
212	0xbec260a9	-0.3796437
213	0xbf2cc1e7	-0.6748337
214	0xbeb07f9c	-0.34472358
215	0x3e8d65cc	0.27616727
216	0xbf29e26d	-0.66361123
217	0xbda6b503	-0.08139994
218	0xbf5fed60	-0.8747158
219	0xbd23c015	-0.039978106
220	0x3fcafb28	1.5857897
221	0x3e3d0f5b	0.18462889
222	0xbd2dffde	-0.042480342
223	0xbdf9bb5c	-0.12193939
224	0xbe0c7a64	-0.13718563
225	0xbe1b4f25	-0.1516691
226	0x3ee2442e	0.44192642
227	0xbee7df6c	-0.45287645
228	0xbf190037	-0.5976595
229	0xbf43a042	-0.7641641
230	0x3f150d96	0.58223855
231	0xbe7b70cb	-0.24554746
232	0xbd140151	-0.036134068
233	0xbe64e43c	-0.2235269
234	0x3e82ff65	0.25585476
235	0xbd8be151	-0.06830085
236	0xbf1f1f1d	-0.6215685
237	0x3e189854	0.14901859
238	0xbf2ff1d7	-0.68728393
239	0xbecf67e7	-0.4050896
240	0x3e9b0257	0.30275223
241	0xbe7a9f8a	-0.24474922
242	0x3dc8312c	0.09775004
243	0xbf10876e	-0.5645665
244	0x3d14059b	0.03613816
245	0x3eb4b252	0.35292298
246	0x3e281899	0.16415633
247	0xbed16df6	-0.40904206
248	0x3f2319f0	0.6371145
249	0x3e9ebc16	0.31002873
250	0x3dfdd715	0.12394539
251	0x3f0572ea	0.5212847
252	0x3e622d90	0.22087693
253	0x3f25b835	0.647342
254	0xbf12e6dd	-0.5738352
255	0x3e3381ba	0.17529956

l1.bias f4 [400]
0	0xbd79e873	-0.061012696
1	0x3d8fd431	0.07022894
2	0x3df11abc	0.11772677
3	0x3acc265e	0.0015575399
4	0xbe065073	-0.13116626
5	0xbf35b8cb	-0.70985097
6	0x3e2ae990	0.1669066
7	0x3e1a2c91	0.15056063
8	0x3d379352	0.04481823
9	0x3e6f36c2	0.23360732
10	0xbf379160	-0.717062
11	0xbde5d039	-0.11221356
12	0xbf2586bf	-0.6465873
13	0xbea17f86	-0.31542605
14	0xbf28b222	-0.6589681
15	0xbf0b15ca	-0.5433012
16	0xbe92edd9	-0.28697088
17	0xbc88a896	-0.01668195
18	0xbe93261e	-0.2874002
19	0xbea5e452	-0.32400757
20	0xbf1ddbf5	-0.6166375
21	0xbcae291b	-0.021259835
22	0x3b7c825d	0.003852985
23	0xbf029adf	-0.51017565
24	0x3caedd19	0.021345662
25	0x3e1f787f	0.1557331
26	0xbf3a1f66	-0.7270416
27	0xbd8040ff	-0.06262397
28	0xbefa69d1	-0.48908857
29	0x3dd3094d	0.10304508
30	0xbec86e9b	-0.39146885
31	0xbf0fdeb4	-0.56199193
32	0xbbf46fe5	-0.007459628
33	0x3d41448d	0.047184516
34	0xbed2a794	-0.41143477
35	0xbe41092e	-0.18851158
36	0x3da3e539	0.08002705
37	0x3df318a7	0.118699364
38	0xbbe66abf	-0.007031768
39	0xbdaa9f51	-0.083311684
40	0x3ddd5b54	0.10808435
41	0x3e37952a	0.17927995
42	0x3ebc18d3	0.3673769
43	0xbee04ab9	-0.4380701
44	0xbef93866	-0.4867584
45	0xbe96f55c	-0.2948407
46	0x3cf9b8f1	0.030483695
47	0x3e08055e	0.13283297
48	0x3d39d697	0.045370664
49	0xbb4535cf	-0.0030091887
50	0x3d8f2bcf	0.06990778
51	0xbdcec66b	-0.10096439
52	0x3e41369e	0.18868491
53	0xbe9b6e93	-0.303578
54	0xbea0f59e	-0.3143739
55	0x3e8b6f4c	0.2723335
56	0xbe937f4d	-0.2880806
57	0xbe439646	-0.19100294
58	0xbe81822d	-0.2529463
59	0xbdfcead6	-0.12349479
60	0x3dd9f05c	0.10641548
61	0xbf28b850	-0.6590624
62	0xbf1b8248	-0.6074567
63	0xbc8f7125	-0.017510006
64	0xbc51e54c	-0.012811016
65	0x3da2decc	0.079526514
66	0x3e905908	0.28192925
67	0xbea1c9b2	-0.31599194
68	0x3e023138	0.12714088
69	0x3b7265ae	0.0036986875
70	0xbf408c34	-0.75213933
71	0xbf0d8be4	-0.5529158
72	0x3df64b62	0.12026097
73	0x3c00db0d	0.007864726
74	0xbb993472	-0.0046754414
75	0x3ddf705a	0.10910101
76	0x3d8fc59c	0.07020113
77	0xbe8f288f	-0.2796063
78	0xbddb0d95	-0.1069595
79	0xbf266473	-0.64997023
80	0xbee5f786	-0.44915408
81	0x3d8a56bd	0.06754825
82	0x3da8b1f4	0.08237067
83	0x3cbc79a9	0.02300723
84	0xbe9da104	-0.30786908
85	0x3de93e48	0.11388832
86	0x3c6ea838	0.014566474
87	0xbd9ec3fc	-0.07752225
88	0xbe819455	-0.2530848
89	0x3dff5c9a	0.12468834
90	0x3e37bf4c	0.17944068
91	0xbe8d1545	-0.2755529
92	0xbe8d6bf5	-0.27621427
93	0x3cdb24da	0.02675097
94	0xbe1e4dc3	-0.15459351
95	0x3e48e7d6	0.19619688
96	0x3bb366ff	0.0054749246
97	0x3e8e7c7a	0.27829343
98	0xbeefb0d2	-0.4681459
99	0xbe9fae5f	-0.31187722
100	0xbe9779af	-0.29585025
101	0xbd29e4f1	-0.0414781
102	0xbed034ac	-0.40665185
103	0x3ea1ada5	0.31577793
104	0x3e5fa0c1	0.21838666
105	0x3eb00670	0.3437991
106	0xbeb7503d	-0.35803404
107	0xbf36b92b	-0.71376294
108	0x3daa85a4	0.08326271
109	0x3be87456	0.0070939464
110	0xbe8846bc	-0.26616466
111	0xbe64482a	-0.22293153
112	0x3e053147	0.13007079
113	0xbec827d1	-0.39092878
114	0x3e0dae68	0.13836062
115	0xbc025f6c	-0.007957321
116	0xbef092dd	-0.46987048
117	0x3c9fc01c	0.019500785
118	0xbe6f4db4	-0.23369485
119	0x3da70a4c	0.08156261
120	0xbee66c0a	-0.45004302
121	0x3de45ebf	0.11150884
122	0xbe481bbb	-0.19541828
123	0xbe20f037	-0.15716635
124	0x3dc57d27	0.096430115
125	0xbec14838	-0.3775041
126	0x3dc14383	0.09436705
127	0xbea7c57e	-0.32767862
128	0x3ddbcacc	0.1073204
129	0x3e9ca85f	0.30597207
130	0x3cb90f85	0.022590408
131	0xbe547d31	-0.20750882
132	0xbee8f889	-0.45502117
133	0x3e3e000f	0.1855471
134	0xbf19fac4	-0.6014826
135	0xbcfaac4a	-0.030599732
136	0xbe780b86	-0.24223146
137	0x3e101e8f	0.14074157
138	0x3e1e56f6	0.1546286
139	0xbebe7cc6	-0.3720457
140	0xbf02f078	-0.51148176
141	0xbc2dc683	-0.010606411
142	0xbd8cc57a	-0.06873603
143	0x3eb6fe11	0.35740712
144	0xbf242a6a	-0.6412722
145	0xbec8620b	-0.391373
146	0xbded6839	-0.115921445
147	0x3c184326	0.009293353
148	0xbe15f5d2	-0.14644554
149	0x3d205adc	0.03914915
150	0xbf2706f8	-0.6524501
151	0xbdda6cb3	-0.10665264
152	0xbf12d3d2	-0.5735446
153	0x3d014329	0.03155819
154	0xbec40e9c	-0.38292396
155	0x3df5f68c	0.12009916
156	0xbb140e3d	-0.0022591494
157	0x3d5c956a	0.05385343
158	0xbe8ef9e3	-0.27925023
159	0xbe1a7dbf	-0.15087031
160	0x3cf55408	0.029947296
161	0xbead919d	-0.33900157
162	0x3e5d54b0	0.21614337
163	0xbf256187	-0.6460194
164	0x3d61b7ad	0.055106808
165	0xbee2727a	-0.44227964
166	0xbf1b99ef	-0.6078176
167	0xbebafc0b	-0.3652042
168	0x3da0b58a	0.07847126
169	0x3e442bc5	0.19157322
170	0xbe61cec7	-0.22051536
171	0x3e18db3a	0.14927378
172	0xbd24dea3	-0.040251385
173	0xbf0009ff	-0.5001525
174	0xbcab0590	-0.020876676
175	0x3a2c9315	0.0006583196
176	0x3d4c64e1	0.049900893
177	0xbf477c9f	-0.7792453
178	0xbf16fd8f	-0.5898065
179	0xbe245009	-0.16046156
180	0xbe9f8ca9	-0.31162003
181	0xbe112511	-0.14174296
182	0x3e45839f	0.1928849
183	0x3eae9b60	0.34102917
184	0xbedb0bf1	-0.42782548
185	0xbf13bda2	-0.5771123
186	0x3e2f1480	0.17097664
187	0xbe618dc1	-0.22026731
188	0xbe06d448	-0.13166916
189	0xbd5f4f98	-0.054519266
190	0xbf1c6547	-0.61092037
191	0x3ddb6dda	0.10714312
192	0xbc22464a	-0.0099044535
193	0xbede9847	-0.43475553
194	0xbf185897	-0.5951018
195	0x3e703126	0.23456249
196	0xbe33ab5c	-0.17545837
197	0xbda742ec	-0.08167061
198	0x3dc1ecea	0.09469016
199	0x3e3d7d9e	0.1850495
200	0xbe8f796b	-0.28022322
201	0xbc1c679f	-0.00954619
202	0xbe8eac1b	-0.2786568
203	0x3e38d435	0.180497
204	0x3cd8ceb7	0.026465757
205	0xbd907dc9	-0.070552416
206	0xbd9d98dc	-0.07695171
207	0x3e3de142	0.1854296
208	0x3cced266	0.02524681
209	0xbb6a9d38	-0.0035799276
210	0x3e0b431d	0.1359982
211	0xbe308b18	-0.1724056
212	0xbe8815e9	-0.26579216
213	0x3c5d77b6	0.013517311
214	0x3e849cfb	0.25901017
215	0xbe14819a	-0.14502564
216	0x3db4c64e	0.08826886
217	0xbe17f8b4	-0.14840966
218	0x3df5a0e9	0.11993582
219	0xbb299b8e	-0.0025880071
220	0xbcd85913	-0.026409661
221	0xbda5fd64	-0.08104971
222	0x3da5762b	0.080791794
223	0x3e2cea95	0.16886361
224	0x3b94439f	0.0045246626
225	0xbea929bc	-0.33039653
226	0xbe51eecf	-0.20501254
227	0x3ccedf26	0.02525289
228	0x3e164c7c	0.14677614
229	0xbbecaac0	-0.0072225034
230	0xbd887714	-0.06663337
231	0x3e85820b	0.26075777
232	0xbf1e390d	-0.618058
233	0xbebef618	-0.3729713
234	0xbe384973	-0.17996769
235	0xbe103747	-0.14083587
236	0xbe3dd904	-0.18539816
237	0x3e4c2ffb	0.19940178
238	0xbf1bcf73	-0.6086342
239	0xbe524d39	-0.2053727
240	0xbf2f0720	-0.68370247
241	0xbed4d36c	-0.41567552
242	0x3dcd8390	0.10034859
243	0x3c80d37a	0.01572584
244	0x3de64706	0.112440154
245	0xbf17a2e9	-0.59232956
246	0x3e0f4a84	0.13993269
247	0xbdf0a8af	-0.11750924
248	0xbecaf9ca	-0.396437
249	0x3cff54ff	0.031168459
250	0x3db280d2	0.08715977
251	0xbf1e5f69	-0.61864334
252	0xbead171c	-0.33806694
253	0xbebcf3d8	-0.36904788
254	0x3e688ab7	0.22709166
255	0xbc003e63	-0.007827374

l2.weight f4 [200, 400]
0	0xbe62a133	-0.22131805
1	0x3e832044	0.25610554
2	0x3e71c5a8	0.23610556
3	0x3d026dad	0.031842876
4	0x3db5f1a0	0.08883977
5	0x3e977a16	0.29585332
6	0x3e9dc1d2	0.30811936
7	0x3e4a7ffd	0.19775386
8	0x3e3b773f	0.18307208
9	0x3e88a8ca	0.26691276
10	0xbef61dc5	-0.48069587
11	0xbe2db135	-0.1696213
12	0x3e526bde	0.2054896
13	0x3ea7d4e7	0.3277962
14	0xbe1e9b63	-0.15488963
15	0xbff2d1d3	-1.8970283
16	0x3e9241ac	0.2856573
17	0x3e434d44	0.19072443
18	0xbce59283	-0.028023964
19	0x3ced3835	0.028957466
20	0x3eb4a890	0.35284853
21	0xbdef7b33	-0.1169342
22	0xbe5fed8d	-0.21867962
23	0x3cf2c904	0.029636867
24	0x3e1bfe14	0.15233642
25	0x3da3c114	0.07995811
26	0xbf5255ab	-0.8216197
27	0x3e3d4ea3	0.18487029
28	0xbfa8c091	-1.3183767
29	0x3e72787c	0.23678774
30	0x3d64747a	0.055775143
31	0x3ea1041d	0.3144845
32	0x3e2ca02e	0.16857979
33	0x3e711899	0.2354454
34	0xbe89e798	-0.26934505
35	0xbd9a1db2	-0.07525195
36	0xbb854658	-0.0040672235
37	0x3e29fe9e	0.16601035
38	0x3afe0053	0.0019378759
39	0xbf699166	-0.91237485
40	0x3e70dced	0.23521776
41	0x3e094115	0.13403733
42	0x3e1f9add	0.1558642
43	0x3d838f41	0.06423808
44	0xbebfc814	-0.37457335
45	0x3e196a71	0.1498201
46	0x3e50d551	0.20393874
47	0x3e072835	0.13198932
48	0x3e133d66	0.1437889
49	0x3d40ab9b	0.047038656
50	0x3e1a54dd	0.15071435
51	0x3e6d26e5	0.23159368
52	0x3c7f0b51	0.015566663
53	0x3e233346	0.15937528
54	0xbe8f938b	-0.28042254
55	0x3e85a0ed	0.2609934
56	0xbeb739d1	-0.35786298
57	0xbd7721da	-0.060335018
58	0x3e83c1bf	0.25733754
59	0x3e46448a	0.19362083
60	0x3e12b55b	0.14326994
61	0x3e4d21cb	0.20032422
62	0x3ea32ca8	0.31870008
63	0x3e419ef2	0.18908289
64	0xbecd5949	-0.40107182
65	0x3d1c0d24	0.03809847
66	0x3d7a44c6	0.061100744
67	0x3f02ab3f	0.5104255
68	0x3e0334b8	0.1281308
69	0xbd2a25d7	-0.041539993
70	0xbf37ea44	-0.71841836
71	0x3ecd686e	0.40118736
72	0xbc45e5ef	-0.012078746
73	0xbeee8e34	-0.46592867
74	0xbe9b16d1	-0.30290845
75	0xbf412b4e	-0.754567
76	0x3e923004	0.28552258
77	0xbe26c65d	-0.16286607
78	0xbd5fde2a	-0.05465523
79	0x3e5a174f	0.21297954
80	0x3e8ed73b	0.27898583
81	0x3d01a9ea	0.031656183
82	0x3e179fcf	0.14807056
83	0x3dbe6f72	0.092986
84	0x3e136f9d	0.14398046
85	0x3d4be5dc	0.049779758
86	0xbf2e8251	-0.681676
87	0x3e801125	0.2501308
88	0x3e9051c8	0.28187394
89	0x3e2bb274	0.16767293
90	0x3e3f7c04	0.18699652
91	0x3ef1672f	0.47149035
92	0xbdf3fd4b	-0.11913546
93	0xbe4fd73f	-0.20296954
94	0x3ed8a5f5	0.42314115
95	0xbcfbfb65	-0.030759523
96	0xbde7dc58	-0.11321324
97	0xbefe8bd5	-0.49716058
98	0xbd043a36	-0.032282077
99	0xbea1f280	-0.31630325
100	0xbc6db87c	-0.0145093165
101	0xbeb5c883	-0.3550454
102	0x3db95ac1	0.09050513
103	0x3dc787b7	0.097426824
104	0xbe28b024	-0.16473442
105	0xbc616e60	-0.013759226
106	0xbe5106eb	-0.20412795
107	0xbea9515d	-0.33069888
108	0x3e3abdc5	0.18236454
109	0xbf0b6f19	-0.54466397
110	0xbf3144a2	-0.6924535
111	0xbe68113f	-0.22662829
112	0x3d61dec8	0.0551441
113	0xbd6ec265	-0.058290858
114	0xbf121c61	-0.5707455
115	0xbb173a3e	-0.0023075487
116	0xbefeceff	-0.497673
117	0x3e45a344	0.19300562
118	0x3e9e73a2	0.30947596
119	0x3e8455cd	0.2584671
120	0x3f55e0bc	0.8354604
121	0xbe4eedd4	-0.20207912
122	0xbc9ef070	-0.019401759
123	0xbf753c32	-0.95794976
124	0x3e01a17d	0.12659259
125	0xbf38d9e4	-0.72207475
126	0x3de17ede	0.11010526
127	0x3dab4970	0.083636165
128	0x3e1aba81	0.15110208
129	0x3e5f2003	0.21789555
130	0x3c939149	0.018013613
131	0xbf33c5f7	-0.70223945
132	0x3e5e9a09	0.21738447
133	0xbe5838aa	-0.21115366
134	0x3e7410c8	0.23834527
135	0x3e035cfd	0.12828441
136	0x3ee1fe45	0.44139305
137	0x3d6b146b	0.05739252
138	0x3de61ac6	0.112355754
139	0x3d03d418	0.03218469
140	0x3f8594cb	1.0436033
141	0xbf7e8efe	-0.9943694
142	0x3e6dfff3	0.23242168
143	0x3d790506	0.060795806
144	0x3d8ff7e0	0.070297
145	0xbf03a9ef	-0.51431173
146	0x3e92530f	0.28578994
147	0xbe87c121	-0.26514533
148	0x3d609277	0.05482718
149	0x3e833583	0.25626764
150	0xbfa5122f	-1.2896174
151	0xbe018034	-0.12646562
152	0x3dcfdbd8	0.10149354
153	0x3e1b25f1	0.15151192
154	0x3dc58b86	0.096457526
155	0x3b2609be	0.0025335397
156	0x3de53de5	0.11193446
157	0x3ec449a9	0.38337448
158	0x3e167f4f	0.14697002
159	0xbeb04746	-0.34429377
160	0xbdeea6ec	-0.116529316
161	0x3e83f935	0.25776067
162	0x3cd89d63	0.026442235
163	0xbebecc0a	-0.37265044
164	0x3eddb5a0	0.4330263
165	0xbf109fbf	-0.56493753
166	0x3e98a541	0.2981358
167	0xbcde2c45	-0.027120719
168	0x3e31bffa	0.1735839
169	0x3e339199	0.1753601
170	0x3dcf2221	0.101139314
171	0x3c971b82	0.018445734
172	0x3e099319	0.1343502
173	0xbff1de48	-1.889596
174	0xbf0688cb	-0.5255248
175	0x3d57ebfd	0.05271529
176	0x3e33d306	0.17560968
177	0x3e120424	0.14259392
178	0xc001bb0f	-2.0270422
179	0x3ed3cb1e	0.41365904
180	0x3e94568d	0.28972283
181	0xbdfc1fbd	-0.12310741
182	0x3e0bbd52	0.13646439
183	0x3e0543d7	0.1301416
184	0xc0034ea4	-2.0516748
185	0xbee9e0a5	-0.45679203
186	0x3c752c97	0.014964244
187	0x3d78a897	0.060707655
188	0x3ddefa70	0.10887611
189	0xbd569360	-0.05238664
190	0x3eea5c5b	0.45773587
191	0x3ea067cb	0.31329188
192	0xbe8b5903	-0.27216348
193	0x3e711133	0.23541717
194	0xbdb3ed79	-0.08785529
195	0x3c75936d	0.014988762
196	0x3db9c5fa	0.09070964
197	0xbeca2652	-0.3948236
198	0x3e1cc733	0.15310363
199	0x3d8bf73a	0.06834264
200	0xbd486e61	-0.04893339
201	0xbef209b0	-0.47273016
202	0x3e99c1bc	0.3003062
203	0x3d2de0e2	0.042450793
204	0x3e4e12a3	0.20124297
205	0x3e18ee8a	0.14934745
206	0xbd857d64	-0.06518057
207	0x3e9058d7	0.2819278
208	0x3e3ae15c	0.1825003
209	0xbd52580a	-0.05135349
210	0x3d0f97c5	0.035056848
211	0xbd939498	-0.072060764
212	0xbf5bb8a0	-0.8582859
213	0x3d2291f3	0.03968997
214	0x3e0b7427	0.13618527
215	0x3e6357f1	0.22201516
216	0x3e927c13	0.28610286
217	0x3da77583	0.081767105
218	0x3d5bcc8f	0.05366188
219	0xbded62ac	-0.11591086
220	0xbd315027	-0.04328933
221	0x3e62c443	0.2214518
222	0x3d38986e	0.045067243
223	0xbdbe1b6e	-0.092825755
224	0xbc5f3353	-0.0136230765
225	0xbf1aa204	-0.60403466
226	0x3f42e1d3	0.7612583
227	0xbd90e180	-0.07074261
228	0x3d5070e3	0.050888907
229	0x3db5a8c9	0.08870084
230	0xbf936b5f	-1.1517142
231	0xbe3931b3	-0.18085365
232	0x3eb3d66c	0.35124528
233	0x3da4f3ff	0.08054351
234	0x3dbe5d4b	0.09295138
235	0xbd7b591a	-0.06136427
236	0xbdc63c62	-0.09679486
237	0x3d855095	0.065095104
238	0xbf05bbf9	-0.5223995
239	0xbe6da0c1	-0.23205854
240	0xbe3cf52b	-0.18452899
241	0x3f5d4631	0.8643523
242	0x3e1dedf4	0.15422803
243	0x3d2e06fd	0.042487133
244	0xbd72e64a	-0.059301652
245	0xbf535567	-0.8255219
246	0x3dae84f2	0.08521451
247	0x3da91262	0.08255459
248	0xbe172205	-0.14759071
249	0x3cd0b7c4	0.025478251
250	0xbe06fb1a	-0.13181725
251	0x3df55ac2	0.11980201
252	0x3c6e1c6d	0.014533144
253	0x3eb98185	0.36231628
254	0x3db9688d	0.090531446
255	0xbf171c6a	-0.5902773

l2.bias f4 [200]
0	0x3e1a89d0	0.15091634
1	0xbf303532	-0.6883117
2	0xbe37d06e	-0.17950603
3	0x3e02765f	0.12740467
4	0x3e4ec308	0.20191586
5	0x3e14b86c	0.14523476
6	0x3e28a87c	0.16470522
7	0xbe61efd8	-0.2206415
8	0x3c45aabe	0.012064634
9	0x3cb01637	0.021494968
10	0xbe591424	-0.2119909
11	0xbdcfae4e	-0.10140668
12	0xbdf46203	-0.11932757
13	0x3d9c5017	0.076324634
14	0x3cf2fee8	0.029662564
15	0x3e2c73ee	0.16841099
16	0x3c812131	0.015762897
17	0x3e218573	0.15773563
18	0x3cff7288	0.031182542
19	0xbdad3e9d	-0.08459208
20	0xbe260823	-0.16214041
21	0xbc486ebe	-0.012233434
22	0x3e0d8a61	0.13822319
23	0xbe832f9f	-0.2562227
24	0x3db03509	0.08603866
25	0xbe469733	-0.19393615
26	0xbd6ff870	-0.058586538
27	0x3d8d2d73	0.068934344
28	0xbe6f405b	-0.23364393
29	0x3e293c9e	0.1652703
30	0x3e113255	0.14179356
31	0xbdbe6633	-0.09296837
32	0x3d7e54bc	0.062092528
33	0xbdcbeb47	-0.09956985
34	0x3dd99543	0.106241725
35	0x3e52b927	0.20578443
36	0xbe288f83	-0.16460995
37	0x3e037fd0	0.12841725
38	0xbec6f745	-0.38860527
39	0x3dae4daf	0.08510911
40	0xbd12f7f5	-0.035881
41	0xbc792af8	-0.015207998
42	0x3e008084	0.12549025
43	0xbed6466e	-0.4185061
44	0x3e17ed08	0.14836514
45	0x3e0de24a	0.13855854
46	0x3dfac602	0.12244798
47	0x3def22cf	0.11676561
48	0x3e22dfda	0.15905705
49	0xbd54a3c0	-0.051913977
50	0xbb99a382	-0.004688681
51	0xbd630ff8	-0.05543515
52	0xbe94aa08	-0.29035974
53	0x3e71b550	0.23604321
54	0xbd7f22f0	-0.06228918
55	0x3c32f849	0.010923454
56	0xbc08f62e	-0.008359475
57	0x3e359953	0.1773427
58	0xbe23878e	-0.15969679
59	0xbbc9e24b	-0.0061610094
60	0xbeefe16e	-0.46851677
61	0xbc7e3460	-0.015515417
62	0x3e5ae3fd	0.21376033
63	0x3cb86b08	0.022511974
64	0x3e27b021	0.16375782
65	0x3d8f32be	0.069921
66	0xbd5641e2	-0.052308924
67	0x3df352e8	0.118810475
68	0xbe8ac246	-0.27101344
69	0x3e249f31	0.16076352
70	0xbed58c86	-0.41708773
71	0xbe63b3db	-0.22236578
72	0xbd4485af	-0.047979053
73	0xbd4ecced	-0.0504884
74	0xbd446771	-0.047950212
75	0x3e4aac4d	0.1979229
76	0xbe48cced	-0.19609423
77	0xbcbf8961	-0.023380937
78	0xbd5cf92f	-0.053948577
79	0xbdecf036	-0.11569254
80	0xbea0f317	-0.31435463
81	0x3dd75d65	0.105158605
82	0x3c9cde70	0.019149035
83	0x3d9ed882	0.07756139
84	0x3df1ea27	0.11812239
85	0xbd389866	-0.045067213
86	0x3e47295b	0.1944937
87	0x3dd3a835	0.10334817
88	0x3e01b0b2	0.1266506
89	0x3ddf6ac1	0.109090336
90	0x3d782ef9	0.06059167
91	0x3e15ec3f	0.14640902
92	0xbea32494	-0.31863844
93	0x3ca8b1ab	0.020592531
94	0xbef32b9b	-0.47494206
95	0xbc888433	-0.0166646
96	0x3dffcb3e	0.12489937
97	0xbe2cec12	-0.16886929
98	0xbd86d1c7	-0.065829806
99	0x3e4b5637	0.19857107
100	0xbbead8da	-0.007166964
101	0x3e3ac56f	0.18239377
102	0x3d5fe7ed	0.05466454
103	0x3e283429	0.16426148
104	0x3dd7d399	0.10538406
105	0xbde2e59b	-0.1107895
106	0x3df97c91	0.12181962
107	0xbe05d383	-0.13068967
108	0x3e005f6e	0.12536404
109	0x3e34175d	0.17587037
110	0xbd051b87	-0.032496955
111	0xbe4771e5	-0.19477041
112	0x3e4d9844	0.20077616
113	0xbd2833ff	-0.041065212
114	0x3d9cf4a0	0.07663846
115	0x3dccf400	0.10007477
116	0x3e14f013	0.14544706
117	0xbce9bfab	-0.028533777
118	0x3d7027f8	0.058631867
119	0xbd1191b5	-0.035539348
120	0x3e2b80f9	0.16748418
121	0xbe44b3fc	-0.19209284
122	0xbdfbef18	-0.12301463
123	0xbd938180	-0.072024345
124	0xbb0a5622	-0.0021108468
125	0xbe6ccccd	-0.23125
126	0x3deaddd8	0.114680946
127	0x3e4a342d	0.19746466
128	0xbc3cca02	-0.011522772
129	0x3dff052c	0.12452158
130	0xbd8ebb1e	-0.069692835
131	0xbe2c13ad	-0.1680438
132	0xbc9e6a42	-0.019337777
133	0xbdccdc8e	-0.10003005
134	0x3e1cc5d1	0.15309836
135	0x3e1db737	0.15401922
136	0xbee3c2d6	-0.44484586
137	0x3e0da408	0.13832104
138	0x3de31c79	0.11089415
139	0x3e219ba1	0.15782024
140	0xbd1e151c	-0.03859435
141	0x3e27ea43	0.16397958
142	0xbddc3f17	-0.10754221
143	0x3e7c96c6	0.2466689
144	0xbe6a08da	-0.22854939
145	0xbc20c37c	-0.009812232
146	0xbf0e614d	-0.5561722
147	0x3d1bd16f	0.03804153
148	0xbdcc85f0	-0.09986484
149	0x3e1b6a41	0.15177251
150	0xbe117239	-0.14203729
151	0x3db8bab7	0.09019988
152	0x3e14e30c	0.14539737
153	0xbd8e3102	-0.06942941
154	0xbd208542	-0.039189585
155	0xbb717d8d	-0.0036848516
156	0x3e1c7823	0.15280204
157	0x3e0d60ea	0.13806501
158	0xbaa566fc	-0.0012619193
159	0x3e09be47	0.13451491
160	0xbe9c73b9	-0.3055704
161	0x3c8289de	0.01593488
162	0xbbe2dfbd	-0.0069236443
163	0xbb9fbaf6	-0.0048745824
164	0xbcb0b37e	-0.021569964
165	0x3ba903b3	0.0051579117
166	0xbd5e5a0c	-0.054285094
167	0xbef8fd87	-0.48630926
168	0x3e1a6714	0.15078384
169	0xbe76a7c8	-0.24087441
170	0xbf0b9f43	-0.5453989
171	0x3dc57130	0.096407294
172	0x3e40310f	0.18768714
173	0xbf297343	-0.661915
174	0x3dea7891	0.114487775
175	0x3dd8365b	0.105572425
176	0xbd758591	-0.059941832
177	0x3e06a73f	0.13149737
178	0x3e33fb93	0.17576437
179	0xbd99439c	-0.074835986
180	0x3dd6f7f3	0.10496511
181	0xbdc12825	-0.09431485
182	0x3b6059d4	0.003423323
183	0x3d952758	0.07282895
184	0x3e4c0459	0.19923533
185	0x3df6014d	0.12011967
186	0xbe594a7a	-0.21219817
187	0x3db9485d	0.09047005
188	0x3ea57217	0.32313606
189	0x3e21670f	0.1576197
190	0x3d96f17a	0.07370277
191	0x3e22e53a	0.15907755
192	0x3d27c777	0.04096171
193	0xbea92b64	-0.33040917
194	0xbd9f3530	-0.077738166
195	0x3d931fcf	0.071838014
196	0x3dee48b4	0.11634961
197	0x3d955767	0.07292061
198	0xbd36e340	-0.044650316
199	0x3e0d9208	0.13825238

l3.weight f4 [4, 200]
0	0xbd9daa99	-0.076985545
1	0x3f5f0a10	0.8712473
2	0xbfcbb0dd	-1.5913349
3	0xbf5d7131	-0.8650084
4	0x3f003aad	0.5008953
5	0x3e5e8a88	0.21732533
6	0x3e71b799	0.23605193
7	0x3e4aac01	0.19792177
8	0xbde8d881	-0.1136942
9	0x3e7e4bc9	0.24833597
10	0xbf3cfc94	-0.73822904
11	0xbde9bc15	-0.11412827
12	0x3f86d1ea	1.0532811
13	0x3e57b874	0.21066457
14	0x3e836c02	0.2566834
15	0x3e65d3e9	0.22444119
16	0x3d2c2016	0.042022787
17	0x3e733d78	0.23753917
18	0xbea30e7d	-0.3184699
19	0xbeaa2680	-0.33232498
20	0x3eb3a01e	0.35083097
21	0xbf2403c8	-0.6406827
22	0x3e4ceb1c	0.20011562
23	0x3ec5dc5a	0.38644677
24	0xbeff09f3	-0.49812278
25	0xbd90c0b7	-0.070680074
26	0x3e0dc134	0.13843232
27	0x3e968da4	0.29404938
28	0x3f04fc93	0.519479
29	0x3eae519f	0.34046647
30	0xbf46047b	-0.77350587
31	0x3eaf3849	0.3422263
32	0x3e4903e5	0.19630392
33	0x3eeeb0d9	0.466193
34	0x3e777119	0.24164237
35	0x3f1ce1e8	0.61282206
36	0x3ea76408	0.32693505
37	0x3e91c486	0.28470248
38	0xbf950dea	-1.1644871
39	0x3eaad29a	0.333638
40	0x3b3f1dec	0.0029162122
41	0x3e8ba3ad	0.27273312
42	0x3e9fa865	0.31183162
43	0xbf696586	-0.9117054
44	0x3ea24fc0	0.3170147
45	0xbed30a65	-0.41218868
46	0x3e5befd3	0.21478204
47	0x3e6d37ba	0.23165789
48	0x3e8dd4ac	0.27701318
49	0xbed66f29	-0.41881683
50	0x3d38b429	0.04509369
51	0x3d7d0f7a	0.061782338
52	0xbf353b53	-0.70793647
53	0x3e491f38	0.19640815
54	0x3d292860	0.04129827
55	0x3edae051	0.42749265
56	0x3c803b74	0.01565335
57	0x3e840e45	0.25792137
58	0x3f7c1a8c	0.9847801
59	0xbbdacc67	-0.0066771987
60	0x3f9be2ad	1.2178551
61	0xbe32ee55	-0.17473729
62	0x3f005122	0.501238
63	0x3de5de9e	0.112241015
64	0x3e4cf299	0.20014419
65	0x3e771688	0.24129689
66	0x3d1d0670	0.038336217
67	0x3e85755a	0.26066095
68	0x3f63482b	0.88781995
69	0x3e507d80	0.20360374
70	0x3f98d521	1.1940042
71	0xbf9d50fb	-1.2290338
72	0x3be52cd1	0.006993868
73	0xbda0fa65	-0.07860259
74	0x3ea9d9e4	0.3317405
75	0x3e3edfca	0.18640056
76	0xbf6756fa	-0.9036709
77	0x3d308b5b	0.04310165
78	0x3bb5a0d0	0.005542852
79	0x3f67ce23	0.90548915
80	0x3df7e5d2	0.121043816
81	0x3e574766	0.2102333
82	0xbd8973b9	-0.067115255
83	0x3e6d2881	0.23159982
84	0x3e23a1ac	0.15979642
85	0x3f087040	0.5329628
86	0xbf141ce3	-0.5785658
87	0x3e6bc6f1	0.23025109
88	0x3e3b3d16	0.18285021
89	0x3e79cf25	0.24395426
90	0xbf20a0d2	-0.6274539
91	0x3e84d6f2	0.2594524
92	0xbf93b057	-1.153819
93	0x3d696f90	0.05699116
94	0x3f3c3210	0.7351389
95	0xbc8c1260	-0.017098606
96	0x3e9b013d	0.30274382
97	0x3f19f094	0.6013272
98	0x3f89e7f8	1.0773916
99	0xbf1c0b19	-0.60954434
100	0x3d339dd3	0.043851685
101	0x3e347466	0.17622527
102	0xbeb5d9dc	-0.35517776
103	0x3e402bca	0.18766704
104	0x3e2cfe7c	0.16893953
105	0xbeb9b560	-0.3627119
106	0x3eec76bc	0.46184337
107	0xbf6ecfe3	-0.9328596
108	0xbec53cc9	-0.38522938
109	0x3eeb987d	0.46014777
110	0xbf0a28bd	-0.5396841
111	0xbf1be854	-0.6090138
112	0xbf24ec31	-0.644229
113	0xbe46cc8f	-0.1941397
114	0x3e4685f9	0.19387044
115	0x3e6015d4	0.21883327
116	0x3e4727cf	0.1944878
117	0x3d3f8f39	0.046767447
118	0x3e670adc	0.22562736
119	0x3dd830ac	0.105561584
120	0x3e5f67d0	0.21816945
121	0x3eeb2484	0.45926297
122	0x3eea1ed8	0.45726657
123	0xbf25e802	-0.6480714
124	0x3e00ad77	0.12566172
125	0xbee1afc2	-0.44079405
126	0x3e69410b	0.22778718
127	0xbe4da58e	-0.20082685
128	0xbf3f3c0a	-0.7470099
129	0x3ea18870	0.31549406
130	0xbd82c392	-0.06384958
131	0xbe12d8f5	-0.14340575
132	0x3ccd09e0	0.025029123
133	0xbe4fdfc4	-0.20300204
134	0x3e5a5c3e	0.2132425
135	0x3e741b2c	0.2383849
136	0xbf754fba	-0.9582478
137	0x3e2b91dd	0.16754861
138	0x3e7b32a3	0.24531035
139	0xbecfc8d4	-0.40582907
140	0xbc9967ee	-0.018726315
141	0x3ea32139	0.31861284
142	0x3e7413a6	0.2383562
143	0xbe6c0b39	-0.23051156
144	0xbf49a994	-0.7877438
145	0xbf802c44	-1.0013509
146	0xbf5bdef6	-0.85887086
147	0x3e40b61d	0.1881947
148	0x3e44b2e4	0.19208866
149	0x3e9229fd	0.2854766
150	0x3f6315a0	0.8870487
151	0xbf2b4a3a	-0.66910136
152	0x3e7979cc	0.24362868
153	0x3ec4f9df	0.38471887
154	0xbe4a1649	-0.19735064
155	0xbd4ab068	-0.04948464
156	0x3e1f5c5d	0.15562578
157	0x3e656eaa	0.22405496
158	0x3d14fadd	0.036372054
159	0x3e4b3bcf	0.19847034
160	0xbede5450	-0.434237
161	0x3cf5af6d	0.029990876
162	0x3d5827ca	0.05277232
163	0xbf4999cc	-0.787503
164	0xbf29e391	-0.66362864
165	0x3f281580	0.65657806
166	0xbf74c404	-0.95611596
167	0xbf67975d	-0.9046534
168	0x3edf08e9	0.43561485
169	0x3d6e8ff9	0.05824277
170	0xbe0a0c72	-0.1348131
171	0x3e8320e1	0.25611022
172	0x3e8205f0	0.25395155
173	0xbf51a456	-0.8189138
174	0x3e4d20b7	0.20032011
175	0xbf04836d	-0.5176304
176	0x3cf6394c	0.030056618
177	0xbea5c4c2	-0.32376677
178	0x3e870fbf	0.263792
179	0xbb2062c3	-0.002447293
180	0x3e868abd	0.26277724
181	0xbeee6702	-0.46562964
182	0x3e1913a4	0.14948899
183	0xbecfa676	-0.40556687
184	0x3e781f80	0.24230766
185	0x3e61794d	0.22018929
186	0x3ea5ce42	0.32383925
187	0x3e4e078f	0.20120071
188	0x3f20e9c6	0.6285671
189	0x3e78be65	0.2429138
190	0x3e9c7ef0	0.30565596
191	0xbec5157c	-0.38492954
192	0xbf422c9d	-0.75849324
193	0x3f3cf01b	0.7380387
194	0x3e5b9263	0.21442561
195	0xbeecc037	-0.46240398
196	0x3eeec128	0.46631742
197	0x3f8ccb3c	1.0999522
198	0xbd5c0fd9	-0.05372605
199	0xbf004ea5	-0.5012
200	0xbf1efbaa	-0.6210276
201	0x3f463bf8	0.77435255
202	0xbf9fc348	-1.248147
203	0xbf593f21	-0.8486195
204	0x3efb914e	0.49134296
205	0x3e802dba	0.25034887
206	0x3e3eae77	0.1862124
207	0xbeb6e6fe	-0.35723108
208	0x3e70b72d	0.23507376
209	0x3eb28f88	0.3487513
210	0xbf49b94b	-0.7879836
211	0xbe9fcef5	-0.31212583
212	0x3f99c060	1.2011833
213	0x3e15a846	0.14614972
214	0x3e3e5aac	0.18589276
215	0x3e93153d	0.2872714
216	0xbd342567	-0.043980982
217	0x3e700055	0.23437627
218	0xbeb46271	-0.35231355
219	0xbe4dd546	-0.20100889
220	0x3d727a86	0.05919888
221	0xbf2ec1fa	-0.68264735
222	0x3e43c947	0.1911975
223	0x3f083a3d	0.53213865
224	0xbef0af58	-0.47008777
225	0xbdbbcc28	-0.09169799
226	0x3ec6fa74	0.38862956
227	0x3e6978fe	0.22800061
228	0x3ef1b56e	0.47208732
229	0x3e9ebc60	0.31003094
230	0xbf3abc21	-0.7294331
231	0x3edb1211	0.4278722
232	0x3e70f295	0.23530038
233	0x3df2a80f	0.11848461
234	0x3e434a18	0.19071233
235	0x3e7335bf	0.23750971
236	0x3ee3181c	0.44354331
237	0x3ea9fb8d	0.3319973
238	0xbf537312	-0.8259746
239	0x3e8a0787	0.26958868
240	0x3e8a4088	0.27002358
241	0x3eae5e21	0.3405619
242	0x3e188fc2	0.14898589
243	0xbf85c0e4	-1.044949
244	0x3e67cb6f	0.22636198
245	0xbf1b3c40	-0.6063881
246	0x3e8cea07	0.275223
247	0x3e4faf25	0.20281656
248	0x3eedc0eb	0.46436247
249	0xbeabb0c5	-0.33533302
250	0x3d59ae3d	0.053144682
251	0xbd86efc9	-0.06588704
252	0xbf48d69c	-0.7845247
253	0x3e5c7b03	0.215313
254	0x3d663eba	0.056212164
255	0x3f07691c	0.5289476

l3.bias f4 [4]
0	0x3dea971f	0.11454605
1	0xbb56b401	-0.00327611
2	0x3e4e71b4	0.20160562
3	0x3e5e3069	0.21698155
