fin/DDQN/agent-300-10-332/target_model.pt (torch, 340543 bytes, 6 tensors)

l1.weight f4 [400, 8]
0	0xbe43548a	-0.19075218
1	0xbe116d93	-0.14201955
2	0x3e273b22	0.16331151
3	0xbdc0e94a	-0.09419496
4	0xbe72924f	-0.23688625
5	0xbd1ec4fb	-0.038762074
6	0xbf0b421f	-0.5439777
7	0xbe935d61	-0.2878218
8	0xbcda93a0	-0.026681721
9	0x3d8e7ecf	0.069577806
10	0x3e53b170	0.20673156
11	0x3f425dbf	0.75924295
12	0x3dac16f5	0.08402816
13	0xbdf979d8	-0.12181443
14	0xbea0b98f	-0.3139157
15	0x3ed2c238	0.41163802
16	0xbe0ac85d	-0.13552995
17	0x3e14dbb6	0.14536938
18	0xbdd54f96	-0.104155704
19	0x3f040f57	0.51585907
20	0xbfb5f53b	-1.4215463
21	0xbe4a1c24	-0.19737297
22	0xbe9a0131	-0.30079034
23	0xbe433e70	-0.19066787
24	0x3f10f7cf	0.56628126
25	0x3ec48bc4	0.38387883
26	0xbe909fe0	-0.28246975
27	0xbeb722c8	-0.35768723
28	0x3e0eae76	0.13933739
29	0xbde4b050	-0.111664414
30	0xbeeaeb47	-0.45882627
31	0xbf24f128	-0.64430475
32	0x3e8627c3	0.2620221
33	0x3ee0ef2c	0.43932474
34	0xbeb6f128	-0.35730863
35	0xbec8cd62	-0.39219195
36	0xbe6829ae	-0.2267215
37	0xbe795934	-0.24350435
38	0xbe5844b1	-0.21119954
39	0xbe9a2357	-0.30105087
40	0x3f1b7bc7	0.60735744
41	0x3d7fee9f	0.062483426
42	0x3ebab865	0.36468807
43	0x3e9f957c	0.31168735
44	0x3e9c4716	0.30522984
45	0x3f4a0f43	0.7892954
46	0xbf314cd6	-0.6925787
47	0x3e5421b1	0.20715977
48	0xbd818c9f	-0.063256495
49	0x3e80c914	0.2515341
50	0x3e03b8cc	0.12863463
51	0x3e782deb	0.24236266
52	0xbf3d8534	-0.74031377
53	0xbf3e19cc	-0.7425811
54	0xbf8cc5ef	-1.0997905
55	0xbf1f94b3	-0.6233627
56	0xbd5fae6a	-0.054609694
57	0xbdb99eca	-0.0906349
58	0xbc240a51	-0.010012225
59	0xbd854630	-0.06507528
60	0xbf5d499d	-0.8644045
61	0xbc7a1a88	-0.015265115
62	0xbe65ee6e	-0.22454235
63	0x3e1634e7	0.14668618
64	0xbf4685fb	-0.7754819
65	0xbdfb86ee	-0.12281595
66	0xbef9fa75	-0.48823896
67	0x3f1f7e00	0.62301636
68	0xbf2699be	-0.6507834
69	0xbe826dd9	-0.25474432
70	0x3ed64ea8	0.41856885
71	0x3e5d5aa3	0.21616606
72	0x3c8ee3ca	0.017442603
73	0xbd41c8e4	-0.047310725
74	0x3e6b944b	0.23005788
75	0x3ebdb5ba	0.3705271
76	0xbfb4aed7	-1.4115857
77	0xbf16a1d0	-0.58840656
78	0xbe13af24	-0.1442228
79	0x3a298f08	0.00064681517
80	0xbe6d7fbd	-0.2319326
81	0xbd0ebf09	-0.034850154
82	0xbea44614	-0.32084715
83	0x3e32c603	0.17458348
84	0x3edfe7d9	0.43731573
85	0x3eb7d422	0.35904032
86	0xbeb60273	-0.35548744
87	0x3e2d37da	0.16915837
88	0x3f3f3c28	0.74701166
89	0xbf08e483	-0.5347368
90	0x3ef3b69e	0.47600263
91	0x3db71285	0.08939079
92	0x3a339dbb	0.0006851812
93	0x3e3ec167	0.18628465
94	0xbf1d2eda	-0.61399615
95	0x3ed10da4	0.4083072
96	0x3e753afa	0.23948279
97	0x3df20b8b	0.11818608
98	0x3e1109f5	0.14163955
99	0x3e308a4b	0.17240255
100	0x3e04b2af	0.12958787
101	0x3f4e7fce	0.80663764
102	0xbf589019	-0.84594876
103	0x3e6ad746	0.22933683
104	0xbe28ab08	-0.16471493
105	0xbc8c07aa	-0.017093498
106	0x3f110333	0.56645507
107	0x3e4b2c91	0.1984122
108	0xbf2a87da	-0.66613543
109	0xbe00f31c	-0.12592739
110	0xbf266876	-0.65003145
111	0x3e071ce1	0.1319461
112	0xbe7a3299	-0.24433364
113	0xbdff85b5	-0.124766745
114	0xbf43420b	-0.7627265
115	0x3d0e1c52	0.034694977
116	0x3f3b2ed5	0.73118335
117	0x3e48a3e1	0.19593765
118	0xbb38bf58	-0.0028190222
119	0x3ebec06c	0.3725618
120	0xbeae03be	-0.3398723
121	0xbec523b2	-0.38503796
122	0x3e8d5038	0.27600265
123	0xbf4d5515	-0.8020795
124	0xbe915b55	-0.28389993
125	0xbf7f811f	-0.998064
126	0xbf3918a8	-0.7230325
127	0x3f1cd359	0.6125999
128	0x3e819b48	0.25313783
129	0x3d8d9ffb	0.069152795
130	0x3f18a8be	0.5963248
131	0x3ec95707	0.3932421
132	0xbeb7d85d	-0.3590726
133	0xbe4bf901	-0.19919206
134	0xbf19185b	-0.5980279
135	0x3e4394c3	0.19099717
136	0x3fa77362	1.3082087
137	0xbe21acbe	-0.15788552
138	0x3e731d53	0.23741655
139	0xbec64f49	-0.38732365
140	0x3e0aa877	0.13540827
141	0x3e85ad93	0.2610899
142	0x3f1560ec	0.58351016
143	0xbf1d730d	-0.6150368
144	0x3db72500	0.08942604
145	0xbe049e16	-0.1295093
146	0x3b483280	0.0030547678
147	0x3d88d490	0.06681168
148	0xbc312180	-0.01081121
149	0x3ce611f0	0.028084725
150	0xbe396c30	-0.18107677
151	0x3d82db14	0.06389442
152	0x3fa943aa	1.3223774
153	0xbc136d36	-0.008998206
154	0x3f18c636	0.59677446
155	0x3eb9878b	0.36236224
156	0x3df2b0f3	0.11850157
157	0x3f2cadef	0.674529
158	0xbc226903	-0.009912732
159	0xbe1ffba9	-0.15623344
160	0xbf49cb42	-0.7882577
161	0x3e814306	0.25246447
162	0x3f0a89b0	0.54116344
163	0xbe3aecf6	-0.18254456
164	0x3e56ea50	0.2098782
165	0xbe360cc3	-0.17778306
166	0xbec8ec44	-0.39242756
167	0x3e89f51a	0.2694481
168	0xbdba193d	-0.09086845
169	0x3c140452	0.009034233
170	0x3bd77a03	0.006575824
171	0xbd97db17	-0.07414835
172	0x3fe17b35	1.7615725
173	0x3a0123a2	0.0004926269
174	0xbec5013f	-0.38477513
175	0xbe15e749	-0.1463901
176	0xbcc4c787	-0.024020923
177	0x39bee5d8	0.0003641087
178	0x3f54db02	0.8314668
179	0xbf26ebd2	-0.65203583
180	0xbb295f2b	-0.0025844078
181	0xbc246617	-0.010034106
182	0xbfc15e39	-1.510688
183	0x3cfa6da6	0.030569863
184	0xbdccab2c	-0.09993586
185	0xbec8aea7	-0.3919575
186	0x3e10e762	0.14150766
187	0xbe6b0a6b	-0.22953193
188	0x3df8afb6	0.12142889
189	0x3de5720f	0.112033956
190	0xbe281f62	-0.16418222
191	0xbf300700	-0.6876068
192	0x3e618d1b	0.22026484
193	0xbd8f142f	-0.069862716
194	0x3fc8567b	1.5651392
195	0xbcfcd23f	-0.030861972
196	0xbe417b66	-0.18894729
197	0xbd282cbd	-0.04105829
198	0x3e8abdbd	0.27097884
199	0xbe99558b	-0.29948077
200	0xbd61228d	-0.05496459
201	0x3e1dee7b	0.15423004
202	0xbdd9dcb2	-0.106377974
203	0x3e715e25	0.2357107
204	0x3e363e1b	0.17797129
205	0xbf08aef3	-0.5339195
206	0xbfaf0d56	-1.3675945
207	0x3d40b6a9	0.0470492
208	0xbec5558c	-0.3854183
209	0xbe26dab7	-0.1629437
210	0x3f00dae5	0.50334007
211	0xbf32d85f	-0.69861406
212	0xbec2716c	-0.3797716
213	0xbf2ca660	-0.6744137
214	0xbeb09251	-0.3448663
215	0x3e8daa12	0.27668816
216	0xbf29f78f	-0.6639337
217	0xbda63cc7	-0.08117061
218	0xbf5ff134	-0.8747742
219	0xbd2693db	-0.04066835
220	0x3fcafe86	1.5858924
221	0x3e3ce584	0.18446928
222	0xbd2afe14	-0.041746214
223	0xbdf97679	-0.121808
224	0xbe0d3a6f	-0.13791822
225	0xbe1b0cdf	-0.15141629
226	0x3ee25f3c	0.44213283
227	0xbee7f451	-0.45303586
228	0xbf190036	-0.59765947
229	0xbf436642	-0.7632791
230	0x3f14ce93	0.5812771
231	0xbe7c9163	-0.24664836
232	0xbd1540b3	-0.036438655
233	0xbe6471ae	-0.2230899
234	0x3e830938	0.2559297
235	0xbd8c6e9a	-0.06857033
236	0xbf1f1f93	-0.62157553
237	0x3e186e67	0.14885865
238	0xbf2ff1d7	-0.68728393
239	0xbecf60d1	-0.40503553
240	0x3e9b22eb	0.30300078
241	0xbe7ac107	-0.24487697
242	0x3dc85900	0.097826004
243	0xbf10763c	-0.5643041
244	0x3d12596d	0.035729814
245	0x3eb4b354	0.35293067
246	0x3e281f60	0.16418219
247	0xbed16df6	-0.40904206
248	0x3f22ed6f	0.63643545
249	0x3e9eb6bc	0.3099879
250	0x3dfda149	0.12384278
251	0x3f0579f0	0.52139187
252	0x3e6152f8	0.22004306
253	0x3f259155	0.64674884
254	0xbf12e6dd	-0.5738352
255	0x3e33ed02	0.1757088

l1.bias f4 [400]
0	0xbd7a7d7e	-0.061154835
1	0x3d8f65db	0.07001849
2	0x3defc0d9	0.11706705
3	0x3a923c1e	0.0011156832
4	0xbe06a7f5	-0.13150008
5	0xbf35ec89	-0.7106405
6	0x3e2b27a0	0.16714334
7	0x3e1a7652	0.15084198
8	0x3d36315c	0.044480667
9	0x3e6f1564	0.23348004
10	0xbf3793d8	-0.71709967
11	0xbde6a942	-0.11262752
12	0xbf25c222	-0.6474935
13	0xbea1a4f5	-0.31571165
14	0xbf291cbc	-0.6605947
15	0xbf0afdc2	-0.54293454
16	0xbe9304fb	-0.28714737
17	0xbc87af80	-0.016563177
18	0xbe93261e	-0.2874002
19	0xbea619ee	-0.32441658
20	0xbf1d94d8	-0.6155524
21	0xbcaa8df1	-0.020819636
22	0x3b6b67a7	0.0035919936
23	0xbf029adf	-0.51017565
24	0x3cac3b69	0.021024423
25	0x3e1fc6f0	0.15603232
26	0xbf3a05dc	-0.7266519
27	0xbd7e5ba9	-0.062099133
28	0xbefabd7e	-0.48972696
29	0x3dd33163	0.10312154
30	0xbec86fb2	-0.39147717
31	0xbf0fdff7	-0.5620112
32	0xbbff59f4	-0.0077927057
33	0x3d40f5be	0.047109358
34	0xbed29498	-0.41128993
35	0xbe411a4e	-0.1885769
36	0x3da34ec7	0.0797401
37	0x3df1bf08	0.118040144
38	0xbbedec58	-0.0072608404
39	0xbda9bf66	-0.082884595
40	0x3ddca8c3	0.10774376
41	0x3e374347	0.17896758
42	0x3ebc238c	0.3674587
43	0xbee09235	-0.43861547
44	0xbef907e6	-0.4863884
45	0xbe974dfa	-0.2955168
46	0x3cf95d91	0.030440124
47	0x3e0851e9	0.13312496
48	0x3d3afa3b	0.045648795
49	0xbb57a69a	-0.0032905699
50	0x3d8efaf5	0.0698146
51	0xbdcf5563	-0.10123708
52	0x3e4113dd	0.18855233
53	0xbe9b7a51	-0.30366758
54	0xbea0bae2	-0.3139258
55	0x3e8b485f	0.27203652
56	0xbe9341a3	-0.28761014
57	0xbe443ffe	-0.19165036
58	0xbe815e61	-0.25267318
59	0xbdfd9421	-0.12381769
60	0x3dda280c	0.106521696
61	0xbf28c846	-0.65930593
62	0xbf1b7db6	-0.60738695
63	0xbc908f32	-0.017646406
64	0xbc52da32	-0.012869405
65	0x3da27426	0.0793231
66	0x3e903bff	0.28170773
67	0xbea1d6ab	-0.3160909
68	0x3e01cf28	0.1267668
69	0x3b5872ae	0.0033027339
70	0xbf408950	-0.7520952
71	0xbf0d6cb0	-0.5524397
72	0x3df5ea5a	0.1200759
73	0x3c008e93	0.007846492
74	0xbb8f815d	-0.004379435
75	0x3de0968a	0.10966213
76	0x3d8fac09	0.07015235
77	0xbe8f0d5f	-0.2793989
78	0xbdda866e	-0.10670172
79	0xbf26656b	-0.649985
80	0xbee5e5fb	-0.44902024
81	0x3d89bc9a	0.06725426
82	0x3da9ad7a	0.08285041
83	0x3cbf24e6	0.023333024
84	0xbe9d7362	-0.30752093
85	0x3de8c5d4	0.11365858
86	0x3c6e6761	0.014551015
87	0xbd9db0fb	-0.07699772
88	0xbe81abd3	-0.25326404
89	0x3dff17eb	0.12455734
90	0x3e382cbd	0.17985816
91	0xbe8cfeda	-0.27538186
92	0xbe8deae1	-0.2771826
93	0x3ce0ff1c	0.027465396
94	0xbe1e0dfb	-0.1543502
95	0x3e491911	0.19638468
96	0x3ba7e0cf	0.005123235
97	0x3e8e7134	0.27820742
98	0xbeef7a7c	-0.46773136
99	0xbe9f805a	-0.31152612
100	0xbe977650	-0.29582453
101	0xbd281847	-0.041038778
102	0xbed095f8	-0.40739417
103	0x3ea1c280	0.31593704
104	0x3e5f5c8d	0.21812649
105	0x3eb00247	0.34376737
106	0xbeb746e4	-0.35796273
107	0xbf36b92b	-0.71376294
108	0x3daa49db	0.08314868
109	0x3be19152	0.0068837786
110	0xbe882577	-0.26591083
111	0xbe641ceb	-0.22276656
112	0x3e049412	0.1294711
113	0xbec8a240	-0.39186287
114	0x3e0d2c89	0.1378652
115	0xbc0513ed	-0.008122426
116	0xbef0cb78	-0.47030234
117	0x3c9a8a50	0.01886478
118	0xbe6e94b7	-0.23298918
119	0x3da643c2	0.081183925
120	0xbee6496a	-0.44977885
121	0x3de47295	0.11154667
122	0xbe484364	-0.19556957
123	0xbe20a88d	-0.15689297
124	0x3dc4b125	0.096041
125	0xbec0fe66	-0.3769409
126	0x3dc14682	0.094372764
127	0xbea7b797	-0.32757255
128	0x3ddb50df	0.10708784
129	0x3e9cbd28	0.30613065
130	0x3cb8926c	0.022530757
131	0xbe557c2d	-0.2084815
132	0xbee90c39	-0.45517138
133	0x3e3e0534	0.18556672
134	0xbf19fbdb	-0.60149926
135	0xbcf7f3b9	-0.030267583
136	0xbe78da37	-0.24301992
137	0x3e1035c9	0.14083017
138	0x3e1df310	0.15424752
139	0xbebee077	-0.37280628
140	0xbf02da20	-0.5111408
141	0xbc26e46d	-0.010186297
142	0xbd8ce3d9	-0.06879396
143	0x3eb6ef6a	0.35729533
144	0xbf242a6a	-0.6412722
145	0xbec886f7	-0.3916547
146	0xbded6174	-0.11590853
147	0x3c0fa48e	0.00876726
148	0xbe161acf	-0.14658664
149	0x3d22d0be	0.039749853
150	0xbf26fb5a	-0.6522728
151	0xbddaabbe	-0.106772885
152	0xbf12d11b	-0.5735032
153	0x3d0069c7	0.031350877
154	0xbec44746	-0.38335627
155	0x3df557c6	0.11979632
156	0xbb3bb289	-0.002864035
157	0x3d5de8a9	0.05417696
158	0xbe8ea4f1	-0.27860215
159	0xbe1adedc	-0.15124077
160	0x3cf60d25	0.030035565
161	0xbeadb6d6	-0.33928555
162	0x3e5d3fc8	0.21606362
163	0xbf2586c4	-0.6465876
164	0x3d6345c8	0.05548647
165	0xbee226e1	-0.44170287
166	0xbf1ba4f5	-0.6079858
167	0xbebb4089	-0.36572674
168	0x3d9fe162	0.0780666
169	0x3e44a2b7	0.19202696
170	0xbe61fe9e	-0.22069785
171	0x3e18ac0b	0.14909379
172	0xbd21524b	-0.03938512
173	0xbefff55a	-0.49991876
174	0xbca7f1cd	-0.020501042
175	0x39ce1d56	0.0003931324
176	0x3d4d044f	0.050052937
177	0xbf47b743	-0.7801401
178	0xbf16d257	-0.58914703
179	0xbe241d8c	-0.16026896
180	0xbe9f4112	-0.31104332
181	0xbe1143dd	-0.14186044
182	0x3e456982	0.1927853
183	0x3eaedd42	0.3415318
184	0xbedb4a06	-0.42829913
185	0xbf13bbd2	-0.57708466
186	0x3e2f1c39	0.1710061
187	0xbe61dfb2	-0.22057989
188	0xbe06ec70	-0.13176131
189	0xbd600633	-0.054693412
190	0xbf1c4fe7	-0.6105942
191	0x3ddc2c4a	0.10750635
192	0xbc1f6aa4	-0.009730015
193	0xbede468b	-0.43413195
194	0xbf186c35	-0.5954011
195	0x3e6ff1ac	0.23432034
196	0xbe33d75a	-0.17562619
197	0xbda6e4e2	-0.08149125
198	0x3dc132e7	0.09433537
199	0x3e3d6e4a	0.18499103
200	0xbe8faa86	-0.28059787
201	0xbc166429	-0.0091791535
202	0xbe8e90f5	-0.27844968
203	0x3e39c893	0.18142919
204	0x3cd5c71d	0.026095921
205	0xbd9172a7	-0.07101946
206	0xbd9eb1ed	-0.077487804
207	0x3e3e19bd	0.18564506
208	0x3cd2fb72	0.025754664
209	0xbb7d6578	-0.0038665216
210	0x3e0b2b52	0.13590744
211	0xbe305137	-0.17218481
212	0xbe87cc15	-0.2652289
213	0x3c59e34d	0.013298822
214	0x3e84d89f	0.2594652
215	0xbe1458c6	-0.1448699
216	0x3db52398	0.088446796
217	0xbe17f8ba	-0.14840975
218	0x3df6d3b6	0.120520994
219	0xbb526d9c	-0.003210879
220	0xbcda0e60	-0.026618183
221	0xbda68eb1	-0.08132685
222	0x3da505e9	0.08057768
223	0x3e2d3aa9	0.16916908
224	0x3b8e8080	0.0043488145
225	0xbea99278	-0.3311956
226	0xbe52f095	-0.20599587
227	0x3ccc3d15	0.02493147
228	0x3e160e70	0.14653945
229	0xbbee7a08	-0.007277731
230	0xbd88588c	-0.06657514
231	0x3e85b018	0.2611091
232	0xbf1e061c	-0.6172807
233	0xbebf17dc	-0.3732289
234	0xbe37ce29	-0.17949738
235	0xbe0fc2c5	-0.14039142
236	0xbe3dcc7a	-0.18535033
237	0x3e4c9b50	0.19981122
238	0xbf1bf9be	-0.6092795
239	0xbe524741	-0.20534994
240	0xbf2f0baf	-0.683772
241	0xbed4e591	-0.41581395
242	0x3dccebfa	0.100059465
243	0x3c842ba3	0.016134089
244	0x3de6bb1c	0.11266157
245	0xbf178720	-0.5919056
246	0x3e0f730e	0.14008734
247	0xbdf1f73a	-0.11814733
248	0xbecb6276	-0.39723557
249	0x3cfb53d8	0.030679628
250	0x3db1e637	0.08686488
251	0xbf1e5f69	-0.61864334
252	0xbeacd82e	-0.33758682
253	0xbebca8ee	-0.36847633
254	0x3e681fb6	0.22668347
255	0xbc0aadaa	-0.008464256

l2.weight f4 [200, 400]
0	0xbe629092	-0.22125462
1	0x3e82ea49	0.2556937
2	0x3e716b65	0.23576124
3	0x3d002c2c	0.031292126
4	0x3db4ea56	0.088337585
5	0x3e970655	0.29497018
6	0x3e9d92b4	0.30775988
7	0x3e4ab140	0.19794178
8	0x3e3b9da0	0.18321848
9	0x3e889000	0.26672363
10	0xbef61e22	-0.48069865
11	0xbe2d69b0	-0.16934848
12	0x3e51c924	0.20486885
13	0x3ea7ca39	0.3277147
14	0xbe1e9d40	-0.15489674
15	0xbff2c92f	-1.8967646
16	0x3e92201e	0.28540128
17	0x3e42ce98	0.19024122
18	0xbce59283	-0.028023964
19	0x3ce769d1	0.0282487
20	0x3eb4b477	0.35293934
21	0xbdf14c5f	-0.11782145
22	0xbe609641	-0.21932317
23	0x3cf2c904	0.029636867
24	0x3e1b28c2	0.15152267
25	0x3da38205	0.07983784
26	0xbf5255ab	-0.8216197
27	0x3e3da19b	0.18518679
28	0xbfa8c074	-1.3183732
29	0x3e72acfa	0.23698798
30	0x3d642ac4	0.055704847
31	0x3ea0a2cd	0.31374207
32	0x3e2c035a	0.16798154
33	0x3e705877	0.23471247
34	0xbe8a69ea	-0.2703393
35	0xbd9b7a2f	-0.07591664
36	0xbb8ce14f	-0.00429932
37	0x3e2a092d	0.16605063
38	0x3ae6c48f	0.0017606186
39	0xbf69793d	-0.9120062
40	0x3e70c80c	0.23513812
41	0x3e08e65e	0.13369128
42	0x3e202a53	0.15641145
43	0x3d831605	0.06400684
44	0xbec021b0	-0.37525702
45	0x3e193eb0	0.1496532
46	0x3e50aa3a	0.20377436
47	0x3e076638	0.13222587
48	0x3e1390b0	0.14410663
49	0x3d3ebcc8	0.046566755
50	0x3e1a0a78	0.15043056
51	0x3e6d89ac	0.23197049
52	0x3c77e218	0.015129589
53	0x3e225ae6	0.15854988
54	0xbe8ffebd	-0.28124037
55	0x3e85b04a	0.2611106
56	0xbeb724d5	-0.35770288
57	0xbd78d373	-0.06074853
58	0x3e83fb25	0.25777546
59	0x3e45cbfe	0.19316098
60	0x3e129ce4	0.14317662
61	0x3e4ceb99	0.20011748
62	0x3ea32c4b	0.3186973
63	0x3e416b50	0.18888593
64	0xbecd2eb1	-0.40074685
65	0x3d1b315d	0.037888873
66	0x3d78906f	0.060684618
67	0x3f028686	0.50986516
68	0x3e028028	0.127442
69	0xbd2c4044	-0.042053476
70	0xbf37ea44	-0.71841836
71	0x3ecd6cba	0.40122014
72	0xbc3dc8b4	-0.011583496
73	0xbeee8a47	-0.46589872
74	0xbe9b13d5	-0.30288568
75	0xbf413aa9	-0.75480133
76	0x3e91e58b	0.2849544
77	0xbe272260	-0.16321707
78	0xbd628b0c	-0.055308387
79	0x3e5a174f	0.21297954
80	0x3e8ed73b	0.27898583
81	0x3d02d225	0.03193869
82	0x3e17d69d	0.14827962
83	0x3dbf40e1	0.093385465
84	0x3e1326a7	0.14370213
85	0x3d4a6f75	0.0494227
86	0xbf2eac25	-0.6823142
87	0x3e7ffd0e	0.24998876
88	0x3e90610d	0.28199044
89	0x3e2b5787	0.16732608
90	0x3e400e15	0.18755372
91	0x3ef13f07	0.471184
92	0xbdf4fed3	-0.11962666
93	0xbe4fd8f5	-0.20297606
94	0x3ed87048	0.42273164
95	0xbcf835e7	-0.03029914
96	0xbde8ea3f	-0.11372804
97	0xbefe4b50	-0.49666834
98	0xbd056cb3	-0.032574367
99	0xbea1f292	-0.3163038
100	0xbc7744da	-0.015092099
101	0xbeb60590	-0.3555112
102	0x3db79a25	0.089649476
103	0x3dc84dc9	0.09780461
104	0xbe285ada	-0.16440907
105	0xbc641102	-0.013920071
106	0xbe50efbb	-0.2040395
107	0xbea9515d	-0.33069888
108	0x3e3ad9df	0.18247174
109	0xbf0b9a5d	-0.54532415
110	0xbf313efe	-0.69236743
111	0xbe686f63	-0.2269874
112	0x3d62c94f	0.055367764
113	0xbd6e3099	-0.058151815
114	0xbf11f7de	-0.5701884
115	0xbb3478d9	-0.002753785
116	0xbefec69f	-0.4976091
117	0x3e45802d	0.19287176
118	0x3e9e7345	0.3094732
119	0x3e843cae	0.25827545
120	0x3f55e8c8	0.8355832
121	0xbe4f9e25	-0.20275171
122	0xbca48fb0	-0.020088047
123	0xbf7528c5	-0.95765334
124	0x3e015036	0.12628254
125	0xbf38d9f8	-0.72207594
126	0x3de04d74	0.10952273
127	0x3dab42a4	0.0836232
128	0x3e1ab376	0.15107521
129	0x3e5f70a2	0.2182031
130	0x3c91cf16	0.017798942
131	0xbf33b036	-0.7019075
132	0x3e5dad99	0.21648254
133	0xbe5821fc	-0.21106714
134	0x3e7410fb	0.23834603
135	0x3e034532	0.12819365
136	0x3ee1a0c8	0.4406798
137	0x3d69df27	0.05709758
138	0x3de5a723	0.112135194
139	0x3d048417	0.032352533
140	0x3f8587b7	1.0432042
141	0xbf7e79ad	-0.9940441
142	0x3e6ddab9	0.23227967
143	0x3d7a16cf	0.06105691
144	0x3d8ff7e0	0.070297
145	0xbf039dd0	-0.5141268
146	0x3e9269f9	0.28596476
147	0xbe87de75	-0.2653691
148	0x3d5e7d16	0.05431851
149	0x3e8319f7	0.25605747
150	0xbfa516ea	-1.2897618
151	0xbe01245f	-0.1261153
152	0x3dcfdbd8	0.10149354
153	0x3e1ae521	0.15126468
154	0x3dc443ae	0.095832214
155	0x3b1e3ccb	0.0024145122
156	0x3de47ffb	0.11157223
157	0x3ec48c02	0.38388067
158	0x3e15a52f	0.14613794
159	0xbeb0c5bb	-0.34525856
160	0xbdf0364b	-0.117291056
161	0x3e83cf39	0.25744036
162	0x3cd6fa9d	0.026242549
163	0xbebecc0a	-0.37265044
164	0x3edda842	0.43292433
165	0xbf10ac9a	-0.5651337
166	0x3e9848e6	0.29743117
167	0xbce0a246	-0.027421128
168	0x3e314735	0.1731232
169	0x3e341487	0.17585956
170	0x3dcf7150	0.101290345
171	0x3c956599	0.018236922
172	0x3e08e8b8	0.13370025
173	0xbff1cede	-1.8891256
174	0xbf06bf7b	-0.52635926
175	0x3d553f65	0.05206241
176	0x3e345f2f	0.17614435
177	0x3e11171e	0.14168975
178	0xc001b632	-2.0267453
179	0x3ed3bb65	0.41353908
180	0x3e93da5a	0.28877527
181	0xbdfdda3d	-0.12395141
182	0x3e0b8440	0.13624668
183	0x3e051492	0.12996128
184	0xc0035967	-2.0523317
185	0xbee9e20b	-0.4568027
186	0x3c71546f	0.014729603
187	0x3d7637c5	0.06011178
188	0x3ddd37c5	0.10801653
189	0xbd5a6693	-0.05332048
190	0x3eea5c70	0.4577365
191	0x3ea0762d	0.3134016
192	0xbe8b3331	-0.27187493
193	0x3e71543a	0.23567286
194	0xbdb4ed95	-0.08834378
195	0x3c7a4d14	0.015277166
196	0x3dba288e	0.090897664
197	0xbeca7749	-0.39544132
198	0x3e1c9a26	0.15293178
199	0x3d8bc7ad	0.068251945
200	0xbd4886fa	-0.04895685
201	0xbef27777	-0.4735677
202	0x3e99cafe	0.30037683
203	0x3d2f09cb	0.04273395
204	0x3e4d4259	0.20044841
205	0x3e17eaf9	0.14835729
206	0xbd8547ed	-0.065078594
207	0x3e907767	0.28216097
208	0x3e3b7cda	0.18309346
209	0xbd54dffe	-0.051971428
210	0x3d0dab17	0.034586992
211	0xbd935862	-0.07194592
212	0xbf5bbbbe	-0.85833347
213	0x3d202a09	0.039102588
214	0x3e0c1353	0.13679247
215	0x3e639b2f	0.22227167
216	0x3e925c77	0.2858617
217	0x3da5daa0	0.0809834
218	0x3d5deaa2	0.05417884
219	0xbded4ae8	-0.11586553
220	0xbd343ef5	-0.044005353
221	0x3e6247f4	0.2209776
222	0x3d379c55	0.044826824
223	0xbdbd3519	-0.09238643
224	0xbc6a4aa0	-0.014300019
225	0xbf1aa521	-0.60408217
226	0x3f42d686	0.76108587
227	0xbd90968e	-0.07059966
228	0x3d5000ff	0.0507822
229	0x3db5a4d9	0.08869333
230	0xbf936d7c	-1.1517787
231	0xbe3921a3	-0.18079238
232	0x3eb3be98	0.3510635
233	0x3da36136	0.07977526
234	0x3dbdfe4f	0.09277021
235	0xbd7e3c32	-0.062069125
236	0xbdc6d790	-0.09709084
237	0x3d85972d	0.06522975
238	0xbf05be9c	-0.5224397
239	0xbe6df129	-0.23236527
240	0xbe3cf52b	-0.18452899
241	0x3f5d59a3	0.864649
242	0x3e1e178d	0.15438671
243	0x3d2f9dd3	0.042875122
244	0xbd75d897	-0.06002101
245	0xbf535566	-0.8255218
246	0x3dad304c	0.084564775
247	0x3da91bcb	0.08257254
248	0xbe175433	-0.14778213
249	0x3cd06b91	0.025441917
250	0xbe076586	-0.13222322
251	0x3df55ac2	0.11980201
252	0x3c6c26f2	0.014413582
253	0x3eb9696e	0.3621325
254	0x3db7f64e	0.08982526
255	0xbf173029	-0.5905786

l2.bias f4 [200]
0	0x3e1a83ee	0.1508939
1	0xbf306217	-0.68899673
2	0xbe37d1e5	-0.17951162
3	0x3e031521	0.12801029
4	0x3e4e7f81	0.20165826
5	0x3e148732	0.14504698
6	0x3e288719	0.16457786
7	0xbe61f085	-0.22064407
8	0x3c3f6129	0.01168088
9	0x3cb490d8	0.022041723
10	0xbe596343	-0.21229272
11	0xbdd0318a	-0.10165699
12	0xbdf3644f	-0.11884367
13	0x3d9c5595	0.07633511
14	0x3cf1e30a	0.029527206
15	0x3e2c5f10	0.16833138
16	0x3c812131	0.015762897
17	0x3e2155b6	0.15755352
18	0x3d00f0bb	0.03147958
19	0xbdadf36c	-0.08493695
20	0xbe260813	-0.16214018
21	0xbc43df6f	-0.011955126
22	0x3e0d8bf6	0.13822922
23	0xbe832f9f	-0.2562227
24	0x3db071ab	0.086154304
25	0xbe468cde	-0.19389674
26	0xbd70dc3a	-0.058803774
27	0x3d8c9feb	0.068664394
28	0xbe6efd7c	-0.23338884
29	0x3e29107d	0.16510196
30	0x3e11aac7	0.14225303
31	0xbdbda5c6	-0.092601344
32	0x3d7e1b65	0.062037844
33	0xbdc9292d	-0.09822307
34	0x3dd98c78	0.106224954
35	0x3e525de7	0.20543633
36	0xbe288f83	-0.16460995
37	0x3e0376ae	0.12838241
38	0xbec6d4b9	-0.3883417
39	0x3dad7542	0.08469631
40	0xbd10df61	-0.03536928
41	0xbc7faebf	-0.015605628
42	0x3e00068a	0.12502494
43	0xbed6b975	-0.41938367
44	0x3e17ad73	0.1481226
45	0x3e0e5914	0.13901168
46	0x3dfab413	0.12241378
47	0x3def164d	0.116741754
48	0x3e228588	0.1587125
49	0xbd56b188	-0.0524154
50	0xbb99a382	-0.004688681
51	0xbd630ff8	-0.05543515
52	0xbe94c364	-0.2905532
53	0x3e716f19	0.23577537
54	0xbd7f22f0	-0.06228918
55	0x3c2fa9cc	0.010721635
56	0xbc027454	-0.007962305
57	0x3e35818b	0.17725198
58	0xbe232df8	-0.15935504
59	0xbbc9e24b	-0.0061610094
60	0xbef01fec	-0.46899354
61	0xbc7b2e18	-0.015330814
62	0x3e5add91	0.21373583
63	0x3cb71d07	0.022352709
64	0x3e279d7a	0.16368666
65	0x3d8f1e2e	0.06988178
66	0xbd5641e2	-0.052308924
67	0x3df35b6a	0.1188267
68	0xbe8a9eed	-0.27074376
69	0x3e2494a5	0.16072328
70	0xbed6068d	-0.41801873
71	0xbe634d2d	-0.22197409
72	0xbd4485af	-0.047979053
73	0xbd4ecced	-0.0504884
74	0xbd496aa7	-0.049173977
75	0x3e4aa7a3	0.19790511
76	0xbe49b634	-0.19698411
77	0xbcbf8961	-0.023380937
78	0xbd5cf92f	-0.053948577
79	0xbdec2e18	-0.11532229
80	0xbea0f54d	-0.3143715
81	0x3dd6f9df	0.10496878
82	0x3c9cde70	0.019149035
83	0x3d9eae7c	0.07748124
84	0x3df1be21	0.11803842
85	0xbd36ceef	-0.04463094
86	0x3e47308e	0.19452116
87	0x3dd38509	0.10328109
88	0x3e01b85f	0.12667988
89	0x3ddf10a6	0.10891847
90	0x3d7bbe48	0.061460763
91	0x3e15f0c5	0.14642628
92	0xbea32494	-0.31863844
93	0x3ca8b1ab	0.020592531
94	0xbef32b9b	-0.47494206
95	0xbc888433	-0.0166646
96	0x3dff9f96	0.124816105
97	0xbe2cd8bf	-0.16879557
98	0xbd86d15b	-0.065829
99	0x3e4bd45a	0.19905224
100	0xbbead8da	-0.007166964
101	0x3e3ac09c	0.18237537
102	0x3d5e06e8	0.054205805
103	0x3e2814f1	0.16414239
104	0x3dd799ec	0.10527405
105	0xbde2e59b	-0.1107895
106	0x3df977f0	0.121810794
107	0xbe05d158	-0.1306814
108	0x3e003060	0.12518454
109	0x3e34077c	0.1758098
110	0xbd07ada6	-0.03312459
111	0xbe475ffc	-0.19470209
112	0x3e4dc8e2	0.20096162
113	0xbd26848d	-0.040653754
114	0x3d9ccd93	0.07656398
115	0x3dcce9b8	0.10005516
116	0x3e14e14d	0.1453907
117	0xbce9bfab	-0.028533777
118	0x3d703431	0.058643524
119	0xbd10cb03	-0.035349857
120	0x3e2b52e1	0.16730835
121	0xbe4454fb	-0.19173042
122	0xbdfb3735	-0.12266389
123	0xbd939fba	-0.072082
124	0xbb27096d	-0.0025487796
125	0xbe6c3cdb	-0.2307009
126	0x3deac2b2	0.114629164
127	0x3e4a09e3	0.19730334
128	0xbc432007	-0.011909491
129	0x3dff5748	0.124678195
130	0xbd8ebb1e	-0.069692835
131	0xbe2c13ad	-0.1680438
132	0xbc9d12c6	-0.019173991
133	0xbdccdc8e	-0.10003005
134	0x3e1cbe45	0.15306957
135	0x3e1d4da9	0.15361656
136	0xbee3525d	-0.44398776
137	0x3e0d96eb	0.13827102
138	0x3de2ffea	0.11083968
139	0x3e2169da	0.15763035
140	0xbd1e151c	-0.03859435
141	0x3e27dd57	0.16393028
142	0xbddc3272	-0.10751809
143	0x3e7c94a0	0.24666071
144	0xbe6a3cab	-0.22874705
145	0xbc1ecee5	-0.009692882
146	0xbf0e69b4	-0.5563004
147	0x3d1b7df3	0.03796191
148	0xbdcc80a7	-0.09985476
149	0x3e1b5a2e	0.1517112
150	0xbe11b144	-0.14227778
151	0x3db80113	0.0898458
152	0x3e14db67	0.1453682
153	0xbd8d2af1	-0.06892956
154	0xbd222e14	-0.039594725
155	0xbb717d8d	-0.0036848516
156	0x3e1c5c4c	0.15269583
157	0x3e0d53ee	0.13801548
158	0xbaa566fc	-0.0012619193
159	0x3e09aec3	0.13445573
160	0xbe9c73b9	-0.3055704
161	0x3c8289de	0.01593488
162	0xbbe2dfbd	-0.0069236443
163	0xbba76f0c	-0.0051096734
164	0xbcaea9a5	-0.021321127
165	0x3ba903b3	0.0051579117
166	0xbd5d0e33	-0.05396862
167	0xbef8943c	-0.48550594
168	0x3e1a236a	0.15052572
169	0xbe76b1c4	-0.2409125
170	0xbf0b9c77	-0.5453562
171	0x3dc562ca	0.09637983
172	0x3e403107	0.18768702
173	0xbf297191	-0.66188914
174	0x3dea5807	0.11442571
175	0x3dd8e42b	0.105903946
176	0xbd758591	-0.059941832
177	0x3e06de48	0.13170731
178	0x3e33bf99	0.17553557
179	0xbd99439c	-0.074835986
180	0x3dd711c1	0.10501433
181	0xbdc1a978	-0.09456152
182	0x3b61b695	0.0034441103
183	0x3d9655eb	0.07340606
184	0x3e4bf729	0.19918503
185	0x3df5ebc8	0.12007862
186	0xbe594a7a	-0.21219817
187	0x3db8b9e8	0.09019834
188	0x3ea57683	0.3231698
189	0x3e216680	0.15761757
190	0x3d964f7d	0.0733938
191	0x3e2301c4	0.15918642
192	0x3d267b7c	0.040645108
193	0xbea95817	-0.3307502
194	0xbd9f3530	-0.077738166
195	0x3d92d5c1	0.071696766
196	0x3ded6a18	0.115925014
197	0x3d95023c	0.07275817
198	0xbd36e340	-0.044650316
199	0x3e0dccb6	0.13847622

l3.weight f4 [4, 200]
0	0xbd9ee27c	-0.07758042
1	0x3f5f079e	0.87121
2	0xbfcbb0dd	-1.5913349
3	0xbf5d5981	-0.864647
4	0x3f0043df	0.50103563
5	0x3e5e9851	0.21737792
6	0x3e71cc9e	0.23613212
7	0x3e4aabdb	0.1979212
8	0xbde88d22	-0.11355044
9	0x3e7ea82d	0.24868841
10	0xbf3cf249	-0.738072
11	0xbde881c7	-0.11352878
12	0x3f86f716	1.0544155
13	0x3e57f9c4	0.21091372
14	0x3e83acfc	0.25717914
15	0x3e65ea9a	0.22452775
16	0x3d2c2016	0.042022787
17	0x3e732ba1	0.23747112
18	0xbea2ae98	-0.3177383
19	0xbea9d61e	-0.3317117
20	0x3eb3a01e	0.35083097
21	0xbf2439d7	-0.64150757
22	0x3e4d3006	0.2003785
23	0x3ec5dc5a	0.38644677
24	0xbefea32b	-0.49733862
25	0xbd90c09f	-0.070679896
26	0x3e0ddb31	0.13853146
27	0x3e96831a	0.29396898
28	0x3f04d761	0.5189114
29	0x3eae48ab	0.34039816
30	0xbf4617e1	-0.77380186
31	0x3eaf501b	0.34240803
32	0x3e4957f3	0.19662456
33	0x3ef0359a	0.46915895
34	0x3e779703	0.241787
35	0x3f1cec1d	0.6129778
36	0x3ea76408	0.32693505
37	0x3e91de3d	0.28489867
38	0xbf951e53	-1.1649879
39	0x3eaada1f	0.33369538
40	0x3b50eca4	0.003187933
41	0x3e8b85f6	0.27250642
42	0x3e9fc950	0.31208277
43	0xbf69657e	-0.9117049
44	0x3ea24902	0.31696326
45	0xbed3c070	-0.41357756
46	0x3e5be40e	0.21473715
47	0x3e6d7c59	0.23191966
48	0x3e8dc440	0.2768879
49	0xbed68a39	-0.4190233
50	0x3d38b429	0.04509369
51	0x3d7d0f7a	0.061782338
52	0xbf3509cf	-0.7071809
53	0x3e48c5e0	0.19606733
54	0x3d292860	0.04129827
55	0x3edb37c6	0.4281599
56	0x3c81afac	0.015830837
57	0x3e841928	0.25800443
58	0x3f7c25f8	0.98495436
59	0xbbdacc67	-0.0066771987
60	0x3f9bdbcb	1.217645
61	0xbe320fa6	-0.17388782
62	0x3f005349	0.50127083
63	0x3de6cc13	0.11269393
64	0x3e4ceb13	0.20011549
65	0x3e774e60	0.24150991
66	0x3d1d0670	0.038336217
67	0x3e859ef5	0.26097837
68	0x3f63482b	0.88781995
69	0x3e510da4	0.2041536
70	0x3f98d1be	1.1939008
71	0xbf9d50fb	-1.2290338
72	0x3be52cd1	0.006993868
73	0xbda0fa65	-0.07860259
74	0x3ea91a4a	0.3302787
75	0x3e3eebbf	0.18644617
76	0xbf672888	-0.9029622
77	0x3d308b5b	0.04310165
78	0x3bb5a0d0	0.005542852
79	0x3f67fd26	0.9062065
80	0x3df7e5d2	0.121043816
81	0x3e5726ed	0.21010943
82	0xbd8973b9	-0.067115255
83	0x3e6d55e4	0.23177296
84	0x3e246e58	0.16057718
85	0x3f08b406	0.53399694
86	0xbf145147	-0.5793652
87	0x3e6c1ccb	0.23057859
88	0x3e3b893b	0.18314068
89	0x3e7a213e	0.24426743
90	0xbf20ff97	-0.6289
91	0x3e85086c	0.25982988
92	0xbf93b057	-1.153819
93	0x3d696f90	0.05699116
94	0x3f3c3210	0.7351389
95	0xbc8c1260	-0.017098606
96	0x3e9b0c47	0.30282804
97	0x3f19aee0	0.60032463
98	0x3f8a2744	1.0793233
99	0xbf1c0c25	-0.6095603
100	0x3d339dd3	0.043851685
101	0x3e34bbab	0.17649715
102	0xbeb6316c	-0.3558458
103	0x3e4049c7	0.18778144
104	0x3e2d731a	0.16938439
105	0xbeb9b560	-0.3627119
106	0x3eeca353	0.46218356
107	0xbf6ecfe3	-0.9328596
108	0xbec50b8d	-0.38485375
109	0x3eebb76b	0.46038374
110	0xbf09fe1d	-0.5390337
111	0xbf1bedbc	-0.6090963
112	0xbf24d730	-0.6439085
113	0xbe4767b3	-0.19473152
114	0x3e46cefc	0.19414896
115	0x3e605bc4	0.21910006
116	0x3e478193	0.19483022
117	0x3d3f8f39	0.046767447
118	0x3e673861	0.225801
119	0x3dd875f1	0.105693705
120	0x3e5f59fd	0.21811672
121	0x3eeb24d9	0.4592655
122	0x3eea6aae	0.45784515
123	0xbf25e75c	-0.6480615
124	0x3e00befd	0.12572856
125	0xbee1d746	-0.44109553
126	0x3e699468	0.22810519
127	0xbe4cdca8	-0.20006049
128	0xbf3f102d	-0.7463406
129	0x3ea19bc8	0.31564164
130	0xbd82c392	-0.06384958
131	0xbe12d8f5	-0.14340575
132	0x3ccb6b84	0.02483154
133	0xbe4fdfc4	-0.20300204
134	0x3e5aac04	0.21354681
135	0x3e7421c2	0.23841003
136	0xbf756d57	-0.95869964
137	0x3e2bc816	0.16775545
138	0x3e7b3841	0.24533178
139	0xbecfbe00	-0.40574646
140	0xbc9967ee	-0.018726315
141	0x3ea31382	0.3185082
142	0x3e74f989	0.23923315
143	0xbe6bb02e	-0.23016426
144	0xbf490c5a	-0.7853447
145	0xbf803f0b	-1.0019239
146	0xbf5bdef6	-0.85887086
147	0x3e4126c2	0.18862441
148	0x3e44b2e4	0.19208866
149	0x3e924bde	0.28573507
150	0x3f62ef7c	0.88646674
151	0xbf2b232f	-0.6685056
152	0x3e79dc0f	0.24400352
153	0x3ec4e358	0.384547
154	0xbe4b029b	-0.19825213
155	0xbd4ab068	-0.04948464
156	0x3e1f3379	0.15546979
157	0x3e65c6e3	0.2243915
158	0x3d14fadd	0.036372054
159	0x3e4b8e1a	0.19878426
160	0xbede5450	-0.434237
161	0x3cf5af6d	0.029990876
162	0x3d5827ca	0.05277232
163	0xbf497b8d	-0.7870415
164	0xbf29f9d0	-0.6639681
165	0x3f281580	0.65657806
166	0xbf74c426	-0.956118
167	0xbf67ad44	-0.9049876
168	0x3edeff62	0.43554217
169	0x3d6f01ad	0.058351208
170	0xbe0a0c72	-0.1348131
171	0x3e833ffd	0.25634757
172	0x3e821e7a	0.25413877
173	0xbf51a456	-0.8189138
174	0x3e4d9c70	0.20079207
175	0xbf049931	-0.5179625
176	0x3cf6394c	0.030056618
177	0xbea5674b	-0.3230537
178	0x3e872e11	0.26402333
179	0xbb2062c3	-0.002447293
180	0x3e86d780	0.26336288
181	0xbeedccc8	-0.46445298
182	0x3e196fbb	0.14984028
183	0xbecfcb90	-0.40584993
184	0x3e7852d9	0.24250354
185	0x3e61c9e2	0.22049668
186	0x3ea5ce42	0.32383925
187	0x3e4dbf2d	0.20092459
188	0x3f20daa8	0.6283364
189	0x3e791b65	0.24326856
190	0x3e9c6f86	0.30553836
191	0xbec52677	-0.3850591
192	0xbf425e7d	-0.7592543
193	0x3f3cc44c	0.73737025
194	0x3e5b9263	0.21442561
195	0xbeec870e	-0.4619679
196	0x3eeeb9e0	0.46626186
197	0x3f8c9fae	1.098623
198	0xbd5c0fd9	-0.05372605
199	0xbf0021fc	-0.50051856
200	0xbf1f0a48	-0.6212506
201	0x3f467f95	0.77538425
202	0xbf9fc348	-1.248147
203	0xbf593458	-0.84845495
204	0x3efb7b5b	0.4911755
205	0x3e803c47	0.25045988
206	0x3e3eb69c	0.18624347
207	0xbeb6e6fe	-0.35723108
208	0x3e70ec12	0.23527554
209	0x3eb3013d	0.34961882
210	0xbf497170	-0.78688717
211	0xbe9fdab8	-0.31221557
212	0x3f99c11e	1.201206
213	0x3e159e13	0.14611082
214	0x3e3e0a47	0.18558608
215	0x3e9315ec	0.28727663
216	0xbd342567	-0.043980982
217	0x3e705e33	0.23473434
218	0xbeb42335	-0.3518311
219	0xbe4de72e	-0.2010772
220	0x3d727a86	0.05919888
221	0xbf2ebf6b	-0.6826083
222	0x3e43c18c	0.19116801
223	0x3f083a3d	0.53213865
224	0xbef0989a	-0.46991426
225	0xbdbbcc28	-0.09169799
226	0x3ec729eb	0.38899168
227	0x3e69a54f	0.22816966
228	0x3ef25f2b	0.47338232
229	0x3e9ed7de	0.3102407
230	0xbf3aaf4c	-0.7292373
231	0x3edb3956	0.4281718
232	0x3e70f1a8	0.23529685
233	0x3df2bb5a	0.11852141
234	0x3e43a5a1	0.19106151
235	0x3e731e57	0.23742042
236	0x3ee3181c	0.44354331
237	0x3eaa1ea8	0.33226514
238	0xbf537480	-0.8259964
239	0x3e8a333e	0.2699222
240	0x3e8ac963	0.2710677
241	0x3eae7454	0.34073126
242	0x3e18b854	0.14914066
243	0xbf85bbee	-1.0447977
244	0x3e682d91	0.22673632
245	0xbf1b4775	-0.6065591
246	0x3e8d0e38	0.2754991
247	0x3e4fa263	0.2027679
248	0x3eedce68	0.46446538
249	0xbeab7714	-0.33489287
250	0x3d59ae3d	0.053144682
251	0xbd86efc9	-0.06588704
252	0xbf48ca6d	-0.7843388
253	0x3e5c4d6f	0.21513914
254	0x3d663eba	0.056212164
255	0x3f077106	0.52906835

l3.bias f4 [4]
0	0x3deadc31	0.114677794
1	0xbb7294a3	-0.0037014864
2	0x3e4e9be8	0.20176661
3	0x3e5df2a0	0.21674585
