fin/DQN/agent-300-10-601/model.pt (torch, 340231 bytes, 6 tensors)

l1.weight f4 [400, 8]
-0.09920081 0.09462179 -0.42648637 -0.10201037 0.18943894 -0.3289657 -0.56006545 -1.1535856
-0.68604356 0.043108243 -0.88910663 0.20275208 -1.099628 -0.52623755 0.688874 -1.0841607
1.2264113 -0.16086917 0.7003518 0.3945255 0.1897772 0.3092814 0.25338042 -0.94691604
0.6439676 0.30717394 0.2774766 0.64061713 1.0144008 0.054591138 0.34013903 -0.15986975
-0.29472476 -0.2553262 0.06748482 0.35167974 0.8288489 1.0200069 -0.39350015 -1.0709641
0.72954667 0.0041885893 -0.36176345 -0.35714066 1.1474649 0.07688576 -0.69072676 -2.0071065
-0.30504772 -0.69781184 1.3283287 -0.24233179 0.18089375 -0.7985259 0.15233333 -0.6541693
-0.7401358 -0.08838738 -0.053753003 -0.5795879 -0.21102983 0.26300144 -1.6809603 -0.81491685
-0.10384268 -0.5947051 -0.16839597 0.077608995 0.6891862 0.19375032 -0.21016869 -0.15822092
-0.38546678 -0.19162513 0.13366184 -0.8385597 0.17085306 0.45767328 0.27878672 -0.13515723
-0.38933438 -0.48637736 -0.13505864 -0.9381756 0.5479144 0.4597636 0.49449536 -0.49317315
-0.3764375 0.14428583 -1.2456316 0.87464213 -0.19649401 -0.5287949 0.8157526 0.44117373
-0.049768906 0.21807458 0.3321959 1.1194109 0.51288 0.057708975 0.19088177 -0.057254218
0.04218683 -1.09572 -0.8248443 0.44540262 -0.5894407 0.9561404 0.16063245 0.5340164
-0.74200314 -0.5173257 0.2113684 -0.27823472 0.5724817 0.6400954 -0.8515741 -0.90005463
0.02442502 0.29187423 0.17938451 -0.034459025 0.38261822 -0.63596267 0.11507214 -0.19170377
0.21262915 -0.51116645 -0.17678247 0.6184636 0.11888895 0.39902878 -0.5514832 -0.69134766
0.89333546 -0.43840137 0.7821221 0.11869083 -0.8845737 0.00042481226 -0.52754605 0.2494356
-0.14306079 0.024698256 0.51598066 -1.0136964 -0.7381561 -0.31076285 -0.62907666 -0.6633705
-0.01629441 -0.88347864 1.511757 0.5701904 -0.3979377 -0.054314077 0.31664717 -0.59606224
-0.5699267 -0.38660038 0.31443998 0.44766322 0.46845746 0.72009844 -0.5192158 -0.7003148
0.72730607 0.028224224 0.08426123 -0.06874523 -0.3229529 0.2549445 0.2752436 -0.24567068
0.14075057 -0.010093054 -0.03681476 -0.13895112 0.17448273 -0.16683716 -0.21620026 -0.6089452
-0.49879488 -0.23530418 0.12172748 -0.029279212 0.6428317 0.6286054 -0.6864326 -0.039667577
0.5238345 0.17858706 0.15620679 0.25251672 0.3941143 0.1703505 0.46916908 -1.1731938
0.47501534 0.443182 -0.041204203 -0.39246643 0.5841993 -0.17830119 -0.032989964 0.44726056
-0.5449511 -0.20452179 -0.49746656 -0.16985624 0.27300456 0.63387376 0.71704966 -1.1329701
-0.24765998 0.05540838 -0.27943683 -0.115538776 -0.46254405 0.14563423 -0.14297073 -0.3002544
0.030401912 -0.041579213 2.474845 0.836223 -0.103568815 -0.048982255 -0.0012155639 -0.0098621445
0.1430512 -0.74461824 -1.5736258 0.15415382 0.5110465 0.4150764 0.6731258 -0.3113109
-0.7530582 -0.24678768 -0.37425834 0.23483458 -0.2821762 0.4258223 -0.44513613 -0.81661135
-0.075389355 -0.19168077 1.061663 0.04005541 -0.19009537 -0.15188989 -1.7585522 0.42909294
00000000: cb29 cbbd 12c9 c13d 6c5c dabe d0ea d0bd
00000010: 48fc 413e 316e a8be 7360 0fbf b1a8 93bf
00000020: 8da0 2fbf 4592 303d 7e9c 63bf 3e9e 4f3e
00000030: 9cc0 8cbf 81b7 06bf 0c5a 303f c7c5 8abf
00000040: 0cfb 9c3f e3ba 24be 414a 333f 3fff c93e
00000050: f454 423e 225a 9e3e 14bb 813e 1769 72bf
00000060: 10db 243f e745 9d3e 6a11 8e3e 7cff 233f
00000070: e3d7 813f f59a 5f3d b426 ae3e e5b4 23be
00000080: 2ae6 96be 1eba 82be 7b35 8a3d 5e0f b43e
00000090: 712f 543f 968f 823f da78 c9be 5a15 89bf
000000a0: 92c3 3a3f 6f40 893b 0f39 b9be 24db b6be
000000b0: 21e0 923f 4876 9d3d 78d3 30bf 6f74 00c0
000000c0: 372f 9cbe cca3 32bf ad06 aa3f d325 78be
000000d0: 363c 393e 326c 4cbf 45fd 1b3e a477 27bf
000000e0: 8a79 3dbf 7104 b5bd 1c2c 5cbd df5f 14bf
000000f0: 3418 58be 20a8 863e b529 d7bf 649e 50bf
00000100: 79ab d4bd 983e 18bf fe6f 2cbe 77f1 9e3d
00000110: 826e 303f 7c66 463e 7636 57be aa04 22be
00000120: e75b c5be 6139 44be a6de 083e d9ab 56bf
00000130: 1bf4 2e3e 2754 ea3e 22bd 8e3e a866 0abe
00000140: d656 c7be 7406 f9be d04c 0abe 472c 70bf
00000150: 1e44 0c3f 2266 eb3e 7f2e fd3e 3181 fcbe
00000160: 6abc c0be aabf 133e db70 9fbf 8ce8 5f3f
00000170: ba35 49be 1a5f 07bf 2ad5 503f 86e1 e13e
00000180: 7bda 4bbd f14e 5f3e 9515 aa3e db48 8f3f
00000190: 1b4c 033f 3f60 6c3d 8376 433e 6683 6abd
000001a0: 19cc 2c3d 8e40 8cbf ff28 53bf d00b e43e
000001b0: 96e5 16bf 9ec5 743f d57c 243e 4cb5 083f
000001c0: ebf3 3dbf 756f 04bf f570 583e c874 8ebe
000001d0: 298e 123f 4bdd 233f c300 5abf fb69 66bf
000001e0: fb16 c83c 8a70 953e 93b0 373e e824 0dbd
000001f0: 89e6 c33e 73ce 22bf f1aa eb3d fe4d 44be
00000200: 75bb 593e cedb 02bf 7706 35be a153 1e3f
00000210: 0d7c f33d 804d cc3e 012e 0dbf 29fc 30bf
00000220: a2b1 643f 2576 e0be 2739 483f 2e14 f33d
00000230: 6c73 62bf 56b9 de39 420d 07bf 0c6c 7f3e
00000240: 877e 12be ff53 ca3c 4f17 043f cec0 81bf
00000250: ccf7 3cbf 4f1c 9fbe 2b0b 21bf a6d2 29bf
00000260: db7b 85bc a82b 62bf 4181 c13f 00f8 113f
00000270: 7dbe cbbe 7078 5ebd 941f a23e 8997 18bf
00000280: b7e6 11bf 7cf0 c5be 47fe a03e 1d34 e53e
00000290: a8d9 ef3e 5f58 383f 54eb 04bf d547 33bf
000002a0: bb30 3a3f 7d36 e73c 2791 ac3d 4dca 8cbd
000002b0: 155a a5be 1688 823e bbec 8c3e 1891 7bbe
000002c0: eb20 103e 565d 25bc 13cb 16bd 3449 0ebe
000002d0: 9aab 323e 5cd7 2abe 9a63 5dbe d5e3 1bbf
000002e0: 0b62 ffbe 94f3 70be 424c f93d f5da efbc
000002f0: 9e90 243f 49ec 203f 0cba 2fbf 787a 22bd
00000300: 051a 063f 87df 363e acf4 1f3e df49 813e
00000310: 59c9 c93e 5d70 2e3e ee36 f03e 372b 96bf
00000320: 3635 f33e c0e8 e23e bdc5 28bd 5cf1 c8be
00000330: 168e 153f 9694 36be 7c20 07bd 56ff e43e
00000340: ea81 0bbf 296e 51be f0b3 febe cbee 2dbe
00000350: 41c7 8b3e 8d45 223f 9190 373f 2a05 91bf
00000360: 949a 7dbe e6f3 623d 5812 8fbe 989f ecbd
00000370: 93d2 ecbe 2421 153e eb66 12be f2ba 99be
00000380: 6e0d f93c f74e 2abd dc63 1e40 b612 563f
00000390: e31b d4bd 9ea1 48bd 8e53 9fba d594 21bc
000003a0: 047c 123e 4d9f 3ebf 926c c9bf 80da 1d3e
000003b0: f2d3 023f e584 d43e f951 2c3f 2464 9fbe
000003c0: 6cc8 40bf e9b5 7cbe ca9e bfbe 7a78 703e
000003d0: 6679 90be 6105 da3e e2e8 e3be 710d 51bf
000003e0: bc65 9abd f747 44be 93e4 873f 2411 243d
000003f0: 5ca8 42be 0689 1bbe 3d18 e1bf 12b2 db3e

l1.bias f4 [400]
0.059678935 -0.6637321 0.052951984 -0.7250454 -0.10393444 0.0472519 0.056958295 0.37528443
0.16880803 -0.41386107 -0.4957779 -0.67486835 0.18865407 -0.04700282 -0.38603655 0.20010796
-0.43331507 0.041698672 -0.06787233 0.030757915 -0.24169604 0.17553724 -0.06546192 -0.49452278
0.18671417 -0.51187116 -0.41832578 0.099903636 0.012201397 -0.16734602 0.04305319 0.42113134
-0.4475205 -0.90726614 -0.032959387 0.067207746 -0.49987167 -0.3325825 -0.41142106 -0.52308416
-0.19374102 -0.66471195 -0.001974916 0.030008 -0.35357717 -0.31978253 0.10782859 -0.36573836
-0.466866 -0.26387748 -0.33017436 -0.43432665 -0.5212202 -0.54438317 0.3811986 -0.5027498
0.48183104 0.015153581 -0.30540362 0.010154805 -0.006051254 -0.47013223 -0.6615461 -0.38420856
0.25668108 -0.54797035 -0.56894827 -0.33746722 -0.5133574 0.05423588 0.027663188 -0.53852016
0.04975405 -0.62886745 0.17151414 -0.3567414 0.12874651 -0.020971961 -0.7971843 0.49636427
0.108243264 -0.012825699 -0.6807816 0.02515719 -0.6477431 -0.20583148 -0.17813368 -0.64170533
0.2226558 0.044412717 0.061523948 0.40821773 0.3326192 0.43565208 -0.1774582 -0.5803345
0.2656742 0.007115536 -0.43574074 -0.49379283 -0.65948665 -0.62298536 -0.391285 0.0065530734
-0.1761969 -0.27676827 -0.26002866 -0.43934694 -0.050689865 -0.5043291 0.045631792 0.040636107
-0.30987272 -0.5876655 0.16259383 -0.19084767 -0.69248563 -0.25365347 -0.07191669 -0.12997311
-0.56379306 -0.2948213 -0.16568784 -0.14920193 -0.17791186 -1.3799073 -0.51448363 -1.513523
-0.018720051 -0.18127084 0.13103543 0.00989075 -0.36471778 -0.9018539 0.02089611 -0.2073487
-1.0471658 -0.08220972 -0.23428647 0.018916355 0.5407928 0.4242963 0.20506696 -0.042864453
-0.5911701 -0.17668946 -0.0046867705 -0.38181072 -0.07919149 0.45165026 0.101865456 0.0046725054
0.13460317 -0.5414324 -0.6482657 -0.42149863 0.47880325 -0.16040377 -0.48584512 0.013331271
-0.7094358 -0.3618818 -0.54307956 0.020752357 -0.057372414 -0.32059845 0.13959518 -0.333444
0.00024181431 -0.26666167 0.053861406 0.06950913 -0.31534126 -0.058115415 -0.023786962 0.04157836
-0.51472396 -0.00025250972 0.14063142 -0.6753733 0.20724641 -0.23536332 -1.32145 -0.30774492
-0.15367943 -0.39500752 -0.078477055 0.44141734 0.16914068 -0.0006391836 -0.2221739 0.013682599
-0.5236125 -0.21427381 -0.19193587 0.47580796 -0.29181764 -0.34829274 -0.64098936 0.628976
-0.32939413 -0.05843534 -0.11773672 -0.17608099 -0.27977604 0.46617815 -0.29622614 0.25261337
0.3501703 0.22949742 -0.7445178 -0.06510399 0.0877002 0.08924615 -0.00016802685 -0.24807674
-0.034430493 -0.16725391 0.41814926 -0.59861755 -0.20489936 0.48117328 -0.23881707 -0.42631763
-0.7486557 -0.28699982 0.34236524 -0.30747673 -0.00075118814 0.24079676 0.03879698 -0.1272396
-0.009473941 -0.0009759489 0.2753032 -0.49086905 -0.3910416 -0.12032313 0.26562393 -0.0014647403
-0.41835067 0.0052349665 0.36597532 -0.2975859 -0.07614676 0.0626205 -0.6798875 -0.43657416
0.06765332 0.33231023 -0.27694854 0.048494756 -0.288499 -0.3721053 0.009247795 0.35354814
00000000: e671 743d 59ea 29bf 2ee4 583d 939c 39bf
00000010: 94db d4bd 358b 413d 1a4d 693d 4825 c03e
00000020: 03dc 2c3e 99e5 d3be 9ad6 fdbe 2cc4 2cbf
00000030: 882e 413e 0786 40bd 95a6 c5be 1ae9 4c3e
00000040: 79db ddbe 3acc 2a3d a600 8bbd 06f8 fb3c
00000050: 2b7f 77be 09c0 333e e610 86bd 1732 fdbe
00000060: 0032 3f3e fd09 03bf cc2e d6be 479a cc3d
00000070: 5ee8 473c c15c 2bbe 8b58 303d 879e d73e
00000080: 6821 e5be 9842 68bf 6c00 07bd 37a4 893d
00000090: 2eef ffbe 4148 aabe c8a5 d2be d8e8 05bf
000000a0: 0c64 46be 902a 2abf 986d 01bb 56d3 f53c
000000b0: 1108 b5be 89ba a3be 3cd5 dc3d 0f42 bbbe
000000c0: 0f09 efbe f31a 87be 9d0c a9be 1060 debe
000000d0: b06e 05bf b25c 0bbf 772c c33e 36b4 00bf
000000e0: 8fb2 f63e ba46 783c dd5d 9cbe 5760 263c
000000f0: 9949 c6bb 2cb5 f0be 165b 29bf fcb6 c4be
00000100: b46b 833e c947 0cbf 98a6 11bf 81c8 acbe
00000110: 646b 03bf 7126 5e3d e99d e23c 75dc 09bf
00000120: e7ca 4b3d 75fd 20bf 67a1 2f3e cfa6 b6be
00000130: 20d6 033e 64cd abbc 4514 4cbf 7523 fe3e
00000140: a5ae dd3d e122 52bc b447 2ebf 7416 ce3c
00000150: 7ed2 25bf 7dc5 52be ad68 36be cd46 24bf
00000160: e2ff 633e 1cea 353d 8900 7c3d ea01 d13e
00000170: 104d aa3e ca0d df3e 9ab7 35be cd90 14bf
00000180: 7306 883e 7129 e93b 6919 dfbe 6ad2 fcbe
00000190: 1ed4 28bf f87b 1fbf 8256 c8be 2abb d63b
000001a0: f66c 34be 92b4 8dbe 7a22 85be 15f2 e0be
000001b0: 2da0 4fbd b61b 01bf 67e8 3a3d 0c72 263d
000001c0: a3a7 9ebe 3f71 16bf ff7e 263e 926d 43be
000001d0: bd46 31bf dede 81be 0f49 93bd ac17 05be
000001e0: be54 10bf d1f2 96be 13aa 29be 64c8 18be
000001f0: 872e 36be cda0 b0bf 33b5 03bf 1fbb c1bf
00000200: cb5a 99bc 109f 39be 272e 063e d00c 223c
00000210: 4abc babe e6df 66bf 522e ab3c 3853 54be
00000220: 8709 86bf 925d a8bd cbe8 6fbe 79f6 9a3c
00000230: 6671 0a3f 5d3d d93e 13fd 513e a392 2fbd
00000240: ec56 17bf 15ee 34be 7b93 99bb b27c c3be
00000250: 262f a2bd b43e e73e d69e d03d d11b 993b
00000260: 6ad5 093e 509b 0abf bef4 25bf abce d7be
00000270: b325 f53e e340 24be b1c0 f8be 676b 5a3c
00000280: 969d 35bf 9248 b9be 4307 0bbf d900 aa3c
00000290: 56ff 6abd 7b25 a4be 0af2 0e3e 2cb9 aabe
000002a0: 898f 7d39 e187 88be c79d 5c3d ce5a 8e3d
000002b0: 6974 a1be 6e0a 6ebd e0dc c2bc 124e 2a3d
000002c0: f3c4 03bf 4863 84b9 af01 103e 44e5 2cbf
000002d0: 6738 543e 1503 71be 4625 a9bf be90 9dbe
000002e0: 245e 1dbe 6d3e cabe 94b8 a0bd 7401 e23e
000002f0: 3733 2d3e e38e 27ba 8e81 63be fb2c 603c
00000300: 780b 06bf 986a 5bbe d68a 44be 1a9d f33e
00000310: 1f69 95be 6d53 b2be e117 24bf 9204 213f
00000320: 59a6 a8be e559 6fbd f31f f1bd 934e 34be
00000330: ce3e 8fbe e7ae ee3e f4aa 97be 8a56 813e
00000340: 8649 b33e 5f01 6b3e b898 3ebf 3e55 85bd
00000350: 2a9c b33d afc6 b63d 5d30 30b9 d407 7ebe
00000360: fd06 0dbd 9c44 2bbe a917 d63e 003f 19bf
00000370: 23d1 51be 585c f63e 768c 74be 4e46 dabe
00000380: e6a7 3fbf a4f1 92be 7f4a af3e 976d 9dbe
00000390: 62eb 44ba 6d93 763e 95e9 1e3d 194b 02be
000003a0: 9738 1bbc d2d6 7fba 8bf4 8c3e 3053 fbbe
000003b0: 9b36 c8be f96b f6bd dcff 873e 87fc bfba
000003c0: 0f32 d6be 158a ab3b 1e61 bb3e 2e5d 98be
000003d0: d5f2 9bbd 2d3f 803d 1b0d 2ebf a686 dfbe
000003e0: d38d 8a3d 9124 aa3e 33cc 8dbe 70a2 463d
000003f0: 24b6 93be 9684 bebe 1084 173c 4304 b53e

l2.weight f4 [200, 400]
0.003490493 0.029631779 -0.03311524 0.024244271 -0.024858076 -0.019118357 0.009953547 -0.04120244
0.03264992 -0.035703074 -0.015706874 -0.046961483 -0.028010346 -0.051994044 0.0034639162 -0.02129628
-0.04225389 0.04198724 -0.05559928 -0.014810245 -0.030295622 -0.05959724 -0.06371057 -0.017579898
-0.003691635 0.030553248 0.024099128 -0.053227913 -0.016977463 -0.010720795 0.0073948745 0.017757172
-0.0064161597 0.019658798 -0.037450075 0.024569027 -0.033759333 0.04595941 -0.031271037 0.040180564
0.0030872535 -0.04492029 0.02156288 0.013143061 0.045675736 0.0006669147 -0.033965625 -0.0446061
-0.04541786 -0.05055204 -0.03160599 -0.0038382642 -0.01556172 0.0077530765 -0.0012169202 0.037440732
0.00058284117 0.01878872 0.027868206 0.032009806 0.014941597 -0.051041663 0.0066552274 0.020383112
0.010364645 -0.02518079 -0.0148735875 0.03286673 -0.04545348 -0.034067255 0.036212012 0.045007214
-0.048445802 0.050185908 -0.03460535 -0.014865412 -0.051451176 -0.013886409 0.015607508 0.013632762
0.019953776 -0.011110023 0.041662827 0.026867164 -0.050477773 -0.034169182 0.024366485 -0.053315002
-0.066933416 -0.047265794 -0.014135828 -0.004815368 -0.039550602 -0.013771034 0.029378394 -0.032565914
-0.05653686 -0.0073853126 -0.011190506 -0.0447126 0.042596173 -0.0077349828 0.032431353 -0.042946525
0.0048743156 0.019602243 -0.053281233 0.028650522 -0.057486754 -0.014207598 -0.038551398 -0.045095317
-0.036155116 -0.021451587 -0.02161333 0.02812285 0.018567048 -0.015729435 -0.035580594 -0.011245342
-0.0456329 0.03105637 -0.04559296 0.021182543 -0.058961786 -0.015491192 0.04316291 -0.0216733
-0.042700626 -0.045780532 0.038130455 0.005666697 -0.027036065 -0.03800275 0.031459935 0.03611464
-0.011386108 0.020427024 -0.008626281 -0.04575299 -0.026630156 -0.058851458 -0.0228189 -0.007326262
-0.03479381 0.03945747 -0.036453187 -0.0053827628 0.008287261 0.02343465 0.026425324 -0.0065802727
-0.05349429 0.037486386 -0.02331551 0.024442483 -0.02129603 0.0113047585 -0.034798607 0.016453603
-0.029928233 0.022687797 -0.00040876624 0.028799629 0.018871779 0.018434266 -0.045874562 -0.030689245
-0.052014533 -0.024768438 0.022397676 0.025421185 -0.034457855 -0.04470945 -0.04597496 0.033374745
0.019888578 0.036251225 -0.020349232 0.04244279 -0.03435002 0.027200824 -0.016057234 0.03127041
-0.052827075 0.03890244 -0.05536067 -0.038874805 -0.036510203 1.4159151e-05 0.001399234 0.017870149
0.010731908 0.043580066 0.041744534 -0.022547645 0.017349262 -0.04775387 0.025443885 0.03382809
-0.007311283 -0.018062064 -0.014014582 0.050350104 -0.05610892 -0.0034471923 -0.02399821 -0.005594467
0.019701803 0.015761092 -0.026572332 -0.02589675 0.035884988 0.026334835 -0.045490026 0.02009158
0.014486736 -0.034409687 -0.010116304 -0.023949454 -0.024045795 -0.025960399 -0.05178925 -0.026424795
-0.024999049 0.03352884 0.014342574 0.022437362 0.006767398 0.011193258 -0.0026675202 0.017004263
-0.0071169157 0.01765173 0.018934358 0.016428292 0.014456546 0.026242454 0.02893594 0.041900713
0.017496325 0.028260957 -0.04529494 0.020451944 0.009633114 0.024798995 0.031131353 0.010015412
0.0122685125 -0.027441433 0.045241497 -0.06037128 -0.03175677 -0.015396412 0.018091317 -0.012972026
00000000: c1c0 643b 58be f23c d9a3 07bd ec9b c63c
00000010: 2aa3 cbbc 1a9e 9cbc 3414 233c e4c3 28bd
00000020: ecbb 053d 633d 12bd b4ab 80bc af5a 40bd
00000030: f475 e5bc b5f7 54bd df02 633b 8975 aebc
00000040: 6a12 2dbd d0fa 2b3d 12bc 63bd aba6 72bc
00000050: 862e f8bc 3c1c 74bd b07a 82bd b803 90bc
00000060: 5cef 71bb ce4a fa3c 896b c53c 8305 5abd
00000070: 5214 8bbc 46a6 2fbc b450 f23b 7d77 913c
00000080: a63e d2bb 7d0b a13c 4065 19bd fc44 c93c
00000090: 3a47 0abd ef3f 3c3d 0f16 00bd 6094 243d
000000a0: 8553 4a3b 57fe 37bd a3a4 b03c fe55 573c
000000b0: 7b16 3b3d e3d3 2e3a 8a1f 0bbd e3b4 36bd
000000c0: 1408 3abd a80f 4fbd 4875 01bd 638b 7bbb
000000d0: 96f6 7ebc 850d fe3b 1181 9fba 745b 193d
000000e0: cfc9 183a cdea 993c dd4b e43c b71c 033d
000000f0: 9acd 743c 1011 51bd 1814 da3b 7cfa a63c
00000100: 79d0 293c f247 cebc 59b0 73bc 449f 063d
00000110: 6e2d 3abd 1b8a 0bbd 0c53 143d 7c59 383d
00000120: 1b6f 46bd bd8f 4d3d 57be 0dbd 0f8e 73bc
00000130: 78be 52bd d283 63bc a2b6 7f3c f35b 5f3c
00000140: 1a76 a33c d006 36bc a4a6 2a3d 8718 dc3c
00000150: c8c1 4ebd fcf4 0bbd 399c c73c d560 5abd
00000160: 6314 89bd c799 41bd f699 67bc 3cca 9dbb
00000170: d0ff 21bd e79f 61bc f5aa f03c d663 05bd
00000180: 3293 67bd 7e00 f2bb 6258 37bc 8f24 37bd
00000190: 5379 2e3d bd75 fdbb bdd6 043d b2e8 2fbd
000001a0: b9b8 9f3b e294 a03c 6c3d 5abd 80b4 ea3c
000001b0: 3b77 6bbd fcc6 68bc 12e8 1dbd deb5 38bd
000001c0: 6317 14bd 3dbb afbc 700e b1bc e461 e63c
000001d0: ec19 983c 04db 80bc f5bc 11bd 623e 38bc
000001e0: 90e9 3abd ee69 fe3c afbf 3abd 0387 ad3c
000001f0: ea81 71bd c5ce 7dbc 97cb 303d 348c b1bc
00000200: dae6 2ebd 5e84 3bbd ae2e 1c3d b3af b93b
00000210: bd7a ddbc c6a8 1bbd 22dc 003d f2ec 133d
00000220: cc8c 3abc 9356 a73c 3f55 0dbc 7d67 3bbd
00000230: 7c27 dabc 3a0e 71bd b4ee babc 2411 f0bb
00000240: f483 0ebd 289e 213d f04f 15bd e361 b0bb
00000250: 4bc7 073c 06fa bf3c ec79 d83c 549f d7bb
00000260: d41c 5bbd 538b 193d 2b00 bfbc 9a3b c83c
00000270: 0375 aebc 9837 393c fc88 0ebd b5c9 863c
00000280: 0e2c f5bc c2db b93c ad4f d6b9 33ed eb3c
00000290: fd98 9a3c 7503 973c f7e6 3bbd 0368 fbbc
000002a0: 310d 55bd 2ee7 cabc 557b b73c 1740 d03c
000002b0: ae23 0dbd 4221 37bd 3d50 3cbd f5b3 083d
000002c0: 5fed a23c 2a7c 143d 6fb3 a6bc 7ed8 2d3d
000002d0: 9bb2 0cbd 43d4 de3c 768a 83bc 6715 003d
000002e0: 3461 58bd 2a58 1f3d dfc1 62bd 303b 1fbd
000002f0: b98b 15bd 178d 6d37 8166 b73a 6b64 923c
00000300: e2d4 2f3c 0381 323d 51fc 2a3d d7b5 b8bc
00000310: 0a20 8e3c 9099 43bd b26f d03c 538f 0a3d
00000320: 7d93 efbb e5f6 93bc 6b9d 65bc e93b 4e3d
00000330: 78d2 65bd 4aea 61bb e597 c4bc ca51 b7bb
00000340: ad65 a13c 681d 813c 38ae d9bc 6c25 d4bc
00000350: 23fc 123d 27bc d73c c053 3abd 1997 a43c
00000360: c659 6d3c 2cf1 0cbd dbbe 25bc a531 c4bc
00000370: b0fb c4bc e7aa d4bc f720 54bd d078 d8bc
00000380: ceca ccbc 8955 093d 1efd 6a3c 8fce b73c
00000390: 0dc1 dd3b ed63 373c 90d1 2ebb 864c 8b3c
000003a0: 0435 e9bb 5c9a 903c 3a1c 9b3c a094 863c
000003b0: 26db 6c3c 6afa d63c 100b ed3c 15a0 2b3d
000003c0: 7454 8f3c 8683 e73c 3087 39bd d68a a73c
000003d0: 35d4 1d3c 4327 cb3c 2e07 ff3c af17 243c
000003e0: df01 493c dbcc e0bc 264f 393d e047 77bd
000003f0: 6313 02bd 3c41 7cbc 3e34 943c 9f88 54bc

l2.bias f4 [200]
-0.025121193 -0.062588595 0.017076002 0.018148884 0.1123162 -0.0059976554 -0.117532745 -0.0022396708
0.03739721 -0.01197727 -0.29213408 -0.011984686 -0.22416218 0.07135964 -0.04734183 -0.33841717
-0.28811866 0.012185043 0.12789802 0.08371795 -0.17858098 -0.05500733 -0.057949908 0.22827645
-0.04756926 0.16165626 -0.01777637 0.0025315578 -0.106458284 0.11516509 -0.21880178 -0.10560541
-0.13984317 -0.40010417 -0.008515052 -0.04436487 0.03327934 -0.03720252 -0.2124608 0.029119136
-0.039911896 -0.0055238833 -0.17029318 0.028383913 -0.075218774 -0.0005190498 -0.090708226 0.29136688
0.15324736 0.0686401 -0.20870748 0.018549995 -0.03929055 -0.40298018 -0.32019147 -0.13742122
0.013794356 -0.036234334 0.24075839 -0.039885662 -0.30962777 0.12996809 -0.09911405 0.012027883
-0.044356506 -0.014830273 -0.04315397 0.03983181 -0.056126148 0.023824016 -0.4699899 -0.0030191862
0.07399394 0.0005956201 0.15269735 0.28626895 0.30245683 -0.0034443054 -0.39974973 0.11392745
-0.25438327 -0.09252757 -0.034624487 -0.044900298 -0.019468913 -0.0968688 0.11750944 -0.3626626
-0.22478777 -0.069124155 -0.033520304 -0.10331256 0.021865364 -0.3330546 -0.04502043 0.11728327
-0.061276846 -0.029844655 -0.046019003 0.078699976 -0.0331172 -0.10511036 -0.19068426 0.021387089
0.24139537 0.33634168 -0.2691964 -0.012424278 0.0014797815 0.22980444 0.061224386 -0.0897344
0.27005765 -0.017303951 -0.1565367 0.04611672 0.10668112 -0.02114575 -0.32596785 -0.19368775
-0.40932286 -0.093850315 0.058079634 0.23337853 -0.0070554717 0.3073386 -0.2394821 -0.1367739
-0.21901155 -0.16227393 -0.024833325 0.0048769163 0.033638727 -0.040562216 -0.05302328 -0.08960854
-0.15923491 0.08159543 -0.10868548 -0.030694759 -0.037539985 -0.02790054 -0.17665635 0.018654846
-0.055571724 0.106706694 -0.27480257 0.08328399 -0.109269984 0.009017981 0.027293311 0.015407729
0.33577242 -0.013580549 -0.2736726 -0.07193756 -0.37036493 0.07849533 0.069759086 -0.03386795
0.0283041 -0.005254098 -0.03064459 0.0034680055 -0.053883277 0.26668704 0.23146215 -0.03916608
-0.058611535 0.27860287 -0.40088326 -0.1574757 -0.11724259 -0.0673361 -0.18156943 -0.0060407086
0.001396828 0.08057302 -0.27136564 0.024584431 -0.26646256 -0.18293853 -0.09253553 -0.09567704
-0.038147353 -0.46071577 -0.014655332 -0.2155367 -0.38347712 -0.27119058 0.019559164 0.23645157
-0.22603503 -0.019565133 -0.13770594 0.017790494 -0.16973178 -0.03302431 0.0027408605 -0.029407114
00000000: f6ca cdbc 732e 80bd f9e2 8b3c f8ac 943c
00000010: 0906 e63d fb87 c4bb 02b5 f0bd 71c7 12bb
00000020: d12d 193d 503c 44bc 9992 95be 6b5b 44bc
00000030: c58a 65be 0125 923d 82e9 41bd 0445 adbe
00000040: 4a84 93be c6a3 473c b3f7 023e 5174 ab3d
00000050: efdd 36be 5e4f 61bd e25c 6dbd 4dc1 693e
00000060: fcd7 42bd 3889 253e c09f 91bc 7ee8 253b
00000070: cd06 dabd addb eb3d 930d 60be a647 d8bd
00000080: 0c33 0fbe 74da ccbe b782 0bbc f0b7 35bd
00000090: eb4f 083d ab61 18bd 538f 59be 418b ee3c
000000a0: a87a 23bd b101 b5bb 5661 2ebe 6185 e83c
000000b0: 4d0c 9abd d810 08ba 3cc5 b9bd 0a2e 953e
000000c0: e0ec 1c3e 2e93 8c3d 6ab7 55be 29f6 973c
000000d0: 21ef 20bd 6b53 cebe 23f0 a3be 26b8 0cbe
000000e0: b901 623c 746a 14bd 5e89 763e 265f 23bd
000000f0: 8887 9ebe 5b16 053e 4ffc cabd 9910 453c
00000100: 2baf 35bd acfa 72bc 38c2 30bd ae26 233d
00000110: 88e4 65bd 952a c33c 84a2 f0be 8add 45bb
00000120: 238a 973d 6323 1c3a b25c 1c3e d891 923e
00000130: 9fdb 9a3e dbb9 61bb ffab ccbe cb52 e93d
00000140: 863e 82be 187f bdbd 68d2 0dbd 60e9 37bd
00000150: 457d 9fbc 2663 c6bd caa8 f03d eaae b9be
00000160: c42e 66be f790 8dbd 964c 09bd 8995 d3bd
00000170: fe1e b33c 2286 aabe 5867 38bd 3632 f03d
00000180: 6efd 7abd c77c f4bc 6c7e 3cbd 742d a13d
00000190: e7a5 07bd 1a44 d7bd bc42 43be fa33 af3c
000001a0: 5930 773e fa34 ac3e 1cd4 89be 338f 4bbc
000001b0: 3af5 c13a db51 6b3e 6cc6 7a3d abc6 b7bd
000001c0: ff44 8a3e 04c1 8dbc 284b 20be e3e4 3c3d
000001d0: a27b da3d da39 adbc 42e5 a6be 1556 46be
000001e0: c492 d1be 9834 c0bd e9e4 6d3d c8fa 6e3e
000001f0: 9631 e7bb 7c5b 9d3e cc3a 75be 750e 0cbe
00000200: 9044 60be 232b 26be 426f cbbc 8ace 9f3b
00000210: c3c8 093d 9124 26bd f02e 59bd af84 b7bd
00000220: 7a0e 23be 811b a73d 7e96 debd 9373 fbbc
00000230: 87c3 19bd ac8f e4bc 67e5 34be 0cd2 983c
00000240: 2d9f 63bd 0a89 da3d ecb2 8cbe cc90 aa3d
00000250: f1c8 dfbd 27c0 133c 3996 df3c b370 7c3c
00000260: 5dea ab3e f380 5ebc d11e 8cbe 0054 93bd
00000270: 79a0 bdbe 29c2 a03d dadd 8e3d 1fb9 0abd
00000280: 00de e73c 922a acbb 5d0a fbbc 7a47 633b
00000290: b6b4 5cbd 348b 883e 6a04 6d3e 9d6c 20bd
000002a0: a612 70bd 09a5 8e3e 9240 cdbe 4f41 21be
000002b0: e21c f0bd 82e7 89bd 56ed 39be 23f1 c5bb
000002c0: c515 b73a 7803 a53d 70f0 8abe 4a65 c93c
000002d0: c86d 88be 3d54 3bbe 4583 bdbd 53f2 c3bd
000002e0: 6640 1cbd f0e2 ebbe eb1c 70bc a7b5 5cbe
000002f0: 1d57 c4be 7ed9 8abe 8a3a a03c 5c20 723e
00000300: ba75 67be 0f47 a0bc c902 0dbe 5fbd 913c
00000310: 2bce 2dbe 8044 07bd 02a0 333b 30e7 f0bc

l3.weight f4 [4, 200]
0.01974218 -0.41058725 -0.5494032 0.039548326 -0.18193127 -0.055644132 -0.23353638 0.046456415
-0.14747968 -0.4008644 -0.54082334 0.0047462587 -0.31979996 -0.2414707 -0.2425322 1.2466964
0.03984483 -0.2305414 -0.20410575 0.38671035 -0.16422737 -0.15762304 0.057655375 0.47387388
0.051745187 -0.28980154 -0.012731749 0.03812789 -0.51571625 0.37944975 -0.12726255 -0.16147994
-0.14506121 -0.48042813 0.3825269 0.045111954 -0.23374152 0.027305428 -0.22668755 0.009805196
0.02003884 0.045394946 -0.1637101 0.26882026 -0.10139639 0.020009622 0.20098081 -0.7923592
0.50709426 -0.24488464 -0.11505689 0.054789484 0.5672587 -0.57412195 -0.4684238 0.10147015
-0.8746544 0.04145441 0.3541481 -0.041737657 -0.43573084 -0.20698518 0.13832262 -0.33566085
0.024667334 0.0038431804 -0.011411132 -0.3353164 -0.051541787 0.029482754 -0.63884544 0.04330813
-0.17671818 -0.012606022 0.540966 0.53075385 0.45191243 -0.18206947 -0.3968036 -0.15651682
0.8360442 -0.084394656 -0.04346596 0.008457227 0.0039338977 -0.42513272 0.30389145 -0.3872583
-0.23564982 0.15874623 0.06478455 -0.07825157 0.24915542 -0.091605365 -0.3011586 -0.49959168
0.070701696 -0.47903627 -0.002061272 -0.17374465 0.015442808 0.6472769 -0.3082546 -0.42162734
0.5077621 1.0867227 -0.17976406 0.010831169 0.0049420698 -0.36551073 -0.56414163 -0.13746107
0.48316133 -0.26899356 -0.19143657 -0.24181648 0.33687222 0.012501833 0.5749495 -0.28790656
-0.63756865 0.30382827 -0.40911517 0.18144949 0.2195413 0.49610278 -0.40010628 -0.16394454
-0.83686054 -0.363279 0.05515515 -0.042485584 -0.040626816 0.06448101 0.04007647 -0.41448388
-0.023632275 0.581783 0.56997275 0.0522026 -0.016233584 -0.076104425 0.7222547 0.046014737
-0.3532584 0.58463097 -0.59214634 -0.25264722 -0.22575915 0.056272857 0.005821274 -0.42743662
0.43638906 -0.20744084 0.52682775 0.31142515 -0.21064419 0.3035001 -0.28922182 0.17090464
0.027555713 -0.061166566 0.010517737 0.021218486 -0.09257216 0.47152 0.350208 0.019966751
-0.3232278 0.3844277 -0.3562378 -0.026468601 -0.40170413 -0.183831 0.40316886 1.1566336
-0.37841588 -0.27448845 -0.21818163 0.045852132 -0.499025 -0.30924448 0.39908805 0.36447003
-0.2921562 -0.440754 -0.010264028 -0.28819054 -0.52392876 -0.6270538 -0.22959691 0.3864843
-0.11222338 -0.414331 0.44887233 0.07113175 -0.04159096 0.07033069 0.03777767 0.3915853
0.0052366853 -0.19646235 -0.57266796 0.05427245 -0.08614544 0.04773361 -0.16201548 0.0038506577
-0.092271164 -0.41740754 -0.35705948 -0.08876463 -0.15907274 -0.66821706 -0.15474166 1.1563876
-0.20156023 -0.14539495 -0.21353123 0.58398587 -0.12713133 -0.15160078 0.05931859 0.4991043
0.07350041 -0.36030835 0.040455155 -0.022364473 -0.44266683 0.30304787 -0.18804991 -0.17929365
0.11801554 -0.63368124 0.1418602 0.019927442 -0.17304015 -0.02524534 0.42826664 0.04434902
0.02254649 -0.05961505 0.025004195 0.2809608 -0.19331683 -0.07514166 0.27446285 -0.79564315
0.5875675 -0.13379532 -0.22158964 0.030268012 0.1639174 -0.7799135 -0.56278926 -0.3862882
00000000: 5aba a13c 7e38 d2be b0a5 0cbf 6dfd 213d
00000010: 314c 3abe 1aeb 63bd 2924 6fbe 1549 3e3d
00000020: ea04 17be 193e cdbe 6673 0abf 8186 9b3b
00000030: d2bc a3be 1844 77be 5c5a 78be bf93 9f3f
00000040: 5534 233d 0b13 6cbe 1901 51be e6fe c53e
00000050: 382b 28be ef67 21be 0b28 6c3d 999f f23e
00000060: c3f2 533d de60 94be d398 50bc fe2b 1c3d
00000070: fb05 04bf 3d47 c23e 1d51 02be ff5a 25be
00000080: ed8a 14be adfa f5be 91da c33e 50c7 383d
00000090: f059 6fbe a2af df3c c820 68be f9a5 203c
000000a0: 7e28 a43c 0df0 393d 9fa3 27be cfa2 893e
000000b0: e9a8 cfbd 38eb a33c eacd 4d3e 0dd8 4abf
000000c0: eed0 013f 0ac3 7abe f2a2 ebbd f06a 603d
000000d0: de37 113f a8f9 12bf 3fd5 efbe 95cf cf3d
000000e0: 5ae9 5fbf 19cc 293d e652 b53e 1bf5 2abd
000000f0: 1d18 dfbe ecf3 53be 72a4 0d3e bddb abbe
00000100: 2613 ca3c dedd 7b3b c2f5 3abc 97ae abbe
00000110: 7b1d 53bd d185 f13c 608b 23bf de63 313d
00000120: 9cf5 34be 7d89 4ebc bf7c 0a3f 7cdf 073f
00000130: 1161 e73e 6b70 3abe d729 cbbe f245 20be
00000140: fe06 563f 1bd7 acbd 5d09 32bd 2e90 0a3c
00000150: ede7 803b ffaa d9be a997 9b3e b846 c6be
00000160: 304e 71be 5f8e 223e c3ad 843d 5c42 a0bd
00000170: 9922 7f3e 989b bbbd 7631 9abe 7bca ffbe
00000180: 0dcc 903d 3e44 f5be 6816 07bb 1eea 31be
00000190: d503 7d3c f0b3 253f 8cd3 9dbe 8adf d7be
000001a0: b2fc 013f bb19 8b3f 1214 38be 3775 313c
000001b0: 16f1 a13b 3924 bbbe 966b 10bf 98c2 0cbe
000001c0: ec60 f73e 86b9 89be f307 44be bd9e 77be
000001d0: 847a ac3e 7dd4 4c3c e42f 133f 7d68 93be
000001e0: b337 23bf 618f 9b3e 8b77 d1be e5cd 393e
000001f0: 6fcf 603e 2f01 fe3e bbda ccbe 14e1 27be
00000200: 7e3c 56bf b5ff b9be 5eea 613d 5d05 2ebd
00000210: 4e68 26bd 9f0e 843d 3927 243d 3b37 d4be
00000220: 7998 c1bc bbef 143f bce9 113f 65d2 553d
00000230: 4bfc 84bc a3dc 9bbd afe5 383f f379 3c3d
00000240: 49de b4be 60aa 153f e796 17bf fa5a 81be
00000250: 682d 67be 5e7e 663d 63c0 be3b f9d8 dabe
00000260: 636e df3e 5f6b 54be 2fde 063f 1e73 9f3e
00000270: 1cb3 57be 5d64 9b3e e214 94be a001 2f3e
00000280: 85bc e13c cb89 7abd 9652 2c3c 64d2 ad3c
00000290: 7996 bdbd 126b f13e 774e b33e 5091 a33c
000002a0: 1d7e a5be b5d3 c43e cd64 b6be aed4 d8bc
000002b0: 2aac cdbe 323e 3cbe 266c ce3e 920c 943f
000002c0: babf c1be c089 8cbe 016b 5fbe 72cf 3b3d
000002d0: 3480 ffbe 4b55 9ebe 4555 cc3e d19b ba3e
000002e0: 7f95 95be 82aa e1be 742a 28bc b68d 93be
000002f0: 3220 06bf 9986 20bf 741b 6bbe 45e1 c53e
00000300: 5fd5 e5bd 3123 d4be 98d2 e53e 86ad 913d
00000310: 485b 2abd 8909 903d c2bc 1a3d de7d c83e
00000320: 8098 ab3b 6d2d 49be 5e9a 12bf ca4c 5e3d
00000330: 056d b0bd 5184 433d 63e7 25be 515b 7c3b
00000340: aaf8 bcbd 71b6 d5be 80d0 b6be 3bca b5bd
00000350: f7e3 22be 4610 2bbf 9974 1ebe 8204 943f
00000360: ce65 4ebe 6ae2 14be eea7 5abe 1980 153f
00000370: b72e 02be 3c3d 1bbe 0df8 723d 998a ff3e
00000380: 6287 963d 567a b8be 4eb4 253d b335 b7bc
00000390: 3aa5 e2be 1729 9b3e 2890 40be c198 37be
000003a0: 22b2 f13d ef38 22bf cd43 113e e03e a33c
000003b0: 7031 31be 51cf cebc c445 db3e 51a7 353d
000003c0: 6bb3 b83c e92e 74bd 99d5 cc3c 18da 8f3e
000003d0: d9f4 45be dfe3 99bd 6586 8c3e 45af 4bbf
000003e0: d36a 163f a401 09be 65e8 62be 9ff4 f73c
000003f0: f7d9 273e 69a8 47bf f512 10bf 91c7 c5be

l3.bias f4 [4]
0.3554525 0.14651306 0.18739979 0.34961203
00000000: dffd b53e 8507 163e bbe5 3f3e 5900 b33e
