fin/DQN/agent-300-10-601/target_model.pt (torch, 340543 bytes, 6 tensors)

l1.weight f4 [400, 8]
-0.09917653 0.094538435 -0.4264329 -0.10212801 0.18949781 -0.32900423 -0.56006545 -1.1535856
-0.68609965 0.04343472 -0.88911253 0.2024629 -1.099837 -0.52645993 0.6892912 -1.0841607
1.2263507 -0.16059653 0.70056677 0.39448366 0.18991585 0.30885983 0.25324535 -0.94691604
0.64390075 0.30725947 0.27739012 0.64090633 1.0142615 0.05439788 0.34013903 -0.15986975
-0.29444718 -0.25494832 0.06777478 0.35205466 0.82896185 1.0198699 -0.39449877 -1.0709641
0.72952825 0.0041234437 -0.3614341 -0.35716105 1.1472241 0.07709394 -0.69072676 -2.0071065
-0.3048664 -0.6979172 1.3285749 -0.241979 0.180966 -0.79729193 0.15242872 -0.6547045
-0.74008113 -0.08847006 -0.053732473 -0.5797484 -0.21148221 0.2629575 -1.6809603 -0.81491685
-0.10427268 -0.59474355 -0.16871828 0.077593714 0.689018 0.19349848 -0.21002996 -0.1580152
-0.38556254 -0.19168864 0.13367578 -0.83837336 0.17099287 0.45778856 0.27908117 -0.13494824
-0.38912266 -0.4865746 -0.13516246 -0.93798476 0.54830104 0.4601682 0.4945889 -0.49299273
-0.37604725 0.14446673 -1.2458487 0.8745714 -0.1964821 -0.5279497 0.8160671 0.44109452
-0.049695015 0.21849404 0.33199736 1.1189933 0.5129189 0.057459217 0.19108249 -0.05712573
0.042713057 -1.094753 -0.8243969 0.4446221 -0.58914465 0.9564309 0.16078374 0.53399324
-0.7411834 -0.5181256 0.21078138 -0.2781528 0.5720054 0.639559 -0.8515741 -0.90005463
0.024605136 0.29187232 0.1796883 -0.034875613 0.38219264 -0.63594574 0.11462136 -0.19222978
0.21262915 -0.51116645 -0.17678247 0.6184636 0.11888895 0.39902878 -0.5514832 -0.69134766
0.89307505 -0.4383169 0.78233355 0.11868078 -0.8843681 0.0010274841 -0.52662843 0.24936529
-0.1428687 0.02467476 0.5156305 -1.0137829 -0.73848146 -0.31087556 -0.6290769 -0.66341037
-0.01589158 -0.88346016 1.512046 0.5699513 -0.39827207 -0.054422695 0.31657863 -0.5959509
-0.56936044 -0.38706517 0.3138529 0.44770014 0.46811464 0.71982497 -0.5192158 -0.7003148
0.7270578 0.028269539 0.084546 -0.06902557 -0.32325605 0.25477156 0.27503428 -0.24609283
0.14102727 -0.009564906 -0.03653134 -0.13946676 0.1742231 -0.16700374 -0.21620026 -0.6089452
-0.49878427 -0.23531336 0.12173599 -0.029270273 0.642826 0.62859976 -0.6864326 -0.039667577
0.52429914 0.1786438 0.15676764 0.25188658 0.39387098 0.17044534 0.46944547 -1.1731938
0.47504765 0.44292232 -0.04131237 -0.39230368 0.58406234 -0.17896593 -0.033175346 0.44746342
-0.54490566 -0.20474258 -0.49739692 -0.16974498 0.2729434 0.6337083 0.71666384 -1.1329701
-0.24741183 0.055360977 -0.27893597 -0.11574362 -0.46293595 0.14506014 -0.14357693 -0.3002549
0.030062146 -0.041868884 2.4747224 0.8363371 -0.1037142 -0.049961295 -0.0008994521 -0.009259019
0.14248583 -0.7443253 -1.5733619 0.1539622 0.5114918 0.41507497 0.6729845 -0.31146055
-0.75344926 -0.24677083 -0.37431097 0.23501913 -0.28195897 0.42617473 -0.44513613 -0.81661135
-0.0757136 -0.19147013 1.0614861 0.04013411 -0.1896865 -0.15177293 -1.7585522 0.4289442
00000000: 111d cbbd 5e9d c13d 6a55 dabe 7d28 d1bd
00000010: b70b 423e 3e73 a8be 7360 0fbf b1a8 93bf
00000020: 3aa4 2fbf 9be8 313d e19c 63bf 6f52 4f3e
00000030: 75c7 8cbf 14c6 06bf 6375 303f c7c5 8abf
00000040: 0ff9 9c3f 6b73 24be 5858 333f c3f9 c93e
00000050: 4d79 423e e022 9e3e 60a9 813e 1769 72bf
00000060: aed6 243f 1d51 9d3e 1406 8e3e 7012 243f
00000070: 52d3 813f 50d0 5e3d b426 ae3e e5b4 23be
00000080: c8c1 96be 9688 82be 81cd 8a3d 8240 b43e
00000090: d836 543f 198b 823f befb c9be 5a15 89bf
000000a0: 5dc2 3a3f f41d 873b e40d b9be d0dd b6be
000000b0: 3dd8 923f 6de3 9d3d 78d3 30bf 6f74 00c0
000000c0: 7317 9cbe b4aa 32bf be0e aa3f 58c9 77be
000000d0: 274f 393e 531b 4cbf 4616 1c3e b79a 27bf
000000e0: f575 3dbf ca2f b5bd 9516 5cbd 646a 14bf
000000f0: cb8e 58be 5ea2 863e b529 d7bf 649e 50bf
00000100: ea8c d5bd 1d41 18bf 7cc4 2cbe 74e9 9e3d
00000110: 7c63 303f 7724 463e 1812 57be bdce 21be
00000120: 7468 c5be 074a 44be 4ee2 083e a39f 56bf
00000130: c118 2f3e 4363 ea3e bae3 8e3e df2f 0abe
00000140: 163b c7be 4e20 f9be 0768 0abe c51f 70bf
00000150: 755d 0c3f 2b9b eb3e c23a fd3e 8b69 fcbe
00000160: 4489 c0be 16ef 133e f877 9fbf e9e3 5f3f
00000170: 9b32 49be b627 07bf c6e9 503f 24d7 e13e
00000180: 008d 4bbd e7bc 5f3e 8ffb a93e 2c3b 8f3f
00000190: a74e 033f 5b5a 6b3d 21ab 433e abfc 69bd
000001a0: e3f3 2e3d de20 8cbf ad0b 53bf 82a5 e33e
000001b0: 2fd2 16bf a8d8 743f 7ea4 243e c8b3 083f
000001c0: 32be 3dbf e1a3 04bf 13d7 573e 0b6a 8ebe
000001d0: f26e 123f 23ba 233f c300 5abf fb69 66bf
000001e0: b690 c93c 4a70 953e 3600 383e bbd9 0ebd
000001f0: c1ae c33e 57cd 22bf 9bbe ea3d e2d7 44be
00000200: 75bb 593e cedb 02bf 7706 35be a153 1e3f
00000210: 0d7c f33d 804d cc3e 012e 0dbf 29fc 30bf
00000220: 91a0 643f 136b e0be 0347 483f e90e f33d
00000230: f365 62bf a5ac 863a 1fd1 06bf 9d59 7f3e
00000240: 2c4c 12be b922 ca3c 5c00 043f a3c3 81bf
00000250: 1f0d 3dbf 152b 9fbe 2f0b 21bf 43d5 29bf
00000260: 0f2f 82bc 722a 62bf b98a c13f 54e8 113f
00000270: 51ea cbbe 55ea 5ebd 9816 a23e 3d90 18bf
00000280: 9bc1 11bf 682d c6be 54b1 a03e f438 e53e
00000290: b9ac ef3e 7346 383f 54eb 04bf d547 33bf
000002a0: 7620 3a3f 8595 e73c 7426 ad3d 475d 8dbd
000002b0: d181 a5be 6b71 823e 4bd1 8c3e c2ff 7bbe
000002c0: 7469 103e 20b6 1cbc e3a1 15bd 60d0 0ebe
000002d0: 8a67 323e 0703 2bbe 9a63 5dbe d5e3 1bbf
000002e0: a760 ffbe fcf5 70be b850 f93d 36c8 efbc
000002f0: 3f90 243f eaeb 203f 0cba 2fbf 787a 22bd
00000300: 7838 063f 66ee 363e b287 203e 47f7 803e
00000310: 75a9 c93e 3989 2e3e 285b f03e 372b 96bf
00000320: 7239 f33e b7c6 e23e 2937 29bd 07dc c8be
00000330: 1c85 153f d842 37be dfe2 07bd ed19 e53e
00000340: f07e 0bbf 0aa8 51be cfaa febe a1d1 2dbe
00000350: 3dbf 8b3e b53a 223f 4877 373f 2a05 91bf
00000360: 8759 7dbe 31c2 623d b2d0 8ebe fe0a edbd
00000370: f105 edbe a58a 143e d505 13be 03bb 99be
00000380: e444 f63c b57e 2bbd da61 1e40 301a 563f
00000390: 1c68 d4bd 37a4 4cbd 35c9 6bba 24b3 17bc
000003a0: cee7 113e 1a8c 3ebf ec63 c9bf 44a8 1d3e
000003b0: 20f1 023f b584 d43e b648 2c3f c277 9fbe
000003c0: 0de2 40bf 7eb1 7cbe b0a5 bfbe dba8 703e
000003d0: ed5c 90be 9333 da3e e2e8 e3be 710d 51bf
000003e0: bb0f 9bbd bf10 44be c7de 873f aa63 243d
000003f0: 2e3d 42be 5d6a 1bbe 3d18 e1bf 939e db3e

l1.bias f4 [400]
0.059545346 -0.6633396 0.052873265 -0.7249581 -0.10419413 0.04717289 0.056316014 0.3752144
0.16896458 -0.41380876 -0.4956755 -0.6747566 0.18899766 -0.04684024 -0.38714668 0.20008612
-0.43331507 0.041532986 -0.06803843 0.030742675 -0.24271235 0.17546369 -0.06494766 -0.4945344
0.18686214 -0.5120417 -0.41861176 0.099727735 0.012333039 -0.16754825 0.04334858 0.42131442
-0.44740602 -0.9073227 -0.033079263 0.06709656 -0.50040495 -0.33235514 -0.41124958 -0.5230989
-0.19380935 -0.6658053 -0.0022118778 0.030289447 -0.35370487 -0.31936702 0.10765777 -0.36551076
-0.46786627 -0.2633524 -0.32975888 -0.43413022 -0.52236915 -0.54456836 0.38136676 -0.5031146
0.48240378 0.015592248 -0.30522963 0.010062655 -0.006069074 -0.47031766 -0.6616237 -0.38452616
0.25645423 -0.5480831 -0.5695068 -0.33738318 -0.5132209 0.054648254 0.02788227 -0.5394176
0.049752764 -0.6298661 0.17148112 -0.357426 0.128423 -0.021023331 -0.7979022 0.49600103
0.10800325 -0.012461595 -0.6811381 0.02523608 -0.64704704 -0.20575471 -0.17836137 -0.6414941
0.22280532 0.04442132 0.06150707 0.40832308 0.33246982 0.43602052 -0.17747355 -0.58033234
0.26557636 0.006509097 -0.43548718 -0.49346605 -0.65965575 -0.62329984 -0.39137423 0.0064575863
-0.1763416 -0.27676827 -0.26002216 -0.4396174 -0.050937545 -0.503839 0.045522414 0.040049523
-0.30990252 -0.5883526 0.16248085 -0.19040693 -0.69248563 -0.25382733 -0.07138425 -0.13001755
-0.5637787 -0.2948213 -0.1661077 -0.14943072 -0.17774355 -1.3799073 -0.5147756 -1.513523
-0.01875276 -0.18153165 0.13094088 0.010022303 -0.36478952 -0.9018539 0.020664599 -0.20744066
-1.0474321 -0.08242132 -0.23449506 0.019444356 0.5409202 0.42420667 0.2049039 -0.042953406
-0.5914041 -0.17672089 -0.004735105 -0.38215014 -0.079201065 0.45177612 0.102189556 0.00478094
0.13447553 -0.5416609 -0.6487855 -0.42212498 0.47894195 -0.16010122 -0.48581758 0.013554775
-0.7092516 -0.36215094 -0.5433504 0.02066569 -0.057499584 -0.32040215 0.13938789 -0.3334836
0.00022849871 -0.26670927 0.053868067 0.06947279 -0.31523094 -0.05817013 -0.023808688 0.041601352
-0.51578504 -0.00019525216 0.14043526 -0.6758731 0.20708677 -0.23551747 -1.32145 -0.30896604
-0.15338461 -0.39512038 -0.078634985 0.44143108 0.16932988 -0.0005767326 -0.22223477 0.013589678
-0.5244046 -0.21408615 -0.19173793 0.47583598 -0.29189515 -0.34822965 -0.64098936 0.6288512
-0.32932094 -0.058516428 -0.11778291 -0.17541367 -0.2793125 0.46608794 -0.2962947 0.2526595
0.3500853 0.22957718 -0.7445178 -0.06515792 0.08806211 0.08921473 0.00038567794 -0.24814664
-0.034491245 -0.16713496 0.418303 -0.5985129 -0.20499682 0.4811045 -0.23864445 -0.42654333
-0.74944574 -0.28713346 0.34234646 -0.3074026 -0.00066526374 0.2409543 0.03836677 -0.12728629
-0.009790985 -0.0011502936 0.27508622 -0.4909851 -0.39113528 -0.121017106 0.26546514 -0.0015982366
-0.41913602 0.0052935136 0.36609906 -0.2973246 -0.07619743 0.06270504 -0.6798914 -0.43650472
0.06748036 0.3323118 -0.2774046 0.048315246 -0.2887566 -0.37154794 0.009394001 0.3534665
00000000: d2e5 733d a0d0 29bf a391 583d db96 39bf
00000010: bb63 d5bd 5c38 413d 9fab 663d 1a1c c03e
00000020: 0d05 2d3e bede d3be 2ec9 fdbe d9bc 2cbf
00000030: 9a88 413e 8ddb 3fbd 1738 c6be 60e3 4c3e
00000040: 79db ddbe 7e1e 2a3d bb57 8bbd 10d8 fb3c
00000050: 9689 78be c1ac 333e 4703 85bd 9d33 fdbe
00000060: ca58 3f3e 2a15 03bf 4854 d6be 0e3e cc3d
00000070: 8410 4a3c c591 2bbe 488e 313d 86b6 d73e
00000080: 6712 e5be 4d46 68bf 1f7e 07bd ec69 893d
00000090: 8a1a 00bf 742a aabe 4e8f d2be cfe9 05bf
000000a0: f575 46be 3772 2abf 27f5 10bb 9321 f83c
000000b0: ce18 b5be 1384 a3be ad7b dc3d 3a24 bbbe
000000c0: 2b8c efbe 20d6 86be 28d6 a8be 5146 debe
000000d0: fcb9 05bf d568 0bbf 8142 c33e 1ecc 00bf
000000e0: a1fd f63e a176 7f3c 0f47 9cbe d6dd 243c
000000f0: 15df c6bb 7acd f0be 2c60 29bf 9de0 c4be
00000100: f84d 833e 2d4f 0cbf 33cb 11bf 7dbd acbe
00000110: 7262 03bf d9d6 5f3d 5c69 e43c 4617 0abf
00000120: 8ec9 4b3d e83e 21bf bf98 2f3e 8a00 b7be
00000130: 5281 033e 1f39 acbc 5243 4cbf d9f3 fd3e
00000140: cf30 dd3d b82b 4cbc 115f 2ebf e5bb ce3c
00000150: e0a4 25bf 5db1 52be 5da4 36be f538 24bf
00000160: 1427 643e 21f3 353d d6ee 7b3d b90f d13e
00000170: 7c39 aa3e 153e df3e a0bb 35be a990 14bf
00000180: a0f9 873e 434a d53b 2df8 debe 95a7 fcbe
00000190: 33df 28bf 9490 1fbf 3462 c8be 299a d33b
000001a0: e492 34be 92b4 8dbe a021 85be 8815 e1be
000001b0: e3a3 50bd 98fb 00bf b675 3a3d f80a 243d
000001c0: 8bab 9ebe 479e 16bf 6161 263e 09fa 42be
000001d0: bd46 31bf a8f5 81be e831 92bd 5223 05be
000001e0: cd53 10bf d1f2 96be 2318 2abe 5e04 19be
000001f0: 6802 36be cda0 b0bf 55c8 03bf 1fbb c1bf
00000200: 639f 99bc 6fe3 39be 5e15 063e 9634 243c
00000210: b1c5 babe e6df 66bf ce48 a93c 536b 54be
00000220: 4112 86bf 82cc a8bd 791f 70be c549 9f3c
00000230: bf79 0a3f 9e31 d93e 54d2 513e e9ef 2fbd
00000240: 4266 17bf 52f6 34be f128 9bbb 2fa9 c3be
00000250: 2b34 a2bd 334f e73e c248 d13d 6ea9 9c3b
00000260: f4b3 093e 4aaa 0abf ce16 26bf c420 d8be
00000270: e137 f53e 93f1 23be 15bd f8be d914 5e3c
00000280: 8391 35bf d96b b9be 0319 0bbf 184b a93c
00000290: af84 6bbd c00b a4be b3bb 0e3e 5dbe aabe
000002a0: 2899 6f39 1e8e 88be c3a4 5c3d c047 8e3d
000002b0: f365 a1be cd43 6ebd 700a c3bc 2e66 2a3d
000002c0: 7d0a 04bf 9abc 4cb9 43ce 0f3e 0506 2dbf
000002d0: 8e0e 543e 7e2b 71be 4625 a9bf cc30 9ebe
000002e0: db10 1dbe 384d cabe 610b a1bd 4103 e23e
000002f0: d064 2d3e df2f 17ba 8391 63be 3ea7 5e3c
00000300: 613f 06bf 6639 5bbe f356 44be c6a0 f33e
00000310: 4873 95be 284b b2be e117 24bf 64fc 203f
00000320: c19c a8be ecae 6fbd 2b38 f1bd a49f 33be
00000330: 0c02 8fbe 14a3 ee3e f0b3 97be 965c 813e
00000340: 613e b33e 4816 6b3e b898 3ebf 8471 85bd
00000350: e859 b43d 36b6 b63d d134 ca39 271a 7ebe
00000360: b146 0dbd 6d25 2bbe d02b d63e 2438 19bf
00000370: b0ea 51be 5453 f63e 365f 74be e363 dabe
00000380: addb 3fbf 2803 93be 0948 af3e e063 9dbe
00000390: 1865 2eba b9bc 763e 7926 1d3d 5657 02be
000003a0: 5e6a 20bc 73c5 96ba 1ad8 8c3e 6662 fbbe
000003b0: e242 c8be d1d7 f7bd 0ceb 873e ec7b d1ba
000003c0: ff98 d6be 3675 ad3b 5671 bb3e ee3a 98be
000003d0: 660d 9cbd 806b 803d 5d0d 2ebf 8c7d dfbe
000003e0: 2533 8a3d c624 aa3e fa07 8ebe 35e6 453d
000003f0: e8d7 93be 883b bebe 4ce9 193c 90f9 b43e

l2.weight f4 [200, 400]
0.003490493 0.029631779 -0.03311524 0.024244271 -0.024858076 -0.019118357 0.009953547 -0.04120244
0.03264992 -0.035703074 -0.015706874 -0.046961483 -0.028010346 -0.051994044 0.0034639162 -0.02129628
-0.04225389 0.04198724 -0.05559928 -0.014810245 -0.030295622 -0.05959724 -0.06371057 -0.017579898
-0.003691635 0.030553248 0.024099128 -0.053227913 -0.016977463 -0.010720795 0.0073948745 0.017757172
-0.0064161597 0.019658798 -0.037450075 0.024569027 -0.033759333 0.04595941 -0.031271037 0.040180564
0.0030872535 -0.04492029 0.02156288 0.013143061 0.045675736 0.0006669147 -0.033965625 -0.0446061
-0.04541786 -0.05055204 -0.03160599 -0.0038382642 -0.01556172 0.0077530765 -0.0012169202 0.037440732
0.00058284117 0.01878872 0.027868206 0.032009806 0.014941597 -0.051041663 0.0066552274 0.020383112
0.010364645 -0.02518079 -0.0148735875 0.03286673 -0.04545348 -0.034067255 0.036212012 0.045007214
-0.048445802 0.050185908 -0.03460535 -0.014865412 -0.051451176 -0.013886409 0.015607508 0.013632762
0.019953776 -0.011110023 0.041662827 0.026867164 -0.050477773 -0.034169182 0.024366485 -0.053315002
-0.066933416 -0.047265794 -0.014135828 -0.004815368 -0.039550602 -0.013771034 0.029378394 -0.032565914
-0.05653686 -0.0073853126 -0.011190506 -0.0447126 0.042596173 -0.0077349828 0.032431353 -0.042946525
0.0048743156 0.019602243 -0.053281233 0.028650522 -0.057486754 -0.014207598 -0.038551398 -0.045095317
-0.036155116 -0.021451587 -0.02161333 0.02812285 0.018567048 -0.015729435 -0.035580594 -0.011245342
-0.0456329 0.03105637 -0.04559296 0.021182543 -0.058961786 -0.015491192 0.04316291 -0.0216733
-0.042700626 -0.045780532 0.038130455 0.005666697 -0.027036065 -0.03800275 0.031459935 0.03611464
-0.011386108 0.020427024 -0.008626281 -0.04575299 -0.026630156 -0.058851458 -0.0228189 -0.007326262
-0.03479381 0.03945747 -0.036453187 -0.0053827628 0.008287261 0.02343465 0.026425324 -0.0065802727
-0.05349429 0.037486386 -0.02331551 0.024442483 -0.02129603 0.0113047585 -0.034798607 0.016453603
-0.029928233 0.022687797 -0.00040876624 0.028799629 0.018871779 0.018434266 -0.045874562 -0.030689245
-0.052014533 -0.024768438 0.022397676 0.025421185 -0.034457855 -0.04470945 -0.04597496 0.033374745
0.019888578 0.036251225 -0.020349232 0.04244279 -0.03435002 0.027200824 -0.016057234 0.03127041
-0.052827075 0.03890244 -0.05536067 -0.038874805 -0.036510203 1.4159151e-05 0.001399234 0.017870149
0.010731908 0.043580066 0.041744534 -0.022547645 0.017349262 -0.04775387 0.025443885 0.03382809
-0.007311283 -0.018062064 -0.014014582 0.050350104 -0.05610892 -0.0034471923 -0.02399821 -0.005594467
0.019701803 0.015761092 -0.026572332 -0.02589675 0.035884988 0.026334835 -0.045490026 0.02009158
0.014486736 -0.034409687 -0.010116304 -0.023949454 -0.024045795 -0.025960399 -0.05178925 -0.026424795
-0.024999049 0.03352884 0.014342574 0.022437362 0.006767398 0.011193258 -0.0026675202 0.017004263
-0.0071169157 0.01765173 0.018934358 0.016428292 0.014456546 0.026242454 0.02893594 0.041900713
0.017496325 0.028260957 -0.04529494 0.020451944 0.009633114 0.024798995 0.031131353 0.010015412
0.0122685125 -0.027441433 0.045241497 -0.06037128 -0.03175677 -0.015396412 0.018091317 -0.012972026
00000000: c1c0 643b 58be f23c d9a3 07bd ec9b c63c
00000010: 2aa3 cbbc 1a9e 9cbc 3414 233c e4c3 28bd
00000020: ecbb 053d 633d 12bd b4ab 80bc af5a 40bd
00000030: f475 e5bc b5f7 54bd df02 633b 8975 aebc
00000040: 6a12 2dbd d0fa 2b3d 12bc 63bd aba6 72bc
00000050: 862e f8bc 3c1c 74bd b07a 82bd b803 90bc
00000060: 5cef 71bb ce4a fa3c 896b c53c 8305 5abd
00000070: 5214 8bbc 46a6 2fbc b450 f23b 7d77 913c
00000080: a63e d2bb 7d0b a13c 4065 19bd fc44 c93c
00000090: 3a47 0abd ef3f 3c3d 0f16 00bd 6094 243d
000000a0: 8553 4a3b 57fe 37bd a3a4 b03c fe55 573c
000000b0: 7b16 3b3d e3d3 2e3a 8a1f 0bbd e3b4 36bd
000000c0: 1408 3abd a80f 4fbd 4875 01bd 638b 7bbb
000000d0: 96f6 7ebc 850d fe3b 1181 9fba 745b 193d
000000e0: cfc9 183a cdea 993c dd4b e43c b71c 033d
000000f0: 9acd 743c 1011 51bd 1814 da3b 7cfa a63c
00000100: 79d0 293c f247 cebc 59b0 73bc 449f 063d
00000110: 6e2d 3abd 1b8a 0bbd 0c53 143d 7c59 383d
00000120: 1b6f 46bd bd8f 4d3d 57be 0dbd 0f8e 73bc
00000130: 78be 52bd d283 63bc a2b6 7f3c f35b 5f3c
00000140: 1a76 a33c d006 36bc a4a6 2a3d 8718 dc3c
00000150: c8c1 4ebd fcf4 0bbd 399c c73c d560 5abd
00000160: 6314 89bd c799 41bd f699 67bc 3cca 9dbb
00000170: d0ff 21bd e79f 61bc f5aa f03c d663 05bd
00000180: 3293 67bd 7e00 f2bb 6258 37bc 8f24 37bd
00000190: 5379 2e3d bd75 fdbb bdd6 043d b2e8 2fbd
000001a0: b9b8 9f3b e294 a03c 6c3d 5abd 80b4 ea3c
000001b0: 3b77 6bbd fcc6 68bc 12e8 1dbd deb5 38bd
000001c0: 6317 14bd 3dbb afbc 700e b1bc e461 e63c
000001d0: ec19 983c 04db 80bc f5bc 11bd 623e 38bc
000001e0: 90e9 3abd ee69 fe3c afbf 3abd 0387 ad3c
000001f0: ea81 71bd c5ce 7dbc 97cb 303d 348c b1bc
00000200: dae6 2ebd 5e84 3bbd ae2e 1c3d b3af b93b
00000210: bd7a ddbc c6a8 1bbd 22dc 003d f2ec 133d
00000220: cc8c 3abc 9356 a73c 3f55 0dbc 7d67 3bbd
00000230: 7c27 dabc 3a0e 71bd b4ee babc 2411 f0bb
00000240: f483 0ebd 289e 213d f04f 15bd e361 b0bb
00000250: 4bc7 073c 06fa bf3c ec79 d83c 549f d7bb
00000260: d41c 5bbd 538b 193d 2b00 bfbc 9a3b c83c
00000270: 0375 aebc 9837 393c fc88 0ebd b5c9 863c
00000280: 0e2c f5bc c2db b93c ad4f d6b9 33ed eb3c
00000290: fd98 9a3c 7503 973c f7e6 3bbd 0368 fbbc
000002a0: 310d 55bd 2ee7 cabc 557b b73c 1740 d03c
000002b0: ae23 0dbd 4221 37bd 3d50 3cbd f5b3 083d
000002c0: 5fed a23c 2a7c 143d 6fb3 a6bc 7ed8 2d3d
000002d0: 9bb2 0cbd 43d4 de3c 768a 83bc 6715 003d
000002e0: 3461 58bd 2a58 1f3d dfc1 62bd 303b 1fbd
000002f0: b98b 15bd 178d 6d37 8166 b73a 6b64 923c
00000300: e2d4 2f3c 0381 323d 51fc 2a3d d7b5 b8bc
00000310: 0a20 8e3c 9099 43bd b26f d03c 538f 0a3d
00000320: 7d93 efbb e5f6 93bc 6b9d 65bc e93b 4e3d
00000330: 78d2 65bd 4aea 61bb e597 c4bc ca51 b7bb
00000340: ad65 a13c 681d 813c 38ae d9bc 6c25 d4bc
00000350: 23fc 123d 27bc d73c c053 3abd 1997 a43c
00000360: c659 6d3c 2cf1 0cbd dbbe 25bc a531 c4bc
00000370: b0fb c4bc e7aa d4bc f720 54bd d078 d8bc
00000380: ceca ccbc 8955 093d 1efd 6a3c 8fce b73c
00000390: 0dc1 dd3b ed63 373c 90d1 2ebb 864c 8b3c
000003a0: 0435 e9bb 5c9a 903c 3a1c 9b3c a094 863c
000003b0: 26db 6c3c 6afa d63c 100b ed3c 15a0 2b3d
000003c0: 7454 8f3c 8683 e73c 3087 39bd d68a a73c
000003d0: 35d4 1d3c 4327 cb3c 2e07 ff3c af17 243c
000003e0: df01 493c dbcc e0bc 264f 393d e047 77bd
000003f0: 6313 02bd 3c41 7cbc 3e34 943c 9f88 54bc

l2.bias f4 [200]
-0.025121193 -0.062289324 0.017010836 0.018148884 0.11228726 -0.0059976554 -0.117532745 -0.0022396708
0.03760006 -0.011928274 -0.29249635 -0.011984686 -0.22416218 0.07184047 -0.04734183 -0.33841717
-0.28811866 0.012181854 0.12788475 0.08371792 -0.17858098 -0.055141203 -0.057949908 0.22810842
-0.04756926 0.1618156 -0.018011456 0.0025315578 -0.10634421 0.11489176 -0.21880178 -0.10560936
-0.13984317 -0.40047592 -0.008515052 -0.04436487 0.03328532 -0.03720252 -0.21179886 0.029119136
-0.040158536 -0.005364109 -0.17029533 0.028494617 -0.075218774 -0.0005190498 -0.090668894 0.2914973
0.1531768 0.06871244 -0.20870748 0.018582532 -0.03943895 -0.40377337 -0.32030255 -0.13742122
0.013516875 -0.036234334 0.24060121 -0.03977794 -0.30962777 0.1300636 -0.09911405 0.012158555
-0.044356506 -0.014830273 -0.04315397 0.040041905 -0.05607204 0.023824016 -0.47009376 -0.0030191862
0.07408832 0.0005956201 0.15262029 0.28609076 0.30225945 -0.00330819 -0.39974973 0.11394813
-0.25438327 -0.09254013 -0.034624487 -0.044900298 -0.019468913 -0.09689046 0.117502786 -0.3626626
-0.22478777 -0.069124155 -0.033520304 -0.10331256 0.021865364 -0.3330546 -0.04502043 0.11724822
-0.061276846 -0.030274453 -0.046019003 0.07907363 -0.03245127 -0.10511036 -0.19076632 0.021181235
0.24121788 0.33631882 -0.2691964 -0.012424278 0.0014797815 0.229798 0.060522843 -0.08942939
0.26990968 -0.01722363 -0.1565367 0.046166196 0.10674192 -0.02114575 -0.32596785 -0.19381934
-0.40989816 -0.09343561 0.05806315 0.23320867 -0.006897943 0.30711988 -0.23951153 -0.13676535
-0.21901162 -0.1622789 -0.024833325 0.0048769163 0.033638727 -0.040562216 -0.05302328 -0.09011438
-0.15923491 0.08146326 -0.10868548 -0.030694759 -0.037539985 -0.02790054 -0.17652507 0.018654846
-0.055602353 0.10658965 -0.27480257 0.082984306 -0.109336585 0.009017981 0.027293311 0.015619499
0.33554137 -0.013337949 -0.2726381 -0.07193756 -0.37036493 0.07883518 0.06990308 -0.03386795
0.0283041 -0.005254098 -0.03064459 0.0034680055 -0.053148713 0.2664119 0.23134582 -0.03916608
-0.05854235 0.27848187 -0.40129977 -0.1574757 -0.11718287 -0.06769569 -0.18156943 -0.006047294
0.0009994844 0.08061302 -0.27136564 0.024584431 -0.26646256 -0.18385388 -0.09234463 -0.09566786
-0.038147353 -0.46124423 -0.014655332 -0.21554032 -0.38471755 -0.27119058 0.01907962 0.23639874
-0.22603503 -0.019390576 -0.13773417 0.0176839 -0.16973178 -0.03302431 0.0027408605 -0.029407114
00000000: f6ca cdbc 1723 7fbd 4f5a 8b3c f8ac 943c
00000010: ddf6 e53d fb87 c4bb 02b5 f0bd 71c7 12bb
00000020: 8502 1a3d cf6e 43bc 15c2 95be 6b5b 44bc
00000030: c58a 65be 1921 933d 82e9 41bd 0445 adbe
00000040: 4a84 93be 6696 473c 38f4 023e 4d74 ab3d
00000050: efdd 36be bedb 61bd e25c 6dbd 4195 693e
00000060: fcd7 42bd fdb2 253e c38c 93bc 7ee8 253b
00000070: feca d9bd 5f4c eb3d 930d 60be b849 d8bd
00000080: 0c33 0fbe 2e0b cdbe b782 0bbc f0b7 35bd
00000090: 3056 083d ab61 18bd cde1 58be 418b ee3c
000000a0: 477d 24bd 68c5 afbb e661 2ebe 8b6d e93c
000000b0: 4d0c 9abd d810 08ba 9db0 b9bd 223f 953e
000000c0: 61da 1c3e 1cb9 8c3d 6ab7 55be 653a 983c
000000d0: bd8a 21bd 62bb cebe b2fe a3be 26b8 0cbe
000000e0: e275 5d3c 746a 14bd 2a60 763e 31ee 22bd
000000f0: 8887 9ebe 642f 053e 4ffc cabd ad34 473c
00000100: 2baf 35bd acfa 72bc 38c2 30bd fb02 243d
00000110: ccab 65bd 952a c33c 21b0 f0be 8add 45bb
00000120: 9ebb 973d 6323 1c3a 7e48 1c3e 7d7a 923e
00000130: c0c1 9a3e 38ce 58bb ffab ccbe a35d e93d
00000140: 863e 82be ae85 bdbd 68d2 0dbd 60e9 37bd
00000150: 457d 9fbc 816e c6bd 4da5 f03d eaae b9be
00000160: c42e 66be f790 8dbd 964c 09bd 8995 d3bd
00000170: fe1e b33c 2286 aabe 5867 38bd d61f f03d
00000180: 6efd 7abd 2102 f8bc 6c7e 3cbd 5bf1 a13d
00000190: 9feb 04bd 1a44 d7bd 3f58 43be 4584 ad3c
000001a0: d201 773e fb31 ac3e 1cd4 89be 338f 4bbc
000001b0: 3af5 c13a 2b50 6b3e cde6 773d c226 b7bd
000001c0: 9a31 8a3e 9218 8dbc 284b 20be c418 3d3d
000001d0: 829b da3d da39 adbc 42e5 a6be 9478 46be
000001e0: 2cde d1be 2b5b bfbd a0d3 6d3d 41ce 6e3e
000001f0: 2408 e2bb d13e 9d3e 8342 75be 370c 0cbe
00000200: 9544 60be 712c 26be 426f cbbc 8ace 9f3b
00000210: c3c8 093d 9124 26bd f02e 59bd e38d b8bd
00000220: 7a0e 23be 36d6 a63d 7e96 debd 9373 fbbc
00000230: 87c3 19bd ac8f e4bc fdc2 34be 0cd2 983c
00000240: 4bbf 63bd ad4b da3d ecb2 8cbe adf3 a93d
00000250: dceb dfbd 27c0 133c 3996 df3c ede8 7f3c
00000260: 14cc ab3e 6a87 5abc 3997 8bbe 0054 93bd
00000270: 79a0 bdbe 5774 a13d 5929 8f3d 1fb9 0abd
00000280: 00de e73c 922a acbb 5d0a fbbc 7a47 633b
00000290: 77b2 59bd 2467 883e ebe5 6c3e 9d6c 20bd
000002a0: 1aca 6fbd 2d95 8e3e 2a77 cdbe 4f41 21be
000002b0: 93fd efbd 0aa4 8abd 56ed 39be 6128 c6bb
000002c0: 2201 833a 7018 a53d 70f0 8abe 4a65 c93c
000002d0: c86d 88be 3144 3cbe 2e1f bdbd 83ed c3bd
000002e0: 6640 1cbd 3428 ecbe eb1c 70bc 9ab6 5cbe
000002f0: b3f9 c4be 7ed9 8abe dd4c 9c3c 8312 723e
00000300: ba75 67be fcd8 9ebc 300a 0dbe d4dd 903c
00000310: 2bce 2dbe 8044 07bd 02a0 333b 30e7 f0bc

l3.weight f4 [4, 200]
0.01974218 -0.4106275 -0.54901415 0.039548326 -0.18159132 -0.055644132 -0.23353638 0.046456415
-0.14752641 -0.4008687 -0.5408127 0.0047462587 -0.31979996 -0.24128896 -0.2425322 1.2466964
0.03984483 -0.23052879 -0.20433694 0.38671035 -0.16422737 -0.15762304 0.057655375 0.47434705
0.051745187 -0.28975305 -0.013050961 0.03812789 -0.5157005 0.37927622 -0.12726255 -0.16146173
-0.14506121 -0.48042026 0.3825269 0.045111954 -0.2335977 0.027305428 -0.22668664 0.009805196
0.02003884 0.045394946 -0.16369885 0.26864263 -0.10139639 0.020009622 0.20099036 -0.7918971
0.50757813 -0.24453881 -0.11505689 0.054787874 0.5672587 -0.5741154 -0.468619 0.10147015
-0.87476414 0.04145441 0.3546033 -0.041983783 -0.43573084 -0.20701677 0.13832262 -0.33587074
0.024667334 0.0038431804 -0.011411132 -0.3354315 -0.05153979 0.029482754 -0.63884634 0.04330813
-0.17670073 -0.012606022 0.54137695 0.5312351 0.45237684 -0.18204273 -0.3968036 -0.15654488
0.8360442 -0.084394656 -0.04346596 0.008457227 0.0039338977 -0.42488864 0.30430818 -0.3872583
-0.23564982 0.15874623 0.06478455 -0.07825157 0.24915542 -0.091605365 -0.3011586 -0.4996008
0.070701696 -0.4790196 -0.002061272 -0.17355086 0.015544186 0.6472769 -0.308378 -0.42143676
0.50824606 1.0872537 -0.17976406 0.010831169 0.0049420698 -0.3655849 -0.5642545 -0.13762018
0.48362958 -0.2689764 -0.19143657 -0.24170557 0.33741206 0.012501833 0.5749495 -0.28790656
-0.6375597 0.30367735 -0.40892163 0.18184486 0.21940953 0.49657142 -0.40010357 -0.16380328
-0.83686054 -0.3632609 0.05515515 -0.042485584 -0.040626816 0.06448101 0.04007647 -0.41446763
-0.023632275 0.5821857 0.56997275 0.0522026 -0.016233584 -0.076104425 0.72314227 0.046014737
-0.35303998 0.58510923 -0.59214634 -0.2526298 -0.22575915 0.056272857 0.005821274 -0.42735702
0.43686342 -0.2075443 0.52682775 0.31142515 -0.21064419 0.30383623 -0.28886297 0.17090464
0.027555713 -0.061166566 0.010517737 0.021218486 -0.09257216 0.47198567 0.3506715 0.019966751
-0.32321867 0.3848814 -0.3562378 -0.026468601 -0.40145543 -0.18381393 0.40316886 1.1568222
-0.37823483 -0.27424616 -0.21818163 0.045852132 -0.499025 -0.3092317 0.39943796 0.36468658
-0.2921562 -0.4407503 -0.010264028 -0.28817475 -0.5239224 -0.6270538 -0.22957826 0.38694096
-0.11222338 -0.41399312 0.44937983 0.07113175 -0.04159096 0.07033069 0.03777767 0.3915853
0.0052366853 -0.19648056 -0.57263666 0.05427245 -0.08614753 0.04773361 -0.16201548 0.0038506577
-0.092216596 -0.4174064 -0.3570584 -0.08876463 -0.15907274 -0.6687156 -0.15474166 1.1563876
-0.20156023 -0.1453936 -0.21354522 0.58398587 -0.12713133 -0.15160078 0.05931859 0.4989586
0.07350041 -0.36042327 0.040290684 -0.022364473 -0.44266576 0.30261034 -0.18804991 -0.17929259
0.11801554 -0.6334957 0.1418602 0.019927442 -0.17291723 -0.02524534 0.42826664 0.04434902
0.022546621 -0.059610065 0.025004195 0.28053403 -0.19331683 -0.07514166 0.27443516 -0.79619294
0.5876197 -0.1336657 -0.22158964 0.030277234 0.1639174 -0.77969795 -0.56253606 -0.3862882
00000000: 5aba a13c c53d d2be 318c 0cbf 6dfd 213d
00000010: 13f3 39be 1aeb 63bd 2924 6fbe 1549 3e3d
00000020: 2a11 17be aa3e cdbe b372 0abf 8186 9b3b
00000030: d2bc a3be 7414 77be 5c5a 78be bf93 9f3f
00000040: 5534 233d bd0f 6cbe b43d 51be e6fe c53e
00000050: 382b 28be ef67 21be 0b28 6c3d 9edd f23e
00000060: c3f2 533d 835a 94be b3d3 55bc fe2b 1c3d
00000070: f304 04bf 7e30 c23e 1d51 02be 3956 25be
00000080: ed8a 14be a5f9 f5be 91da c33e 50c7 383d
00000090: 3c34 6fbe a2af df3c 8b20 68be f9a5 203c
000000a0: 7e28 a43c 0df0 393d aca0 27be 878b 893e
000000b0: e9a8 cfbd 38eb a33c 6bd0 4d3e c5b9 4abf
000000c0: a4f0 013f 6268 7abe f2a2 ebbd 4069 603d
000000d0: de37 113f 3af9 12bf d4ee efbe 95cf cf3d
000000e0: 8bf0 5fbf 19cc 293d 908e b53e 30f7 2bbd
000000f0: 1d18 dfbe 34fc 53be 72a4 0d3e 40f7 abbe
00000100: 2613 ca3c dedd 7b3b c2f5 3abc adbd abbe
00000110: 631b 53bd d185 f13c 6f8b 23bf de63 313d
00000120: 09f1 34be 7d89 4ebc ae97 0a3f 06ff 073f
00000130: f09d e73e 6969 3abe d729 cbbe 4d4d 20be
00000140: fe06 563f 1bd7 acbd 5d09 32bd 2e90 0a3c
00000150: ede7 803b 018b d9be 48ce 9b3e b846 c6be
00000160: 304e 71be 5f8e 223e c3ad 843d 5c42 a0bd
00000170: 9922 7f3e 989b bbbd 7631 9abe adcb ffbe
00000180: 0dcc 903d 0f42 f5be 6816 07bb 51b7 31be
00000190: 0bad 7e3c f0b3 253f b9e3 9dbe 8fc6 d7be
000001a0: 6a1c 023f 212b 8b3f 1214 38be 3775 313c
000001b0: 16f1 a13b f22d bbbe fc72 10bf 4eec 0cbe
000001c0: 4c9e f73e 46b7 89be f307 44be aa81 77be
000001d0: 46c1 ac3e 7dd4 4c3c e42f 133f 7d68 93be
000001e0: 1d37 23bf 997b 9b3e 2d5e d1be 8a35 3a3e
000001f0: e4ac 603e 9c3e fe3e 60da ccbe 0cbc 27be
00000200: 7e3c 56bf 55fd b9be 5eea 613d 5d05 2ebd
00000210: 4e68 26bd 9f0e 843d 3927 243d 1a35 d4be
00000220: 7998 c1bc 1f0a 153f bce9 113f 65d2 553d
00000230: 4bfc 84bc a3dc 9bbd da1f 393f f379 3c3d
00000240: a8c1 b4be b8c9 153f e796 17bf b158 81be
00000250: 682d 67be 5e7e 663d 63c0 be3b 8ace dabe
00000260: 90ac df3e 7e86 54be 2fde 063f 1e73 9f3e
00000270: 1cb3 57be 6c90 9b3e d9e5 93be a001 2f3e
00000280: 85bc e13c cb89 7abd 9652 2c3c 64d2 ad3c
00000290: 7996 bdbd 1ba8 f13e 378b b33e 5091 a33c
000002a0: eb7c a5be 2d0f c53e cd64 b6be aed4 d8bc
000002b0: 918b cdbe b839 3cbe 266c ce3e c012 943f
000002c0: ffa7 c1be fe69 8cbe 016b 5fbe 72cf 3b3d
000002d0: 3480 ffbe 9e53 9ebe 2283 cc3e 33b8 ba3e
000002e0: 7f95 95be 06aa e1be 742a 28bc a48b 93be
000002f0: c71f 06bf 9986 20bf 9016 6bbe 201d c63e
00000300: 5fd5 e5bd e8f6 d3be 1d15 e63e 86ad 913d
00000310: 485b 2abd 8909 903d c2bc 1a3d de7d c83e
00000320: 8098 ab3b 3332 49be 5198 12bf ca4c 5e3d
00000330: 1e6e b0bd 5184 433d 63e7 25be 515b 7c3b
00000340: 0edc bcbd 4bb6 d5be 5cd0 b6be 3bca b5bd
00000350: f7e3 22be f230 2bbf 9974 1ebe 8204 943f
00000360: ce65 4ebe 0fe2 14be 99ab 5abe 1980 153f
00000370: b72e 02be 3c3d 1bbe 0df8 723d 8077 ff3e
00000380: 6287 963d 6689 b8be d807 253d b335 b7bc
00000390: 16a5 e2be beef 9a3e 2890 40be 7a98 37be
000003a0: 22b2 f13d c62c 22bf cd43 113e e03e a33c
000003b0: 3711 31be 51cf cebc c445 db3e 51a7 353d
000003c0: b1b3 b83c af29 74bd 99d5 cc3c 28a2 8f3e
000003d0: d9f4 45be dfe3 99bd c482 8c3e 4dd3 4bbf
000003e0: 3f6e 163f a9df 08be 65e8 62be f607 f83c
000003f0: f7d9 273e 499a 47bf 5d02 10bf 91c7 c5be

l3.bias f4 [4]
0.35584977 0.14593424 0.18751203 0.34910274
00000000: f131 b63e c96f 153e 2703 403e 98bd b23e
