fin/DDQN/agent-300-10-616/model.pt (torch, 340231 bytes, 6 tensors)

l1.weight f4 [400, 8]
00000000: 3e5b 6bbf 6fca c53d 92f6 fd3d aa05 173f
00000010: 26a3 e6be a72a df3e 83d4 31bf bae8 e5be
00000020: 85c1 4dbf fb28 4a3e 4d7a 14be 1d79 38bd
00000030: cfe1 023f fc97 48be 6f9e 9fbe 931c 6fbf
00000040: 5f91 04bd ed8a 2eb8 6e76 8fbd 47b4 e93c
00000050: d038 0f40 2b12 adbd efe3 823f c355 643e
00000060: 5648 d8bd 5640 cc3e a31e 6e3e c7f6 e23e
00000070: a2b7 abbd b848 083f 08bf 2fbf b0f7 4c3f
00000080: f090 863e 6cc8 5f3c 2fd7 a83d 3bda 67be
00000090: 2b53 4a3f 4641 0f3f 58b0 3cbe abf0 9cbe
000000a0: aa9d 7fbd 9228 f8be 4ab2 f5be ebac 15bf
000000b0: c37c ffbd 366c 3dbf f525 e4bd aaea ccbe
000000c0: 890d 613d 87cf 57bd 7789 4d3e 177a 2dbe
000000d0: 31a6 46bf eefe 95be 9307 4abe 904a ecbd
000000e0: e0e9 d03e 1012 093e c281 133f c894 d03e
000000f0: d55e e6be c9e0 f1be 9f4b 44bf e509 103f
00000100: 6268 79be c83b 25bf 0f88 4e3d afa2 f7bd
00000110: 8370 22bf cbff c7be dfd5 a5be a006 c23d
00000120: 5076 d63d ff8f 4bbe 57e4 74be 1a37 83be
00000130: 832c 1fbe 2b52 403e 2ff3 d3bb cc0f 06be
00000140: a838 3f3d c14b af3e a11e ba3e 46cd 243e
00000150: 94ee f2be 5019 a93b ad84 5bbf dd53 80be
00000160: ffba 12bf 767c a4bd af6d 3ebf 915e aebd
00000170: 1964 a73e a37c 10be 3753 ffbd e069 103f
00000180: 95b1 16be 56e2 e6be 7d1f 3abe c244 f43e
00000190: 391e 87bf c62c 36be 5cbb cebf 756f ecbe
000001a0: 68e4 c33d 037a 4b3e f88a 7cbf 2f2f f8be
000001b0: ab25 31be a25b 81be 0dc0 4dbf 7680 d0be
000001c0: 845b 493e 7284 8f3c 1800 37bf 12c4 76be
000001d0: 46ff 0dbf fada 3bbf 0824 7cbf 297c 803e
000001e0: 1dbe ab3f 3c95 02c0 0ed7 f13e 0af4 39be
000001f0: e0f4 24be ba29 e93d 8e92 8bbd 7a98 19be
00000200: 0225 213d 3c53 07bf d350 9b3c ea66 b4be
00000210: f181 b4be 3e28 9fbf a693 0ebf 0684 6b3f
00000220: ca0d 0b3e a2e4 e43d 224a ab3e b2e4 b53a
00000230: c6a3 dd3f 85f7 573f f6ed 6ebf b514 d7be
00000240: 18c2 68be e030 323d 5cca b73e a855 70bf
00000250: b572 7abe 6724 98be 354d b3bf 5745 acbf
00000260: 792c 323e 7d48 e13d d649 9b3e 8bfe aebe
00000270: 6628 b63e 4fb1 883f c164 a2bf 7017 56bf
00000280: 6bfc cf3d da62 01be dd58 433d a018 3f3e
00000290: be9a 30bf e968 13bf c179 ae3d bf72 abbe
000002a0: f8e9 423f 2e5e 0bbf 3f2d 70be 5685 d43e
000002b0: 5f1a 063f 40e1 4ebe 7ec1 e0be 352f 123f
000002c0: f852 e3be 8c87 9cbd c6c7 253d 3e1f c33f
000002d0: 9695 6fbd 5d82 3f3f 8900 87be e813 c1be
000002e0: f414 963e 1227 1c3d 2e9a af3d 1095 12bf
000002f0: bd99 573f 3c57 3f3f 881e 62bf 12fd 8abe
00000300: 86d6 8dbf 33b9 abbe 7e1b b9be 292b 263f
00000310: fd3c e5be 7d49 9f3e 02ea 62be ee43 df3d
00000320: 6a36 09be 20ab 5cbc e946 37bf 51f8 5abe
00000330: b9df c83e 8585 0abe 0875 1fbf 336a 52bc
00000340: 9353 35be 4001 713e 470a 443e 794d 09bf
00000350: 72ee 283e d2f0 893e 6b1d 93be 9cb6 30bd
00000360: bf32 f33d 2fcb 43be 62df 3ebe 62d4 0f3e
00000370: b2f9 f1be 434d a8bd 023a 29be 6621 79be
00000380: 2f76 87bf ced4 5bbe c7e2 06be 1b21 8a3c
00000390: 1d07 8abe ed82 94bf b5b3 ddbe b64e 2ebe
000003a0: 9c49 a53f 88f0 c5bf d607 bf3d 2a6a ef3e
000003b0: df1c 9dbd 317f 5d3e 7085 ddb7 8836 b13e
000003c0: e875 05bd 3561 09bd 4274 d93f c718 c3be
000003d0: ab11 fe3d 1b96 57bd ac3f c2bb c7fa 0ebd
000003e0: 7d5d 5dbd dcf3 96be 1592 80bf d310 433e
000003f0: b09b ebbe bb2b b8bd 039e 6d3f 1157 a9be
-0.919361 0.09657752 0.12400545 0.5899302 -0.45046347 0.4358723 -0.6946489 -0.4490412
-0.8037341 0.19742195 -0.14499779 -0.045037378 0.51125807 -0.19589227 -0.31175563 -0.93402976
-0.0323652 -4.1614217e-05 -0.070050105 0.028528346 2.2378426 -0.08450731 1.022581 0.2229834
-0.10560672 0.39892834 0.23253874 0.443289 -0.083846346 0.5323596 -0.68650866 0.8006544
0.26282454 0.013658624 0.08244168 -0.22641842 0.79033154 0.55958974 -0.18426645 -0.30652365
-0.06240622 -0.48468453 -0.47987586 -0.58466977 -0.12474968 -0.7399324 -0.11140052 -0.40022784
0.05494455 -0.052688148 0.2007197 -0.16941105 -0.7759734 -0.29296058 -0.19729452 -0.11537659
0.40803432 0.13385797 0.5761987 0.4073851 -0.44994226 -0.4724181 -0.7667789 0.562651
-0.24356225 -0.64544344 0.050422724 -0.12091576 -0.6345293 -0.39062342 -0.32389733 0.0947392
0.10471785 -0.19879149 -0.2391523 -0.25627977 -0.15544324 0.18781345 -0.0064681987 -0.13091964
0.04668489 0.34237483 0.36351493 0.1609393 -0.47447646 0.005160488 -0.8574932 -0.25063983
-0.57316583 -0.080315515 -0.74386114 -0.08514131 0.32693556 -0.14110045 -0.12467044 0.5641155
-0.1471618 -0.45094556 -0.18176074 0.47708708 -1.0556098 -0.17790517 -1.6150928 -0.46178785
0.095650494 0.19870763 -0.9864955 -0.48473498 -0.17299525 -0.25265223 -0.8037117 -0.40723008
0.19663817 0.01751921 -0.7148452 -0.24098232 -0.5546764 -0.73381007 -0.9849248 0.25094727
1.3417393 -2.0403585 0.47234386 -0.181595 -0.16109037 0.11384912 -0.068150625 -0.14999571
0.039341934 -0.5286138 0.018959438 -0.35234767 -0.35255387 -1.2434156 -0.55694044 0.91998327
0.13579479 0.11176421 0.33454996 0.0013877361 1.7315605 0.8436206 -0.9333185 -0.42007986
-0.22730291 0.043503642 0.35896575 -0.938807 -0.2445782 -0.29715273 -1.4007937 -1.3458661
0.17399777 0.11000154 0.3032977 -0.34178576 0.35577697 1.067911 -1.2686998 -0.8362951
0.10155567 -0.12635365 0.04769217 0.18661737 -0.6898612 -0.57581955 0.085193165 -0.33485982
0.7613826 -0.5444058 -0.2345476 0.41507977 0.5238399 -0.20203114 -0.43897623 0.5710328
-0.44399238 -0.07643041 0.040473722 1.5243909 -0.058492266 0.74808294 -0.26367596 -0.377105
0.2931286 0.038123198 0.08574329 -0.572587 0.8421896 0.74742484 -0.88327837 -0.27146202
-1.1081092 -0.33539733 -0.36153787 0.6490961 -0.44773093 0.31110755 -0.2215958 0.109016284
-0.13399664 -0.013468534 -0.71592575 -0.21383788 0.39233187 -0.13527496 -0.6228795 -0.012842703
-0.17707662 0.23535633 0.19144545 -0.5363384 0.1649721 0.26941544 -0.28733382 -0.0431429
0.118749134 -0.19120477 -0.18639901 0.14045861 -0.47260815 -0.082178615 -0.16526034 -0.24329147
-1.0582942 -0.21467897 -0.13172446 0.016861489 -0.26958552 -1.1602455 -0.43301168 -0.17022213
1.2913089 -1.5464029 0.093276665 0.46760684 -0.07671522 0.21630551 -2.640739e-05 0.34611917
-0.032583147 -0.03353997 1.6988604 -0.3810484 0.12405714 -0.052633386 -0.0059280004 -0.03490713
-0.054044235 -0.29482925 -1.0044581 0.19049387 -0.46017218 -0.08992716 0.9281923 -0.3307424

l1.bias f4 [400]
00000000: 04a8 8fbc 04c4 a03d 7ef6 7d3c e90a 96be
00000010: cd97 5bbf 92c0 4fbf a50f f93c b974 3ebf
00000020: c751 ebbe 9d77 c33e 7615 49bf 5c40 a0bd
00000030: d1df 09bf 42ca 72bc 3f00 e93c b59e 1dbf
00000040: 4bcf 10bf e767 913e c9cf 793e a8e7 26bf
00000050: 9867 0ebf 89c9 6cbe e6de 4bbf c338 89bf
00000060: face a9be adda 4f3e e413 2c3e 27b8 2fbf
00000070: 1d58 1a3e cce7 28bf 37b7 1a3d fd23 44be
00000080: 00b2 b1be 40c8 93bf 1e04 b4be 90aa b5be
00000090: 22ae aebc dba9 e1be 38b1 69be 4e73 66bf
000000a0: 2d20 443e 959e 24bf 2eca debe 553f 4fbe
000000b0: f3d2 09bf ef66 2e3e 1cca 85bf 0cce c2be
000000c0: fb49 22bd 1fc8 ffba 769f 0fbe f833 e53e
000000d0: 822f 25bf 94c7 63bb 4d04 07bf 59b3 e8be
000000e0: eeac bdbd 25b9 a4be 9c17 3f3e 48a0 5dbf
000000f0: 1213 3dbf b880 e8be 3f82 763e ba1e 57bf
00000100: f43a 64bf e7d6 d1be 9f55 3abf b259 64bd
00000110: ea52 e73d 0931 87be 517a 9d3e ecc3 22bf
00000120: 3454 df38 6627 b43c 2d4d 29bf 9bbc 22be
00000130: a5ea ccbc 7dfd 3abf 177d 6dbe 2558 8fbf
00000140: dfac 46bf 65db 50bf e6d7 68bf 1c25 473e
00000150: 6e4c c8bd 2a2d a6be b057 0ebf 9441 bf3e
00000160: 97ea d0be 8c96 69bf 0fc1 56bf ce99 44bf
00000170: 93f9 943e 4cfb 92be 88c5 3abf ab4b 14bf
00000180: be7d 15bc f6f5 32bf 9e6b dfbe 0f71 7cbf
00000190: 19cc ba3e d70c 5bbe b9f1 8bbf d50c e93d
000001a0: 8a5d 9b3d c5bf c3be f0b4 afbe 9d4d 0fbf
000001b0: b686 3e3d 11b7 4bbf 14de 4abf 0b68 26bf
000001c0: 397a 65bf fe26 34bf 147b 383e b092 ebbe
000001d0: 452b ccbe dff3 2ebf 393e 16be cf49 68be
000001e0: 865c 97bd 3f18 2fbf 5811 6bbf ca28 bcbe
000001f0: ca71 17bf c08f 223e a183 1e3d 3727 fa3e
00000200: d64f e7be 2ec1 213f dfab 2fbd 86f7 c53e
00000210: cb30 14bf a373 06bf 409d 453e 7325 7bbc
00000220: c200 00be 65e9 5bbe f65d 163b 0f8c 5b3d
00000230: 75a0 cbbe fcc9 ae3e 6b91 d23d e30a 1dbf
00000240: 1404 1c3e af9f 3abf 6086 6e3e 6954 27bf
00000250: f94e 393c 3ae3 01bf 0ed9 0ebf f27c dfbe
00000260: 3aaf fcbe e9d6 613c b944 33bf 572e be3c
00000270: 1359 80be 4e3b 1fbf ba05 9abe 8664 1d3e
00000280: c9e3 163c f479 79bf 2513 8d3c 36d5 753e
00000290: 2982 353e 51c4 c6be 82ec 04bf 4bb7 973c
000002a0: f08f 50be 31d9 4abf 8cd7 e03e 4623 09bf
000002b0: c3df a13e 9b72 e8be 5fef 10be 5adc 8abf
000002c0: 2eb6 5b3c fa36 cbbe 92db 143f 58b8 0e3e
000002d0: 65a9 44bf 0024 543e 4014 df3b 43b6 4d3e
000002e0: 677c 963e a103 5bbf 686b 0dbb 46f2 85bd
000002f0: 86c1 4d3e 9b62 99bf 9a9b 1cbf 9070 b13e
00000300: ac76 0c3f d64c 4a3c 6de2 0dbf b601 05bf
00000310: 7051 38bd 2126 52bd e045 76bf 644c a4be
00000320: 3ca8 c6be a5e1 943d 1333 03bf a592 cebe
00000330: 57d9 56bf 90db 103e 8723 7d3c 09f7 aebe
00000340: 0ba4 cdbe 4cea 81be d984 983e 11dd 9cbe
00000350: 52a3 04be 6898 943d c121 03bf e42d 773e
00000360: 565e 16bf 145a 5f3e db13 56bf a201 0ebf
00000370: d013 373e 70bb ddbe 6c42 073f 6cc4 033e
00000380: 0774 ebbe bc75 19bf c9e9 e9bd 4cd2 5a3d
00000390: 24b1 8ebe edc8 81bd d19e 11bd 109d c7be
000003a0: 75d6 8e3e a46e 73bd 5af1 a9be 47e2 28bf
000003b0: 9374 b6be 05dd adbe 3e04 323e 49d6 71bf
000003c0: a943 d63d 6be9 a4be c141 52bf 59db c6be
000003d0: 6450 c3bc 4b2b eabe d69a 223b 707b 8d3e
000003e0: ee9a 0abf 81f2 08bf 3d02 61bf 5c57 85bc
000003f0: d083 5bbd f33c e4be b400 413e 67ae 6fbf
-0.01753617 0.07849887 0.015500663 -0.293052 -0.85778505 -0.81153214 0.030402968 -0.74396855
-0.4596083 0.38177195 -0.7854837 -0.078247756 -0.5385714 -0.01481873 0.0284425 -0.6157029
-0.56566304 0.28399584 0.2439567 -0.6519723 -0.5562682 -0.23123755 -0.7963699 -1.0720447
-0.33165723 0.20298262 0.16804463 -0.6864037 0.15072675 -0.65978694 0.037772384 -0.19154353
-0.34706116 -1.1545486 -0.3515939 -0.3548169 -0.021323267 -0.44074902 -0.2282151 -0.9001969
0.19152899 -0.64304477 -0.43513626 -0.20239003 -0.5383751 0.17031454 -1.0452304 -0.38047826
-0.039621335 -0.0019514597 -0.14025673 0.44766212 -0.64525616 -0.003475641 -0.5274094 -0.4544933
-0.09261499 -0.32172504 0.1866135 -0.86572695 -0.73857224 -0.45410705 0.24073122 -0.8403126
-0.89152455 -0.4098427 -0.727869 -0.055749603 0.112951115 -0.26404598 0.30757383 -0.63580203
0.00010649153 0.021991443 -0.66133386 -0.1589226 -0.025014231 -0.7304304 -0.23192249 -1.1198775
-0.7760753 -0.8158477 -0.90954435 0.1944775 -0.09780203 -0.32456332 -0.5560255 0.3735472
-0.40803978 -0.9124534 -0.83888334 -0.7679719 0.2909666 -0.2870735 -0.7295766 -0.5792796
-0.009124218 -0.69906557 -0.43636793 -0.98610014 0.3648384 -0.21391617 -1.0933143 0.11379401
0.075862005 -0.38232246 -0.34317732 -0.55977803 0.04651519 -0.7957621 -0.79245114 -0.65002507
-0.8963962 -0.70372 0.180157 -0.4601035 -0.39876762 -0.6834087 -0.14672174 -0.22684406
-0.07390694 -0.6839637 -0.9182334 -0.3674987 -0.59158003 0.15875149 0.03869975 0.48858044
-0.45178097 0.63185394 -0.04288852 0.38665408 -0.5788695 -0.525202 0.19298267 -0.015328753
-0.12500289 -0.21475752 0.0022944189 0.053600367 -0.39770856 0.34138477 0.102816425 -0.61344737
0.1523593 -0.7289991 0.23293447 -0.65363175 0.011310332 -0.50737345 -0.5579995 -0.43650013
-0.49352437 0.013784149 -0.7002674 0.023215456 -0.25067958 -0.62199867 -0.30082494 0.15370378
0.009209582 -0.9745171 0.017221043 0.24007115 0.17725433 -0.38821653 -0.5192338 0.018520018
-0.20367408 -0.7923766 0.4391445 -0.5356945 0.3161603 -0.45399937 -0.14153813 -1.0848496
0.013410134 -0.3969038 0.5814754 0.13937509 -0.76820976 0.20716858 0.006807834 0.20089059
0.29391786 -0.8555241 -0.0021578912 -0.065403506 0.20093355 -1.1983217 -0.6117493 0.3465619
0.5486858 0.012347421 -0.55423623 -0.51955736 -0.04499954 -0.051305894 -0.9620037 -0.3208953
-0.38800228 0.07269601 -0.5124981 -0.40346256 -0.83925384 0.14146256 0.015450365 -0.34172848
-0.40164217 -0.25374067 0.29788855 -0.3063741 -0.12952927 0.07255632 -0.5122338 0.241386
-0.58737695 0.21811706 -0.8362405 -0.5547124 0.17878652 -0.43307066 0.52835727 0.12867898
-0.4598696 -0.59945273 -0.11421544 0.05342321 -0.27869523 -0.06337152 -0.03555185 -0.38987017
0.27897993 -0.059431687 -0.3319195 -0.6597027 -0.35635814 -0.33957687 0.17384431 -0.944676
0.10462124 -0.32209334 -0.8213158 -0.38839224 -0.023842044 -0.45736155 0.0024811528 0.27633238
-0.54142654 -0.5349503 -0.8789404 -0.016277008 -0.053592503 -0.4457775 0.18847924 -0.9362549

l2.weight f4 [200, 400]
00000000: 9e11 37be 782d 06be e87f 09bf 1d1b b93c
00000010: a817 c13c 1816 863e 3d38 933b a7f2 eebd
00000020: b134 b4be a352 4bbd e876 6d3e e102 ddbc
00000030: 47e7 b6bd 8ecc 84bd ed93 293d 8660 07be
00000040: 770d b43d 33f2 24bf 554c 66be 0b36 a13e
00000050: 7ffb 3dbe dfc7 98bc f99a dc3e cbfe 803e
00000060: 5225 86bc 1a18 5dbe 0d85 6fbc 80e6 15be
00000070: 1168 65be a5b5 c63d 3e28 88be f942 8c3e
00000080: 4ee8 8abe 4e15 2d3e 0393 a2be 24eb 0ebd
00000090: cf83 61be d52a 5c3e 287b 79be 21ab 613e
000000a0: 1634 7dbe 7dfd d6bd b2b8 5fbc f3cb 2e3d
000000b0: cbdb 00be 6d59 3dbe a0a3 293e a9c2 2cbf
000000c0: 1de6 bebd 3988 0ebf 8082 d93d 24ac 91be
000000d0: 663d 333e e4b8 4c3d 6420 29be 4719 083e
000000e0: ea19 3f3e dee2 e8b9 c402 40bc 9a94 e6bd
000000f0: 73b0 fdbd 3b21 b43d 4c22 45be 64f3 7e3e
00000100: b9f4 933e 71f3 92be 0fd4 b53e bbe7 9b3d
00000110: 17a3 6dbe adc4 c73c 79ed ff3d 5c8f 6cbd
00000120: 0814 b63c dc5d a5bd 7ad8 493e f9b3 8cbe
00000130: 34a7 a1bd 6b94 d53e 910d 323c fb25 8f3d
00000140: 4967 c53c 51e9 0d3e 7472 513e f22f 453e
00000150: 8a15 c3be ba99 0fbe 0c00 e1bb 7d4b 96bb
00000160: 74a5 503e 4bc4 0d3e 0698 933d f1fd ea3e
00000170: d68e 1ebe 3e5f 323e 476e d33e 64cc 41be
00000180: 3073 89be 5f54 bfbd d016 4fbe 0f4b 773e
00000190: 47b4 1abe 7f01 82bc f6e2 b8bd 7e1c f33c
000001a0: 5c22 adbd 1f5f 16bc 1817 41be 8037 863e
000001b0: 0e23 e3bd feef 8b3e 6670 a93d 44f2 d33d
000001c0: ff63 033e 6f07 3a3d 0af7 b2be c289 3bbe
000001d0: 7338 0dbf 5843 923e b2fe 5fbe 021d f2bc
000001e0: 2990 b63d 3e15 42bd 7899 cc3d a2e6 0b3d
000001f0: cbbd 243d f80e 06be 6d9e 063e e7f3 1d3d
00000200: 20cb 0cbe 6e2e e1be 787d 5cbe 5fcc 3abe
00000210: 23fd 36bb f5c9 d23c d863 c5bb 17e1 0cbe
00000220: 2d47 f4bd 74fa dfbe d90e c4be 5ad9 70be
00000230: 9b2c 5e3e f2e8 8dbe 4656 04bf f422 c93d
00000240: 6124 bcbe df8c c13e 482b 95bc 0c11 983e
00000250: e505 91be 6376 a33d d7df c7bd b93f 973d
00000260: 2c2a f73d 29b4 99be 135b 903d 9afe 67be
00000270: a778 ebbd 33ea 9b3e 3d0d 1fbd 70df 8dbe
00000280: d269 55be a037 5abd 68b7 fabd 7bc4 edbd
00000290: c7bc c9bd 0b6e 0e3c 72ba c73d 1ea4 05be
000002a0: 8da5 9bbd b7d3 f2bd dd36 bc3b a3d3 733e
000002b0: 404e 7ebd 3801 22bd 7d0f 773c 1766 af3e
000002c0: c4b7 7b3e 41ee 0ebd 0673 5dbd ffa3 4abd
000002d0: 857d 393d 7ddd 74be f5c8 01bf ffa4 acbb
000002e0: 953c 953d b8bc 523e 3312 05bf 05e5 aebd
000002f0: da65 69be 9ca8 843e db39 cf3b 4e7b 8b3d
00000300: d0df 713e b077 82be ab49 afbd c30d 2abe
00000310: b299 b4be 0c8f 62be 22c5 903d 14cc abbc
00000320: 601e 70be 71e9 44bd 61ec 39be 9b56 49bd
00000330: 38a2 f53c 5271 1bbd f43d 51be 553d ec3d
00000340: 71ad d4bd 804c 20be 6eb4 debc 3f8c c23c
00000350: 1c4e d5bd 6a1e 043c 0f33 5fbd 7dfd 59be
00000360: d900 3f3c d3a4 233d 0a07 663e 8db6 6d3d
00000370: 1bee 593c dde5 ea3d 3e21 c8bd d3da 7d3d
00000380: d45c 003e b089 cbbe 2ebf b9bd 8558 00be
00000390: 5098 dc3d 5b44 fb3c d759 29be 9862 87be
000003a0: b7a2 f5bd 20ca 51be f688 d3bc 9905 2ebe
000003b0: 1530 c0bd dbab 7c3e f8e2 23be 43a7 1d3e
000003c0: 4b42 313d b66a 453e a15a cabd 9954 4fbc
000003d0: 180a bb3d b2b5 95bc cf72 95be b272 babe
000003e0: 8e1d 07bf 654b 893d 9c0a 4a3e 4693 debd
000003f0: cb33 df3b 232a 213d 7970 863c f177 623e
-0.17877814 -0.13103282 -0.53710794 0.022595936 0.02357085 0.2618873 0.004492788 -0.11667376
-0.3519645 -0.049639355 0.2318989 -0.026978912 -0.089308314 -0.06484328 0.04140084 -0.13220415
0.08791631 -0.64432067 -0.22490056 0.31486544 -0.1855297 -0.018649993 0.43086985 0.25194392
-0.016375218 -0.21591225 -0.014619124 -0.1463871 -0.2240298 0.09702615 -0.26593202 0.27394846
-0.2713036 0.16902658 -0.31752786 -0.034892216 -0.22022937 0.21500714 -0.24363387 0.22037937
-0.247269 -0.10497568 -0.013654875 0.04267497 -0.12583844 -0.18491144 0.16566324 -0.6748453
-0.093212344 -0.5567661 0.10620594 -0.28451645 0.1750389 0.049981013 -0.16516262 0.13290893
0.18662229 -0.00044419518 -0.011719409 -0.11258812 -0.12387171 0.08795401 -0.19251364 0.24897534
0.28897646 -0.28701356 0.3551335 0.076125585 -0.23206745 0.024385775 0.12496466 -0.057753906
0.022226349 -0.08074543 0.19711486 -0.27481058 -0.078932196 0.41714796 0.010867492 0.06989666
0.024097102 0.13858534 0.20453817 0.19256571 -0.3810237 -0.14023486 -0.0068664607 -0.0045866356
0.20375615 0.13844411 0.072067305 0.45896867 -0.15484175 0.17419145 0.41295072 -0.18925625
-0.26845694 -0.093422644 -0.20223546 0.24149726 -0.15107833 -0.015869854 -0.09027664 0.029676672
-0.08453819 -0.009177952 -0.18856466 0.26214218 -0.110906705 0.27331537 0.082733914 0.10348943
0.12831114 0.045417245 -0.349541 -0.18314269 -0.5516426 0.28567004 -0.21874502 -0.029554848
0.08914215 -0.04738354 0.09990209 0.034155495 0.040220063 -0.13091648 0.13146372 0.03856268
-0.13749361 -0.43980736 -0.21532238 -0.18242024 -0.0027921877 0.025731066 -0.006023865 -0.1375774
-0.11927638 -0.43745768 -0.38292578 -0.23520413 0.21696703 -0.27716786 -0.5169414 0.0982112
-0.36746505 0.3780279 -0.018209115 0.29700506 -0.2832481 0.07981565 -0.09759491 0.07385201
0.120685905 -0.30020264 0.07048621 -0.22655717 -0.11497622 0.30452117 -0.038830984 -0.27709532
-0.20841148 -0.053275704 -0.12242013 -0.11609741 -0.098504595 0.0086932285 0.097523585 -0.13050887
-0.07599936 -0.11856788 0.005743845 0.23811202 -0.062086344 -0.039551944 0.015079376 0.34257576
0.2458182 -0.034895185 -0.054064773 -0.049472805 0.04528572 -0.23912616 -0.5069726 -0.0052686925
0.07286946 0.20579803 -0.51980895 -0.08539776 -0.2279276 0.2590989 0.0063240356 0.06810628
0.23620534 -0.2548194 -0.08558973 -0.16606812 -0.3527351 -0.2212488 0.0706885 -0.020971335
-0.23449087 -0.04807419 -0.18156578 -0.04915486 0.029984578 -0.037949868 -0.2043379 0.11535136
-0.10384644 -0.15654182 -0.027185645 0.023748515 -0.10415289 0.008063892 -0.054492053 -0.21288104
0.011657917 0.03995211 0.22463623 0.058035422 0.013301398 0.11469624 -0.097719654 0.061976265
0.12535411 -0.39753485 -0.09069668 -0.12533768 0.10771239 0.030672243 -0.16538177 -0.2644241
-0.11993926 -0.20487261 -0.025822144 -0.16994323 -0.09384171 0.24674933 -0.1600455 0.15395837
0.043276113 0.19278988 -0.09880567 -0.012654447 0.091327846 -0.018275116 -0.29189155 -0.3641563
-0.5277947 0.067038335 0.1973061 -0.10867934 0.006811594 0.039346825 0.016411053 0.22116067

l2.bias f4 [200]
00000000: aa51 60be 339a 06bf b6fd 0c3e d550 78be
00000010: 5458 e6be c22f 6d3e 125a 31bf 5f1f 54be
00000020: e3cd bfbe 03ec e7bd 634b a93a 868d e63d
00000030: c53e 4cbe 7dfb 853e abff ca3d 5b86 45be
00000040: ac60 b8be f19a 4e3e f58c b23e 5693 2ebd
00000050: 4019 29bf 480b 043e 1458 e5be 8e45 08bf
00000060: e4d4 f4be aceb d43e 41ff c5be 8d39 a6bc
00000070: e999 9fbe 6e18 02be 2a21 49bf c392 adbd
00000080: 82d3 55be 4374 553e 90c7 a43d de3b 493c
00000090: 75bd a1bd 8b4f 2abe 3f4a e7bc 24d1 1cbe
000000a0: 5f09 183e b7d6 dfba 378f 99be 8fc8 b7be
000000b0: d7fc 32be fffa 49bf d17b c43d a086 9fbd
000000c0: 4cef c13d 45db 84bd 27c7 1dbd acab d03d
000000d0: 612a 323d 3f6b f1be d9a6 d13c f8e3 f4bd
000000e0: 1db3 15be bbf1 30be 50e0 7c3e ed74 2ebd
000000f0: f23a 67bc 8870 46bd 4b29 73be 3f21 49be
00000100: a794 5a3e e3ca a4bd 54ae 8b3d a27d bcbc
00000110: ba5e ffbd 9373 a03e 658f 44be f762 c0bc
00000120: 8a1c b1be 9179 23be efa1 3a3e 9ef4 9f3e
00000130: 9075 98be 4404 babd 028e 4a3e 4240 60be
00000140: 62d8 ed3c 5a9d 2a3e 68dc 81bd 92f6 3dbd
00000150: 3342 873e dfe3 2e3d e707 57bd adea acbe
00000160: ae63 e8be 0fb7 aebe 3bb6 9f3e 2de7 4c3e
00000170: 1c92 f5bc f63c 2ebd 9de2 de3d 8d01 eabd
00000180: 47dd 1bbf ccbd 4ebe 8aee aebd 5dea 2d3e
00000190: e14f 9bbb ae9c 80be 4c9a 38be cc5f 61bd
000001a0: b071 aebe b5cc 3fbe 3aa2 f4be e7e2 6d3e
000001b0: e2f5 893e 8b90 513e 321c 583e 1de3 10bc
000001c0: bf3a 643e f8f0 29be 5a87 52be 3927 0fbe
000001d0: 9c99 5bbe 7bc2 0bbd 986a 5cbd ee70 d4bd
000001e0: e5fd a9bc 67f8 1dbe e7c1 abbd c536 9dbe
000001f0: 525d 80bd a78f 4d3e 7d0a 60bd 6f52 0ebb
00000200: 3ef6 9d3e b7aa fb3c c471 bebd b32d 733e
00000210: bc6c 61bd 4edb ed3d c8a0 bfbd e591 503e
00000220: 5675 91be 8332 423c aad7 8bbe dc7d bbbd
00000230: 7b8e e3be 14f3 00be b259 fdbe 4c54 4ebd
00000240: a880 88bd a46c 1abf 5a18 4cbf 0df1 913e
00000250: e9cc 4a3c bb31 25be 16b4 733e 061e 1abd
00000260: e83b 15bf c78c 073c a744 d03e a654 04bf
00000270: fa8a 663e 6f08 1e3e 92ba 99bc edb0 933d
00000280: edbd f43d 358f 88bd dd04 78be 6293 93be
00000290: b817 85be 87c1 4cbe 4e1f 69be 26a1 fc3d
000002a0: 72b5 343e 52b1 793e 3fea 2c3e c2c0 6cbe
000002b0: c97e 43bf f7c6 e9bc 37d6 b8bd 5787 5ebd
000002c0: d770 37be f172 3a3c b5b5 30be e43d d8bd
000002d0: 85aa ac3e d0cd 8d3d 0b2c 24bd 892c 1cbc
000002e0: d4cd bcbc 2f96 3b3e 0b55 8bbe ca80 6f3c
000002f0: 77d6 94be bc83 e8bc 845f 05bf 4c64 afbe
00000300: 2afb 0dbf b35c f3be 0c48 f2be 1688 33be
00000310: 28d3 c9be 094d 1ebf 8721 bdbd a60e 033e
-0.21906152 -0.5257904 0.13768658 -0.24249585 -0.44989264 0.2316275 -0.6927806 -0.20715092
-0.37461767 -0.113243125 0.0012916144 0.11257462 -0.1994582 0.26168433 0.09912046 -0.19289534
-0.36011255 0.20176293 0.34873167 -0.04262098 -0.66054153 0.12894928 -0.4479376 -0.5323113
-0.47818673 0.41586053 -0.38671306 -0.020291114 -0.31172112 -0.12704632 -0.7856623 -0.08475258
-0.20881465 0.20845132 0.08045876 0.01228234 -0.07897464 -0.16631906 -0.028233645 -0.15314156
0.14847325 -0.001707754 -0.29992077 -0.35895202 -0.17479263 -0.78898615 0.095939286 -0.077893496
0.094694704 -0.06487135 -0.038520005 0.10188994 0.043497447 -0.47152135 0.025592254 -0.11957544
-0.14619108 -0.17279713 0.24694943 -0.042591978 -0.014113175 -0.048447162 -0.23746221 -0.19641589
0.21345769 -0.0804651 0.0682036 -0.023009125 -0.124692395 0.31338176 -0.19195326 -0.02348469
-0.34592086 -0.15964343 0.18225835 0.31241316 -0.29777193 -0.09082845 0.19780734 -0.21899512
0.029033843 0.16661587 -0.06340867 -0.046377726 0.26417693 0.042697784 -0.05249777 -0.33772793
-0.4538855 -0.34124038 0.31193718 0.20010062 -0.029976897 -0.042538606 0.10883067 -0.11426077
-0.6088452 -0.2018959 -0.085415915 0.16983934 -0.004739747 -0.25119537 -0.1802761 -0.055023
-0.34071112 -0.18730433 -0.4778002 0.23231088 0.26945406 0.20465295 0.21104506 -0.0088432105
0.22288035 -0.16595829 -0.20559445 -0.13979806 -0.21445316 -0.034121018 -0.053812593 -0.10373102
-0.02075095 -0.15426789 -0.08386593 -0.30705848 -0.062677994 0.2007433 -0.054697502 -0.0021716615
0.3085193 0.030721052 -0.09299043 0.23747902 -0.055035338 0.11614095 -0.093568385 0.20368154
-0.28409833 0.011852863 -0.27312976 -0.09154865 -0.4444464 -0.12592727 -0.49482495 -0.05037336
-0.06665164 -0.6032202 -0.7972466 0.2850422 0.012377956 -0.16132252 0.23799166 -0.03762629
-0.58294535 0.00827331 0.40677378 -0.51691663 0.22513953 0.15432905 -0.018765721 0.0721148
0.11950288 -0.066679396 -0.24220605 -0.28823382 -0.25994658 -0.199957 -0.22765848 0.12335424
0.17647341 0.24384049 0.16886233 -0.23120406 -0.76365334 -0.028537257 -0.09025233 -0.05432829
-0.17914139 0.011379943 -0.17256816 -0.1055868 0.33723846 0.06924021 -0.040081065 -0.009532102
-0.023047365 0.18319009 -0.2721332 0.014618108 -0.29069874 -0.028383128 -0.5209887 -0.34256208
-0.5546137 -0.4753166 -0.47320592 -0.17532381 -0.39418912 -0.61836296 -0.092349105 0.12798557

l3.weight f4 [4, 200]
00000000: 4dd2 83be 5815 ea3f 4937 cebe 4e48 f8be
00000010: cc22 18bf 2158 b53e 5a6e 3fbf e2c6 41bf
00000020: 919b 6abe ab75 3c3e d438 aa3d ab16 9ebe
00000030: d6b3 67bc 3a0a 0e3f 7b57 f3be 555b 7fbf
00000040: 3dc1 46bf ccb5 e1be 963b 083f 85b8 1ebf
00000050: e963 2abf 8cb2 f73f 1169 a6be 7e29 46bf
00000060: 5e0d 3cbf 0176 8f3f 63e6 62bf ec11 853d
00000070: 6424 20be 3954 f1be 01fd 58bf 85e2 ddbe
00000080: 9477 a0be 8fab 473f 9514 373e 6190 0abf
00000090: b13d 95be abfd 23bf 064b 033d 5c5e 13bf
000000a0: 3851 3ebe f9d1 aebe 0f54 6ebe 8f63 eabe
000000b0: c241 04bf f149 09bf 36fa 48be b264 7dbe
000000c0: 06f4 523e d0c3 9c3b 9e15 2c3d 6287 853e
000000d0: 0059 e5be 604b dabe e045 08bf 7029 33bf
000000e0: 0d77 2c3e 58e7 acbe dbd8 bc3e 986f 533c
000000f0: 8ea9 8b3c b417 f03c d3aa 8fbe 0da2 bfbe
00000100: 7591 bb3e a39b 95bc 882a d6be 5fff d7bc
00000110: 959f 08be c6d1 163f 38a9 87be 3e16 573d
00000120: b6db 21bf fd9f 40be 3e35 933e 66bb b83e
00000130: bee2 04bf efe2 41bf 0243 38bf 12ab 413e
00000140: ed6d 533d bdee 0fbf 1405 df3c 264d 873d
00000150: d8f5 d63e f34d dbbe 0f21 da3d 5182 3c3f
00000160: c05c aabe 942f 44bf 8438 e13e b083 b5bd
00000170: 055b 4dbe dbe1 c2be 64c4 8f3e 9207 c0be
00000180: 5845 3dbf 73f8 06bf 8d4b efbe fe4b a23f
00000190: 27de 59bd d40c 2fbf b602 28bf b426 04be
000001a0: 6517 89be a19e 15be cfa1 1dbf 82f6 9c3e
000001b0: 43b3 f93e 1fb4 03bf 3074 7d3f 3876 cf3c
000001c0: 0589 a33e 9aae 533f b87b d9be 93ef 24bf
000001d0: b168 6fbe f2e5 0f3d 7933 483d edfa fbbe
000001e0: 7575 2dbd 2fbc eabe f884 fcbe 0579 21bf
000001f0: 0c98 f8ba 40b6 45bf 8ecd ce3b c35a 31bf
00000200: 4aa2 de3e eb84 573d df24 263e 308e a93e
00000210: 7578 333d 19ef 99be 9ec4 3ebe b8dc e83e
00000220: 9768 5bbf 3d40 b5be 924d 4a3f 4255 80be
00000230: 5939 b4be e604 f1bd d8d1 7abf ed90 ebbc
00000240: 64c6 2b3c a647 53bf 074e 42bf 544a e93e
00000250: dc34 da3e cce5 81bd 9cc3 d03e 0130 0d3e
00000260: cba5 39bf 0a4d cc3c 8039 6d3f cf28 30bf
00000270: 3643 0cbf 450d 643e c0f7 02bf ba05 a1be
00000280: 5f4e 98be 376c 5fbd 5c04 dabe 9807 c8be
00000290: 63a9 59be 688b d5be da5f ffbe 5695 29bf
000002a0: 761c fbbe 0b2e c13e 0253 cbbe dc85 69be
000002b0: 873b 2abf 82b4 733d 799a 16bf cf33 b03e
000002c0: 4a1f c03e d748 673d 7f15 5dbf ece2 35be
000002d0: 4e3e d83e e7f4 cfbe 5e0f f9be e8b4 c1bc
000002e0: b210 153d a7e6 9c3e 4bc0 ddbc b4e4 efbe
000002f0: 1f61 5fbf 64af 5a3d c867 3cbf e725 a5be
00000300: 2a22 2fbf 6830 02bf e6bb 0d3e ba58 e6be
00000310: 085c bdbe f729 983f 2f54 d6be 2738 593e
00000320: ecb1 7ebe 7409 e93f 358b d3be 4829 c8be
00000330: e624 e6be 80bd af3e 069e 19bf 5c26 85bf
00000340: 8f56 a8be cc11 643e 1bba 3d3d 1cb0 dbbe
00000350: 06b5 083b 0fd7 303f 72a2 01bf c6b0 63bf
00000360: 248a 73bf c82a f1be 600f 263f 737a 23bf
00000370: fca5 29bf 46b9 fa3f 2fa5 38bf 080a 14bf
00000380: ca86 bebe 87d1 873f 6a79 babe e7e2 aabd
00000390: d378 b4be 7130 97be 7651 3ebf 0ddb 9ebe
000003a0: 27a3 38be bb56 423f e8c1 183e b1d8 f4be
000003b0: 92f4 15bf e89b 40bf 8184 29bc a9b0 2abf
000003c0: d0ed 093e 31b7 c3be ac95 8fbe 3274 463d
000003d0: 50ef 77be 89af 2fbf bd70 89be 4e16 5cbe
000003e0: f0f7 373e f641 f03c 3248 2dbd e5e4 f13d
000003f0: 80a2 ccbe b021 edbe f3e8 13bf ee2c 6bbf
-0.25746384 1.8287764 -0.40276554 -0.48492664 -0.59428096 0.354188 -0.7477776 -0.75694096
-0.22910906 0.18404262 0.0831162 -0.3087667 -0.014141997 0.55484354 -0.4752768 -0.99748737
-0.7763861 -0.44084013 0.5321592 -0.62000304 -0.665587 1.9351363 -0.32502034 -0.7740706
-0.73457897 1.1207887 -0.8863279 0.06497559 -0.15638882 -0.4713457 -0.84761053 -0.43336883
-0.3134123 0.7799615 0.17878945 -0.54126555 -0.2914863 -0.6405894 0.03205397 -0.57565856
-0.1858567 -0.3414457 -0.23274253 -0.45779082 -0.5166284 -0.5362845 -0.19626698 -0.24745443
0.206009 0.004784085 0.042012803 0.2607985 -0.44794464 -0.42635632 -0.5323162 -0.69985104
0.1684229 -0.3377025 0.36884198 0.012905024 0.017048623 0.029308178 -0.28060016 -0.37428322
0.36634412 -0.01826269 -0.41829324 -0.026366888 -0.13342126 0.5891384 -0.2649629 0.052511446
-0.6322588 -0.1881103 0.28751558 0.36080474 -0.5190848 -0.757369 -0.71977246 0.18912914
0.051618505 -0.5622366 0.027224101 0.06606512 0.4198444 -0.42832908 0.10650837 0.7363635
-0.33273888 -0.766351 0.4398843 -0.08863008 -0.20054252 -0.3806294 0.28079522 -0.37505776
-0.73933935 -0.52722853 -0.46737328 1.2679441 -0.053190377 -0.6837895 -0.65629137 -0.12905389
-0.2677566 -0.14611293 -0.61575025 0.3065682 0.48769578 -0.5144672 0.99005413 0.025324926
0.31940475 0.82688296 -0.42477202 -0.6442806 -0.2337978 0.035131402 0.048877213 -0.4921488
-0.042348344 -0.45846698 -0.49320197 -0.63075286 -0.0018966212 -0.77231216 0.006311125 -0.69279116
0.43483192 0.052616995 0.16225003 0.33116293 0.04381605 -0.3006523 -0.18629691 0.45480895
-0.85706466 -0.35400572 0.7902461 -0.25065047 -0.35200003 -0.117685124 -0.97976446 -0.02875563
0.010484312 -0.825312 -0.7590031 0.4556452 0.42618454 -0.063426584 0.40774238 0.13787843
-0.72518605 0.024939079 0.92665863 -0.6881227 -0.54790056 0.22270687 -0.51159286 -0.31449682
-0.29747292 -0.05454656 -0.4258145 -0.39068294 -0.21256022 -0.4170792 -0.49877816 -0.66243494
-0.4904515 0.3773044 -0.39711767 -0.2280497 -0.6649708 0.059498318 -0.58829457 0.34414527
0.37523872 0.05646595 -0.86360925 -0.17762345 0.42235035 -0.40616533 -0.48644537 -0.023645833
0.036392875 0.30644724 -0.027069231 -0.46854174 -0.8725757 0.05338992 -0.7359586 -0.3225548
-0.68411505 -0.5085511 0.13841209 -0.44989568 -0.36984277 1.1887807 -0.41861102 0.21212827
-0.2487256 1.820601 -0.41317144 -0.39093995 -0.44950026 0.34324265 -0.6000675 -1.0402331
-0.3287854 0.22272414 0.046320062 -0.42907798 0.0020859852 0.69078153 -0.50638497 -0.8894161
-0.9513266 -0.47102952 0.6486721 -0.6385872 -0.662689 1.9587791 -0.7212705 -0.57827806
-0.3721221 1.0610818 -0.36420757 -0.083440594 -0.35248432 -0.29529145 -0.7434305 -0.31026497
-0.18030988 0.7591359 0.1491772 -0.47821572 -0.5857631 -0.75237894 -0.010346533 -0.6667581
0.13469625 -0.382257 -0.28043878 0.048450656 -0.24212384 -0.6862722 -0.26843825 -0.21492884
0.17965674 0.029328328 -0.04230518 0.11811236 -0.39967728 -0.46314764 -0.5777733 -0.9186543

l3.bias f4 [4]
00000000: 05b8 913e 044e d83e 2c6d 143e 8f97 323e
0.28460708 0.4224702 0.14494771 0.17440628
