fin/DDQN/agent-300-10-616/target_model.pt (torch, 340543 bytes, 6 tensors)

l1.weight f4 [400, 8]
0	0xbf6b59f4	-0.9193413
1	0x3dc60e6d	0.0967072
2	0x3dfd474e	0.12367116
3	0x3f17106d	0.5900944
4	0xbee68f31	-0.4503112
5	0x3edf24c9	0.43582752
6	0xbf31d483	-0.6946489
7	0xbee5e8d8	-0.44904208
8	0xbf4db1a9	-0.8034921
9	0x3e4a200c	0.19738787
10	0xbe14a8e5	-0.14517553
11	0xbd36eb6a	-0.044658102
12	0x3f02e862	0.5113584
13	0xbe48c248	-0.19605362
14	0xbe9fd6cc	-0.31218565
15	0xbf6f1c93	-0.93402976
16	0xbd045786	-0.03231003
17	0xb8b54c7f	-8.645001e-05
18	0xbd9027f9	-0.07038874
19	0x3cecc294	0.028901376
20	0x400f3b17	2.2379816
21	0xbdad62bf	-0.084661
22	0x3f82de97	1.0224179
23	0x3e6434d6	0.2228578
24	0xbdd83c9e	-0.10558437
25	0x3ecc5421	0.39907935
26	0x3e6e2312	0.23255566
27	0x3ee2e43e	0.4431476
28	0xbdac2251	-0.08404983
29	0x3f083854	0.5321095
30	0xbf2fd2c1	-0.6868096
31	0x3f4d0991	0.8009272
32	0x3e868573	0.2627369
33	0x3c5fd0be	0.013660608
34	0x3da8b66f	0.082379214
35	0xbe67de11	-0.22643305
36	0x3f4a5041	0.7902871
37	0x3f0f3f22	0.5595571
38	0xbe3cb058	-0.18426645
39	0xbe9cf0ab	-0.30652365
40	0xbd7f8d21	-0.06239045
41	0xbef82d37	-0.48471996
42	0xbef5b0b8	-0.47986388
43	0xbf15aa17	-0.5846266
44	0xbdff729f	-0.12473034
45	0xbf3d6e57	-0.7399649
46	0xbde3eae5	-0.11128787
47	0xbecceaaa	-0.40022784
48	0x3d61bdb2	0.05511255
49	0xbd586a37	-0.05283567
50	0x3e4d35a2	0.2003999
51	0xbe2d35ea	-0.16915098
52	0xbf46a985	-0.77602416
53	0xbe962b30	-0.29329824
54	0xbe4a190d	-0.19736119
55	0xbdec0dd3	-0.11526074
56	0x3ed0efdd	0.40808
57	0x3e087724	0.13326699
58	0x3f137e7a	0.5761486
59	0x3ed06490	0.40701723
60	0xbee65f68	-0.44994664
61	0xbef1e02d	-0.47241345
62	0xbf444b9f	-0.7667789
63	0x3f101dcc	0.56295466
64	0xbe796994	-0.24356681
65	0xbf253da6	-0.64547193
66	0x3d4e82e8	0.05041781
67	0xbdf79d08	-0.12090498
68	0xbf226fb6	-0.6345171
69	0xbec7ffe4	-0.39062417
70	0xbea5d5df	-0.32389733
71	0x3dc20656	0.09473865
72	0x3dd62f6d	0.104582645
73	0xbe4b8023	-0.19873099
74	0xbe74ddb5	-0.239127
75	0xbe8343f1	-0.25637773
76	0xbe1f54ed	-0.1555974
77	0x3e4055d8	0.18782747
78	0xbbd29e93	-0.006427595
79	0xbe05f828	-0.13082945
80	0x3d3f32c1	0.046679262
81	0x3eaeff12	0.34178978
82	0x3eba157f	0.36344525
83	0x3e247963	0.1606193
84	0xbef2e9fb	-0.47444138
85	0x3badc81f	0.0053033973
86	0xbf5b84ad	-0.8574932
87	0xbe8053dd	-0.25063983
88	0xbf12bf8b	-0.5732352
89	0xbda44ce5	-0.08022479
90	0xbf3e6f07	-0.74388164
91	0xbdae6f10	-0.08517277
92	0x3ea76d42	0.32700545
93	0xbe10a944	-0.1412707
94	0xbdfeba97	-0.12437933
95	0x3f107a13	0.5643627
96	0xbe16b6f7	-0.14718233
97	0xbee6f07c	-0.4510535
98	0xbe3a25e4	-0.18178517
99	0x3ef44a90	0.47713137
100	0xbf871c15	-1.0555445
101	0xbe36243b	-0.17787258
102	0xbfcebb5c	-1.6150928
103	0xbeec6f75	-0.46178785
104	0x3dc35786	0.09538178
105	0x3e4beaa7	0.19913732
106	0xbf7c976d	-0.9866856
107	0xbef82620	-0.48466587
108	0xbe311a0c	-0.17295092
109	0xbe815ad2	-0.25264603
110	0xbf4dc00d	-0.8037117
111	0xbed07779	-0.4071615
112	0x3e49786a	0.1967484
113	0x3c8ebb95	0.01742343
114	0xbf36f0e5	-0.71461326
115	0xbe770046	-0.24121198
116	0xbf0e03f0	-0.5547476
117	0xbf3be27d	-0.7339247
118	0xbf7c1b7b	-0.9847943
119	0x3e80a11a	0.2512291
120	0x3fabbe82	1.3417513
121	0xc00298a7	-2.0405672
122	0x3ef1c728	0.47222257
123	0xbe3974ae	-0.18110916
124	0xbe24d106	-0.16095361
125	0x3de97e2e	0.1140102
126	0xbd8b95e4	-0.06815699
127	0xbe1998bd	-0.14999671
128	0x3d231324	0.039813176
129	0xbf072d5c	-0.5280359
130	0x3c9d3d80	0.019194365
131	0xbeb479e4	-0.35249245
132	0xbeb48ba9	-0.35262802
133	0xbf9f2d03	-1.2435611
134	0xbf0eb907	-0.5575108
135	0x3f6b8407	0.9199833
136	0x3e0b379a	0.13595429
137	0x3de4e913	0.11177268
138	0x3eab2a18	0.33430552
139	0x3ad61c78	0.0016335389
140	0x3fddabdb	1.7318071
141	0x3f57eaaa	0.84342444
142	0xbf6eee45	-0.9333232
143	0xbed7073e	-0.41997713
144	0xbe689da0	-0.22716379
145	0x3d3178a2	0.043327935
146	0x3eb7b820	0.35882664
147	0xbf7046c8	-0.93858004
148	0xbe7a3f97	-0.2443832
149	0xbe9834fe	-0.2972793
150	0xbfb34d35	-1.4007937
151	0xbfac4557	-1.3458661
152	0x3e324751	0.17410018
153	0x3de1e985	0.110308684
154	0x3e9b600c	0.30346715
155	0xbeaf0823	-0.34185895
156	0x3eb62d22	0.3558131
157	0x3f88b306	1.0679634
158	0xbfa264c1	-1.2686998
159	0xbf561770	-0.8362951
160	0x3dcffa33	0.101551436
161	0xbe01667e	-0.12636754
162	0x3d435138	0.047684878
163	0x3e3f1e00	0.18663788
164	0xbf3099f0	-0.6898489
165	0xbf13689c	-0.57581496
166	0x3dae77eb	0.08518966
167	0xbeab72bf	-0.33485982
168	0x3f42e69f	0.7613315
169	0xbf0b6833	-0.5445587
170	0xbe701fd3	-0.2344964
171	0x3ed49210	0.41517687
172	0x3f061a51	0.52383906
173	0xbe4eb554	-0.20186359
174	0xbee0d0cf	-0.43909308
175	0x3f122341	0.57085043
176	0xbee332fa	-0.4437483
177	0xbd9de6a5	-0.077100076
178	0x3d28016f	0.041016992
179	0x3fc3013a	1.5234749
180	0xbd70b769	-0.058768664
181	0x3f3f79df	0.74795336
182	0xbe870089	-0.26367596
183	0xbec113e8	-0.377105
184	0x3e960aab	0.29305014
185	0x3d1c28ec	0.038124964
186	0x3daf8691	0.085705884
187	0xbf12957f	-0.5725936
188	0x3f579849	0.84216744
189	0x3f3f565e	0.7474116
190	0xbf621e88	-0.88327837
191	0xbe8afd12	-0.27146202
192	0xbf8dd6ff	-1.1081237
193	0xbeabbcf4	-0.33542597
194	0xbeb94b5d	-0.3619031
195	0x3f26235b	0.648977
196	0xbee523c7	-0.44753858
197	0x3e9f47de	0.31109518
198	0xbe62cd55	-0.2214864
199	0x3ddf9541	0.1091714
200	0xbe095702	-0.13412097
201	0xbc5b6c47	-0.013392515
202	0xbf373f38	-0.7158084
203	0xbe5b2624	-0.21401268
204	0x3ec8d35b	0.3922375
205	0xbe0a8502	-0.13527301
206	0xbf1f61cc	-0.622586
207	0xbc4ea6cb	-0.012613009
208	0xbe3534f9	-0.17695989
209	0x3e71367b	0.23555939
210	0x3e43985b	0.19101088
211	0xbf09272b	-0.5357539
212	0x3e292f98	0.16522062
213	0x3e89ecf4	0.26938593
214	0xbe932f56	-0.28747052
215	0xbd301642	-0.042989977
216	0x3df332bf	0.118749134
217	0xbe43cb2f	-0.19120477
218	0xbe3edf62	-0.18639901
219	0x3e0fd462	0.14045861
220	0xbef1f9b2	-0.47260815
221	0xbda84d43	-0.082178615
222	0xbe293a02	-0.16526034
223	0xbe792166	-0.24329147
224	0xbf877969	-1.0583926
225	0xbe5bb318	-0.21455038
226	0xbe06a759	-0.13149776
227	0x3c88d052	0.016700897
228	0xbe8a1fc3	-0.26977357
229	0xbf94810d	-1.1601883
230	0xbeddbb99	-0.43307188
231	0xbe2e955e	-0.17049167
232	0x3fa54966	1.2913024
233	0xbfc5f9cd	-1.5466858
234	0x3dbf0fd3	0.0932919
235	0x3eef9130	0.46790457
236	0xbd9d4d54	-0.07680765
237	0x3e5dcd78	0.21660411
238	0x38306c7c	4.2062704e-05
239	0x3eb125e8	0.34599233
240	0xbd05f344	-0.0327027
241	0xbd0a39ed	-0.03374665
242	0x3fd971c2	1.6987841
243	0xbec2f08a	-0.38074142
244	0x3dfe5f70	0.12420547
245	0xbd5780e0	-0.05261314
246	0xbbc5a2fa	-0.006031391
247	0xbd0fe999	-0.035134885
248	0xbd5d3028	-0.054001004
249	0xbe96c4c9	-0.2944701
250	0xbf808d71	-1.0043164
251	0x3e43266e	0.19057629
252	0xbeebadbe	-0.46030992
253	0xbdb83f19	-0.0899641
254	0x3f6daaee	0.92838943
255	0xbea940ea	-0.33057338

l1.bias f4 [400]
0	0xbc8efce7	-0.017454578
1	0x3da06af8	0.07832903
2	0x3c7c808e	0.015411509
3	0xbe95e5dd	-0.29276934
4	0xbf5b9b01	-0.8578339
5	0xbf4fc002	-0.81152356
6	0x3cf836ff	0.030299662
7	0xbf3e7eaf	-0.74412054
8	0xbeeb5205	-0.45961013
9	0x3ec37a7d	0.3817939
10	0xbf492f3c	-0.785877
11	0xbd9fc564	-0.07801321
12	0xbf09e5c5	-0.53866225
13	0xbc7187ea	-0.014741877
14	0x3cea50f7	0.02860306
15	0xbf1da295	-0.61576205
16	0xbf10c534	-0.5655091
17	0x3e916a73	0.28401527
18	0x3e79b657	0.24385963
19	0xbf26da20	-0.6517658
20	0xbf0e682d	-0.5562771
21	0xbe6cf3f3	-0.23139934
22	0xbf4c084e	-0.7970017
23	0xbf8939be	-1.0720747
24	0xbea9c38d	-0.33157006
25	0x3e4fef57	0.20306145
26	0x3e2c17e6	0.16805992
27	0xbf2fb827	-0.6864037
28	0x3e1a6f7e	0.15081593
29	0xbf28e830	-0.6597929
30	0x3d19a740	0.037513018
31	0xbe43f80e	-0.19137594
32	0xbeb17f7a	-0.3466757
33	0xbf93c5e8	-1.1544771
34	0xbeb42600	-0.35185242
35	0xbeb5a8c1	-0.35480312
36	0xbcad498f	-0.02115324
37	0xbee1468e	-0.4399914
38	0xbe69b165	-0.22821577
39	0xbf66752e	-0.9002255
40	0x3e4412c2	0.1914778
41	0xbf249e97	-0.6430449
42	0xbedeef04	-0.4354173
43	0xbe4f5fc4	-0.20251375
44	0xbf09c97d	-0.5382307
45	0x3e2e61fb	0.17029564
46	0xbf85e06e	-1.0459116
47	0xbec2ce44	-0.38047993
48	0xbd22d20d	-0.0397511
49	0xbafd887a	-0.0019343041
50	0xbe0f8837	-0.14016806
51	0x3ee52881	0.44757465
52	0xbf2525f0	-0.64511013
53	0xbb673fe0	-0.0035285875
54	0xbf0710bc	-0.5275991
55	0xbee8ca43	-0.45466813
56	0xbdbd605d	-0.092468955
57	0xbea4a2d5	-0.3215548
58	0x3e3ef41a	0.18647805
59	0xbf5da048	-0.86572695
60	0xbf3d1312	-0.73857224
61	0xbee88e32	-0.45420986
62	0x3e7681b6	0.24072918
63	0xbf571e85	-0.84030944
64	0xbf646c0e	-0.8922738
65	0xbed1d68f	-0.40984008
66	0xbf3a4fdd	-0.7277811
67	0xbd64f7af	-0.055900272
68	0x3de6f356	0.112768814
69	0xbe8747ff	-0.26422116
70	0x3e9d810e	0.30762523
71	0xbf22c3ec	-0.63580203
72	0xb853e3b4	-5.0518385e-05
73	0x3cb22615	0.021746675
74	0xbf29483b	-0.6612584
75	0xbe228a3c	-0.15873045
76	0xbcccd501	-0.025003912
77	0xbf3af101	-0.7302399
78	0xbe6d7d17	-0.23192249
79	0xbf8f62b3	-1.1201996
80	0xbf46b17a	-0.7761456
81	0xbf50dbc9	-0.81585366
82	0xbf68d640	-0.9095192
83	0x3e476a31	0.19474103
84	0xbdc8a3fc	-0.097969025
85	0xbea62e3d	-0.32457152
86	0xbf0e5c99	-0.5561004
87	0x3ebf382d	0.37347546
88	0xbed0c04e	-0.40771717
89	0xbf69b43f	-0.9129066
90	0xbf56cdc6	-0.83907735
91	0xbf449ae5	-0.7679885
92	0x3e94fa4e	0.29097217
93	0xbe92d8d1	-0.28681043
94	0xbf3abd5b	-0.72945184
95	0xbf1469ca	-0.5797392
96	0xbc14cd3d	-0.009082136
97	0xbf32f8a7	-0.69910663
98	0xbedf6eb5	-0.4363915
99	0xbf7c70b7	-0.9860949
100	0x3ebae79c	0.3650483
101	0xbe5ae59d	-0.21376653
102	0xbf8bf1b9	-1.0933143
103	0x3de88de2	0.11355187
104	0x3d9b402a	0.07580598
105	0xbec3a390	-0.38210726
106	0xbeafb8e2	-0.34320742
107	0xbf0f2f68	-0.5593171
108	0x3d3de9dc	0.046365604
109	0xbf4be19d	-0.79641134
110	0xbf4ade14	-0.79245114
111	0xbf26686d	-0.6500309
112	0xbf65768b	-0.8963401
113	0xbf3426fe	-0.70372
114	0x3e3894e7	0.18025552
115	0xbeeb8c22	-0.4600535
116	0xbecc2cc7	-0.39877912
117	0xbf2edf63	-0.6830961
118	0xbe16506c	-0.14679116
119	0xbe6833dc	-0.22676033
120	0xbd9783e8	-0.07398206
121	0xbf2f16ab	-0.68393964
122	0xbf6b10ea	-0.91822684
123	0xbebc28ca	-0.3674987
124	0xbf1775c9	-0.591641
125	0x3e226f4f	0.15862773
126	0x3d1ed5ef	0.03877824
127	0x3efa1ae3	0.48848638
128	0xbee756e4	-0.4518348
129	0x3f21bbab	0.63176984
130	0xbd2f9692	-0.042868204
131	0x3ec5f062	0.3865996
132	0xbf142e10	-0.57882786
133	0xbf066ae5	-0.5250686
134	0x3e45b386	0.19306764
135	0xbc7ca6cd	-0.015420628
136	0xbdffa702	-0.12483026
137	0xbe5bdba1	-0.214705
138	0x3b12a179	0.0022374077
139	0x3d5b97b9	0.05361149
140	0xbecb89f4	-0.39753687
141	0x3eaebd05	0.34128585
142	0x3dd27377	0.102759294
143	0xbf1d0add	-0.613447
144	0x3e1befa3	0.15228133
145	0xbf3a9f91	-0.7289973
146	0x3e6e7fef	0.2329099
147	0xbf27463c	-0.65341544
148	0x3c365487	0.011128551
149	0xbf01defb	-0.50730866
150	0xbf0eea88	-0.55826616
151	0xbedf597f	-0.43622968
152	0xbefcb84f	-0.49359366
153	0x3c609bfd	0.0137090655
154	0xbf3344b9	-0.7002674
155	0x3cbd8dac	0.023138843
156	0xbe80560e	-0.25065655
157	0xbf1f2817	-0.6217055
158	0xbe99f0ac	-0.3006643
159	0x3e1d74a1	0.15376522
160	0x3c151df4	0.00910138
161	0xbf797a4d	-0.9745224
162	0x3c8d5d38	0.017256364
163	0x3e75c8a9	0.24002327
164	0x3e357846	0.17721662
165	0xbec6aae9	-0.3880227
166	0xbf04eecb	-0.5192687
167	0x3c99079b	0.018680384
168	0xbe506734	-0.20351869
169	0xbf4adba2	-0.79241383
170	0x3ee0d941	0.43915752
171	0xbf092278	-0.5356822
172	0x3ea1ea35	0.31623998
173	0xbee8752c	-0.45401895
174	0xbe10d3ce	-0.14143297
175	0xbf8aef4c	-1.0854278
176	0x3c5dea5b	0.013544644
177	0xbecb2d97	-0.3968322
178	0x3f14dcd2	0.58149445
179	0x3e0eb788	0.13937199
180	0xbf44d2b3	-0.76884
181	0x3e545689	0.20736136
182	0x3bdfb48a	0.006826942
183	0x3e4dbcba	0.20091525
184	0x3e967796	0.29388112
185	0xbf5b0933	-0.8556091
186	0xbb0dafea	-0.0021619746
187	0xbd86587c	-0.06559846
188	0x3e4db71d	0.20089383
189	0xbf9963b0	-1.1983547
190	0xbf1c9ba2	-0.61174977
191	0x3eb16f04	0.3465501
192	0x3f0c7d36	0.54878557
193	0x3c49617d	0.012291309
194	0xbf0de568	-0.5542817
195	0xbf04fa62	-0.51944554
196	0xbd38bff6	-0.045104943
197	0xbd52a229	-0.05142418
198	0xbf7645c7	-0.9620022
199	0xbea43405	-0.32070938
200	0xbec6b63d	-0.38810912
201	0x3d94fba9	0.07274563
202	0xbf033313	-0.5124981
203	0xbece92e4	-0.40346444
204	0xbf56f1b8	-0.83962584
205	0x3e10e3cb	0.14149396
206	0x3c7934d0	0.015210345
207	0xbeaeeadb	-0.34163556
208	0xbecda0dd	-0.4016179
209	0xbe821465	-0.25406185
210	0x3e9885db	0.29789624
211	0xbe9d03ff	-0.3066711
212	0xbe047c58	-0.12938058
213	0x3d94647a	0.07245727
214	0xbf030a5c	-0.5118768
215	0x3e76eb40	0.24113178
216	0xbf1667d6	-0.5875219
217	0x3e5f3f10	0.218014
218	0xbf5613db	-0.8362405
219	0xbf0e0b03	-0.5548555
220	0x3e37124e	0.17878076
221	0xbedde1f9	-0.43336466
222	0x3f0742ea	0.5283648
223	0x3e03d5cc	0.12874526
224	0xbeeb3d4d	-0.45945206
225	0xbf195c93	-0.5990688
226	0xbde9e766	-0.11421089
227	0x3d5aee68	0.05345002
228	0xbe8eadf4	-0.2786709
229	0xbd81c383	-0.06336119
230	0xbd119e2d	-0.03555124
231	0xbec79bee	-0.38986152
232	0x3e8ed8c9	0.2789977
233	0xbd749cce	-0.059719853
234	0xbea9fdce	-0.3320145
235	0xbf28dd17	-0.65962356
236	0xbeb65fe1	-0.35620025
237	0xbeada911	-0.3391805
238	0x3e31e1ec	0.17371339
239	0xbf71d65d	-0.9446772
240	0x3dd66076	0.10467617
241	0xbea4c7e8	-0.32183766
242	0xbf523fd4	-0.82128644
243	0xbec6eb88	-0.3885157
244	0xbcc343ff	-0.023836134
245	0xbeea32d9	-0.4574192
246	0x3b13e40e	0.002256635
247	0x3e8d6c68	0.2762177
248	0xbf0a9d44	-0.5414622
249	0xbf08efb4	-0.5349076
250	0xbf6101ff	-0.8789367
251	0xbc86dd0b	-0.016462823
252	0xbd5aa642	-0.053381212
253	0xbee420e4	-0.44556344
254	0x3e410865	0.18850859
255	0xbf6fcad5	-0.9366887

l2.weight f4 [200, 400]
0	0xbe37119e	-0.17877814
1	0xbe062d78	-0.13103282
2	0xbf097fe8	-0.53710794
3	0x3cb91b1d	0.022595936
4	0x3cc117a8	0.02357085
5	0x3e861618	0.2618873
6	0x3b93383d	0.004492788
7	0xbdeef2a7	-0.11667376
8	0xbeb434b1	-0.3519645
9	0xbd4b52a3	-0.049639355
10	0x3e6d76e8	0.2318989
11	0xbcdd02e1	-0.026978912
12	0xbdb6e747	-0.089308314
13	0xbd84cc8e	-0.06484328
14	0x3d2993ed	0.04140084
15	0xbe076086	-0.13220415
16	0x3db40d77	0.08791631
17	0xbf24f233	-0.64432067
18	0xbe664c55	-0.22490056
19	0x3ea1360b	0.31486544
20	0xbe3dfb7f	-0.1855297
21	0xbc98c7df	-0.018649993
22	0x3edc9af9	0.43086985
23	0x3e80fecb	0.25194392
24	0xbc862552	-0.016375218
25	0xbe5d181a	-0.21591225
26	0xbc6f850d	-0.014619124
27	0xbe15e680	-0.1463871
28	0xbe656811	-0.2240298
29	0x3dc6b5a5	0.09702615
30	0xbe88283e	-0.26593202
31	0x3e8c42f9	0.27394846
32	0xbe8ae84e	-0.2713036
33	0x3e2d154e	0.16902658
34	0xbea29303	-0.31752786
35	0xbd0eeb24	-0.034892216
36	0xbe6183cf	-0.22022937
37	0x3e5c2ad5	0.21500714
38	0xbe797b28	-0.24363387
39	0x3e61ab21	0.22037937
40	0xbe7d3416	-0.247269
41	0xbdd6fd7d	-0.10497568
42	0xbc5fb8b2	-0.013654875
43	0x3d2ecbf3	0.04267497
44	0xbe00dbcb	-0.12583844
45	0xbe3d596d	-0.18491144
46	0x3e29a3a0	0.16566324
47	0xbf2cc2a9	-0.6748453
48	0xbdbee61d	-0.093212344
49	0xbf0e8839	-0.5567661
50	0x3dd98280	0.10620594
51	0xbe91ac24	-0.28451645
52	0x3e333d66	0.1750389
53	0x3d4cb8e4	0.049981013
54	0xbe292064	-0.16516262
55	0x3e081947	0.13290893
56	0x3e3f19ea	0.18662229
57	0xb9e8e2de	-0.00044419518
58	0xbc4002c4	-0.011719409
59	0xbde6949a	-0.11258812
60	0xbdfdb073	-0.12387171
61	0x3db4213b	0.08795401
62	0xbe45224c	-0.19251364
63	0x3e7ef364	0.24897534
64	0x3e93f4b9	0.28897646
65	0xbe92f371	-0.28701356
66	0x3eb5d40f	0.3551335
67	0x3d9be7bb	0.076125585
68	0xbe6da317	-0.23206745
69	0x3cc7c4ad	0.024385775
70	0x3dffed79	0.12496466
71	0xbd6c8f5c	-0.057753906
72	0x3cb61408	0.022226349
73	0xbda55ddc	-0.08074543
74	0x3e49d87a	0.19711486
75	0xbe8cb3f9	-0.27481058
76	0xbda1a734	-0.078932196
77	0x3ed5946b	0.41714796
78	0x3c320d91	0.010867492
79	0x3d8f25fb	0.06989666
80	0x3cc56749	0.024097102
81	0x3e0de951	0.13858534
82	0x3e517274	0.20453817
83	0x3e452ff2	0.19256571
84	0xbec3158a	-0.3810237
85	0xbe0f99ba	-0.14023486
86	0xbbe1000c	-0.0068664607
87	0xbb964b7d	-0.0045866356
88	0x3e50a574	0.20375615
89	0x3e0dc44b	0.13844411
90	0x3d939806	0.072067305
91	0x3eeafdf1	0.45896867
92	0xbe1e8ed6	-0.15484175
93	0x3e325f3e	0.17419145
94	0x3ed36e47	0.41295072
95	0xbe41cc64	-0.18925625
96	0xbe897330	-0.26845694
97	0xbdbf545f	-0.093422644
98	0xbe4f16d0	-0.20223546
99	0x3e774b0f	0.24149726
100	0xbe1ab447	-0.15107833
101	0xbc82017f	-0.015869854
102	0xbdb8e2f6	-0.09027664
103	0x3cf31c7e	0.029676672
104	0xbdad225c	-0.08453819
105	0xbc165f1f	-0.009177952
106	0xbe411718	-0.18856466
107	0x3e863780	0.26214218
108	0xbde3230e	-0.110906705
109	0x3e8beffe	0.27331537
110	0x3da97066	0.082733914
111	0x3dd3f244	0.10348943
112	0x3e0363ff	0.12831114
113	0x3d3a076f	0.045417245
114	0xbeb2f70a	-0.349541
115	0xbe3b89c2	-0.18314269
116	0xbf0d3873	-0.5516426
117	0x3e924358	0.28567004
118	0xbe5ffeb2	-0.21874502
119	0xbcf21d02	-0.029554848
120	0x3db69029	0.08914215
121	0xbd42153e	-0.04738354
122	0x3dcc9978	0.09990209
123	0x3d0be6a2	0.034155495
124	0x3d24bdcb	0.040220063
125	0xbe060ef8	-0.13091648
126	0x3e069e6d	0.13146372
127	0x3d1df3e7	0.03856268
128	0xbe0ccb20	-0.13749361
129	0xbee12e6e	-0.43980736
130	0xbe5c7d78	-0.21532238
131	0xbe3acc5f	-0.18242024
132	0xbb36fd23	-0.0027921877
133	0x3cd2c9f5	0.025731066
134	0xbbc563d8	-0.006023865
135	0xbe0ce117	-0.1375774
136	0xbdf4472d	-0.11927638
137	0xbedffa74	-0.43745768
138	0xbec40ed9	-0.38292578
139	0xbe70d95a	-0.23520413
140	0x3e5e2c9b	0.21696703
141	0xbe8de8f2	-0.27716786
142	0xbf045646	-0.5169414
143	0x3dc922f4	0.0982112
144	0xbebc2461	-0.36746505
145	0x3ec18cdf	0.3780279
146	0xbc952b48	-0.018209115
147	0x3e98110c	0.29700506
148	0xbe9105e5	-0.2832481
149	0x3da37663	0.07981565
150	0xbdc7dfd7	-0.09759491
151	0x3d973fb9	0.07385201
152	0x3df72a2c	0.120685905
153	0xbe99b429	-0.30020264
154	0x3d905b13	0.07048621
155	0xbe67fe9a	-0.22655717
156	0xbdeb78a7	-0.11497622
157	0x3e9bea33	0.30452117
158	0xbd1f0d3d	-0.038830984
159	0xbe8ddf70	-0.27709532
160	0xbe5569d2	-0.20841148
161	0xbd5a37a0	-0.053275704
162	0xbdfab768	-0.12242013
163	0xbdedc47b	-0.11609741
164	0xbdc9bcc7	-0.098504595
165	0x3c0e6e0b	0.0086932285
166	0x3dc7ba72	0.097523585
167	0xbe05a41e	-0.13050887
168	0xbd9ba58d	-0.07599936
169	0xbdf2d3b7	-0.11856788
170	0x3bbc36dd	0.005743845
171	0x3e73d3a3	0.23811202
172	0xbd7e4e40	-0.062086344
173	0xbd220138	-0.039551944
174	0x3c770f7d	0.015079376
175	0x3eaf6617	0.34257576
176	0x3e7bb7c4	0.2458182
177	0xbd0eee41	-0.034895185
178	0xbd5d7306	-0.054064773
179	0xbd4aa3ff	-0.049472805
180	0x3d397d85	0.04528572
181	0xbe74dd7d	-0.23912616
182	0xbf01c8f5	-0.5069726
183	0xbbaca4ff	-0.0052686925
184	0x3d953c95	0.07286946
185	0x3e52bcb8	0.20579803
186	0xbf051233	-0.51980895
187	0xbdaee505	-0.08539776
188	0xbe6965da	-0.2279276
189	0x3e84a89c	0.2590989
190	0x3bcf39db	0.0063240356
191	0x3d8b7b4e	0.06810628
192	0x3e71dfd0	0.23620534
193	0xbe8277b0	-0.2548194
194	0xbdaf49ab	-0.08558973
195	0xbe2a0dc3	-0.16606812
196	0xbeb499b2	-0.3527351
197	0xbe628f0c	-0.2212488
198	0x3d90c522	0.0706885
199	0xbcabcc14	-0.020971335
200	0xbe701e60	-0.23449087
201	0xbd44e971	-0.04807419
202	0xbe39ec61	-0.18156578
203	0xbd49569b	-0.04915486
204	0x3cf5a238	0.029984578
205	0xbd1b7152	-0.037949868
206	0xbe513df4	-0.2043379
207	0x3dec3d55	0.11535136
208	0xbdd4ad71	-0.10384644
209	0xbe204c80	-0.15654182
210	0xbcdeb46e	-0.027185645
211	0x3cc28c3f	0.023748515
212	0xbdd54e1c	-0.10415289
213	0x3c041e6a	0.008063892
214	0xbd5f330f	-0.054492053
215	0xbe59fd7d	-0.21288104
216	0x3c3f00d9	0.011657917
217	0x3d23a4d3	0.03995211
218	0x3e66070a	0.22463623
219	0x3d6db68d	0.058035422
220	0x3c59ee1b	0.013301398
221	0x3deae5dd	0.11469624
222	0xbdc8213e	-0.097719654
223	0x3d7ddad3	0.061976265
224	0x3e005cd4	0.12535411
225	0xbecb89b0	-0.39753485
226	0xbdb9bf2e	-0.09069668
227	0xbe005885	-0.12533768
228	0x3ddc9850	0.10771239
229	0x3cfb445b	0.030672243
230	0xbe2959d7	-0.16538177
231	0xbe876298	-0.2644241
232	0xbdf5a2b7	-0.11993926
233	0xbe51ca20	-0.20487261
234	0xbcd388f6	-0.025822144
235	0xbe2e0599	-0.16994323
236	0xbdc03015	-0.09384171
237	0x3e7cabdb	0.24674933
238	0xbe23e2f8	-0.1600455
239	0x3e1da743	0.15395837
240	0x3d31424b	0.043276113
241	0x3e456ab6	0.19278988
242	0xbdca5aa1	-0.09880567
243	0xbc4f5499	-0.012654447
244	0x3dbb0a18	0.091327846
245	0xbc95b5b2	-0.018275116
246	0xbe9572cf	-0.29189155
247	0xbeba72b2	-0.3641563
248	0xbf071d8e	-0.5277947
249	0x3d894b65	0.067038335
250	0x3e4a0a9c	0.1973061
251	0xbdde9346	-0.10867934
252	0x3bdf33cb	0.006811594
253	0x3d212a23	0.039346825
254	0x3c867079	0.016411053
255	0x3e6277f1	0.22116067

l2.bias f4 [200]
0	0xbe6051aa	-0.21906152
1	0xbf069823	-0.5257589
2	0x3e0d3baa	0.13792291
3	0xbe7850ef	-0.24249624
4	0xbee65854	-0.44989264
5	0x3e6d10ff	0.23151015
6	0xbf315a12	-0.6927806
7	0xbe541f64	-0.207151
8	0xbebfce05	-0.37461868
9	0xbde7ec03	-0.113243125
10	0x3aa94b63	0.0012916144
11	0x3de6b141	0.11264277
12	0xbe4c3ec5	-0.1994582
13	0x3e85f76c	0.2616533
14	0x3dcafbf7	0.0991134
15	0xbe4552f4	-0.19269925
16	0xbeb832b6	-0.3597619
17	0x3e4e9e73	0.20177631
18	0x3eb28ea8	0.34874463
19	0xbd2e1d8c	-0.042508647
20	0xbf291940	-0.66054153
21	0x3e0405d7	0.12892853
22	0xbee53aff	-0.44771573
23	0xbf08458e	-0.5323113
24	0xbef4d4e4	-0.47818673
25	0x3ed4e2bc	0.41579235
26	0xbec5ff41	-0.38671306
27	0xbca6398d	-0.020291114
28	0xbe9f99e9	-0.31172112
29	0xbe02186e	-0.12704632
30	0xbf49212a	-0.7856623
31	0xbdad927f	-0.084752075
32	0xbe55d3bc	-0.20881552
33	0x3e5561dd	0.20838113
34	0x3da554a6	0.08072786
35	0x3c4b7130	0.012417123
36	0xbda17a0e	-0.07884608
37	0xbe2a1e31	-0.1661308
38	0xbce74a3f	-0.028233645
39	0xbe1cd124	-0.15314156
40	0x3e18095f	0.14847325
41	0xbaddd737	-0.0016925101
42	0xbe998f37	-0.29992077
43	0xbeb7c88f	-0.35895202
44	0xbe32fcd7	-0.17479263
45	0xbf49faff	-0.78898615
46	0x3dc47506	0.09592633
47	0xbd9f86a0	-0.077893496
48	0x3dc1ce5d	0.09463189
49	0xbd84db45	-0.06487135
50	0xbd1dc727	-0.038520005
51	0x3dd13034	0.10214272
52	0x3d320807	0.043464687
53	0xbef16b3f	-0.47152135
54	0x3cd26e6e	0.025687423
55	0xbdf523e3	-0.119697355
56	0xbe15b31d	-0.14619108
57	0xbe30f1b3	-0.17279701
58	0x3e7cccd1	0.24687506
59	0xbd2e74ed	-0.042591978
60	0xbc673af2	-0.014113175
61	0xbd467088	-0.048447162
62	0xbe73294b	-0.23746221
63	0xbe49213f	-0.19641589
64	0x3e5a8fa6	0.2134386
65	0xbda4cae3	-0.0804651
66	0x3d8baac2	0.06819679
67	0xbcbc6be3	-0.023000663
68	0xbdff5eba	-0.124692395
69	0x3ea06a24	0.3133098
70	0xbe448f65	-0.19195326
71	0xbcc062f7	-0.02348469
72	0xbeb11c8a	-0.34592086
73	0xbe237991	-0.15964343
74	0x3e3a89a9	0.18216576
75	0x3e9fe900	0.31232452
76	0xbe987590	-0.29777193
77	0xbdb999fd	-0.09062574
78	0x3e4a61c2	0.19763854
79	0xbe606b72	-0.21915987
80	0x3cedd862	0.029033843
81	0x3e2abb83	0.16673093
82	0xbd81dc68	-0.06340867
83	0xbd3df692	-0.046377726
84	0x3e873766	0.26409453
85	0x3d2ee3df	0.042697784
86	0xbd5707e7	-0.05249777
87	0xbeaceab9	-0.3377283
88	0xbee863ae	-0.4538855
89	0xbeaecfcc	-0.3414291
90	0x3e9fac19	0.31185988
91	0x3e4cdf60	0.20007086
92	0xbcf3ad05	-0.029745588
93	0xbd2e39f6	-0.042535745
94	0x3dded90b	0.108812414
95	0xbdea01da	-0.114261344
96	0xbf1bdd47	-0.6088452
97	0xbe4ebe18	-0.20189703
98	0xbdaeee8a	-0.085415915
99	0x3e2dc9c1	0.16971494
100	0xbb9b4fe1	-0.004739747
101	0xbe809cae	-0.25119537
102	0xbe389f3d	-0.18029495
103	0xbd604ac0	-0.054758787
104	0xbeae71b0	-0.34071112
105	0xbe3f8a92	-0.18705204
106	0xbef4a23a	-0.4778002
107	0x3e6dcf8e	0.23223707
108	0x3e89e850	0.26935053
109	0x3e51a3a3	0.20472579
110	0x3e580c90	0.21098542
111	0xbc10e31d	-0.0088432105
112	0x3e644340	0.22291279
113	0xbe29d6da	-0.16585866
114	0xbe52875a	-0.20559445
115	0xbe0f2739	-0.13979806
116	0xbe5b99d8	-0.21445405
117	0xbd0bc27b	-0.034121018
118	0xbd5c6a98	-0.053812593
119	0xbdd3f7d8	-0.10350007
120	0xbca9fde5	-0.02075095
121	0xbe1df867	-0.15426789
122	0xbdabc1e7	-0.08386593
123	0xbe9d36c5	-0.30705848
124	0xbd805d52	-0.062677994
125	0x3e4da66b	0.20083015
126	0xbd600a7d	-0.054697502
127	0xbb01ef96	-0.0019826642
128	0x3e9df4bf	0.3085079
129	0x3cfbaab7	0.030721052
130	0xbdbe71c4	-0.09299043
131	0x3e734730	0.23757625
132	0xbd616cbc	-0.055035338
133	0x3dee7dfe	0.11645125
134	0xbdbfa0c8	-0.093568385
135	0x3e507c5d	0.20359941
136	0xbe9179cc	-0.28413236
137	0x3c444e56	0.011981567
138	0xbe8bd7aa	-0.27312976
139	0xbdbb7ddc	-0.09154865
140	0xbee38e7b	-0.4444464
141	0xbe00f314	-0.12592727
142	0xbefd59c9	-0.49482563
143	0xbd4e544c	-0.05037336
144	0xbd8880a8	-0.06665164
145	0xbf1a6ca4	-0.6032202
146	0xbf4c1793	-0.7972347
147	0x3e91e2b5	0.28493276
148	0x3c4bae65	0.012431716
149	0xbe2531bb	-0.16132252
150	0x3e739c66	0.2379013
151	0xbd1a1e06	-0.03762629
152	0xbf153be8	-0.58294535
153	0x3c078cc7	0.00827331
154	0x3ed03fae	0.40673584
155	0xbf0454a6	-0.51691663
156	0x3e668dc8	0.22515023
157	0x3e1e5cc4	0.15465075
158	0xbc997a55	-0.01873509
159	0x3d93b0e3	0.07211473
160	0x3df558e8	0.11979848
161	0xbd888f35	-0.066679396
162	0xbe7804dd	-0.24220605
163	0xbe939362	-0.28823382
164	0xbe8517b8	-0.25994658
165	0xbe4cc187	-0.199957
166	0xbe68d5c7	-0.227378
167	0x3dfcba38	0.12340206
168	0x3e34d6de	0.1766009
169	0x3e79995c	0.24374908
170	0x3e2d0c02	0.16899112
171	0xbe6cc0c2	-0.23120406
172	0xbf437ec9	-0.76365334
173	0xbce9c6f7	-0.028537257
174	0xbdb8d637	-0.09025233
175	0xbd5f101c	-0.054458722
176	0xbe376724	-0.17910439
177	0x3c3a72f1	0.011379943
178	0xbe30ab1d	-0.17252775
179	0xbdd7e730	-0.105421424
180	0x3eac9fb7	0.33715603
181	0x3d8e08d4	0.069352776
182	0xbd2387c1	-0.039924387
183	0xbc1c2c89	-0.009532102
184	0xbcbccdd4	-0.023047365
185	0x3e3b8ae6	0.18314704
186	0xbe8b6f21	-0.27233222
187	0x3c6f80ca	0.014618108
188	0xbe94a2de	-0.29030508
189	0xbce883bc	-0.028383128
190	0xbf055f84	-0.5209887
191	0xbeaf644c	-0.34256208
192	0xbf0dfb2a	-0.5546137
193	0xbef35cb3	-0.4753166
194	0xbef1f39c	-0.47256172
195	0xbe338843	-0.17532448
196	0xbec9d328	-0.39418912
197	0xbf1e4d16	-0.61836374
198	0xbdbd21be	-0.092349514
199	0x3e02f62e	0.12789223

l3.weight f4 [4, 200]
0	0xbe83d24d	-0.25746384
1	0x3fea156e	1.828779
2	0xbece59f8	-0.40303016
3	0xbef8484e	-0.48492664
4	0xbf1822cc	-0.59428096
5	0x3eb57a2e	0.35444778
6	0xbf3f6e5a	-0.7477776
7	0xbf41c6e2	-0.75694096
8	0xbe6a9b91	-0.22910906
9	0x3e3c75ab	0.18404262
10	0x3daa38d4	0.0831162
11	0xbe9de797	-0.30840752
12	0xbc67b3d6	-0.014141997
13	0x3f0e1dbd	0.55514127
14	0xbef3418a	-0.4751094
15	0xbf7f5c24	-0.9974997
16	0xbf46c13d	-0.7763861
17	0xbee1a8ee	-0.44074196
18	0x3f084f7e	0.53246295
19	0xbf1ec7f7	-0.6202387
20	0xbf2a63e9	-0.665587
21	0x3ff7b0b4	1.93508
22	0xbea66911	-0.32502034
23	0xbf46297e	-0.7740706
24	0xbf3c0d5e	-0.73457897
25	0x3f8f7ca5	1.1209913
26	0xbf62e663	-0.8863279
27	0x3d8511ec	0.06497559
28	0xbe202464	-0.15638882
29	0xbef15439	-0.4713457
30	0xbf58fd01	-0.84761053
31	0xbedde285	-0.43336883
32	0xbea07794	-0.3134123
33	0x3f47bd62	0.7802335
34	0x3e36d2d6	0.17853865
35	0xbf0a9144	-0.5412791
36	0xbe953d87	-0.29148504
37	0xbf240a24	-0.64077973
38	0x3d034b06	0.03205397
39	0xbf135e5c	-0.57565856
40	0xbe3e5138	-0.1858567
41	0xbeaeb305	-0.34120956
42	0xbe6e540f	-0.23274253
43	0xbeea638f	-0.45779082
44	0xbf0441c2	-0.5166284
45	0xbf0949f1	-0.5362845
46	0xbe48fa86	-0.19626817
47	0xbe7d64b2	-0.24745443
48	0x3e5317cc	0.20614547
49	0x3b9cc3d0	0.004784085
50	0x3d2c159e	0.042012803
51	0x3e85b1b8	0.2611215
52	0xbee53fe5	-0.4477531
53	0xbeda4b60	-0.42635632
54	0xbf0845cd	-0.5323151
55	0xbf33253e	-0.699787
56	0x3e2c770d	0.1684229
57	0xbeace758	-0.3377025
58	0x3ebcf510	0.36905718
59	0x3c536f98	0.012905024
60	0x3c8ba98e	0.017048623
61	0x3cf017b4	0.029308178
62	0xbe8faad3	-0.28060016
63	0xbebfa20d	-0.37428322
64	0x3ebba4e6	0.36649245
65	0xbc959ba3	-0.01826269
66	0xbed61fc4	-0.4182111
67	0xbcd7efff	-0.026359556
68	0xbe089f95	-0.13342126
69	0x3f16da5b	0.58926934
70	0xbe87a938	-0.2649629
71	0x3d57163e	0.052511446
72	0xbf21dbb6	-0.6322588
73	0xbe409ffd	-0.1881103
74	0x3e934dec	0.28770387
75	0x3eb8d622	0.3610087
76	0xbf04e2be	-0.5190848
77	0xbf41f608	-0.7576604
78	0xbf381fa7	-0.719233
79	0x3e416980	0.18887901
80	0x3d536ded	0.051618505
81	0xbf0fdd9e	-0.56197536
82	0x3cdf0514	0.027224101
83	0x3d874d26	0.06606512
84	0x3ed70c61	0.42001632
85	0xbedb4df3	-0.42832908
86	0x3dda210f	0.10650837
87	0x3f3c8251	0.7363635
88	0xbeaa5cc0	-0.33273888
89	0xbf442f94	-0.766351
90	0x3ee153e2	0.4400931
91	0xbdb4a8af	-0.08821236
92	0xbe4da960	-0.20084143
93	0xbec2e1db	-0.3806294
94	0x3e8fd6bf	0.28093526
95	0xbec00792	-0.37505776
96	0xbf3d4558	-0.73933935
97	0xbf06f873	-0.52722853
98	0xbeef4b8d	-0.46737328
99	0x3fa24361	1.2676812
100	0xbd59de27	-0.053190377
101	0xbf2f0cd4	-0.6837895
102	0xbf2802a7	-0.6562905
103	0xbe0449c2	-0.12918761
104	0xbe891765	-0.2677566
105	0xbe15ab8e	-0.14616224
106	0xbf1da1cf	-0.61575025
107	0x3e9d0ba6	0.3067295
108	0x3ef9bb79	0.48775843
109	0xbf03ba74	-0.5145638
110	0x3f7d7809	0.99011284
111	0x3ccf7638	0.025324926
112	0x3ea3a72c	0.3196348
113	0x3f53b5a2	0.82699025
114	0xbed97bb8	-0.42477202
115	0xbf24ef93	-0.6442806
116	0xbe6f68b1	-0.2337978
117	0x3d0fe5f2	0.035131402
118	0x3d483379	0.048877213
119	0xbefc2276	-0.49245042
120	0xbd2d7575	-0.042348344
121	0xbeeabc2f	-0.45846698
122	0xbefc84f8	-0.49320197
123	0xbf217905	-0.63075286
124	0xbaf8980c	-0.0018966212
125	0xbf45a9d6	-0.77212274
126	0x3bcecd8e	0.006311125
127	0xbf316d80	-0.6930771
128	0x3edec6b7	0.43510982
129	0x3d5784eb	0.052616995
130	0x3e2624df	0.16225003
131	0x3ea9af77	0.33141682
132	0x3d337875	0.04381605
133	0xbe99f418	-0.3006904
134	0xbe3ec49e	-0.18629691
135	0x3ee8e7c4	0.45489323
136	0xbf5b66c9	-0.8570371
137	0xbeb53b9b	-0.35397038
138	0x3f4a4d92	0.7902461
139	0xbe805542	-0.25065047
140	0xbeb43959	-0.35200003
141	0xbdf104e6	-0.117685124
142	0xbf7ad1d8	-0.97976446
143	0xbceb90ed	-0.02875563
144	0x3c2bc664	0.010484312
145	0xbf5347a6	-0.825312
146	0xbf424e08	-0.75900316
147	0x3ee96315	0.45583406
148	0x3eda34f3	0.42618522
149	0xbd81e5cc	-0.063426584
150	0x3ed0d584	0.407879
151	0x3e0d3001	0.13787843
152	0xbf39a5cb	-0.72518605
153	0x3ccc4d0a	0.024939079
154	0x3f6d5020	0.92700386
155	0xbf3028cf	-0.6881227
156	0xbf0c4351	-0.54790217
157	0x3e6456cc	0.22298735
158	0xbf02f0da	-0.5114876
159	0xbea105ba	-0.31449682
160	0xbe983c6d	-0.297336
161	0xbd5f6c37	-0.05454656
162	0xbeda045c	-0.4258145
163	0xbec80798	-0.39068294
164	0xbe59a963	-0.21256022
165	0xbed58b68	-0.4170792
166	0xbeff8261	-0.4990416
167	0xbf298411	-0.6621714
168	0xbefb0966	-0.49030608
169	0x3ec147a2	0.37749964
170	0xbecb5469	-0.39712837
171	0xbe6985dc	-0.2280497
172	0xbf2a3b87	-0.6649708
173	0x3d73b482	0.059498318
174	0xbf169a79	-0.58829457
175	0x3eb0305b	0.34411892
176	0x3ec00ab4	0.37508166
177	0x3d6748d7	0.05646595
178	0xbf5d160e	-0.8636178
179	0xbe361675	-0.17782004
180	0x3ed85c5b	0.42257962
181	0xbecfe9cc	-0.4060806
182	0xbef91050	-0.48645258
183	0xbcc1b4e8	-0.023645833
184	0x3d1510b2	0.036392875
185	0x3e9cfa06	0.30659503
186	0xbcdd8f79	-0.027045952
187	0xbeefe4b4	-0.46854174
188	0xbf5f6d5f	-0.8727626
189	0x3d5aaf64	0.05338992
190	0xbf3c67c8	-0.7359586
191	0xbea525e7	-0.3225548
192	0xbf2f222a	-0.68411505
193	0xbf023068	-0.5085511
194	0x3e0dbbe6	0.13841209
195	0xbee658ba	-0.44989568
196	0xbebd5c08	-0.36984277
197	0x3f9829f1	1.18878
198	0xbed6542f	-0.41861102
199	0x3e595abf	0.21226023
200	0xbe7eb1ec	-0.2487256
201	0x3fe908c3	1.8205799
202	0xbed38f2c	-0.4132017
203	0xbec82948	-0.39093995
204	0xbee624e6	-0.44950026
205	0x3eaf8af2	0.34285694
206	0xbf199e06	-0.6000675
207	0xbf85265c	-1.0402331
208	0xbea8568f	-0.3287854
209	0x3e6411cc	0.22272414
210	0x3d3dba1b	0.046320062
211	0xbedbf524	-0.42960465
212	0x3b08b506	0.0020859852
213	0x3f30bcce	0.69038093
214	0xbf01b636	-0.50668657
215	0xbf63c57d	-0.8897322
216	0xbf738a24	-0.9513266
217	0xbef1377a	-0.47112638
218	0x3f25fa3a	0.6483494
219	0xbf238200	-0.6387024
220	0xbf29a5fc	-0.662689
221	0x3ffab998	1.9587889
222	0xbf38a52f	-0.7212705
223	0xbf140a08	-0.57827806
224	0xbebe86ca	-0.3721221
225	0x3f87c666	1.0607421
226	0xbeba796a	-0.36420757
227	0xbdaae2e7	-0.083440594
228	0xbeb478d3	-0.35248432
229	0xbe973071	-0.29529145
230	0xbf3e5176	-0.7434305
231	0xbe9edb0d	-0.31026497
232	0xbe38a327	-0.18030988
233	0x3f423b3d	0.7587164
234	0x3e18a6b0	0.14907336
235	0xbef4dfeb	-0.47827086
236	0xbf15f354	-0.58574414
237	0xbf40a442	-0.7525064
238	0xbc298481	-0.010346533
239	0xbf2ab0a9	-0.6667581
240	0x3e09edd0	0.13469625
241	0xbec3f488	-0.382725
242	0xbe8f95ac	-0.28043878
243	0x3d467432	0.048450656
244	0xbe77ef50	-0.24212384
245	0xbf2faf89	-0.6862722
246	0xbe8975d7	-0.26847717
247	0xbe5c164e	-0.21492884
248	0x3e379c3c	0.17930692
249	0x3cf041f6	0.029328328
250	0xbd2d4832	-0.04230518
251	0x3df22780	0.1182394
252	0xbecd017f	-0.40040204
253	0xbeed21b0	-0.46314764
254	0xbf13e755	-0.5777486
255	0xbf6b2c8e	-0.9186486

l3.bias f4 [4]
0	0x3e91c461	0.28470138
1	0x3ed82a9f	0.42220017
2	0x3e144336	0.14478764
3	0x3e32d657	0.17464577
