fin/DQN/agent-300-10-360/model.pt (torch, 340231 bytes, 6 tensors)

l1.weight f4 [400, 8]
00000000: 0e98 943c e33c b63c bf3d cabf 40f5 19bf
00000010: 7229 853d b5ff c43c 4884 96be eb1a 7ebf
00000020: fd80 ef3d dec3 54bd 3a5f 653e 0e95 54be
00000030: 3c48 f33d d2d8 e3be 47c5 2abf d79d 06bf
00000040: cc1e bf3e 2573 6c3e f1eb cbbe 7370 3abf
00000050: 7e10 473e 0f4b 84bd fa7e 57bc f0b0 de3e
00000060: 62a1 093f 7d40 793e 88bb 1f3e 2c05 6dbd
00000070: ae54 08be e4e4 59bf 70c7 7cbf acba 383f
00000080: d28d d03e 7491 a53b 9719 82bd 2d74 343e
00000090: b801 88bf 8b8b fbbe 9504 02c0 1a42 bfbb
000000a0: 9bcc 4a3f ea36 b63c 7a8f 5fbe df37 90be
000000b0: 9d15 0d3f 446a a4be 13b5 a53e 0e5f 87bf
000000c0: cb94 983e cc44 9a3e f690 b23e de3a d93c
000000d0: 3cef 9d3e d9f3 68bf f4b7 db3d e42a cbbe
000000e0: 76f2 9fbe 07db 84bd ebe1 4dbf a665 a73d
000000f0: 226e 3c3f 08e1 67bf 3cd1 b1bf 1a01 a23e
00000100: fd45 163f c11a bebe 42da a93e 49b4 dabe
00000110: 7140 0cbf 46d1 49bd e910 25bf 2dcd 433e
00000120: b726 ee3e 6425 d7be 65b4 5f3d e262 d9bd
00000130: 8f55 7fbe 1ec7 31bf 65fe 2fbe 7628 d43d
00000140: d4b9 dbbd ef92 13be 75cc d2bd 448e 233e
00000150: c718 f1be b012 c4be 724c f5bb 5adb a7be
00000160: 03c3 c9be 022f 9a3d b6ed 6a3e 8800 cdbe
00000170: 6b23 503f 4f4f 87bd 1af4 56bf 09db 0dbe
00000180: 7613 f33e 17e5 3e3e 49fc 3d3e 8479 2c3f
00000190: 2914 66be 63eb ed3e 464c f33e 4b18 9ebf
000001a0: 8ee3 8abd 2b47 5abf 58af be3e ba9f d5be
000001b0: 27c4 40bf d4d4 ac3e 7f84 883d ce9c b0bd
000001c0: 56ee fa3e 402e 90be d4ae 98be 3d51 3d3f
000001d0: 3366 123f f2bf 92bf bf45 ba3d 5575 da3b
000001e0: ab0e 223f bab3 8a3c fc0c 9abe 16d3 50bf
000001f0: ee20 193f 2ebe 783e 5036 d53e b3ca 7f3d
00000200: e555 f8be 3140 ee3e f85d ac3e 51d4 1ebb
00000210: c99f 80be 6ff2 773f c55b ee3e 7b03 81bf
00000220: 86a3 1cbf 7f7e 843e b2a2 16bf 6dfa 8bbd
00000230: 7eb1 073c 8d24 2cbe 95db 76bf 72cf 363e
00000240: 49af b73e 509b 3f3e 3da0 8abc 7155 423e
00000250: 2154 293f ce03 e33e f5c1 9bbe 3eaf 34bf
00000260: c5dd 58bc 1c76 e5be fa4f 143f d431 d6be
00000270: 78ef 35bd ba65 37bf 587c 55bf 3faa 33bf
00000280: 1cf2 46be e10e a5be 8320 81be e32d 15bf
00000290: fec5 7a3f 7a61 133f bf06 d43d e237 a0be
000002a0: 8736 ffbc d316 5cbd ad45 f63e dc74 703f
000002b0: b671 6d3d 8079 0bbf d7bc cbbd 8f72 10bf
000002c0: 5983 953e 84cb 9fbd 2568 6e3d 96ef 29bf
000002d0: cff2 c33d 37b7 f3bd bf60 b4be cb5e a7be
000002e0: 9d52 18be e27c 4a3e 2eb5 013d 2737 50be
000002f0: ab1f 723e fc5b e5bd dfef b9be cf43 a63d
00000300: f2ae a93e dce3 883c 633a 393e cff7 98be
00000310: 4826 50bd d1e5 c73e 7f23 5ebf d2d5 69bf
00000320: c997 3bbf 9fe2 933e ba96 253e 84d7 bfbe
00000330: 3061 083f dd5f 753e 59ef 293e ca90 c93e
00000340: 026f d5bc 1700 83bd 1900 85bd 77f0 8b3d
00000350: 274f 34be ed8e 843d 0e05 8cbe 7e78 343e
00000360: 9418 0e3f 4174 d93d 47b8 b93d 2fcb eebc
00000370: 92d1 533e 93d5 123e 9170 cc3e 5e1b 363d
00000380: 756b 3abf d288 683e a144 0abe 8657 f4bb
00000390: e8e6 1d3e 3f4e 2bbf 120e 5ebf d5ab e93e
000003a0: aea6 ed3e 602d 7c3e 4a52 8d3d 1109 42bf
000003b0: 66ec 92be b7ed bbbe 8da7 b3be b31f 263f
000003c0: 49bf 933e 7648 e3bd 8c00 1dbe 6b17 8d3e
000003d0: 6ab1 1cbe 40ae 003e 18fd 383d 380c 0abd
000003e0: a61b 06bf fc2a b83c 5e50 0c3d e025 44bd
000003f0: c9da f6be ea16 543f 663f 99bf 823e d43e
0.018138912 0.02224583 -1.5800093 -0.60139847 0.06502046 0.024047712 -0.29397798 -0.99259824
0.116945244 -0.051944606 0.22399607 -0.20759985 0.11879012 -0.44501358 -0.6670727 -0.52584594
0.37328184 0.23090799 -0.39828447 -0.72827834 0.19439885 -0.06459629 -0.013152832 0.43494368
0.53761876 0.24341007 0.15598881 -0.05786626 -0.13313553 -0.85114884 -0.9874182 0.7215984
0.407332 0.0050527398 -0.06352537 0.17622443 -1.0625525 -0.491299 -2.0315297 -0.0058367373
0.79218453 0.022242982 -0.21832076 -0.28167626 0.55111104 -0.32112324 0.3236471 -1.0575883
0.2980102 0.30130613 0.3487622 0.026517328 0.30846584 -0.9099708 0.10728446 -0.3968116
-0.3123967 -0.06487089 -0.8042285 0.08173685 0.7360555 -0.90577745 -1.3891978 0.31641465
0.58700544 -0.37129787 0.3317433 -0.42715672 -0.5478583 -0.049271844 -0.6447893 0.19121237
0.46513912 -0.42020714 0.054615397 -0.106145635 -0.24934982 -0.69444454 -0.17186888 0.1035928
-0.10728803 -0.1441152 -0.10292903 0.15972239 -0.47089216 -0.38295507 -0.0074859196 -0.3278454
-0.39406595 0.07528497 0.22942242 -0.40039468 0.81304044 -0.06606924 -0.8396622 -0.13853087
0.47475785 0.18642078 0.1855327 0.6737292 -0.22468628 0.46468648 0.4751913 -1.2351164
-0.06781684 -0.85264844 0.37243152 -0.41723424 -0.75299305 0.33756125 0.066658966 -0.08623658
0.4900996 -0.28160286 -0.29820883 0.73952085 0.57187194 -1.1464827 0.09095334 0.006666819
0.6330363 0.016931403 -0.3008803 -0.8157209 0.5981587 0.24291298 0.41643 0.06244917
-0.48503032 0.4653335 0.33665442 -0.0024235437 -0.25121906 0.968543 0.4655439 -1.0079187
-0.61187017 0.2587776 -0.58842003 -0.06834874 0.0082820635 -0.16810818 -0.96428806 0.17852572
0.3587592 0.18711591 -0.01692211 0.18977906 0.66143996 0.4433884 -0.30421415 -0.705799
-0.013236468 -0.44816673 0.57934535 -0.4183489 -0.04441783 -0.716396 -0.8339286 -0.7018165
-0.19428295 -0.32237914 -0.25220117 -0.5827314 0.9795836 0.5757061 0.10352849 -0.31292635
-0.03115393 -0.053732704 0.48100033 0.93928313 0.05796977 -0.5448227 -0.09948128 -0.564248
0.29201773 -0.078024894 0.05820479 -0.66381204 0.095677964 -0.1190018 -0.3523006 -0.3268951
-0.14875264 0.19774202 0.031666927 -0.20333539 0.23644893 -0.11199185 -0.3631582 0.08118402
0.33141285 0.016710214 0.18088679 -0.29876563 -0.050817758 0.39042524 -0.8677291 -0.9134189
-0.7327848 0.28883836 0.16170779 -0.37469113 0.53273296 0.2396235 0.1659521 0.39368278
-0.02605391 -0.063965015 -0.06494159 0.068329744 -0.17608319 0.064725734 -0.27347606 0.17624089
0.55506253 0.10617877 0.09068351 -0.02914962 0.20685413 0.14339285 0.3992963 0.044459693
-0.72820216 0.22708443 -0.13502742 -0.0074567227 0.15420115 -0.6691627 -0.8674022 0.4563891
0.4641623 0.24626684 0.06900461 -0.75795084 -0.28695983 -0.367048 -0.3508877 0.6489212
0.28856876 -0.11097805 -0.1533224 0.2755693 -0.15302053 0.12566471 0.045163244 -0.03370306
-0.5238594 0.022481434 0.03425633 -0.047887683 -0.48213795 0.82847464 -1.1972473 0.4145394

l1.bias f4 [400]
00000000: 0917 513c 4303 d83e 866c debe 3dd4 7cbe
00000010: 4158 f7be 3e51 323d 1d88 673e dcdc 8abe
00000020: 108a 5e3e 5def 483e a90f 21be da48 903e
00000030: 3f68 cebe 79b1 4cbe 27bd edbd e9c9 8cbe
00000040: b27d 2cbf 86ce 3d3e 4f50 0f3e 2b98 19bc
00000050: 3d97 b6be 8c76 07bf 1016 453d 1909 2d3d
00000060: ab7f 8e3e c058 28b9 2309 063e dc05 b73e
00000070: 3f02 72be f411 2dbe 97dd b3be 3fc7 c63c
00000080: 18ae 5ebe 68f5 de3d be05 27bf 46ed 86bf
00000090: 2ffb 3b3c 99ef a7bd 0870 bbbd 01c6 773e
000000a0: 5482 e9be 9d63 3ebd c5a7 243c 4a0d a13a
000000b0: b875 fabe 8553 783e 94a4 873d 5f5a a1be
000000c0: f3fc f7be 2d31 99be 30c7 c93b 4de4 883c
000000d0: 35a8 ab3c 5158 04bc b392 ecbe 4235 52be
000000e0: 3f49 fabe 5a19 a6be 9862 b9bc 3b70 1dbe
000000f0: 07c5 b2be 8a9b 233e c9cf 18bd 4f86 a53e
00000100: 0ea8 623c a906 73be 4aa7 1abf cfd4 c13e
00000110: ef3a 663c 868f f9be b456 73bc 8d99 ddbe
00000120: c90b 9bbd c811 293e 2e61 6ebe 25a3 47be
00000130: bdc0 6abe d336 a4bd d392 f5be ded1 11bf
00000140: b852 f7be db7f acbc 930f dcbe 80dd 443d
00000150: ed5b f13d 626d 83be 20bc 2c3e d55c a1be
00000160: f672 19bf f69a 87be 320e 23be b0aa 8a3e
00000170: fb38 503d f7f5 0cbe 01b7 703e 291e bdbe
00000180: 37d5 45be 4f29 5f3e 914f b03d 472c cfbe
00000190: 3c81 113e 63b5 30bd 931d 6bbd 6ca5 0ebf
000001a0: 32a2 04bf 78e2 efbe 2c95 8e3e 103f 4b3e
000001b0: b62c a63e 6448 10bf f987 e8bb ebdc f33d
000001c0: 1ad7 903d 2be2 87be cea9 533e 2ff0 2dbf
000001d0: ed97 c63b 4217 2e3d 18b9 093e a0ba 8dbd
000001e0: e92c 6c3c 1903 b1bc 74af 193e e410 193d
000001f0: ffeb 563d 4672 c3be a0e7 7f3e c43b 183e
00000200: 8592 d13d aee1 bebc 19e7 863e 2a3a 903e
00000210: e2a6 de3d c763 84be 2780 09bc 2099 10be
00000220: c936 123d f006 efbe 7db8 813d 201f 58bf
00000230: f1c4 003e 6a54 06be 840f 18bf 3394 14be
00000240: 1b48 a93e 053e 10bf 4119 7abe d21d 503e
00000250: bec3 9fbe 6705 5ebf c9dc 10bf 3612 82be
00000260: a75e 89bc a77e 663e b78c f23e 9fc4 02be
00000270: 1da9 bb3d f41b 02bf b10b 943e 9c74 93bb
00000280: 24c1 a4be 3e6c c33e a055 13bc ba18 cdbe
00000290: 6f2f 303d 9587 e4be 0979 bdbe 4200 4cbe
000002a0: ecdc 1e3e ea17 f3be 9fcd 9b3d 3577 163d
000002b0: 0e66 dcbe bf1d f1bd 9b53 11be 07d9 bfbe
000002c0: b031 043e 58e6 e4bb 84a0 183d 87a8 c1be
000002d0: 0908 71be 1e63 c6be ab18 18bf 0f29 913e
000002e0: 7490 fcbe 4aac 523e a8b7 a13e e395 523e
000002f0: 6734 e8be aa14 ecbe bdf7 6bbd b30b bdbe
00000300: 0dc0 1d3e 61ce 813e cc05 ecbe 76d0 013e
00000310: 7b81 1a3e 8c0b 6e3e ec89 82be 41ab 7fbe
00000320: 1f52 753c 875b 10bd 411c 823c 3ec6 1dbf
00000330: 2309 853e bedb ccbd 5558 ad3b 1c93 ad3d
00000340: db49 9fbc 9b20 8cbe 8546 b93d c0eb 15bc
00000350: 0586 563e 56f3 4a3e 254e a33d a536 1c3d
00000360: a270 fb3b a3a1 aebe bdd3 aebd 41fe 29be
00000370: 72be a9be 8687 d7be d8de d4be 4628 acbe
00000380: 68ef 48be 7cd0 e53d 12b8 85bc c32a 84bd
00000390: 5b04 b03e ac91 9abe 6bd9 c0bd cf28 093d
000003a0: 5ef8 17be 74ff 45bf 487c 263e bd5f 9d3b
000003b0: b464 ed3e d2ff 56be 59bd 8a3c 98a6 103f
000003c0: 5778 7fbe 1b85 06be 0de2 9e3d fe94 073f
000003d0: be63 17bf bf13 95bb 1d7d a73d 7dea d43e
000003e0: 8700 fbbe f558 d3bc b762 913e 7a5c 0f3c
000003f0: 05c5 21bf fa77 adbe 25fd 733e 5b15 01be
0.01276184 0.42189988 -0.43442172 -0.24690337 -0.4830952 0.04353451 0.22610517 -0.27121627
0.21732354 0.1962256 -0.1572863 0.2818058 -0.40313908 -0.19989575 -0.116083436 -0.27497795
-0.67379296 0.18535814 0.13995479 -0.009374659 -0.3566226 -0.52915263 0.048116744 0.042245004
0.27831778 -0.0001605479 0.13089423 0.35746658 -0.2363367 -0.1690138 -0.35129997 0.02426493
-0.21746099 0.10886651 -0.65243137 -1.054116 0.011473461 -0.081999965 -0.09152228 0.24196626
-0.45607245 -0.046481717 0.010049765 0.0012287286 -0.48917937 0.2425061 0.06623188 -0.3151426
-0.48435172 -0.2992033 0.006157778 0.016710425 0.02095423 -0.008077697 -0.46205673 -0.20528129
-0.48884007 -0.32441217 -0.022630021 -0.15374844 -0.34915945 0.15977302 -0.037307534 0.32329032
0.013834013 -0.2373301 -0.6041151 0.37857673 0.014052137 -0.48742312 -0.014852215 -0.43281212
-0.07570607 0.1651069 -0.23279259 -0.19495828 -0.22925086 -0.080182694 -0.4796358 -0.56960857
-0.48305297 -0.02105706 -0.42980632 0.0480628 0.117851116 -0.2566939 0.16868639 -0.31516138
-0.5994104 -0.26485413 -0.15923384 0.2708335 0.05083559 -0.13765703 0.2350731 -0.36937073
-0.19319616 0.21793102 0.08608926 -0.40463468 0.14209455 -0.043141734 -0.05740125 -0.55721164
-0.5180999 -0.4685247 0.27848184 0.19848275 0.32455987 -0.5636046 -0.0070962873 0.11907371
0.07072277 -0.2653974 0.20670244 -0.67944616 0.0060605914 0.04250265 0.13449514 -0.069203615
0.014415004 -0.021607922 0.15008336 0.037369624 0.052471157 -0.3817312 0.24990702 0.14866549
0.102330245 -0.023300972 0.2634819 0.28169376 0.10871674 -0.25857374 -0.00839237 -0.14120913
0.03569678 -0.4668498 0.063340165 -0.84422493 0.12575127 -0.13118139 -0.59398675 -0.14509659
0.33062825 -0.56344634 -0.24423696 0.20323876 -0.31204027 -0.86726993 -0.5658689 -0.2540452
-0.016768767 0.22509252 0.47372982 -0.12770317 0.09163115 -0.50823903 0.2891517 -0.004499985
-0.32178605 0.3816852 -0.008992583 -0.40057927 0.043013986 -0.4463469 -0.37006405 -0.19921973
0.15513963 -0.47479182 0.076075785 0.03673478 -0.43046612 -0.11773252 -0.14192049 -0.37470266
0.1290958 -0.006985467 0.037262455 -0.3782389 -0.23538221 -0.38747495 -0.5941264 0.28351638
-0.4932896 0.20573536 0.3158543 0.2056499 -0.4535248 -0.46109515 -0.05760931 -0.36922988
0.15405293 0.25352767 -0.46098173 0.12677178 0.15088455 0.23246592 -0.2549585 -0.24967672
0.0149731925 -0.035243537 0.015882613 -0.6163062 0.25983533 -0.1000285 0.005290071 0.084753245
-0.019444397 -0.27368626 0.09046654 -0.009150445 0.20949562 0.19819388 0.07973889 0.03813805
0.007673339 -0.34107694 -0.085364796 -0.16600896 -0.3315311 -0.42095584 -0.41576266 -0.33624476
-0.19622576 0.11221406 -0.016323123 -0.06453469 0.34378323 -0.30189264 -0.09416469 0.033486184
-0.14840838 -0.77342916 0.16258347 0.0048026727 0.46365893 -0.20996025 0.016935991 0.565042
-0.2494825 -0.13136713 0.077579595 0.5296172 -0.5913657 -0.004549473 0.0817816 0.4158515
-0.4902384 -0.025799254 0.28395626 0.0087500755 -0.6319125 -0.33880597 0.23827036 -0.12605803

l2.weight f4 [200, 400]
00000000: eabf bfbd fcfc cb3d 49f6 2f3f e82a 8c3e
00000010: e771 6ebd d102 21bf 2381 923d 47f7 ba3c
00000020: 7ea9 d63e 820a 9f3d 1b60 a8be d7cd 8b3d
00000030: 1ab3 903d 48db 053e 872e c83d 362b 143f
00000040: 2682 8f3e 1c20 253d ef28 7ebe 30a1 df3e
00000050: a68d 533e 3962 a33d ba55 f43e 6008 873e
00000060: 5838 563d 54e7 3abc 7ea9 933d 18e6 96be
00000070: a053 3abe fcd3 783e 712a 103d 26fc 9ebe
00000080: 4f29 55bf 2b4a 523e b1c4 8e3d bc3e 07bf
00000090: 5ba0 693e 19a1 ef3d d27a 43be 4c8e 24bd
000000a0: df68 64be 20e0 18bd 1177 a9bd c7f8 bb3e
000000b0: ef1c 053e e483 713e d8e1 623c f64e 53bd
000000c0: 6391 c43e baee b13e 19b4 fb3d c4c9 94bd
000000d0: f4a8 8c3d 4826 8f3d b53c 863e 8958 3f3e
000000e0: a732 0fbf 50e1 2fbd 5412 ccbe 0fbc 90bd
000000f0: 1f53 653e 335e 0ebe 6a7b b3bd 28bb 61be
00000100: 027a 423e bed1 09be 724c a7bc 69dc 3f3d
00000110: 76a8 603d 6c58 483d 9f92 04be 123d 07bf
00000120: 77ef 01bd f88f 423e 8f50 1ebd a878 cebd
00000130: 1c4f 6cbd 7b86 a73d c51b 533e ce51 a43e
00000140: 7167 c33e 3e54 68be 6f17 a13e 62e9 30be
00000150: 089f db3c 7009 b63d dddc de3d 6973 153d
00000160: 0452 363e 0f2f 3dbe 4c5f 873e 8374 e7bc
00000170: b678 1c3d 303d d33c 1414 cc3d da67 3cbd
00000180: ec4f 54be 7338 f1bd 497e 6dbe 73f3 7d3e
00000190: b7c7 f73d e3b9 9cbe 6699 393e 95b0 603e
000001a0: b1be be3d 06ae 173e 0fee bf3c 5eaf 73bd
000001b0: 5acb 94bc 79d9 a73d c082 01bf b821 953d
000001c0: 8d7a 7bbc 5026 78bf bb10 a93d 184a bb3e
000001d0: f505 99be 29ad 1f3e 5680 c73d dea2 9ebe
000001e0: 5352 a6bd cbb6 c73c d488 723d f750 acbe
000001f0: 77ca efbe f95d 273f aab3 cc3d a916 683d
00000200: 6bc0 bb3d d705 813e e752 08bd 6bc3 78bf
00000210: 7dc6 c2bd f846 20bf 655e 00be e190 6f3c
00000220: 31a0 37be ec67 313d 88a0 083e 45cb f73d
00000230: 85b1 bbbe 3c2a 91bd 0b84 a23e ff60 e93d
00000240: a2ec 18be 3d3a fbbd caf1 b83e 5afb c9be
00000250: c025 763b f91f 5c3e eb48 db3e e34c 0c3f
00000260: 02cc 163e 344e 893e 4780 9e3d 3918 543e
00000270: fb5d a33e 16e5 293e 8d0b 8ebd 6ff8 f13e
00000280: f107 513e 684a a8b9 4bc3 f43d 7e71 16be
00000290: b5c6 00bf c7ff d33e 08e3 513e 2602 543f
000002a0: 27bf a83e dbaf bf3c 5e1e 9fba ad12 6cbb
000002b0: b938 2ebf c490 f53c 915a 86bd 31da 813d
000002c0: cccb 0f3e a0e2 213e e2a2 9e3d 5e95 a6be
000002d0: 5274 853e 9ae5 65bd 20c4 d53e 5fb3 9ebe
000002e0: 53a0 a1be df90 9b3d 22e7 45be cb6b d7bc
000002f0: 740e 883e e12e 803e b868 4a3e 0c38 80ba
00000300: 1248 03bd 165f 5dbd 0dab 99bd 5a99 95be
00000310: 9a51 493e a06d c4bd f4c9 e0be 1cf3 1abc
00000320: d467 acbe f25b 0e3e 2f3a 3dbe 54ea 1cbf
00000330: b1b5 bb3d cc06 e73c a22f debd 90ff 7f3d
00000340: 3591 eebd fe12 433e 9ff0 5c3d 3515 53be
00000350: 595d a0bd a079 8bbe 80ec 1d3d 217a ce3d
00000360: 2d0c bbbe 2620 e33e a2d2 04bf b791 06bf
00000370: 7e8a c13e cdfe a33e ab72 403d 3e28 35be
00000380: a273 93be cd41 4e3e a0a5 70be 0759 85bd
00000390: 6121 f4bc fcfe 9e3e 3e82 8f3d d4b0 61bd
000003a0: 14f8 fdbe 21b6 c4be d073 6f3c 5b7a d23c
000003b0: 2cfe 2dbd 198a 6e3e 43e7 bd3d 9e5f 223e
000003c0: a0ca 8d3e 6f75 a8bd 3ada 7b3d 7561 143e
000003d0: 78a3 7abe 5780 31be 7586 233e 0bc1 a3bd
000003e0: 4b81 b2be 74d1 a73d 8cf6 67be 680c b53d
000003f0: 6b4b 993e 866f 06bd 7d76 68bf 0d2c a23e
-0.093627766 0.09960362 0.68735176 0.27376485 -0.058214094 -0.6289492 0.07153537 0.02282299
0.41926187 0.07765676 -0.32885823 0.0682637 0.07065411 0.1307193 0.097744994 0.57878435
0.28028983 0.040313825 -0.24820302 0.43677664 0.20659503 0.07977719 0.47721654 0.26373577
0.052299827 -0.011407692 0.072100624 -0.29472423 -0.18195963 0.24299616 0.035196725 -0.3105175
-0.83266157 0.20536105 0.0697111 -0.528301 0.22815077 0.11700649 -0.19089821 -0.040174767
-0.2230563 -0.037323117 -0.08274663 0.3671324 0.12999319 0.23585469 0.013847791 -0.051588975
0.3839217 0.34752446 0.1229021 -0.07265046 0.06868163 0.069897234 0.2621819 0.18686117
-0.55936664 -0.042939484 -0.39857733 -0.07067119 0.2239499 -0.13903122 -0.08763774 -0.2204405
0.18991855 -0.13458917 -0.020422194 0.04684106 0.054848157 0.04891245 -0.12946557 -0.5282756
-0.031722512 0.19000232 -0.038651045 -0.10081607 -0.057692632 0.08179947 0.20616062 0.32093662
0.38164857 -0.22688386 0.3146319 -0.17276528 0.02680923 0.08888519 0.1088197 0.036487017
0.17804724 -0.18474983 0.26439893 -0.0282538 0.038201056 0.025786012 0.09964767 -0.045997478
-0.20733613 -0.11778345 -0.23192705 0.247999 0.120986395 -0.3061057 0.18124923 0.2194236
0.09313715 0.14812478 0.023428945 -0.059493415 -0.018163372 0.081957765 -0.50590134 0.07281822
-0.015349043 -0.9693346 0.08255144 0.36579967 -0.29887357 0.15593399 0.09741275 -0.30983633
-0.08121171 0.024379155 0.05921252 -0.3365552 -0.46834156 0.65377766 0.09995206 0.056662235
0.0916756 0.25199768 -0.033282187 -0.97173184 -0.09510515 -0.6260829 -0.12536009 0.014621944
-0.17932202 0.043312 0.13342488 0.120993175 -0.36658874 -0.07088134 0.31741366 0.11395454
-0.14934018 -0.122669674 0.3612197 -0.3944958 0.0037559122 0.21496572 0.4282907 0.5480482
0.1472626 0.26817477 0.07739311 0.20712365 0.3190764 0.16591296 -0.06935797 0.47259852
0.20413186 -0.00032098894 0.11951312 -0.14691731 -0.503032 0.4140608 0.20496762 0.8281578
0.32958338 0.023399284 -0.0012139787 -0.0036021874 -0.680553 0.029976256 -0.06560243 0.06340445
0.14042586 0.15809107 0.07745911 -0.32535833 0.26065308 -0.05612717 0.41751194 -0.30996224
-0.3156763 0.07595991 -0.19326451 -0.026296517 0.26573527 0.25035766 0.1976651 -0.0009782328
-0.032051153 -0.05404576 -0.075033285 -0.2921856 0.19660035 -0.09591222 -0.43904078 -0.009457376
-0.33672965 0.13902262 -0.18479227 -0.61295056 0.09165514 0.028201483 -0.10848929 0.062499583
-0.1164879 0.19050214 0.05394041 -0.20613559 -0.07830305 -0.2724123 0.038555622 0.10081888
-0.36532727 0.44360465 -0.518839 -0.52566093 0.37800974 0.32030335 0.046984356 -0.17691132
-0.28799158 0.20142289 -0.23500681 -0.06511121 -0.029801073 0.31053913 0.070072636 -0.055100277
-0.4960333 -0.38420203 0.014615014 0.02569311 -0.042478725 0.23294868 0.09272625 0.15856788
0.27693653 -0.08225524 0.061487414 0.14490302 -0.24476421 -0.17334114 0.1596926 -0.079958044
-0.34864268 0.08194247 -0.22652644 0.08840257 0.29940352 -0.0328212 -0.908058 0.31674233

l2.bias f4 [200]
00000000: 5235 3c3c 848f 6c3b 5fb6 bdbe 2ad3 9dbd
00000010: 2e37 683e 03d6 b83b 1a59 69bd 143c 1bbf
00000020: 7dc7 e9bc 3687 04bd 2f6b ac3d 1ac6 b3bd
00000030: 7110 213e 16ce 543e b3cd 57bd 552b 7a3e
00000040: 4f42 96bc f08d 653b 0637 5dbd 5000 a4bd
00000050: 364a c53b 3923 723e 910f 1bbd ab9e 33be
00000060: a7ff c7bd 76df bd3b ba6c 13bf 478b 063d
00000070: 258b 4dbd be12 6a3d c055 6dbd b1fe b5bd
00000080: 9254 74bd 12ea 4c3e 29bc a3ba 9d09 a8be
00000090: f70d f4be f149 55bd 9628 bebd 974b f93d
000000a0: 6494 5f3d 03e5 9cbd 302b e63d dd20 3cbd
000000b0: e6c0 c4be 06b6 d53d c289 dabd 5b7c 063e
000000c0: 9e9b 233d ef60 48be 635e 623e 9a85 983a
000000d0: b434 073b 1623 98bd 32af b0bd 118e 533d
000000e0: b6f0 60bc 5931 07bd 4464 a3bd 87ab 50bd
000000f0: dafd 51bd c236 5f3c dd5f 2e3e 0f1c 0d3d
00000100: 5f2d 8cbe 7216 28be 04ba 80bb 9bdf 64be
00000110: 23b5 c23d 2d55 d7bd f596 b8bd 15f6 1dbe
00000120: 9c43 12bd 22d4 97bd 1664 473e 4eef 883c
00000130: 7cad cfba 8a12 613d 1c76 813c 065b 853c
00000140: 7c74 2c3d 7655 00be d472 5bbd 26ad 5f3e
00000150: e590 87bd d86b 013e 1b8c 33be ee4d aabe
00000160: 6e28 ddbd eae9 853d 3ce1 3e3c 3e0d a0bd
00000170: 686f 2d3e 27bf 9e3c 724d eebb 1183 25bd
00000180: 43cf 85bc ea9c 4cbd 6d24 bcbb 7733 4abe
00000190: 0a0e dabd 54dd 9cbd 10a7 66bd f6fe 2dbd
000001a0: 4684 c3bd 9fc6 acbd 9d8e f5bd 9493 d0bc
000001b0: 3a0d 853e ebc6 56bd 0603 3cbd 49de 463d
000001c0: 684a cbbc 410b 13be 350f bbbd 4588 b4bd
000001d0: 0932 8e3c 0692 8d3e 2d94 04bc 458c 8fbe
000001e0: 2dbf ffbd a664 513e 7129 4bbe 238f 3f3d
000001f0: 2023 1cbf d38f a23d e825 643d d2f5 f6bd
00000200: 623c 1abd 7f6e 2abd 0615 4c3e 2425 9f3d
00000210: 1049 d9bd 5dfe 093e 9001 563e 8ac1 d4bc
00000220: 4426 a9bd 31ef eebd f05f a3be 2bc0 303e
00000230: 5e3e edbc 7d1b 83ba 3302 24be 57b7 33be
00000240: b7b8 b03a 8df5 073e a2c7 9cbe 5de8 3bbf
00000250: a143 44be a712 5a3e d12d b4bd a19e 6dbe
00000260: 53db 3c3d 540c 6c3b cab6 2c3e 202c 0bbe
00000270: 70b3 f5bc 6b7c 4b3e 14c9 d1bd 6c91 ebbb
00000280: 0334 51bd 4eda 473e 6404 763d dfe8 63bc
00000290: 35ff 6bbc 12b2 9dbd 774f 3fbe 23e4 d93c
000002a0: 9651 2fbc c691 3dbc 6b40 e3bc 079d 5ebe
000002b0: 02c4 50bd ef08 9b3d 9bde fabd 6723 e4bd
000002c0: 60fa 5fbd 1f3b 1e3d 4c03 0bbd 665c 87be
000002d0: deb4 2dbd 48b7 353e e5ed 713d 58ae 573e
000002e0: 5eb5 c6bd 7e65 86be 296d 5e3e 4b2d 803e
000002f0: 964a 613c 354e 3c3e 1690 a3bd e2a8 ca3c
00000300: 5636 85bc dd7a 5e3d e29f 74be bdd0 863d
00000310: 7e4d 01be 63db 4e3e bfb0 40bd 0a58 88bd
0.011487322 0.0036096284 -0.370532 -0.07706292 0.226773 0.0056407466 -0.05696974 -0.60638547
-0.028537506 -0.03235551 0.08418881 -0.08778019 0.15728928 0.2078174 -0.052686404 0.24430592
-0.018342165 0.0035027228 -0.054007553 -0.08007872 0.0060208095 0.23646249 -0.037856642 -0.17540996
-0.09765559 0.005794461 -0.5758778 0.03284767 -0.050181527 0.05714678 -0.057943106 -0.08886469
-0.059650965 0.20011166 -0.0012491989 -0.32819834 -0.47666904 -0.05207247 -0.09285085 0.12172621
0.054584876 -0.07660868 0.11238706 -0.04592978 -0.3842842 0.10435109 -0.106708065 0.13133375
0.03994333 -0.19568227 0.22106318 0.0011636496 0.0020630779 -0.07428567 -0.08627166 0.051649157
-0.013729265 -0.033006046 -0.079781085 -0.05094483 -0.051267482 0.013623895 0.17028756 0.034450587
-0.27378365 -0.16414812 -0.003928425 -0.22350924 0.09507205 -0.10514293 -0.09013168 -0.15425904
-0.03570901 -0.07413508 0.19471774 0.016715672 -0.0015844549 0.05494932 0.01580339 0.016278755
0.042103276 -0.12532601 -0.053576306 0.21843395 -0.06619433 0.12638795 -0.17533915 -0.3326258
-0.10798727 0.06538756 0.01165038 -0.07815026 0.1693703 0.019378258 -0.007272416 -0.040408198
-0.016334182 -0.049954332 -0.005741647 -0.19746195 -0.10647209 -0.076594025 -0.056311667 -0.042479478
-0.095467135 -0.084363215 -0.11990092 -0.025460996 0.25986654 -0.052435797 -0.04590132 0.04855183
-0.024815753 -0.14359762 -0.0913376 -0.08815054 0.017357843 0.2765047 -0.0080919685 -0.28036705
-0.12487636 0.2044855 -0.19840027 0.046767365 -0.60991096 0.079375885 0.055700213 -0.12058605
-0.03765524 -0.041609284 0.19929895 0.07770756 -0.10609639 0.13475938 0.20899034 -0.025971193
-0.08259252 -0.11666716 -0.31909132 0.17260806 -0.028960403 -0.0010002699 -0.16016464 -0.17550407
0.0013482784 0.13277264 -0.30621058 -0.73401433 -0.19166423 0.21296178 -0.08797801 -0.23205043
0.0461076 0.003601809 0.16866603 -0.13591051 -0.029992789 0.1987168 -0.10243431 -0.0071889665
-0.051074993 0.1951687 0.06006278 -0.013910501 -0.014404108 -0.0769998 -0.18682657 0.026598042
-0.010700604 -0.0115704 -0.027740678 -0.21739589 -0.050968178 0.07570063 -0.1224949 -0.11139565
-0.054682136 0.0386306 -0.03393869 -0.26437682 -0.042408817 0.17745697 0.059064765 0.210626
-0.09702562 -0.26249307 0.21721329 0.25034556 0.013750693 0.18389209 -0.079864666 0.024738733
-0.016261261 0.05431639 -0.23889115 0.065827824 -0.12627217 0.20200877 -0.04704356 -0.06657417

l3.weight f4 [4, 200]
00000000: ff1c f8be 782a 9ebc 3e94 2dbf f0f4 8abe
00000010: 2e4d b13e 1970 73be e920 943d 1c2a 32bf
00000020: 5561 ec3b 0060 d83e d062 ba3e 99a1 663f
00000030: 4e9d 6c3e 2afa c93e e80e ab3c 8a37 d03e
00000040: fc08 3e3d 0a64 613d b642 adbe 68a3 9bbe
00000050: 04b6 173d cc34 b43e 20c4 96bd 5138 97be
00000060: 9e0b 5dbe 801a d13d c9b5 43bf 8bfe 98be
00000070: 3447 313d 316d 44be 8690 703c 7cc8 283f
00000080: 6bc6 0a3d 2a88 383f 48d6 0abf 992b 163f
00000090: c433 11bf d44c bcbe cab7 e5be 7c0d 013f
000000a0: 3f95 e7be b708 1bbe a04f 923e a4aa 08bc
000000b0: 3f57 24bf 8291 a7be e960 dcbe 31f7 5dbf
000000c0: 2ce8 b4be 8b05 c2be 37f5 b73e 4fb1 4a3c
000000d0: 4d74 013c 1d3a 713d 578e 5f3f 1aa1 a3be
000000e0: e79c c1be 6921 793c 550d a03a ed49 2c3f
000000f0: edc4 f03c 3ed4 9f3d a787 b23e c804 953e
00000100: 21ba 3a3f d368 803f 075e 4e3d bbf1 bebe
00000110: 6d6c e4be 3945 f6be aec2 273f 9d3a b8be
00000120: ffc3 92be 65b5 673d 766a ac3e d547 b6be
00000130: a985 5abc 0158 d6be a605 4d3d b1bc b43e
00000140: 5e24 f1be e757 07bf ee07 de3c 1012 ab3e
00000150: b705 f83d 09fa 303e fc12 47bf 0950 1fbf
00000160: 15f1 2abe 81b1 9abe 1bcb 403d 0cca b83b
00000170: 8f8d 1b3f 8510 6b3d 0091 f339 c92b 3fbd
00000180: 8a7d 793d 1c1a 093d 2baf 2d3d 902e 64bf
00000190: 605f 333f 2b7a 993d cd6e de3e dc1f 3fbd
000001a0: 9815 313e 6220 023e b98d 7cbf 4941 6bbd
000001b0: 155d d33e f71b 5bbf d053 483d 6c8f e0be
000001c0: 9de7 3d3d 2bf7 123f d5b9 b0be 6671 4fbe
000001d0: 742e 36be aa69 b53e e809 48bf 86bd 07bf
000001e0: 7ab9 853e bba5 a33e c953 6fbf 7399 a3be
000001f0: 3afa 1fbf 8530 193e 51f2 053f 8c10 a8be
00000200: c7e4 15bf 2047 893d 839f 0c3f 842d dbbd
00000210: 64b6 07bf 7584 5cbf 9e56 b53e b073 cbbe
00000220: f68b b5be a38f 723f f50e 2ebf 88d3 bc3e
00000230: 9c19 d9bc 6b7f 90bc 9467 923f ad0d 29bf
00000240: 448d e2be 5a23 a23e 0d94 9d3f e6b9 13bf
00000250: e30b ecbe 5cf7 c73e f691 b3bd dbb2 72bf
00000260: 0c25 dabe c7e7 79bd 2549 8f3e 096f 083e
00000270: 7bd9 3c3d aeba a23e 42c7 fd3d 0535 0abf
00000280: c5dd 00bd be42 a13e bca5 f1be f89b ccbd
00000290: 6970 093d 8638 c2bc 1721 2f3e 1b17 603d
000002a0: cbbc 963d b150 b03c 50de b3be e6c0 76bf
000002b0: 27cb 8a3d 5ea9 f43e bf3c 413f 7b60 5e3f
000002c0: f7d5 ab3c caab 4abe 8691 f1be cca3 313f
000002d0: 68de b3be 1e0f ae3e e610 0ebe 7297 a03e
000002e0: 586b 183f 140e 7fbf f1fa a03e 7d92 c53e
000002f0: 13ab 683d 17e7 a63e cf33 2abe f004 6cbf
00000300: cc9c 203f 5d61 2fbe 8b4a dcbe 0ca4 3abe
00000310: 52d9 7bbd 9a65 a03e 16e3 a2be e4a7 813d
00000320: a5c0 e2be c8d4 63bd f035 efbe b696 fdbe
00000330: 3d7a a43e a6ac 45be 26dd 4cbd f108 42bf
00000340: 138a 023d bd9f 023f 11ff 6b3e 53e9 603f
00000350: 7245 7c3e 0a2f d73e bfb8 debc 8094 a73e
00000360: e3bd a83a 37eb 113a 2884 9fbe d222 b4be
00000370: f91e 483d c863 ed3e 7c2c 0cbd 5c86 b9be
00000380: 0214 89be 19b4 3f3e 9ede 40bf eef7 9cbe
00000390: 07c9 ccb8 2790 9abe 5d9e 203d dd3b 0d3f
000003a0: 2b1e 7c3d 6abe 3e3f 50f3 0ebf 4ecc 023f
000003b0: 7432 bbbe 5e66 453f 53a0 debe 6b2d df3e
000003c0: 7921 dbbe 6d51 56be 1953 643e 5cef 0bbc
000003d0: 248f 3cbf dc19 7fbe 8256 08bf 907f 57bf
000003e0: 36dc b0be e9b1 abbe 905a c13e bef7 e53c
000003f0: 3d84 ab3a af7c 933e 6ab4 483f 13d2 9fbe
-0.48459622 -0.01930736 -0.67804325 -0.27139997 0.34629196 -0.2377323 0.072328396 -0.69595504
0.0072137513 0.42260742 0.36403513 0.9009033 0.23106882 0.39448673 0.020881131 0.40667373
0.046395287 0.055027045 -0.3383996 -0.30398107 0.037038818 0.3519653 -0.073616266 -0.29535154
-0.21586463 0.102101326 -0.7644926 -0.298817 0.043280795 -0.19182278 0.014682895 0.65930915
0.033880632 0.7208277 -0.5423322 0.58660275 -0.56719613 -0.36777365 -0.44866782 0.504112
-0.45231053 -0.15140043 0.28576374 -0.008341465 -0.64195627 -0.327282 -0.43042687 -0.8670531
-0.35333383 -0.37894854 0.35929272 0.012371375 0.007901263 0.05889331 0.8732657 -0.31958848
-0.3781502 0.0152057195 0.0012211005 0.673003 0.029390777 0.07804154 0.3486912 0.2910521
0.7294026 1.003199 0.05038264 -0.372938 -0.44613972 -0.48099688 0.6553143 -0.35982218
-0.28665158 0.056569476 0.33674973 -0.35601678 -0.013337531 -0.41864017 0.050054215 0.3530021
-0.47098058 -0.52868503 0.02710339 0.33412218 0.12110465 0.17282881 -0.7776334 -0.622315
-0.16693528 -0.3021355 0.047068696 0.0056393202 0.60762876 0.0573888 0.00046456605 -0.046672616
0.06091074 0.033472165 0.04240338 -0.8913355 0.70067406 0.07494005 0.4344391 -0.046661243
0.17293394 0.12707666 -0.9865375 -0.057435308 0.41281953 -0.85589546 0.048908055 -0.43859422
0.04636346 0.574084 -0.3451678 -0.20258102 -0.17791158 0.35432178 -0.78140116 -0.53023565
0.2611807 0.3196238 -0.9348722 -0.3195301 -0.6249119 0.14959915 0.5232287 -0.32825124
-0.5855221 0.06703019 0.54930896 -0.10702041 -0.5301268 -0.86139613 0.35417646 -0.397367
-0.35458344 0.9475042 -0.6799157 0.36880136 -0.02650147 -0.017638883 1.143786 -0.6603649
-0.44248402 0.31667596 1.2310807 -0.57705534 -0.4610282 0.39055908 -0.08768074 -0.9480416
-0.4260639 -0.061012056 0.27985492 0.13323607 0.046105843 0.3178305 0.12391521 -0.5398715
-0.031461496 0.31496233 -0.47196758 -0.09990686 0.03355447 -0.023708593 0.17102467 0.054709535
0.07360228 0.021522852 -0.35130548 -0.9638809 0.067770295 0.47785467 0.75483316 0.8686597
0.02097605 -0.19792095 -0.47181338 0.6939056 -0.3513062 0.33995908 -0.13873634 0.31365544
0.59538794 -0.99630857 0.31441453 0.38588324 0.056803774 0.32598183 -0.16621326 -0.92195034
0.62739253 -0.17126985 -0.43025622 -0.18226641 -0.06148655 0.31327516 -0.31813878 0.06330851
-0.442876 -0.055622846 -0.4672084 -0.49529046 0.3212451 -0.19304141 -0.05001559 -0.75794894
0.03186996 0.5102499 0.23046519 0.87856025 0.24635866 0.42028075 -0.027187703 0.32730484
0.0012873973 0.0005566361 -0.31155515 -0.35182816 0.048857663 0.4636519 -0.03422211 -0.3623532
-0.26773077 0.18721046 -0.75339687 -0.30657905 -9.764922e-05 -0.30188105 0.039213527 0.5516947
0.061552208 0.745093 -0.55840015 0.51092994 -0.3656193 0.77109325 -0.43481693 0.4358934
-0.42798975 -0.20929499 0.22297324 -0.008540954 -0.73655915 -0.24912208 -0.53257 -0.8417902
-0.34543008 -0.33534172 0.37764406 0.028072234 0.0013085675 0.28806064 0.7840029 -0.3121496

l3.bias f4 [4]
00000000: 7c34 b73e 8a5d 003e c2d4 8a3e 083a e93d
0.3578223 0.12535682 0.27115446 0.11388022
