fin/DQN/agent-300-10-360/target_model.pt (torch, 340543 bytes, 6 tensors)

l1.weight f4 [400, 8]
00000000: 424a 913c d203 b83c af27 cabf 0c23 1abf
00000010: 14e0 853d b303 c43c 3b60 96be cd1c 7ebf
00000020: b914 ee3d 8924 55bd 9776 653e 2be3 54be
00000030: 6a7d f33d 28ed e3be a0ba 2abf 2b80 06bf
00000040: 5209 bf3e b973 6c3e 33fe cbbe 7b83 3abf
00000050: eb29 473e a231 84bd 91d6 52bc a369 de3e
00000060: 41bd 093f 1010 793e 591d 203e 72b3 6abd
00000070: ee2f 08be bfa2 59bf 26d6 7cbf c87a 383f
00000080: 3ba6 d03e 0ed3 ce3b 548f 80bd b910 343e
00000090: c307 88bf d1da fbbe 14fe 01c0 0a84 bdbb
000000a0: 0596 4a3f 1a79 b63c 85ac 5fbe 9451 90be
000000b0: 3d2a 0d3f 9cda a4be d4b2 a53e f65b 87bf
000000c0: 911c 983e 443d 9a3e 8799 b23e 5c87 d63c
000000d0: c9e0 9d3e 0216 69bf 0f06 db3d 0a06 cbbe
000000e0: 7eee 9fbe dd04 86bd 17bd 4dbf 0990 a63d
000000f0: 0a46 3c3f 38df 67bf 3cd1 b1bf 8ec3 a13e
00000100: 6580 163f f81d bebe 87f4 a93e 17a5 dabe
00000110: 3459 0cbf 29fe 48bd e6cc 24bf 07a8 433e
00000120: 09a2 ee3e 500d d7be 4e61 603d 187c d9bd
00000130: 69d6 7fbe cfaf 31bf 8b81 2fbe f0ec d33d
00000140: 0cc5 dbbd 9e8d 13be 3c99 d2bd 8e76 233e
00000150: 3427 f1be ea36 c4be e1bb f1bb 5adb a7be
00000160: 2b0b cabe 35fe 993d 2b35 6b3e 5220 cdbe
00000170: 5c23 503f 9d3f 87bd 1af4 56bf 4f61 0ebe
00000180: 6785 f33e b499 3f3e d829 3f3e bc23 2c3f
00000190: c7b4 66be 35b9 ee3e 368c f33e 4b18 9ebf
000001a0: c8ea 89bd 5f8c 5abf 35a5 be3e 2255 d5be
000001b0: 1ec7 40bf 792b ad3e 5891 8a3d c577 b0bd
000001c0: a6ee fa3e 4be2 8fbe d45f 98be 4841 3d3f
000001d0: 076d 123f a6c7 92bf 282f ba3d 75ea c83b
000001e0: 6259 223f 606a 8b3c dd86 99be 61d1 50bf
000001f0: a116 193f 2d81 793e d36d d53e 1a50 7e3d
00000200: 917a f8be f0fc ed3e c018 ac3e 6c4b f7ba
00000210: cb8b 80be 4913 783f 6dc0 ee3e 7b03 81bf
00000220: c4bd 1cbf 5792 843e 547f 16bf 26f9 8cbd
00000230: b882 053c 5d5c 2cbe 2cda 76bf f266 363e
00000240: c148 b73e 0f60 3f3e 4f72 8ebc f6d2 413e
00000250: a369 293f fcf1 e33e 701b 9bbe 78a4 34bf
00000260: d118 5bbc 5365 e5be 7939 143f 8b31 d6be
00000270: 222d 34bd 9d4e 37bf d68d 55bf 06a7 33bf
00000280: a63b 47be 0092 a5be 1843 81be cf15 15bf
00000290: 6dc2 7a3f 6c95 133f 8179 d53d 3e20 a0be
000002a0: 8b01 ffbc 6217 5cbd 5731 f63e a684 703f
000002b0: 84cb 6e3d fc60 0bbf 7358 ccbd 8f72 10bf
000002c0: ca46 953e 837c 9fbd cabf 6d3d 3c01 2abf
000002d0: 683a c53d 333a f3bd 1774 b4be f261 a7be
000002e0: a0ef 18be b05f 4a3e 3071 033d 9488 50be
000002f0: ba0d 723e ac9e e5bd dfef b9be 9051 a53d
00000300: ba63 a93e 73da 863c 3b89 393e 092e 99be
00000310: a216 50bd b445 c83e d9a0 5dbf d2d5 69bf
00000320: 119f 3bbf 16f2 933e 9de3 253e 4214 c0be
00000330: e867 083f fb17 753e 2c32 2a3e 2b8d c93e
00000340: 0b30 d7bc 1881 83bd 9247 84bd 0c10 8b3d
00000350: 8e18 34be 7c08 853d 1332 8cbe 7487 343e
00000360: 9dd9 0d3f 4f65 d93d ae83 b93d 547f f0bc
00000370: aefd 533e eb07 123e c577 cc3e 1fd2 373d
00000380: e95e 3abf dc33 693e 0bb7 09be 6559 04bc
00000390: e8ad 1d3e b06b 2bbf 9d00 5ebf d67d e93e
000003a0: ef4e ed3e 9b01 7c3e 0a25 8d3d fa18 42bf
000003b0: 1ee6 92be e612 bcbe e56c b3be 0f2b 263f
000003c0: 49bf 933e 7648 e3bd 8c00 1dbe 6b17 8d3e
000003d0: 6ab1 1cbe 40ae 003e 18fd 383d 380c 0abd
000003e0: 121f 06bf a63d b73c 02fe 0b3d 5b3a 45bd
000003f0: 51c9 f6be 9016 543f 3765 99bf 3759 d43e
0.017735604 0.02246276 -1.579336 -0.6020973 0.0653688 0.023927545 -0.29370293 -0.99262697
0.11625046 -0.052036796 0.2240852 -0.20789783 0.11889155 -0.44516873 -0.6669102 -0.5253932
0.37311798 0.2309102 -0.39842376 -0.72856873 0.19449584 -0.06454779 -0.012868539 0.4343997
0.53804404 0.24322534 0.15636195 -0.05730004 -0.13299534 -0.85013956 -0.98764265 0.7206235
0.40751824 0.006311781 -0.06277338 0.17584504 -1.0627369 -0.4919038 -2.0311327 -0.0057835625
0.7913516 0.022274543 -0.21843155 -0.2818724 0.55142576 -0.32198036 0.32362998 -1.0574939
0.29709294 0.30124867 0.34882757 0.026187591 0.3083556 -0.91049206 0.10694515 -0.39653045
-0.31236643 -0.06543896 -0.80366653 0.08132941 0.7354437 -0.9057498 -1.3891978 0.3159451
0.58789665 -0.3713224 0.33194372 -0.4270408 -0.54823613 -0.04907051 -0.6437515 0.19107066
0.46607998 -0.42002344 0.054780297 -0.10619372 -0.24984135 -0.6940889 -0.1713926 0.103479266
-0.10730943 -0.14409491 -0.102831334 0.15963194 -0.47100222 -0.38323146 -0.0073771332 -0.3278454
-0.39461645 0.07519189 0.229695 -0.4006372 0.81303954 -0.0660393 -0.8396622 -0.13904308
0.47562715 0.18710977 0.18668306 0.67242026 -0.22529899 0.46625677 0.4756791 -1.2351164
-0.06734234 -0.8537044 0.37235418 -0.41666514 -0.7530383 0.3382223 0.06766003 -0.08616594
0.490102 -0.28102335 -0.2976061 0.73927736 0.5719761 -1.1467178 0.090910256 0.006131465
0.6341764 0.017018497 -0.29985705 -0.81569487 0.59800154 0.24365683 0.41685352 0.06208811
-0.4853101 0.46482038 0.33612633 -0.0018867082 -0.25106654 0.96904427 0.46631184 -1.0079187
-0.6122706 0.25892898 -0.5878804 -0.06883459 0.008148842 -0.16832109 -0.96426654 0.17812708
0.35797694 0.18688987 -0.017388491 0.18928131 0.66176814 0.44520557 -0.3029437 -0.7056346
-0.013372616 -0.44803867 0.57900196 -0.41834673 -0.043988355 -0.7160433 -0.8341955 -0.7017673
-0.19456348 -0.32337952 -0.252465 -0.582364 0.9795292 0.57649875 0.10423566 -0.312746
-0.031128665 -0.053733237 0.48084518 0.93952405 0.058299556 -0.5444486 -0.09977808 -0.564248
0.2915557 -0.077874206 0.058044232 -0.66408134 0.09630281 -0.11876335 -0.3524482 -0.32691914
-0.1493516 0.19763064 0.032090366 -0.203646 0.23638049 -0.11211905 -0.3631582 0.080721974
0.33083898 0.016461587 0.18118756 -0.29917935 -0.050802834 0.3911568 -0.8657356 -0.9134189
-0.7328959 0.28895634 0.16200109 -0.37515455 0.5328355 0.23934929 0.16620702 0.39365515
-0.026268026 -0.06421107 -0.064589635 0.0679017 -0.17587492 0.06495759 -0.27381954 0.17629796
0.55410177 0.10615026 0.09058319 -0.02935759 0.2070224 0.14260833 0.39935127 0.04487812
-0.7280107 0.22773689 -0.13448732 -0.008077954 0.15398371 -0.66961193 -0.86719686 0.45603818
0.46349284 0.24609987 0.0689183 -0.7581936 -0.2869119 -0.36733168 -0.35044017 0.6490945
0.28856876 -0.11097805 -0.1533224 0.2755693 -0.15302053 0.12566471 0.045163244 -0.03370306
-0.5239116 0.022368263 0.034177788 -0.048151355 -0.48200467 0.8284693 -1.1984013 0.41474316

l1.bias f4 [400]
00000000: ec39 553c ee12 d83e 688f debe cd6a 7dbe
00000010: 8b29 f7be fedc 313d 14af 673e d42f 8bbe
00000020: 998b 5e3e c11f 493e e805 21be a243 903e
00000030: 7c03 cebe 20cb 4cbe c0a0 edbd 0ba4 8cbe
00000040: 7596 2cbf efde 3d3e 0c97 0f3e fc91 18bc
00000050: b895 b6be dc7c 07bf 5bce 453d 51d9 2c3d
00000060: 2081 8e3e e8eb 0839 0f08 063e a71a b73e
00000070: 1bb3 71be 171b 2dbe 97dd b3be 6ae1 c73c
00000080: abbf 5ebe 351e df3d 740f 27bf b3ea 86bf
00000090: 7d28 3d3c 44a9 a6bd e2a1 bcbd 83cf 773e
000000a0: 6c4c e9be 3909 3ebd 57d2 283c 6d38 b03a
000000b0: 89ff f9be 394d 783e 162e 873d 653b a1be
000000c0: e6fc f7be 3f4d 99be 7913 d13b 6712 8b3c
000000d0: 547f ac3c fef4 f7bb aeab ecbe c937 52be
000000e0: 6344 fabe 60ea a5be 4657 b7bc 954d 1dbe
000000f0: ec75 b2be 6cc5 233e a0fd 18bd bb88 a53e
00000100: 3a6f 663c f5d7 72be 4ea6 1abf e1b0 c13e
00000110: 9087 633c 2372 f9be b8f1 69bc d7d2 ddbe
00000120: 6682 99bd 9931 293e 2d7e 6ebe 331b 48be
00000130: 9882 6abe a964 a3bd 418a f5be fdd4 11bf
00000140: ff34 f7be ca5e adbc daec dbbe 3964 463d
00000150: 9529 f23d c261 83be 7d9b 2c3e e8ee a0be
00000160: aa4b 19bf 83c8 87be 2188 23be 5ebc 8a3e
00000170: 8b77 4e3d 1f79 0dbe 7d6c 703e 8342 bdbe
00000180: 6009 46be 0d4a 5f3e 48a0 af3d de10 cfbe
00000190: cd94 113e 3dd4 30bd b1bd 69bd e6a0 0ebf
000001a0: a191 04bf d3b7 efbe 9dbf 8e3e b2aa 4b3e
000001b0: 162c a63e b053 10bf bf8a efbb 9bf3 f33d
000001c0: 1752 913d e4b8 87be 11bf 533e b5d3 2dbf
000001d0: 98a7 c33b 756a 2e3d 3cea 093e 5287 8cbd
000001e0: 5179 623c 08c0 aebc 4cda 193e b08c 173d
000001f0: 3391 553d ce7b c3be 382a 803e 5836 183e
00000200: 6c16 d13d 1aa8 c7bc 83bf 863e c421 903e
00000210: 1fd1 dd3d eb93 84be 249f 00bc 0d4c 10be
00000220: 59f3 123d 06ea eebe b27b 813d cbff 57bf
00000230: 471a 013e 965c 06be a818 18bf 60de 14be
00000240: 7a0f a93e 2146 10bf bf21 7abe 1370 503e
00000250: bec3 9fbe 6705 5ebf c7db 10bf bc17 82be
00000260: f160 88bc 9da6 663e d398 f23e 01b7 02be
00000270: 97db bb3d be30 02bf 3520 943e c973 93bb
00000280: 213f a4be 8168 c33e b0c9 12bc 24c9 ccbe
00000290: ec09 343d 0ab8 e4be ec82 bdbe 9f24 4cbe
000002a0: fbd8 1e3e f7c4 f2be 220d 9b3d 71e5 183d
000002b0: 7d25 dcbe 45c3 f0bd 2bae 10be ff32 c0be
000002c0: ed31 043e a0d5 dfbb cbba 183d a58f c1be
000002d0: b417 71be 2c23 c6be d214 18bf 0727 913e
000002e0: 138c fcbe 83d3 523e f9af a13e 9994 523e
000002f0: 18ea e7be b91b ecbe d84d 6cbd dade bcbe
00000300: 34cd 1d3e d287 813e b784 ebbe ec35 023e
00000310: b37c 1a3e 57f1 6d3e 9994 82be b8d9 7fbe
00000320: 3703 863c e2bc 10bd b92d 823c 43c2 1dbf
00000330: bb1b 853e 3680 ccbd b0f7 b23b a758 ad3d
00000340: 5110 a1bc d7de 8bbe 53c4 b83d 26c8 17bc
00000350: 1891 563e 0b3a 4b3e fa2c a23d 4351 1c3d
00000360: 29e8 fe3b 5a90 aebe 09cb acbd 10b3 29be
00000370: 32d4 a9be 3196 d7be d0d6 d4be 5a15 acbe
00000380: 0ad3 48be 0ce7 e53d 5b63 83bc 44a3 82bd
00000390: b21c b03e 8072 9abe e8d1 c1bd 3bf4 093d
000003a0: 30d6 17be a20f 46bf 8b00 273e a443 9d3b
000003b0: 214a ed3e ef51 57be 87d0 8a3c 2bad 103f
000003c0: 30cb 7fbe d501 06be 0523 9f3d 817f 073f
000003d0: be63 17bf b796 a2bb 1dbf a73d 53fe d43e
000003e0: 14f8 fabe d51e d5bc e4db 913e 80a0 0d3c
000003f0: 24f9 21bf ad81 adbe ed73 733e 2c1e 01be
0.013014298 0.42201942 -0.43468785 -0.24747773 -0.48273882 0.043423645 0.22625381 -0.27184927
0.2173294 0.1964102 -0.1572491 0.281766 -0.40237033 -0.19999361 -0.11602926 -0.27468905
-0.6741708 0.18542074 0.14022464 -0.009312149 -0.356611 -0.52924895 0.0482925 0.042199437
0.2783289 0.00013057853 0.13089012 0.35762522 -0.2360348 -0.16904865 -0.35129997 0.024399478
-0.21752803 0.108944334 -0.65257955 -1.0540375 0.011545298 -0.081377536 -0.09210564 0.24200253
-0.45566118 -0.046395514 0.010304055 0.001344455 -0.4882777 0.24248208 0.06600587 -0.31490627
-0.48435134 -0.29941747 0.006380495 0.016976548 0.021056809 -0.007567047 -0.4622473 -0.20529093
-0.488803 -0.32405376 -0.022380482 -0.15361626 -0.34855592 0.15993279 -0.03735125 0.3233088
0.014064604 -0.23715194 -0.6041001 0.3783026 0.013887301 -0.48719892 -0.014278822 -0.4332492
-0.07495575 0.16522826 -0.2329032 -0.19541626 -0.2290138 -0.07978184 -0.47957042 -0.5696562
-0.4828262 -0.021163363 -0.4295414 0.048435424 0.118243374 -0.2566052 0.16856189 -0.3143227
-0.5988108 -0.26520166 -0.15969898 0.27096838 0.050406974 -0.13815735 0.23478885 -0.36964807
-0.19339514 0.21805592 0.08575493 -0.40442556 0.14216919 -0.043171156 -0.05706567 -0.5571426
-0.5178471 -0.46819934 0.27880564 0.19889334 0.3245551 -0.56377697 -0.007310241 0.119116984
0.070957355 -0.26508248 0.20678355 -0.67901164 0.0059709065 0.042581994 0.1346826 -0.06861748
0.013822869 -0.021331802 0.1502468 0.036999404 0.052140426 -0.38180393 0.2503221 0.1486448
0.10209355 -0.02437215 0.26317987 0.2815076 0.10830902 -0.25894102 -0.007850442 -0.14091511
0.035876606 -0.4666292 0.06322421 -0.84374684 0.1260768 -0.13121256 -0.5941262 -0.14537954
0.3301962 -0.5635701 -0.24426936 0.20355253 -0.31204027 -0.86726993 -0.56585354 -0.25408733
-0.016647788 0.22524495 0.4738222 -0.12765123 0.09172743 -0.50855625 0.28930822 -0.0044998867
-0.32079414 0.38165668 -0.008959219 -0.39997208 0.043954775 -0.4467166 -0.37013948 -0.19935845
0.15512459 -0.47415897 0.07570864 0.037328187 -0.4299735 -0.11755995 -0.1412894 -0.37538907
0.1290967 -0.006830886 0.037287515 -0.37804905 -0.23544198 -0.3869871 -0.5940677 0.28350088
-0.49325618 0.20588498 0.3157957 0.20564498 -0.45295787 -0.461149 -0.057691425 -0.36888772
0.1541031 0.25298935 -0.4599969 0.12715882 0.15086631 0.23236595 -0.25503996 -0.24985397
0.016358955 -0.035336383 0.015890943 -0.61624545 0.2599772 -0.09985392 0.0054616556 0.08464175
-0.0196611 -0.2731845 0.09021821 -0.009264028 0.20953786 0.1984636 0.07918735 0.038163435
0.0077791405 -0.34094507 -0.084371634 -0.16572213 -0.33169705 -0.42106774 -0.4157014 -0.3361004
-0.19611755 0.11225709 -0.016038587 -0.06378797 0.34396893 -0.30165482 -0.094638646 0.033680182
-0.148278 -0.77367604 0.16308801 0.004799323 0.46345618 -0.21027349 0.016945137 0.56514233
-0.24979854 -0.13086636 0.07770351 0.5292893 -0.5913657 -0.0049618143 0.08190749 0.41600284
-0.49017394 -0.026015678 0.28488076 0.008644223 -0.63270783 -0.33887997 0.23774691 -0.12609166

l2.weight f4 [200, 400]
00000000: 24f9 c0bd 87b7 cb3d abd2 2f3f 9f20 8c3e
00000010: 5b04 6fbd 6b00 21bf 5f5b 923d 4afd b43c
00000020: 7fc7 d63e ad39 9f3d a874 a8be 262b 8b3d
00000030: 21c6 903d 1693 053e ec69 c73d ee1c 143f
00000040: a96b 8f3e 2960 233d 3f10 7ebe c89e df3e
00000050: 9b4c 533e d629 a33d 5848 f43e 90e1 863e
00000060: 8d3b 563d 5281 42bc dc1f 933d 00e4 96be
00000070: bfac 3abe a9ae 783e 712a 103d ee29 9fbe
00000080: 132d 55bf 001b 523e b1c4 8e3d d03e 07bf
00000090: 8583 693e b367 ee3d f4b2 43be f242 26bd
000000a0: df68 64be c2c6 1abd d8f8 a8bd ebd1 bb3e
000000b0: 422a 053e 19fb 703e ea6e 653c 7462 53bd
000000c0: 9a62 c43e 56e0 b13e 8fd7 fc3d d2a6 95bd
000000d0: b8c8 8c3d 7a30 8e3d 2609 863e 4361 3f3e
000000e0: 6442 0fbf 599c 31bd 580c ccbe dba9 91bd
000000f0: dff7 643e 7186 0ebe 9cb2 b4bd b33e 62be
00000100: 0107 423e bc12 0abe 724c a7bc eed1 3e3d
00000110: beb3 5e3d 9a8a 473d 3a06 05be ca39 07bf
00000120: d0e4 00bd af54 423e 8f50 1ebd 7c14 cdbd
00000130: cb69 6cbd 1662 a83d 8019 533e 8352 a43e
00000140: f439 c33e 2390 68be 1af1 a03e ae68 31be
00000150: 27e1 dd3c 1cfe b43d 7ce1 dd3d d940 153d
00000160: 2c1e 363e f663 3dbe ca0d 873e 9f37 e8bc
00000170: 9d85 1a3d b7d7 d53c d720 cc3d ea1e 3ebd
00000180: cbba 54be 11a8 f1bd b2d0 6dbe 8777 7e3e
00000190: a494 f83d 67b9 9cbe da71 393e 0fa6 603e
000001a0: a0be be3d 5e7e 173e 37aa bb3c 8b6e 75bd
000001b0: 37de 96bc c3d3 a73d df88 01bf e6a8 943d
000001c0: a6dd 80bc 0525 78bf b6a7 a83d df47 bb3e
000001d0: 4e4c 99be dc95 1f3e d24e c73d 03a7 9ebe
000001e0: b1e5 a6bd 25cd cc3c 7798 713d 4478 acbe
000001f0: 94a0 efbe 6143 273f b58f cb3d 47b5 673d
00000200: 5cd2 bc3d 2fea 803e 1f4e 0abd e9c2 78bf
00000210: d02c c3bd e846 20bf 7ae1 00be e490 6f3c
00000220: 60d8 37be fb9c 303d 582e 083e 45cb f73d
00000230: 4ccf bbbe ee60 91bd 3d8a a23e a227 e93d
00000240: 7e6f 19be d038 fbbd ba2f b93e a8d9 c9be
00000250: c025 763b f91f 5c3e d43d db3e 143b 0c3f
00000260: 387e 163e 3426 893e 3be0 9d3d ecd8 533e
00000270: f83e a33e 16e5 293e 9010 8ebd 663b f23e
00000280: 2914 513e 4531 afb9 5089 f33d 0989 16be
00000290: fed1 00bf a2cb d33e fa32 513e 67f7 533f
000002a0: 11ab a83e 3264 be3c 3a19 b5ba 30e8 70bb
000002b0: 073c 2ebf b82e f23c 250d 87bd 31da 813d
000002c0: 98aa 0f3e e06c 223e a2f2 9f3d a79c a6be
000002d0: eb18 853e 3fae 66bd 06b3 d53e 35b8 9ebe
000002e0: 8aef a1be f9c1 9a3d 172c 46be 0700 dbbc
000002f0: ba10 883e cc07 803e c728 4a3e 0c15 98ba
00000300: 9342 05bd 7498 5dbd 8864 9abd 2436 95be
00000310: 7a0a 493e 04c0 c4bd b9e1 e0be c1d2 1bbc
00000320: fd77 acbe b718 0e3e 9d7c 3dbe ccfe 1cbf
00000330: 1649 bb3d 2a36 e43c a203 debd ae65 803d
00000340: 6111 efbd f412 433e 4ab1 5a3d d133 53be
00000350: 0e97 9fbd 95cc 8bbe 8da8 1c3d e784 cf3d
00000360: 0655 bbbe 82e4 e23e afd3 04bf 3197 06bf
00000370: da6f c13e cdfe a33e 9877 3e3d f773 35be
00000380: 4b95 93be 2207 4e3e 5f6c 70be da80 86bd
00000390: 0c05 f5bc fed4 9e3e c0a1 8e3d f85f 61bd
000003a0: 5f00 febe 66ce c4be 7bc0 673c b188 cd3c
000003b0: 02df 2fbd b752 6f3e 43f6 bd3d b12e 223e
000003c0: 0eb2 8d3e b8de a8bd 9553 7a3d b4dc 133e
000003d0: 78a3 7abe 2903 32be 2c28 233e 8038 a4bd
000003e0: 4b81 b2be d5c4 a73d 5442 68be e397 b43d
000003f0: d94b 993e c0c7 07bd b75f 68bf b4e4 a13e
-0.0942252 0.099471144 0.6868083 0.27368638 -0.058353763 -0.6289126 0.07146334 0.022093434
0.41949078 0.07774673 -0.32901502 0.06795339 0.0706904 0.1304439 0.09737 0.57856643
0.28011826 0.039886627 -0.24810885 0.43675828 0.20634691 0.07966964 0.47711444 0.26343966
0.052302886 -0.011871653 0.07183811 -0.29470825 -0.1822996 0.24285378 0.035196725 -0.31086677
-0.832719 0.20518112 0.0697111 -0.5283022 0.22804077 0.11640873 -0.19111234 -0.040591188
-0.2230563 -0.037787206 -0.08250588 0.36683592 0.13004401 0.23533286 0.014003495 -0.051607564
0.38356477 0.34741467 0.12345802 -0.07307209 0.068742216 0.0694284 0.26178855 0.18689446
-0.5596068 -0.043361995 -0.39853168 -0.071124755 0.2236018 -0.13918473 -0.088231295 -0.2209423
0.18947984 -0.13483709 -0.020422194 0.046586923 0.054370634 0.048716165 -0.12990656 -0.52822554
-0.031468213 0.18977617 -0.038651045 -0.10013673 -0.05771808 0.082218334 0.20615196 0.320942
0.38130152 -0.22711234 0.31433946 -0.17325088 0.0270849 0.0883753 0.10834023 0.036438797
0.17784947 -0.18495163 0.26377708 -0.028346835 0.03772508 0.026103837 0.09967201 -0.0464162
-0.20774381 -0.11799634 -0.23224142 0.24850284 0.12137726 -0.306102 0.18109837 0.21938346
0.093137026 0.14794299 0.022908313 -0.059919875 -0.018416507 0.08194687 -0.50599474 0.07258777
-0.01573069 -0.9693149 0.08235113 0.3657827 -0.29941028 0.1558451 0.09731831 -0.30986795
-0.08149279 0.025000164 0.058983292 -0.33685505 -0.468022 0.6533719 0.09939519 0.056569364
0.0921981 0.25178668 -0.03376591 -0.9717241 -0.09530032 -0.62608194 -0.12586012 0.014621947
-0.17953634 0.04311846 0.13298929 0.120993175 -0.36681592 -0.07098566 0.31746092 0.113845125
-0.14983937 -0.122666955 0.36169225 -0.3942387 0.0037559122 0.21496572 0.4282061 0.54777646
0.14696586 0.2678696 0.07708784 0.20688218 0.3188398 0.16591296 -0.06936753 0.47310942
0.20417847 -0.0003341531 0.11891425 -0.14700712 -0.5032042 0.41366297 0.20429602 0.8279938
0.32943013 0.023241136 -0.0013816722 -0.0036759488 -0.68060344 0.029563293 -0.06594304 0.06340445
0.1402992 0.15861845 0.078099504 -0.3254139 0.25995573 -0.056318518 0.41738147 -0.30999914
-0.31628066 0.075565286 -0.19352756 -0.026733411 0.2657526 0.2500595 0.19742118 -0.0011602952
-0.032534193 -0.05410047 -0.07538706 -0.2914287 0.19632903 -0.096069366 -0.43922213 -0.009510697
-0.33685294 0.13876615 -0.18504567 -0.6132629 0.091447994 0.027857859 -0.10840537 0.06269394
-0.11673237 0.19050199 0.053391732 -0.20625235 -0.07792483 -0.2730452 0.03824668 0.10132771
-0.36588305 0.44314963 -0.51885504 -0.5257445 0.37780648 0.32030335 0.046500772 -0.17720018
-0.2882484 0.20119908 -0.2347884 -0.06567545 -0.029909633 0.31021875 0.06964445 -0.055023164
-0.49609658 -0.3843872 0.014145012 0.025089594 -0.042937286 0.23371397 0.09275486 0.15838124
0.27674907 -0.08245605 0.061114866 0.1443966 -0.24476421 -0.17384018 0.15933293 -0.08018589
-0.34864268 0.081918396 -0.22681552 0.088180326 0.2994068 -0.03314948 -0.9077105 0.316198

l2.bias f4 [200]
00000000: b515 393c 848f 6c3b 4edc bdbe b54f 9ebd
00000010: f30e 683e acbf c63b 1a59 69bd d862 1bbf
00000020: 7dc7 e9bc e25a 04bd 5c81 ac3d 16c0 b2bd
00000030: bbe7 203e 30d6 543e b3cd 57bd 1e24 7a3e
00000040: 1d31 97bc f08d 653b 3df4 5ebd ec0a a5bd
00000050: 364a c53b 7803 723e 910f 1bbd 696c 33be
00000060: 3fdf c8bd 76df bd3b 1953 13bf 4fb7 043d
00000070: 258b 4dbd c7cc 693d c055 6dbd a34f b5bd
00000080: 9254 74bd 5e95 4d3e 3ece 12bb b7f4 a7be
00000090: b4c5 f3be 2ba5 54bd 63c9 bebd b77e f93d
000000a0: 7482 603d d3f3 9cbd c1c9 e63d dd20 3cbd
000000b0: 0ed6 c4be 9591 d53d 6992 dabd 3108 063e
000000c0: fd0e 233d b397 48be d25b 623e 0fdb 973a
000000d0: b434 073b 9074 95bd b7cb b0bd f8c5 4e3d
000000e0: 42e2 6dbc 5931 07bd 4464 a3bd eff0 4fbd
000000f0: dafd 51bd c236 5f3c 826c 2e3e 24c7 0d3d
00000100: db09 8cbe 5427 28be 04ba 80bb a34f 64be
00000110: 5949 c23d 5a28 d8bd 2508 b9bd 6667 1ebe
00000120: 89f2 12bd 22d4 97bd bb6d 473e d402 883c
00000130: 7cad cfba e28c 5f3d 1c76 813c dac0 803c
00000140: 150f 2b3d 7655 00be d472 5bbd 33bb 5f3e
00000150: 77b6 86bd 6f8a 013e 30d0 32be bf71 aabe
00000160: bcd6 dbbd 4b44 853d 3ce1 3e3c 3e0d a0bd
00000170: c48c 2d3e 27bf 9e3c 724d eebb 1183 25bd
00000180: 43cf 85bc e2b5 4cbd 6d24 bcbb 2745 4abe
00000190: 13aa d9bd d3cb 9cbd 10a7 66bd f6fe 2dbd
000001a0: ad3b c3bd 9fc6 acbd 7c96 f5bd 9493 d0bc
000001b0: ac15 853e 091a 5bbd 0603 3cbd 7c9a 453d
000001c0: 684a cbbc ce00 13be d2c9 babd 5318 b5bd
000001d0: 6e6f 913c e08d 8d3e 2d94 04bc 9001 8fbe
000001e0: fc6b 00be 307c 513e 6e29 4bbe 8433 3f3d
000001f0: 8b08 1cbf 01cb a23d a5f4 633d 5115 f7bd
00000200: 4890 1abd 7f6e 2abd f32b 4c3e 2d57 9f3d
00000210: 213b d7bd 1986 093e 0b04 563e f71a d5bc
00000220: 0dda a8bd c470 f0bd 7f7a a3be aead 303e
00000230: 5e3e edbc 7d1b 83ba 4f22 24be d96d 34be
00000240: 853c b63a f1e8 073e 7cb9 9cbe a0df 3bbf
00000250: 07a6 44be f0fe 593e ddc8 b4bd 4a52 6dbe
00000260: 4b71 3e3d 540c 6c3b 73c9 2c3e 83dd 0abe
00000270: 70b3 f5bc c388 4b3e 14c9 d1bd b20e e7bb
00000280: 0334 51bd 50e3 473e 038f 753d 0c55 6bbc
00000290: 35ff 6bbc 501e 9ebd c362 3fbe 23e4 d93c
000002a0: 9651 2fbc c691 3dbc dabd e6bc c31f 5ebe
000002b0: 02c4 50bd 18d4 9a3d 7e27 fbbd 1d33 e5bd
000002c0: 60fa 5fbd 8e5b 1f3d 26d0 0cbd a36d 87be
000002d0: 731f 2fbd c0c9 353e 5be2 713d 88b1 573e
000002e0: a5ce c6bd 2250 86be fe7b 5e3e 5933 803e
000002f0: 964a 613c 6c3d 3c3e 4b41 a1bd 5df0 c73c
00000300: 0c1a 85bc c4a7 5d3d 78f4 74be 2794 863d
00000310: a068 01be 6eeb 4e3e 84b2 40bd 0a58 88bd
0.011296679 0.0036096284 -0.37082142 -0.07730047 0.22661953 0.0060653295 -0.05696974 -0.606977
-0.028537506 -0.032313235 0.08423111 -0.08728044 0.15713398 0.20784831 -0.052686404 0.2442784
-0.018456036 0.0035027228 -0.054432143 -0.08058724 0.0060208095 0.23634136 -0.037856642 -0.17521824
-0.09808206 0.005794461 -0.5754867 0.03240138 -0.050181527 0.057080057 -0.057943106 -0.0885308
-0.059650965 0.2007651 -0.0022400762 -0.3280389 -0.47611773 -0.05191533 -0.09315755 0.12182372
0.05481191 -0.07663693 0.1126895 -0.04592978 -0.3844456 0.10428158 -0.10672457 0.13089062
0.039809216 -0.19589119 0.22105339 0.001158567 0.0020630779 -0.07297623 -0.086326055 0.050481766
-0.014519276 -0.033006046 -0.079781085 -0.05076688 -0.051267482 0.013623895 0.1703358 0.034613743
-0.2735127 -0.16421252 -0.003928425 -0.22296004 0.09486646 -0.105545714 -0.090347566 -0.15469131
-0.03587583 -0.07413508 0.19475453 0.016602911 -0.0015844549 0.054577716 0.01580339 0.015716959
0.04176243 -0.12532601 -0.053576306 0.21848755 -0.06577771 0.12650464 -0.1746223 -0.33289906
-0.10734317 0.065071665 0.01165038 -0.07815026 0.16948229 0.019378258 -0.007272416 -0.040408198
-0.016334182 -0.049978144 -0.005741647 -0.19752942 -0.10628142 -0.07656064 -0.056311667 -0.042479478
-0.095328666 -0.084363215 -0.11991593 -0.025460996 0.25993097 -0.053491626 -0.04590132 0.04824303
-0.024815753 -0.14355776 -0.091205254 -0.0884253 0.01775333 0.27647305 -0.0080919685 -0.2793088
-0.12541193 0.2045753 -0.19840023 0.04667999 -0.60950536 0.07948876 0.055653233 -0.12064613
-0.037735254 -0.041609284 0.1993864 0.07780299 -0.10509325 0.1343006 0.2089998 -0.026013834
-0.08244715 -0.11740258 -0.31929395 0.17253754 -0.028960403 -0.0010002699 -0.16028713 -0.17620029
0.0013903534 0.13272454 -0.30610263 -0.733881 -0.1920396 0.21288657 -0.08827374 -0.23175922
0.046494763 0.003601809 0.16873722 -0.13561063 -0.029992789 0.19876389 -0.10243431 -0.0070513124
-0.051074993 0.19520307 0.05995084 -0.0143635385 -0.014404108 -0.077206254 -0.18690018 0.026598042
-0.010700604 -0.0115704 -0.0281667 -0.21691804 -0.050968178 0.07559985 -0.12263392 -0.1119139
-0.054682136 0.038905673 -0.034378193 -0.26450834 -0.0427546 0.17752743 0.05905376 0.21063817
-0.09707383 -0.2623301 0.21726987 0.25039175 0.013750693 0.18382806 -0.07873782 0.024406606
-0.016247772 0.054115072 -0.23921382 0.065712266 -0.12637568 0.20206997 -0.047045246 -0.06657417

l3.weight f4 [4, 200]
00000000: aa23 f8be 782a 9ebc 6586 2dbf ad28 8bbe
00000010: a719 b13e 8db6 73be e920 943d b526 32bf
00000020: 5561 ec3b b3e6 d73e 2046 ba3e 70a2 663f
00000030: 542b 6c3e 54cd c93e e80e ab3c 500c d03e
00000040: 15e6 3c3d 0a64 613d 9d37 adbe be9e 9bbe
00000050: 04b6 173d c9fe b33e 20c4 96bd 3601 97be
00000060: de02 5dbe 801a d13d c1b2 43bf 97ca 98be
00000070: 3447 313d dae3 44be 8690 703c 18bc 283f
00000080: 6bc6 0a3d d1aa 383f 879e 0abf 992b 163f
00000090: 3444 11bf 4958 bcbe c3ca e5be c91d 013f
000000a0: 16ec e7be cb2e 1bbe c418 923e a4aa 08bc
000000b0: 8d32 24bf 2046 a7be 697d dcbe def2 5dbf
000000c0: ece0 b4be 2403 c2be 07ca b73e 4fb1 4a3c
000000d0: 4d74 013c 8d78 733d 7e78 5f3f 338a a3be
000000e0: 003e c1be 6921 793c 550d a03a 6d60 2c3f
000000f0: edc4 f03c 3ed4 9f3d db5b b23e 0910 953e
00000100: f1a8 3a3f f73a 803f 075e 4e3d db07 bfbe
00000110: 8d62 e4be 0848 f6be b6d9 273f 6ef8 b7be
00000120: 6f7b 92be 65b5 673d 3b3f ac3e f84a b6be
00000130: a985 5abc 1101 d6be a605 4d3d 6297 b43e
00000140: dda1 f0be e757 07bf ee07 de3c dce5 aa3e
00000150: 51bc f53d cabc 303e 4705 47bf 9f48 1fbf
00000160: c357 2bbe 10a8 9abe 1bcb 403d 0cca b83b
00000170: 12a2 1b3f 8510 6b3d 0091 f339 c92b 3fbd
00000180: 8a7d 793d 55bf 083d 2baf 2d3d 6117 64bf
00000190: 5c6c 333f 2b7a 993d cd6e de3e dc1f 3fbd
000001a0: 9815 313e 6220 023e 057d 7cbf 4941 6bbd
000001b0: 0332 d33e 76e0 5abf d053 483d 6e78 e0be
000001c0: 9de7 3d3d d8fa 123f 1db6 b0be a271 4fbe
000001d0: 06b6 35be 3f2f b53e e809 48bf 9dd6 07bf
000001e0: cc82 853e 0c7a a33e c953 6fbf ac81 a3be
000001f0: 1cfa 1fbf ec27 193e b5dd 053f 0b0c a8be
00000200: c4c6 15bf 2047 893d f5b3 0c3f f0c2 dbbd
00000210: e4c9 07bf 6584 5cbf 502b b53e b94a cbbe
00000220: de5a b5be 7e6e 723f d11b 2ebf 40a9 bc3e
00000230: 9c19 d9bc 6b7f 90bc f65d 923f 7bfd 28bf
00000240: 8c8f e2be f2f5 a13e aea2 9d3f cab8 13bf
00000250: 3509 ecbe 87cb c73e f7bc b3bd 61c0 72bf
00000260: cde9 d9be c7e7 79bd 9e5d 8f3e 936f 083e
00000270: 7bd9 3c3d 9890 a23e 42c7 fd3d 5abf 0abf
00000280: c5dd 00bd 1718 a13e f5fa f1be 96f0 ccbd
00000290: 6970 093d 61bb c6bc e70d 2f3e 1b17 603d
000002a0: cbbc 963d b150 b03c 31ad b3be 6cca 76bf
000002b0: 27cb 8a3d 4992 f43e 3908 413f 1f3a 5e3f
000002c0: f7d5 ab3c 854e 4bbe 8990 f1be c49e 313f
000002d0: 6901 b4be 55e4 ad3e 84c8 0ebe b86c a03e
000002e0: 417e 183f 6121 7fbf 5dcf a03e 3a68 c53e
000002f0: 13ab 683d bab6 a63e 120d 2abe 440c 6cbf
00000300: 3892 203f 9f8e 2fbe 74f7 dbbe 33ab 3abe
00000310: 62e5 79bd fe3a a03e 56d0 a2be e4a7 813d
00000320: 5cc8 e2be c8d4 63bd d62a efbe 5f68 fdbe
00000330: 298e a43e 0d4c 45be 26dd 4cbd 2504 42bf
00000340: 138a 023d 2ca7 023f ce8e 6c3e 19d7 603f
00000350: 6a78 7c3e fa51 d73e bfb8 debc 2fbd a73e
00000360: 19be a83a 37eb 113a c798 9fbe f922 b4be
00000370: f91e 483d 4171 ed3e 7c2c 0cbd e778 b9be
00000380: 80fb 88be 19b4 3f3e efd6 40bf 20ef 9cbe
00000390: 07c9 ccb8 1053 9abe 5d9e 203d 1347 0d3f
000003a0: 2b1e 7c3d b29f 3e3f e6ba 0ebf 4ecc 023f
000003b0: 9c32 bbbe af6b 453f 5498 debe 9123 df3e
000003c0: 7717 dbbe 2e43 56be f36b 643e 5cef 0bbc
000003d0: 5e9f 3cbf b0eb 7ebe 1059 08bf 999f 57bf
000003e0: 09a0 b0be 56a0 abbe c472 c13e bef7 e53c
000003f0: 3d84 ab3a c053 943e e6bf 483f 82bf 9fbe
-0.4846471 -0.01930736 -0.67783195 -0.2717947 0.34589884 -0.23800106 0.072328396 -0.6959031
0.0072137513 0.42168197 0.36381626 0.9009161 0.23063403 0.39414465 0.020881131 0.40634394
0.04611786 0.055027045 -0.33831492 -0.30394548 0.037038818 0.35155323 -0.073616266 -0.2949311
-0.21583125 0.102101326 -0.7644463 -0.29842064 0.043280795 -0.19227543 0.014682895 0.6591201
0.033880632 0.72135645 -0.54148144 0.58660275 -0.56744695 -0.36786106 -0.44881257 0.50436074
-0.45297307 -0.15154569 0.2853452 -0.008341465 -0.64139634 -0.3267069 -0.4306443 -0.8669871
-0.35327852 -0.3789302 0.35896322 0.012371375 0.007901263 0.059441138 0.8729323 -0.31941375
-0.37742615 0.0152057195 0.0012211005 0.67334634 0.029390777 0.07804154 0.34835705 0.29113796
0.72914034 1.0017995 0.05038264 -0.3731068 -0.44606438 -0.4810183 0.65566576 -0.35931724
-0.28609797 0.056569476 0.3364199 -0.35604072 -0.013337531 -0.4179769 0.050054215 0.35271746
-0.46998492 -0.52868503 0.02710339 0.33378494 0.11998809 0.17259517 -0.7774243 -0.62220186
-0.16732697 -0.30206347 0.047068696 0.0056393202 0.60794175 0.0573888 0.00046456605 -0.046672616
0.06091074 0.033385593 0.04240338 -0.89098173 0.7008722 0.07494005 0.4344391 -0.046661243
0.17293394 0.12707666 -0.98628265 -0.057435308 0.41249093 -0.8549875 0.048908055 -0.4384188
0.04636346 0.5741401 -0.3451394 -0.20258191 -0.17745218 0.35387608 -0.78140116 -0.5306185
0.26076353 0.31929052 -0.9348722 -0.3193487 -0.6249101 0.14956635 0.52291423 -0.32821688
-0.5850642 0.06703019 0.5496209 -0.10730541 -0.53042436 -0.8613952 0.35384607 -0.39705446
-0.3542089 0.9469985 -0.68011194 0.36847878 -0.02650147 -0.017638883 1.1434925 -0.6601178
-0.44250143 0.31632954 1.2315271 -0.5770384 -0.46100774 0.39022467 -0.087762766 -0.94824797
-0.42561188 -0.061012056 0.28001112 0.13323812 0.046105843 0.3175094 0.12391521 -0.5419823
-0.031461496 0.31463692 -0.47261778 -0.100068256 0.03355447 -0.024259271 0.17095147 0.054709535
0.07360228 0.021522852 -0.35093072 -0.9640262 0.067770295 0.47767857 0.7540317 0.86807436
0.02097605 -0.19854172 -0.47180584 0.6938288 -0.35157326 0.33963266 -0.13943678 0.31332946
0.5956765 -0.9966031 0.31408206 0.3855608 0.056803774 0.32561284 -0.16606548 -0.92206216
0.6272311 -0.1714425 -0.4296223 -0.1822937 -0.061009772 0.31295007 -0.31799573 0.06330851
-0.44293487 -0.055622846 -0.4671237 -0.4949369 0.3213971 -0.19267292 -0.05001559 -0.75787574
0.03186996 0.51036334 0.2310135 0.8782821 0.2465531 0.4205473 -0.027187703 0.32761523
0.0012874036 0.0005566361 -0.31171247 -0.35182932 0.048857663 0.46375468 -0.03422211 -0.36225054
-0.2675438 0.18721046 -0.7532796 -0.30651188 -9.764922e-05 -0.30141497 0.039213527 0.55186576
0.061552208 0.74462426 -0.55753934 0.51092994 -0.3656205 0.7711744 -0.43475592 0.43581823
-0.4279134 -0.20924065 0.22306804 -0.008540954 -0.73680675 -0.24894595 -0.532609 -0.842279
-0.34497097 -0.33520764 0.37782872 0.028072234 0.0013085675 0.28970146 0.78417814 -0.31200796

l3.bias f4 [4]
00000000: 1e53 b73e b974 003e e4e9 8a3e f57d e83d
0.358056 0.12544526 0.2713157 0.113521494
