fin/DQN/agent-300-10-373/model.pt (torch, 340231 bytes, 6 tensors)

l1.weight f4 [400, 8]
0.9237518 -0.10838194 0.7816713 0.21242249 -0.40395147 0.2222438 -0.6574777 0.28661102
-0.18974634 0.36225587 -0.21456 1.7620049 -0.009870592 0.19125879 0.043637823 0.14585875
-0.0017904291 0.009268009 1.4391116 1.7610191 0.00876935 0.06814942 0.0051451363 -0.0013099433
0.5363329 -0.0016196952 0.070986554 -0.42101577 1.0033323 -0.06849306 -0.21821423 0.42211905
0.7239549 -0.25311494 0.18521631 0.80402166 0.30027586 0.27854672 -0.46595612 -0.10909512
-0.22121051 -0.2502925 -0.5588524 0.41482523 0.2621596 -0.42852256 -0.05739591 0.32305178
0.29778945 0.061199985 0.63151664 0.34502068 -0.38544348 0.62173 0.4480343 -0.5785717
0.5960529 0.113481626 -0.44267955 0.00021303302 0.054629423 -0.10045445 -0.2671631 0.03280396
0.2785152 0.19992046 -0.004352438 0.017118365 -0.14984713 -0.8275074 -1.3087621 0.77876437
-0.2679944 -0.058803782 -0.45326942 -0.6243786 -0.37788397 0.62172455 0.7005288 -0.9309488
-0.00944032 -0.00080586364 -0.045731403 -0.026220927 2.7271712 -0.04528722 0.7769727 -0.7715587
0.2494907 0.1322899 -0.70523614 -0.62448436 -0.023379637 -0.07037023 -0.09086299 0.25802836
-0.10850476 -0.33326966 0.09658429 0.689328 0.37453428 -0.69927865 -0.90661657 0.15937462
-0.35957444 -0.06842207 -0.3971592 -0.51422447 -0.10902516 -0.55858886 -0.49429482 0.14055899
-0.27740756 0.46645468 0.24234651 -0.17795976 -0.039480343 0.1184463 0.10081718 -0.22363456
-1.1002293 0.058968753 -0.026218988 -0.62780017 -0.6130198 -0.020908011 0.15911499 -0.96144843
-0.13803841 -0.28800496 0.17104644 -0.36730346 -0.14874373 0.7242783 0.47128052 -0.3125637
0.6594389 -0.24565753 0.48665246 1.0889604 0.9238361 -0.2305074 -0.17317644 -0.5808743
0.11175076 -0.18735921 -0.4530141 0.36235204 0.7564872 0.27133912 -0.31403095 -0.1076962
-0.19410707 -0.27524552 -0.1468938 0.15109013 0.84439695 -0.14037399 0.35783225 -0.31340328
0.047348503 -0.71684235 -0.4482522 0.9494717 -0.13856585 0.21554966 0.5010754 0.11185115
-0.08652626 -0.053828366 1.3407953 -0.14997184 -0.013952946 -0.06482322 -0.40281427 0.3781268
-0.82576513 0.014258771 0.11899991 0.16922598 0.51078916 0.86298 0.12688078 0.2504294
-0.30166927 0.15392369 0.41548988 -0.3536997 -0.2857818 0.51951426 -0.9030631 -0.14635935
0.03450222 -0.055740006 -0.28557533 0.43863702 0.27198586 -0.13208354 -0.6000843 -0.5678034
0.54862005 -0.36735463 -0.46551704 0.8121049 -0.08862889 -0.037142914 -0.11292035 0.44735506
-0.20916644 -0.23385713 1.3041227 -0.29382327 0.06311334 -0.14192314 -0.56429154 0.6191501
0.2026518 -0.10489254 -0.12601069 1.7615322 0.24999537 -0.6973701 0.19914427 -0.09434077
0.8453398 -0.071057536 0.10496582 0.12721606 -0.41991287 -0.7923888 -0.2749073 0.7074733
0.67668015 0.14055207 0.52016884 -0.05977461 -0.62288135 -0.19828264 -0.24151029 0.17637278
1.2878021 -0.2056447 0.9048918 -0.13808839 -0.4233671 0.2783643 -0.047669373 0.21975483
0.38961232 -0.31372336 0.00094943756 0.23979884 -0.1126802 0.6617487 -0.38173386 -0.45903894
00000000: ff7a 6c3f 5af7 ddbd 9c1b 483f 4885 593e
00000010: bad2 cebe e193 633e 7550 28bf aebe 923e
00000020: dd4c 42be 9a79 b93e 9eb5 5bbe 6089 e13f
00000030: 43b8 21bc 58d9 433e 93bd 323d ff5b 153e
00000040: d5ac eaba d9d8 173c cf34 b83f 1369 e13f
00000050: 52ad 0f3c ec91 8b3d 8898 a83b 67b2 abba
00000060: 1d4d 093f f44b d4ba 6661 913d 618f d7be
00000070: 316d 803f 1746 8cbd 8d73 5fbe fd1f d83e
00000080: 1c55 393f 4898 81be 58a9 3d3e 5dd4 4d3f
00000090: c2bd 993e ad9d 8e3e cd91 eebe 436d dfbd
000000a0: 0285 62be 5726 80be f310 0fbf f963 d43e
000000b0: c839 863e 4f67 dbbe f917 6bbd 0b67 a53e
000000c0: dc77 983e d6ac 7a3d 13ab 213f 8da6 b03e
000000d0: d958 c5be b329 1f3f c064 e53e 461d 14bf
000000e0: ec96 183f 0e69 e83d e5a6 e2be 9e61 5f39
000000f0: 1ac3 5f3d 10bb cdbd 9ac9 88be 725d 063d
00000100: 8b99 8e3e f3b7 4c3e e59e 8ebb d03b 8c3c
00000110: 8771 19be 86d7 53bf 8485 a7bf 1a5d 473f
00000120: 9036 89be 3cdc 70bd ee12 e8be 47d7 1fbf
00000130: 027a c1be 5729 1f3f db55 333f a952 6ebf
00000140: 92ab 1abc 9840 53ba da50 3bbd 45cd d6bc
00000150: f989 2e40 187f 39bd afe7 463f df84 45bf
00000160: 7d7a 7f3e 0177 073e 5b8a 34bf 35de 1fbf
00000170: a786 bfbc 441e 90bd 6016 babd 4b1c 843e
00000180: be37 debd 52a2 aabe fccd c53d cd77 303f
00000190: f5c2 bf3e ed03 33bf 0618 68bf 1a33 233e
000001a0: 241a b8be df20 8cbd 7358 cbbe 37a4 03bf
000001b0: 9548 dfbd aeff 0ebf 3614 fdbe b2ee 0f3e
000001c0: 5d08 8ebe 26d3 ee3e af29 783e 153b 36be
000001d0: 24b6 21bd f993 f23d 3d79 ce3d 7500 65be
000001e0: 50d4 8cbf 3889 713d 34c9 d6bc 83b7 20bf
000001f0: deee 1cbf 4747 abbc 0aef 223e 7c21 76bf
00000200: f159 0dbe 6375 93be cc26 2f3e 330f bcbe
00000210: 4750 18be 4d6a 393f ae4b f13e 5908 a0be
00000220: fdd0 283f a68d 7bbe 832a f93e 0e63 8b3f
00000230: 8680 6c3f 220a 6cbe 2a55 31be 2eb4 14bf
00000240: 95dd e43d 18db 3fbe 77f1 e7be 3586 b93e
00000250: 25a9 413f f6ec 8a3e aac8 a0be d38f dcbd
00000260: 01c4 46be fbec 8cbe 546b 16be 5fb7 1a3e
00000270: 662a 583f 33be 0fbe ca35 b73e 6576 a0be
00000280: 81f0 413d fb82 37bf 5081 e5be 9410 733f
00000290: 35e4 0dbe 0db9 5c3e 7a46 003f 3712 e53d
000002a0: ae34 b1bd 227b 5cbd 2e9f ab3f 3892 19be
000002b0: e69a 64bc 09c2 84bd ac3d cebe d699 c13e
000002c0: 5865 53bf 9f9d 693c 3ab6 f33d 9349 2d3e
000002d0: 14c3 023f 42ec 5c3f 09ed 013e 4838 803e
000002e0: 6574 9abe 2c9e 1d3e 17bb d43e 2118 b5be
000002f0: fe51 92be e3fe 043f 252f 67bf 3adf 15be
00000300: 3352 0d3d a24f 64bd ee36 92be 0895 e03e
00000310: bb41 8b3e e840 07be 209f 19bf 905b 11bf
00000320: 5d72 0c3f e815 bcbe 4058 eebe 1be6 4f3f
00000330: 1083 b5bd 2b23 18bd c942 e7bd b90b e53e
00000340: ba2f 56be 3e78 6fbe 7eed a63f 0170 96be
00000350: 9141 813d 4d54 11be 6975 10bf 9f80 1e3f
00000360: f483 4f3e e6d1 d6bd f208 01be e379 e13f
00000370: c9fe 7f3e d986 32bf 7aec 4b3e bc35 c1bd
00000380: 3068 583f 9d86 91bd 52f8 d63d ed44 023e
00000390: d2fe d6be fed9 4abf a6c0 8cbe f81c 353f
000003a0: e93a 2d3f e2ec 0f3e c929 053f 39d6 74bd
000003b0: 2775 1fbf 9b0a 4bbe 794e 77be 119b 343e
000003c0: b3d6 a43f 8694 52be fda6 673f 0b67 0dbe
000003d0: 93c3 d8be c485 8e3e f640 43bd 6907 613e
000003e0: 447b c73e 59a0 a0be ade3 783a d48d 753e
000003f0: e0c4 e6bd 5d68 293f 9f72 c3be 2707 ebbe

l1.bias f4 [400]
-0.5249833 0.051797725 -0.0015358551 -0.34146887 -0.3774539 -0.1518159 -0.30074 0.12321097
-0.524779 -0.5371743 -0.008865805 -0.29469702 -0.5109456 -0.31686628 -0.001413859 -0.3903748
-0.06797469 -0.35441867 -0.55647796 -0.13841423 0.01408109 0.099993736 -0.3960365 -0.47954988
0.13685896 0.19568102 -0.59117657 0.057110213 -0.49652535 -0.6523817 0.06816119 0.2069294
-0.7279967 0.26931158 -0.021273201 0.33766168 -0.56091785 -0.6310861 -0.24405442 0.05765672
-0.0007112055 0.013187196 0.2956732 0.29613304 -0.5691412 0.33418882 0.3065893 -0.24972984
-0.0022094336 -0.5084082 0.34683886 -0.23786415 0.0890649 -0.02118268 -0.39885888 0.2585431
-0.07807137 -0.59826547 -0.38747218 -0.27753916 -0.10616857 -0.093055025 -0.31532392 0.026533088
0.18909514 -0.80402255 0.24700208 -0.36788756 -0.24396597 0.1030771 0.26901823 -0.6435473
-0.18885161 -0.31207827 0.16734518 0.31764966 -0.08746085 -0.09634642 0.1002352 -0.069393516
-0.2201883 -0.57615954 -0.55696845 -0.18648392 -0.14511083 -0.5040064 -0.6501261 -0.1937574
0.018714817 -0.05565185 -0.4875096 -0.16793294 -0.3031064 -0.24273929 -0.29705355 -0.07852747
-0.3810489 -0.7204185 -0.014288692 0.3931484 -0.23897219 0.039980862 0.14331359 -0.23328711
-0.012948929 0.27093515 -0.6271411 -0.019220391 -0.55210406 -0.33351374 0.04178158 -0.0031729082
-0.03541166 -0.34662423 0.32608733 -0.49273708 0.437098 -0.46573183 0.14300719 -0.013147086
0.040785227 -0.54371965 0.009709362 -0.29332387 0.17696553 -0.7189466 -0.10952425 -0.34780267
0.43877053 -0.503639 -0.5818102 -0.0063865785 0.13132153 0.07903587 -0.77375466 -0.06895533
0.1487937 0.08179453 -0.19871572 0.14658825 -0.026930204 -0.53707075 -0.0043919594 0.017049158
-0.58685154 0.21229959 -0.28151697 0.040596947 -0.42877018 0.08755805 0.09040013 -0.0059611057
-0.31648454 -0.07327026 -0.060359642 -0.46021998 -0.08443803 -0.35020977 -0.20265964 0.23956047
-0.08946019 0.29129148 0.23148865 -0.31519926 0.25917813 -0.13558541 -0.7500731 -0.004316153
-0.38162965 -0.50154066 0.05566301 -0.4705293 -0.45868212 -0.36739454 -0.5447452 0.020028096
-0.6268015 -0.42767373 0.2658342 0.057189375 0.20580237 -0.49757963 -0.2925409 0.021676682
-0.31823033 -0.33722746 0.20329455 -0.32685342 0.28513008 0.48347288 -0.00014401093 0.21657254
-0.6279635 -0.49183273 -0.13959962 0.18353045 0.05104739 -0.06901435 -0.009286871 -0.09860048
-0.008915434 0.044679623 -0.17551503 -0.14260197 0.16016252 -0.26420343 -0.46875677 -0.6447456
0.14365755 0.24261916 -0.0032212907 0.02300914 -0.605541 0.18322872 0.16369122 -0.44144374
0.43555576 -0.5605914 -0.008937858 -0.6021164 -0.15154621 0.18279968 -0.2509827 -0.0038208612
0.070887975 -0.003783273 0.23145062 -0.6388961 -0.7233668 0.056129623 -0.68953836 0.2888993
-0.0507106 -0.5493123 0.2880483 -0.61841965 -0.0005207743 0.03897461 -0.5988643 -0.69469327
-0.41026363 -0.34993118 -0.40721938 0.20140506 0.008852889 -0.33051834 -0.033097863 -0.42891333
-0.09590214 -0.39711902 -0.16112944 0.23175482 -0.8027522 0.44181213 0.11352311 0.05437191
00000000: 4e65 06bf da29 543d bf4e c9ba 02d5 aebe
00000010: a341 c1be a175 1bbe 98fa 99be 0856 fc3d
00000020: eb57 06bf 4184 09bf e241 11bc 87e2 96be
00000030: 55cd 02bf 4c3c a2be 3c51 b9ba 35df c7be
00000040: 5036 8bbd 5d76 b5be 5775 0ebf 76bc 0dbe
00000050: 5fb4 663c 84c9 cc3d 4cc5 cabe 9087 f5be
00000060: c124 0c3e 9b60 483e 5957 17bf 66ec 693d
00000070: 9238 febe 7d02 27bf 1898 8b3d 4de5 533e
00000080: fe5d 3abf 35e3 893e 2345 aebc fee1 ac3e
00000090: 5098 0fbf dc8e 21bf 67e9 79be 7429 6c3d
000000a0: 3170 3aba 1c0f 583c 7a62 973e c09e 973e
000000b0: 3db3 11bf cc1a ab3e 46f9 9c3e 2eb9 7fbe
000000c0: 25cc 10bb 0a27 02bf dd94 b13e a992 73be
000000d0: a967 b63d 4d87 adbc 3b37 ccbe c35f 843e
000000e0: e2e3 9fbd ed27 19bf c162 c6be 9d19 8ebe
000000f0: e86e d9bd a293 bebd 2372 a1be eb5b d93c
00000100: 28a2 413e 6cd4 4dbf 1dee 7c3e c25b bcbe
00000110: 37d2 79be 161a d33d c2bc 893e 84bf 24bf
00000120: 5162 41be b9c8 9fbe 895c 2b3e faa2 a23e
00000130: ad1e b3bd 4651 c5bd 1d48 cd3d 301e 8ebd
00000140: 0b79 61be 317f 13bf 7c95 0ebf a4f5 3ebe
00000150: ef97 14be 9006 01bf aa6e 26bf 5768 46be
00000160: d14f 993c 32f3 63bd dc9a f9be 9df6 2bbe
00000170: c330 9bbe a690 78be 6717 98be 03d3 a0bd
00000180: d718 c3be 596d 38bf 1e1b 6abc bf4a c93e
00000190: 20b5 74be f9c2 233d ccc0 123e d1e2 6ebe
000001a0: bf27 54bc 03b8 8a3e 528c 20bf 1574 9dbc
000001b0: b156 0dbf 50c2 aabe 2923 2b3d 91f0 4fbb
000001c0: d10b 11bd bb78 b1be ebf4 a63e 0948 fcbe
000001d0: 4fcb df3e 6774 eebe 7a70 123e e066 57bc
000001e0: 690e 273d 3631 0bbf 0414 1f3c 8c2e 96be
000001f0: 7436 353e e20c 38bf 404e e0bd 3113 b2be
00000200: 88a6 e03e 7cee 00bf 83f1 14bf 8146 d1bb
00000210: 2779 063e 8fdd a13d c914 46bf 7438 8dbd
00000220: 605d 183e e483 a73d 227c 4bbe 3b1b 163e
00000230: bb9c dcbc 787d 09bf 6dea 8fbb adaa 8b3c
00000240: e73b 16bf 1065 593e fe22 90be fc48 263d
00000250: c487 dbbe a351 b33d b423 b93d 6155 c3bb
00000260: 430a a2be b80e 96bd ac3b 77bd f4a1 ebbe
00000270: d9ed acbd b24e b3be 0286 4fbe 574f 753e
00000280: e736 b7bd 2824 953e 5c0b 6d3e cc61 a1be
00000290: ffb2 843e e7d6 0abe ca04 40bf 846e 8dbb
000002a0: f664 c3be f864 00bf e5fe 633d 37e9 f0be
000002b0: 62d8 eabe 231b bcbe 6c74 0bbf f611 a43c
000002c0: 1076 20bf 0df8 dabe 6c1b 883e 683f 6a3d
000002d0: dbbd 523e c2c2 febe ecc7 95be 4c93 b13c
000002e0: 16ef a2be 14a9 acbe 722c 503e 5559 a7be
000002f0: 92fc 913e c289 f73e a401 17b9 31c5 5d3e
00000300: 37c2 20bf 80d1 fbbe 34f3 0ebe 68ef 3b3e
00000310: 1117 513d 6557 8dbd f627 18bc 0cef c9bd
00000320: 0a12 12bc fb01 373d 36ba 33be 4006 12be
00000330: a501 243e ac45 87be e300 f0be 0c0e 25bf
00000340: f71a 133e 2871 783e 4a1c 53bb aa7d bc3c
00000350: bc04 1bbf 4fa0 3b3e ac9e 273e ea04 e2be
00000360: 2a01 df3e eb82 0fbf 1870 12bc 4d24 1abf
00000370: ee2e 1bbe d72f 3b3e ce80 80be 6a67 7abb
00000380: b72d 913d caf0 77bb 6401 6d3e b28e 23bf
00000390: 912e 39bf 2de8 653d 9685 30bf 9cea 933e
000003a0: ebb5 4fbd bb9f 0cbf 117b 933e c050 1ebf
000003b0: 9284 08ba d7a3 1f3d 2c4f 19bf 6bd7 31bf
000003c0: 130e d2be 2e2a b3be 0f7f d0be 213d 4e3e
000003d0: b50b 113c b339 a9be a091 07bd 879a dbbe
000003e0: 5768 c4bd 2f53 cbbe 1eff 24be 2351 6d3e
000003f0: 2b81 4dbf 3335 e23e ce7e e83d 14b5 5e3d

l2.weight f4 [200, 400]
-0.15255581 0.1854187 0.15497652 0.14446166 0.014539461 0.03780243 0.1782296 -0.3614915
0.26668948 0.16476181 -0.55041724 0.081438795 0.123883374 -0.102542065 -0.08029371 0.43176597
0.13407457 0.18856399 0.135667 -0.049689095 -0.0947044 0.33964676 0.400476 0.18702778
-0.3374482 -0.08530278 -0.31800166 0.099283926 0.42282987 -0.11473422 0.5475696 -0.12806895
0.06989836 -0.2598205 -0.12886426 -0.016275302 -0.48466024 0.32166734 0.64270926 0.4044047
-0.002686329 -0.14566778 0.3326883 -0.23710233 -0.17515953 -0.057725888 -0.108026795 0.09263591
0.47597125 0.02788862 -0.29739785 0.12482843 -0.68775326 0.50977683 -0.5046864 -0.037866402
-0.24199599 0.39366463 0.36558947 -0.069718555 -0.34913564 0.017781297 0.2021482 -0.0053622145
-0.06900757 0.35835314 -0.42347306 0.038540404 0.15022603 0.025080955 0.0585841 0.11917191
0.007754332 -0.11499615 0.03198559 0.06140644 -0.087045096 -0.1115041 0.07895772 0.005446901
-0.0016606458 0.060277537 0.43961042 0.2636074 -0.089488 -0.1831256 0.23687077 0.35493362
0.0047956537 0.14038798 0.23543702 0.1280518 -0.21009836 0.056542642 -0.053476207 0.12800226
0.42730752 0.34297854 -0.3262771 -0.25285158 -0.19488625 0.5085465 -0.008035171 -0.14112252
0.36535597 0.5646462 -0.07862168 0.23494716 0.4644224 -0.016409976 0.26703912 0.48662975
-0.028365867 0.27226642 -0.30555645 0.46655515 -0.08910645 0.31950188 0.1393181 0.3305009
0.2703944 0.19179547 -0.5171173 -0.10439162 -0.014180271 0.18975529 0.087068245 0.0073949653
-0.022096034 0.36484036 -0.20787244 -0.26047534 -0.5139587 8.7623164e-05 0.07715194 -0.17161179
0.27597567 -0.26747167 -0.010616382 0.38360098 -0.17229873 0.5212147 0.061587952 -0.2817418
0.15670928 -0.3957585 0.31660578 0.18243694 0.29522902 0.20023371 -0.025695752 -0.64189523
-0.11763135 0.0960489 -0.008604481 0.18562035 -0.068414316 -0.381098 -0.08070384 -0.12424243
0.119313106 0.16915473 0.13002358 0.11556643 -0.0924201 0.08119778 0.2610229 -0.11643639
0.42005268 0.26451233 0.12147343 0.37508398 0.26731688 0.11698864 0.28040668 0.0050950516
0.6436727 0.23633482 0.010515097 0.0575404 -0.0927588 0.21827343 0.040543202 -0.2787955
-0.020261472 -0.15317206 0.56716967 -0.07330952 0.20923172 -0.6062604 0.1364156 -0.040857878
0.39694172 0.36585045 -0.25892892 0.28765592 0.42709282 0.1466372 0.24017431 0.026586346
0.18579999 0.27093127 -0.17411956 0.30844367 -0.25724292 0.08597182 -0.1882374 0.6745792
-0.08859318 0.4883222 0.5960184 0.8276528 0.68893754 0.042087615 -0.35249922 0.029717702
0.055638265 -0.0006382495 -0.07971618 0.46827927 -0.031781517 0.25655317 -0.0050263978 -0.1538764
-0.22883306 -0.6178044 -0.040226534 0.58895767 0.40805537 0.101038456 -0.061091978 -0.08053956
0.12020192 0.48125517 0.18674482 0.07595388 0.28955576 0.07377076 0.2608433 -0.35595286
-0.167551 0.263287 0.13825311 -0.08437247 0.071330056 0.23475644 0.3268018 0.14048909
0.46313435 0.41947734 0.05464241 0.14308351 0.33886042 -0.2825651 0.42391887 -0.22211911
00000000: 9737 1cbe 66de 3d3e 2ab2 1e3e c2ed 133e
00000010: eb36 6e3c b9d6 1a3d d281 363e 6a15 b9be
00000020: 868b 883e 52b7 283e 25e8 0cbf 62c9 a63d
00000030: 91b6 fd3d 9301 d2bd 0771 a4bd 6e10 dd3e
00000040: d84a 093e eb16 413e 4aec 0a3e cb86 4bbd
00000050: 61f4 c1bd 2ee6 ad3e 310b cd3e 3684 3f3e
00000060: 03c6 acbe 39b3 aebd 1dd1 a2be 5f55 cb3d
00000070: 287d d83e c6f9 eabd 852d 0c3f 8224 03be
00000080: df26 8f3d 3107 85be fef4 03be c853 85bc
00000090: 6325 f8be 95b1 a43e 9888 243f 220e cf3e
000000a0: 1f0d 30bb ef29 15be 1f56 aa3e f4ca 72be
000000b0: 055d 33be fb71 6cbd 273d ddbd e5b7 bd3d
000000c0: 81b2 f33e ad76 e43c 8844 98be 0ca6 ff3d
000000d0: 9910 30bf bc80 023f 2133 01bf cd19 1bbd
000000e0: cccd 77be 698e c93e 8b2e bb3e 9ac8 8ebd
000000f0: e8c1 b2be 15aa 913c f0ff 4e3e 84b5 afbb
00000100: d753 8dbd 107a b73e 76d1 d8be 8bdc 1d3d
00000110: dad4 193e 9376 cd3c e2f5 6f3d 6710 f43d
00000120: 0d18 fe3b 1a83 ebbd 5203 033d 5285 7b3d
00000130: b344 b2bd 435c e4bd 96b4 a13d eb7b b23b
00000140: 07aa d9ba 94e5 763d 9e14 e13e 8df7 863e
00000150: 7c45 b7bd 4785 3bbe 408e 723e dcb9 b53e
00000160: dc24 9d3b dec1 0f3e 6716 713e 0320 033e
00000170: 0624 57be 4299 673d de09 5bbd 0613 033e
00000180: 0dc8 da3e e29a af3e cb0d a7be c375 81be
00000190: 4390 47be 1a30 023f f3a5 03bc 6c82 10be
000001a0: f00f bb3e a78c 103f 6704 a1bd fd95 703e
000001b0: c6c8 ed3e 376e 86bc 5ab9 883e 8927 f93e
000001c0: 895f e8bc 8166 8b3e e571 9cbe 51e0 ee3e
000001d0: 717d b6bd c095 a33e 67a9 0e3e 6a37 a93e
000001e0: 2371 8a3e 0866 443e cd61 04bf 46cb d5bd
000001f0: 5e54 68bc 364f 423e d650 b23d 7751 f23b
00000200: be02 b5bc 5bcc ba3e 83dc 54be 065d 85be
00000210: cc92 03bf 54c2 b738 d601 9e3d 00bb 2fbe
00000220: af4c 8d3e 0cf2 88be 55f0 2dbc 5967 c43e
00000230: 146f 30be 546e 053f a643 7c3d 7640 90be
00000240: 6678 203e dca0 cabe 271a a23e c0d0 3a3e
00000250: 4228 973e 110a 4d3e e67f d2bc 3f53 24bf
00000260: b5e8 f0bd 49b5 c43d cff9 0cbc 4313 3e3e
00000270: ce1c 8cbd 471f c3be 0e48 a5bd d172 febd
00000280: 6e5a f43d e636 2d3e e724 053e 18ae ec3d
00000290: c046 bdbd 064b a63d cba4 853e 3476 eebd
000002a0: 2511 d73e 296e 873e 10c7 f83d 020b c03e
000002b0: c2dd 883e bd97 ef3d 7791 8f3e 64f4 a63b
000002c0: bcc7 243f c101 723e 8347 2c3c 7caf 6b3d
000002d0: 53f8 bdbd 1283 5f3e a110 263d 49be 8ebe
000002e0: 63fb a5bc 23d9 1cbe 0832 113f 4d23 96bd
000002f0: d740 563e e233 1bbf 88b0 0b3e 975a 27bd
00000300: f23b cb3e c050 bb3e 5592 84be a347 933e
00000310: e9ab da3e 1028 163e 41f0 753e 9ccb d93c
00000320: 5a42 3e3e 81b7 8a3e 664c 32be 54ec 9d3e
00000330: 58b5 83be fe11 b03d 4ec1 40be 39b1 2c3f
00000340: 5770 b5bd 5e05 fa3e a994 183f 0ee1 533f
00000350: 365e 303f 1064 2c3d c77a b4be 8a72 f33c
00000360: f3e4 633d 3350 27ba 3d42 a3bd 4dc2 ef3e
00000370: 562d 02bd f05a 833e 7bb4 a4bb c691 1dbe
00000380: 3753 6abe 6e28 1ebf 94c4 24bd eec5 163f
00000390: a2ec d03e 40ed ce3d 953b 7abd edf1 a4bd
000003a0: 6d2c f63d 1467 f63e 093a 3f3e b58d 9b3d
000003b0: a740 943e 2015 973d 418d 853e 743f b6be
000003c0: 7d92 2bbe 8ecd 863e 3992 0d3e 79cb acbd
000003d0: 7e15 923d fe63 703e 9152 a73e 5fdc 0f3e
000003e0: f21f ed3e bcc5 d63e b8d0 5f3d 7c84 123e
000003f0: 1d7f ad3e 5fac 90be e50b d93e 3173 63be

l2.bias f4 [200]
-0.14778611 0.005506884 0.12320099 -0.14416139 -0.4262339 0.050806534 -0.38678235 -0.024558015
0.0077140485 -0.19468866 -0.48014715 -0.034454774 0.01268767 0.014392286 -0.56972885 -0.04288975
-0.09846896 0.085327946 -0.006006362 0.054135486 0.015808286 -0.3935097 -0.02812586 -0.15779968
-0.008764614 0.089466214 -0.13244973 -0.00398817 0.26836103 -0.07279945 -0.24379131 0.026821995
0.032135434 0.102025755 -0.07460167 -0.031803306 0.045084704 -0.20279476 0.01026745 -0.4157079
0.049937777 0.25982362 -0.04036985 0.109495595 -0.2179079 -0.17866556 -0.074190736 -0.047198083
0.0072986074 0.25129282 0.016391287 -0.03926618 -0.03128793 0.18817239 -0.10007088 -0.031143535
-0.12573849 0.36908868 0.21369325 -0.14571802 0.055908713 -0.20042719 0.021475336 0.049281396
-0.44817933 -0.08309723 0.27230105 -0.34216937 -0.0029952934 -0.37780282 0.30292332 0.118114814
-0.053683687 0.075862974 -0.4394605 -0.106900916 0.36842063 0.10186087 -0.20469286 0.3369491
-0.05742078 0.023443675 -0.051035944 -0.052323736 -0.027309801 0.0005097009 -0.32924938 -0.036195677
0.029371498 -0.20629442 0.01660186 -0.16667831 -0.3647384 0.00093974656 0.14605267 -0.18892416
0.016867116 0.030585526 0.06067612 -0.005992096 -0.04205468 -0.027352193 -0.1244234 0.2856768
0.37345693 -0.121515684 -0.08268405 -0.40989465 0.10094832 0.20355606 -0.18445256 -0.49822953
-0.09286551 -0.28154272 -0.105085485 -0.00955425 -0.29138088 0.08632544 0.054383136 -0.3546436
-0.040536363 -0.049973883 0.0028136843 -0.067308486 -0.0614126 0.16056193 -0.38361874 -0.052345287
-0.11098209 0.16310279 -0.31102502 -0.15095021 -0.17248581 -0.37611982 0.00700443 0.06743447
0.25624192 -0.043689854 -0.042647544 -0.03989876 0.022872105 -0.08816367 -0.2667368 0.11488017
-0.013577788 -0.011851668 -0.051772304 -0.008768748 -0.014532467 -0.025678331 0.28227025 -0.39286017
-0.40063956 -0.00078894536 -0.40338233 -0.08672508 -0.01322182 -0.020529797 0.09023824 -0.23314029
0.013782454 -0.08245265 -0.057675805 -0.21916825 -0.09633097 -0.14081146 -0.3202019 -0.14910986
0.020524647 -0.041151997 0.110355966 -0.5548459 -0.0407007 -0.015174944 0.15145898 -0.2412053
-0.13921607 -0.045652907 -0.32158685 -0.09844376 -0.034160554 -0.030805346 0.05324476 -0.015004757
-0.04902693 -0.3559749 -0.018067028 -0.008450658 -0.3574371 -0.07888938 -0.19802652 -0.18782945
-0.0071934676 -0.03880969 -0.34632418 0.02776542 -0.09616355 0.038419645 -0.27988964 0.27195716
00000000: 3e55 17be 1773 b43b cd50 fc3d 0b9f 13be
00000010: 543b dabe 831a 503d 5608 c6be e42d c9bc
00000020: 21c6 fc3b 775c 47be d9d5 f5be 7320 0dbd
00000030: f2df 4f3c 9fcd 6b3c c0d9 11bf 2aad 2fbd
00000040: 18aa c9bd 6bc0 ae3d 04d1 c4bb 2cbd 5d3d
00000050: 6180 813c 1a7a c9be 3468 e6bc 3d96 21be
00000060: 7599 0fbc 103a b73d e7a0 07be 32af 82bb
00000070: 9e66 893e e117 95bd 6ea4 79be cdb9 db3c
00000080: 72a0 033d e1f2 d03d c3c8 98bd 2f44 02bd
00000090: bdaa 383d 6ea9 4fbe ce38 283c aad7 d4be
000000a0: 8e8b 4c3d 9a07 853e db5a 25bd 3a3f e03d
000000b0: 4023 5fbe 1bf4 36be 50f1 97bd c752 41bd
000000c0: 2829 ef3b 74a9 803e 0547 863c 93d5 20bd
000000d0: c627 00bd 43b0 403e f6f1 ccbd ba20 ffbc
000000e0: 97c1 00be 31f9 bc3e 67d2 5a3e 1b37 15be
000000f0: 8900 653d c93c 4dbe 0bed af3c 4adb 493d
00000100: c377 e5be e12e aabd 0b6b 8b3e d330 afbe
00000110: af4c 44bb 5f6f c1be c418 9b3e 2ee6 f13d
00000120: 6de3 5bbd 0c5e 9b3d f700 e1be deee dabd
00000130: a1a1 bc3e 6f9c d03d 019b 51be 9884 ac3e
00000140: 0d32 6bbd f30c c03c 110b 51bd 6a51 56bd
00000150: ceb8 dfbc 739d 053a 6093 a8be eb41 14bd
00000160: 7f9c f03c d83e 53be a000 883c b8ad 2abe
00000170: febe babe 5359 763a d58e 153e 5675 41be
00000180: e82c 8a3c 7f8e fa3c 8687 783d 5859 c4bb
00000190: 8741 2cbd b511 e0bc b2d1 febd 3b44 923e
000001a0: bf35 bf3e 37dd f8bd 4156 a9bd b6dd d1be
000001b0: febd ce3d 0071 503e 22e1 3cbe f117 ffbe
000001c0: 4630 bebd 5e26 90be 0f37 d7bd 6e89 1cbc
000001d0: e02f 95be 64cb b03d dac0 5e3d d993 b5be
000001e0: 7509 26bd 6ab1 4cbd ca65 383b 08d9 89bd
000001f0: c78b 7bbd 596a 243e ad69 c4be 0368 56bd
00000200: 944a e3bd 6b04 273e ac3e 9fbe b192 1abe
00000210: 1fa0 30be c792 c0be 6b85 e53b 151b 8a3d
00000220: 2432 833e 22f4 32bd 31af 2ebd e26c 23bd
00000230: 485e bb3c 278f b4bd ba91 88be 4b46 eb3d
00000240: 5f75 5ebc 802d 42bc 320f 54bd cbaa 0fbc
00000250: 9619 6ebc 5d5b d2bc ba85 903e f824 c9be
00000260: a120 cdbe 3ad1 4eba 2188 cebe eb9c b1bd
00000270: 55a0 58bc 1b2e a8bc d4ce b83d 54bc 6ebe
00000280: cdcf 613c efdc a8bd 773d 6cbd a46d 60be
00000290: 2c49 c5bd e130 10be 81f1 a3be 41b0 18be
000002a0: 4e23 a83c ff8e 28bd 4f02 e23d 620a 0ebf
000002b0: c7b5 26bd 54a0 78bc 1018 1b3e 86fe 76be
000002c0: a88e 0ebe 8bfe 3abd 08a7 a4be e29c c9bd
000002d0: f0eb 0bbd 7e5b fcbc 2d17 5a3d 83d6 75bc
000002e0: 76d0 48bd 5842 b6be 4e01 94bc a174 0abc
000002f0: ff01 b7be c190 a1bd 77c7 4abe 5d56 40be
00000300: 2eb7 ebbb e9f6 1ebd 6751 b1be 4e74 e33c
00000310: 65f1 c4bd eb5d 1d3d b24d 8fbe f83d 8b3e

l3.weight f4 [4, 200]
-0.3731809 0.014793001 -0.17367871 -0.17922243 -0.3480455 -0.25911865 -0.23572053 0.024377573
-0.7807735 -0.34115672 -0.19785285 -0.025637047 0.56492114 0.13536133 -0.33449596 0.055237498
0.14635926 -0.36771822 1.2050043 -0.29809508 -0.054745514 -0.45092896 -0.004449594 -0.40601283
-0.17830825 -0.48153132 -0.50781333 -0.00201976 0.42405733 1.4810817 -0.5411218 -0.35352832
-0.32140204 -0.37566587 -0.6150694 0.8414199 0.66132456 -0.5567636 -0.59075594 -0.31813058
0.70130706 0.3682236 0.028853979 -0.3624723 -0.6788927 -0.25025812 0.07430749 0.0069383257
0.01227551 -0.44650936 -0.3036928 -0.58386177 0.060412746 -0.6709954 -0.015160345 0.030784894
-0.3351297 0.49674144 -0.46991202 -0.323492 -0.58863586 -0.40015006 0.044320922 0.24485761
-0.6355118 -0.065448485 0.47050664 -0.28194645 -0.07309047 -0.66163814 0.48234275 -0.21694095
-0.058672126 -0.23526601 -0.40021974 0.0037681237 0.5296377 -0.5852947 -0.35911041 0.41413945
0.1290683 -0.3649068 0.029874677 -0.06307201 -0.016992299 -0.38854408 -0.32941687 0.04035623
0.022607524 -0.5030642 0.011785258 -0.113562316 -0.676008 -0.06417158 -0.3110457 -0.2206641
0.014262043 -0.5333819 -0.33051267 -0.04047341 -0.027942054 -0.04376808 -0.5268609 0.41915384
0.5858956 -0.2617742 0.032989964 -0.2936528 -0.6092921 0.30077714 0.44379526 -0.7945931
0.3445815 -0.6859622 0.0032327524 0.053026605 -0.6197858 -0.38220763 -0.3149313 -0.20523359
0.71349734 0.06813145 0.05277418 0.07076893 -0.30928627 0.13363352 -0.50959504 0.042700578
-0.24121982 0.42329958 -0.3364889 0.021931091 0.21595089 -0.50062114 -0.01643325 -0.14308721
-0.6150487 -0.25644016 0.018858997 0.14807153 -0.16126746 -0.1564979 -0.19881916 -0.20268184
0.064697415 0.03846044 0.04085285 -0.016663866 -0.045730453 0.02838646 0.5944377 -0.27435505
-0.31387448 -0.061216976 -0.5634923 -0.6256172 0.087198146 0.00097178936 0.59196043 -0.4272162
0.07651601 -0.5497452 -0.021858841 -0.22930664 -0.12481356 -0.024643378 -0.07448603 -0.29423946
-0.005265164 0.7587808 -0.21433605 -0.6338313 0.004968712 0.110440575 0.74375993 0.99225914
0.14935482 0.008112242 0.4236957 0.1844623 -0.0010464804 -0.02919163 -0.32009253 0.022309821
-0.003565373 -0.38103175 -0.11288016 -0.05304496 -0.29463646 -0.0017193005 -0.6623865 -0.70863116
0.02995956 -0.012783308 -0.1649307 -0.37167373 -0.694004 -0.06073558 -0.3438111 0.41534674
-0.40889406 -0.049865372 -0.1135507 -0.268379 -0.24561337 -0.15640526 -0.11189376 0.04803566
-0.758728 -0.39834163 -0.14401045 -0.00847287 0.55934393 0.18255278 -0.5695798 0.04579346
0.14304844 -0.51730615 0.99716663 -0.4026955 0.069732666 -0.23844182 -0.022349756 -0.30890742
-0.10305539 -0.3551713 -0.57469034 0.0043468517 0.44649166 1.2928681 -0.64065963 -0.4706265
-0.2970557 -0.2345923 -0.38878527 0.86206126 -0.9287113 -0.47763047 -0.5143545 -0.21638322
0.68470216 0.44423413 -0.17751023 -0.42452875 -0.8278829 -0.06042926 0.02111948 0.025953399
-0.026003106 -0.51038826 -0.29562977 -0.5403153 -0.050604183 -0.4971384 -0.22714016 0.021513358
00000000: 9111 bfbe 585e 723c d5d8 31be 1686 37be
00000010: 0533 b2be 33ab 84be b960 71be 7ab3 c73c
00000020: c6e0 47bf 18ac aebe f099 4abe c904 d2bc
00000030: ac9e 103f 299c 0a3e 0e43 abbe b740 623d
00000040: 34df 153e 9045 bcbe 953d 9a3f eb9f 98be
00000050: d53c 60bd 29e0 e6be e6cd 91bb eae0 cfbe
00000060: 7096 36be 468b f6be 0e00 02bf f35d 04bb
00000070: 0b1e d93e 1694 bd3f f586 0abf aa01 b5be
00000080: cf8e a4be 4757 c0be 3075 1dbf 4b67 573f
00000090: 914c 293f 0f88 0ebf c83b 17bf 03e2 a2be
000000a0: dc88 333f ce87 bc3e 2e5f ec3c f895 b9be
000000b0: e9cb 2dbf d521 80be 862e 983d e55a e33b
000000c0: 381f 493c e09c e4be 9f7d 9bbe f777 15bf
000000d0: 5b73 773d 5bc6 2bbf 1863 78bc 9a30 fc3c
000000e0: 1f96 abbe e554 fe3e 4f98 f0be bea0 a5be
000000f0: d7b0 16bf 78e0 ccbe db89 353d f4bb 7a3e
00000100: e7b0 22bf db09 86bd 3fe6 f03e 495b 90be
00000110: 75b0 95bd 1e61 29bf a1f5 f63e c525 5ebe
00000120: 2f52 70bd 93e9 70be 9ae9 ccbe a0f2 763b
00000130: 5696 073f e0d5 15bf 52dd b7be 160a d43e
00000140: 7b2a 043e 10d5 babe bdbb f43c e62b 81bd
00000150: 6f33 8bbc 40ef c6be 54a9 a8be 934c 253d
00000160: 6a33 b93c d1c8 00bf f416 413c 5c93 e8bd
00000170: dc0e 2dbf 646c 83bd 6241 9fbe c5f5 61be
00000180: 58ab 693c b78b 08bf f538 a9be 72c7 25bd
00000190: bce6 e4bc 2946 33bd 5be0 06bf 559b d63e
000001a0: 41fd 153f 4507 86be 7c20 073d a959 96be
000001b0: 91fa 1bbf 76ff 993e 2239 e33e 746a 4bbf
000001c0: fd6c b03e 389b 2fbf 96dc 533b 6d32 593d
000001d0: 48aa 1ebf b8b0 c3be ad3e a1be c128 52be
000001e0: c3a7 363f 8088 8b3d bd29 583d 4def 903d
000001f0: c55a 9ebe 3ad7 083e d274 02bf cde6 2e3d
00000200: 5402 77be b9ba d83e 4648 acbe d5a8 b33c
00000210: 3b22 5d3e b528 00bf 069f 86bc 7485 12be
00000220: d573 1dbf 204c 83be 2f7e 9a3c 10a0 173e
00000230: 4c23 25be fc40 20be 4097 4bbe d48b 4fbe
00000240: 1480 843d b288 1d3d 5155 273d a982 88bc
00000250: db4f 3bbd b98a e83c 122d 183f 4478 8cbe
00000260: 28b4 a0be a7be 7abd 0841 10bf 7328 20bf
00000270: f194 b23d aebf 7e3a b88a 173f 15bc dabe
00000280: 6db4 9c3d 1abc 0cbf 5011 b3bc 5ccf 6abe
00000290: 409e ffbd e9e0 c9bc 228c 98bd 8ea6 96be
000002a0: 6687 acbb 753f 423f e97a 5bbe c542 22bf
000002b0: 94d0 a23b ab2e e23d 0d67 3e3f b204 7e3f
000002c0: 78f0 183e 36e9 043c a5ee d83e afe3 3c3e
000002d0: 0e2a 89ba 4923 efbc 2be3 a3be 16c3 b63c
000002e0: 08a9 69bb 9816 c3be b72d e7bd ac45 59bd
000002f0: 97da 96be 275a e1ba 2992 29bf da68 35bf
00000300: c06d f53c 1471 51bc 98e3 28be 054c bebe
00000310: 3faa 31bf dfc5 78bd 0208 b0be 54a8 d43e
00000320: 905a d1be a23f 4cbd 458d e8bd f968 89be
00000330: 1282 7bbe b328 20be 8e28 e5bd 0ac1 443d
00000340: 003c 42bf 6ff3 cbbe 7a77 13be cbd1 0abc
00000350: 2a31 0f3f 1eef 3a3e fbcf 11bf ec91 3b3d
00000360: 4a7b 123e 2d6e 04bf 5046 7f3f 1b2e cebe
00000370: 00d0 8e3d 182a 74be d616 b7bc 1d29 9ebe
00000380: b40e d3bd 03d9 b5be e81e 13bf 0970 8e3b
00000390: 8e9a e43e b47c a53f 4502 24bf f5f5 f0be
000003a0: af17 98be f738 70be dd0e c7be 0cb0 5c3f
000003b0: 06c0 6dbf fb8b f4be bdac 03bf 9093 5dbe
000003c0: a448 2f3f a872 e33e 3ec5 35be d55b d9be
000003d0: 22f0 53bf ac84 77bd c202 ad3c 399c d43c
000003e0: 7704 d5bc cea8 02bf c95c 97be 1a52 0abf
000003f0: 5546 4fbd ed88 febe 6e97 68be c83c b03c

l3.bias f4 [4]
0.1868087 0.23971581 0.2289984 0.030389287
00000000: c84a 3f3e 1078 753e 8e7e 6a3e f4f2 f83c
