fin/DQN/agent-300-10-373/target_model.pt (torch, 340543 bytes, 6 tensors)

l1.weight f4 [400, 8]
000000 17 7c 6c 3f a6 a3 dd bd 25 1d 48 3f dc 5d 59 3e
       0.92376846 -0.10822229 0.7816947 0.21227211
000010 4c d4 ce be 13 90 63 3e 75 50 28 bf 07 9b 92 3e
       -0.40396345 0.22222929 -0.6574777 0.286339
000020 ca 22 42 be c6 a4 b9 3e 61 a1 5b be 1d 7d e1 3f
       -0.18958583 0.36258525 -0.2144828 1.7616307
000030 2c f5 1b bc 6b f5 43 3e 6e 32 32 3d f9 5c 15 3e
       -0.009518903 0.19136588 0.043505125 0.14586248
000040 73 f3 f5 ba 90 60 13 3c ca 31 b8 3f ea 65 e1 3f
       -0.001876457 0.00899519 1.4390194 1.7609227
000050 62 fc 09 3c 4d 59 8b 3d c9 d0 a8 3b 36 b8 c7 ba
       0.008421989 0.06804142 0.0051518423 -0.0015237394
000060 8b 49 09 3f 9d 7c e8 ba ed 42 91 3d 5f 99 d7 be
       0.5362784 -0.0017737333 0.07092843 -0.421092
000070 24 65 80 3f cd 2b 8c bd da 66 5f be 19 24 d8 3e
       1.0030866 -0.06844292 -0.21816579 0.4221504
000080 62 4a 39 3f 20 ac 81 be 67 a0 3d 3e 76 d9 4d 3f
       0.72379124 -0.25326633 0.1851822 0.80409944
000090 50 c1 99 3e ad 9b 8e 3e cd 91 ee be 43 6d df bd
       0.30030298 0.27853146 -0.46595612 -0.10909512
0000a0 bf 4a 62 be ea 27 80 be 2d 0f 0f bf b1 66 d4 3e
       -0.22098826 -0.25030452 -0.5588253 0.41484597
0000b0 58 53 86 3e 63 6b db be 64 27 6b bd a1 67 a5 3e
       0.2623546 -0.42855367 -0.057410613 0.32305625
0000c0 57 76 98 3e 20 63 7a 3d 4c a1 21 3f 97 ae b0 3e
       0.29777786 0.06112969 0.63136744 0.345082
0000d0 1c 42 c5 be 8b 35 1f 3f e4 62 e5 3e 45 1d 14 bf
       -0.38527 0.62191075 0.4480201 -0.5785716
0000e0 1a 9e 18 3f 7f 2a e8 3d 67 98 e2 be bb 7c 7d 39
       0.59616244 0.113362305 -0.442569 0.00024174426
0000f0 74 90 5e 3d b1 c0 cd bd ea af 88 be d8 83 06 3d
       0.05433698 -0.100465186 -0.26696712 0.03284058
000100 89 75 8e 3e 45 a9 4c 3e cd 01 93 bb 5a e3 8c 3c
       0.27824047 0.19986446 -0.0044862987 0.017198253
000110 86 74 19 be d4 c0 53 bf 84 85 a7 bf c1 64 47 3f
       -0.14985856 -0.8271611 -1.3087621 0.77888113
000120 4b 3a 89 be 9f 72 70 bd 01 09 e8 be 78 d7 1f bf
       -0.26802287 -0.05870306 -0.4531937 -0.62438154
000130 b2 79 c1 be 47 1c 1f 3f dd 54 33 3f a9 52 6e bf
       -0.3778816 0.6215252 0.70051366 -0.9309488
000140 af a4 1c bc 66 08 85 ba 37 3c 3a bd f7 74 d6 bc
       -0.009560748 -0.0010149598 -0.04546758 -0.02617882
000150 1d 86 2e 40 e0 22 39 bd 58 e7 46 3f 3c 84 45 bf
       2.7269356 -0.045199275 0.7769675 -0.771549
000160 34 6f 7f 3e 68 5b 07 3e 6b 7c 34 bf 32 db 1f bf
       0.24944764 0.13218462 -0.70502347 -0.6244384
000170 1b e0 bf bc ef f3 8f bd 6c f8 b9 bd 38 22 84 3e
       -0.023422292 -0.070289485 -0.09080586 0.25807357
000180 bd 8a dd bd b4 aa aa be 6b 61 c6 3d f3 67 30 3f
       -0.10817478 -0.3333336 0.0968655 0.68908614
000190 c3 b4 bf 3e 35 18 33 bf 06 18 68 bf 1b 33 23 3e
       0.37442598 -0.6995881 -0.90661657 0.15937464
0001a0 52 1c b8 be 42 00 8c bd 40 55 cb be 07 a9 03 bf
       -0.35959107 -0.06835987 -0.39713478 -0.5142979
0001b0 8c 91 df bd e7 1e 0f bf 36 14 fd be d3 f1 0f 3e
       -0.10916433 -0.5590653 -0.49429482 0.14057092
0001c0 d1 17 8e be 3c be ee 3e 82 53 78 3e c0 2f 36 be
       -0.27752545 0.46629512 0.24250606 -0.17791653
0001d0 f9 d2 22 bd be 69 f2 3d 53 64 ce 3d 65 fe 64 be
       -0.03975198 0.11836575 0.10077729 -0.22362669
0001e0 f6 d4 8c bf 07 ec 71 3d 24 d3 d7 bc ca b8 20 bf
       -1.100249 0.059062984 -0.026345797 -0.62781966
0001f0 43 f2 1c bf 6a ab aa bc 83 ea 22 3e 7c 21 76 bf
       -0.6130716 -0.02083369 0.15909772 -0.96144843
000200 e7 3f 0d be b8 73 93 be 31 21 2f 3e 47 0f bc be
       -0.13793908 -0.28799224 0.17102505 -0.36730406
000210 6d 4c 18 be 0b 6d 39 3f c2 49 f1 3e 82 08 a0 be
       -0.14872904 0.7243201 0.47126585 -0.3125649
000220 b4 d3 28 3f 98 9f 7b be ff 2f f9 3e f6 64 8b 3f
       0.65948033 -0.24572599 0.4866943 1.0890186
000230 e1 8d 6c 3f 3b 21 6c be 2a 55 31 be 2e b4 14 bf
       0.9240399 -0.23059551 -0.17317644 -0.5808743
000240 b5 be e4 3d f1 ce 3f be 6c f7 e7 be 1b 8c b9 3e
       0.11169187 -0.18731286 -0.45305955 0.36239704
000250 5e a9 41 3f 50 ed 8a 3e aa c8 a0 be d3 8f dc bd
       0.7564906 0.2713418 -0.31403095 -0.1076962
000260 1c 70 46 be c7 e6 8c be 2b 7b 16 be fe a0 1a 3e
       -0.19378704 -0.2751982 -0.14695422 0.15100476
000270 9b 2b 58 3f 5c 6a 0f be 70 1a b7 3e 77 c5 a0 be
       0.84441537 -0.14005417 0.35762358 -0.31400654
000280 23 d5 41 3d 3a 75 37 bf 8e 85 e5 be d1 0e 73 3f
       0.047322404 -0.7166325 -0.44828457 0.94944483
000290 b1 19 0e be 57 d4 5c 3e e0 3f 00 3f 7c 1e e5 3d
       -0.13876988 0.21565376 0.50097466 0.11187455
0002a0 79 8d b1 bd 0f a1 5c bd eb 98 ab 3f 6f 58 19 be
       -0.08669562 -0.053864535 1.3406042 -0.14975141
0002b0 5c 5c 63 bc 8e 67 84 bd eb 32 ce be e2 99 c1 3e
       -0.013877001 -0.06465064 -0.40273222 0.37812716
0002c0 ac 66 53 bf 17 01 6c 3c 92 82 f3 3d b4 31 2d 3e
       -0.8257854 0.014404557 0.11890139 0.16913491
0002d0 8f c0 02 3f 1c f7 5c 3f 9e d8 01 3e b7 18 80 3e
       0.5107507 0.8631456 0.12680289 0.25018856
0002e0 7f 75 9a be b5 70 1d 3e 75 ac d4 3e 30 04 b5 be
       -0.30167767 0.15375026 0.41537824 -0.35354757
0002f0 0a 48 92 be 91 fb 04 3f 25 2f 67 bf 1d dd 15 be
       -0.28570586 0.5194636 -0.9030631 -0.1463513
000300 26 67 0d 3d b7 7a 63 bd c1 3e 92 be 3c 86 e0 3e
       0.0345222 -0.055536952 -0.28563502 0.43852413
000310 7b 51 8b 3e 9a 32 07 be 20 9f 19 bf 90 5b 11 bf
       0.27210602 -0.13202897 -0.6000843 -0.5678034
000320 52 77 0c 3f 94 1f bc be db 43 ee be 19 e4 4f 3f
       0.5486957 -0.36742842 -0.46536145 0.81207424
000330 79 0e b6 bd 76 c8 18 bd db 36 e7 bd 06 14 e5 3e
       -0.08889479 -0.03730055 -0.1128976 0.4474184
000340 84 e6 55 be 01 55 6f be c0 ed a6 3f 7b 73 96 be
       -0.20888716 -0.2337227 1.3041306 -0.2938498
000350 1e 93 81 3d 32 88 11 be d2 72 10 bf 7b 75 1e 3f
       0.063268885 -0.1421211 -0.564252 0.6189801
000360 2d 4a 4f 3e 26 a3 d6 bd 7e 25 01 be 90 83 e1 3f
       0.2024314 -0.10480337 -0.12611958 1.7618275
000370 e2 05 80 3e 08 64 32 bf 30 c1 4b 3e e5 66 c1 bd
       0.25004488 -0.69683886 0.19897914 -0.09443454
000380 e9 51 58 3f 86 b6 91 bd bd c3 d6 3d 7e 5c 02 3e
       0.84499985 -0.07114892 0.10486553 0.12730595
000390 31 fe d6 be 6d c8 4a bf 65 dc 8c be 2b 1e 35 3f
       -0.41990808 -0.79212075 -0.27511898 0.7074916
0003a0 56 4a 2d 3f 91 11 10 3e 40 3e 05 3f c8 7c 75 bd
       0.6769155 0.14069201 0.5204811 -0.059933454
0003b0 39 78 1f bf 03 7e 4b be 79 4e 77 be 37 9b 34 3e
       -0.6229282 -0.19872288 -0.24151029 0.17637335
0003c0 39 d6 a4 3f d4 74 52 be 47 a2 67 3f ea 40 0d be
       1.2877876 -0.20552379 0.9048199 -0.13794294
0003d0 d6 aa d8 be 14 a9 8e 3e 05 dc 42 bd d7 16 61 3e
       -0.42317837 0.2786337 -0.04757311 0.21981369
0003e0 d4 8b c7 3e e0 aa a0 be fe ad 8f 3a 72 9a 75 3e
       0.38973868 -0.31380367 0.0010961888 0.23984697
0003f0 59 e1 e6 bd 8c 59 29 3f 8b 9b c3 be 1c 07 eb be
       -0.112734504 0.6615226 -0.38204607 -0.45903862

l1.bias f4 [400]
000000 68 68 06 bf 4b ac 54 3d 20 27 de ba d7 e2 ae be
       -0.5250306 0.051922124 -0.0016948916 -0.3415744
000010 94 4b c1 be 60 70 1b be 26 04 9a be 4b 41 fc 3d
       -0.37752974 -0.15179586 -0.3008129 0.12317141
000020 9a 5e 06 bf 23 81 09 bf c7 8b 14 bc 26 f2 96 be
       -0.524881 -0.5371267 -0.009066529 -0.2948162
000030 4b be 02 bf c4 18 a2 be 9a c9 cd ba f9 db c7 be
       -0.51071614 -0.3165952 -0.0015700341 -0.39035013
000040 0b 45 8b bd 24 69 b5 be d4 73 0e bf 60 e5 0d be
       -0.06800278 -0.35431778 -0.5564549 -0.13857031
000050 92 75 66 3c 1d ba cc 3d 62 bd ca be f1 9f f5 be
       0.014066117 0.09996436 -0.39597613 -0.47973588
000060 75 52 0c 3e 6a 55 48 3e 5b 5c 17 bf 4c 23 69 3d
       0.1370333 0.19563833 -0.591253 0.056918427
000070 0f 4a fe be 2b ec 26 bf 9b 9c 8b 3d 1c b5 53 3e
       -0.49665877 -0.65204114 0.068169795 0.20674556
000080 fe 5d 3a bf 5d db 89 3e 00 7b ad bc 24 d6 ac 3e
       -0.7279967 0.26925173 -0.021176815 0.33757126
000090 dd 95 0f bf f1 9b 21 bf 01 34 7a be cd de 6c 3d
       -0.5608805 -0.6312857 -0.244339 0.057829667
0000a0 d5 ec 58 ba 82 3e 56 3c 00 71 97 3e db ad 97 3e
       -0.0008275037 0.013076426 0.295784 0.2962483
0000b0 03 a7 11 bf 84 19 ab 3e c5 0a 9d 3e f3 f9 7f be
       -0.56895465 0.33417904 0.3067228 -0.24997692
0000c0 81 b0 1e bb 68 25 02 bf 7e 7b b1 3e 2c 6b 73 be
       -0.0024214091 -0.5083833 0.3466453 -0.23771352
0000d0 5c 60 b6 3d 90 e8 ab bc 40 28 cc be 59 54 84 3e
       0.08905098 -0.020984918 -0.39874458 0.25845602
0000e0 af 26 a0 bd 1c 24 19 bf aa 80 c6 be 75 5c 8e be
       -0.07819878 -0.59820724 -0.38770038 -0.27804914
0000f0 2d 35 d9 bd 44 ca be bd 6b 62 a1 be 6b ee d7 3c
       -0.106058456 -0.09315923 -0.315204 0.026358804
000100 f5 7a 41 3e 42 ae 4d bf 15 c8 7c 3e 47 59 bc be
       0.1889456 -0.8034402 0.246857 -0.36786863
000110 c4 d9 79 be d0 12 d3 3d a0 c2 89 3e 84 bf 24 bf
       -0.24399477 0.103063226 0.269063 -0.6435473
000120 02 59 41 be 16 c1 9f be c6 49 2b 3e 45 b1 a2 3e
       -0.1888161 -0.31202 0.16727361 0.3177587
000130 28 71 b3 bd 8e 7d c5 bd bb e6 cc 3d 4e 56 8e bd
       -0.08761817 -0.09643088 0.10004946 -0.06950055
000140 6d cf 61 be e0 7d 13 bf e6 9c 0e bf d7 cc 3e be
       -0.22051783 -0.57613945 -0.5570816 -0.18632828
000150 6e a2 14 be a4 07 01 bf e5 6c 26 bf 31 5e 46 be
       -0.14515087 -0.50402284 -0.6500991 -0.19371869
000160 f0 a7 98 3c 85 49 64 bd 00 be f9 be b4 fb 2b be
       0.018634766 -0.055734176 -0.4877777 -0.16795236
000170 a6 24 9b be 21 58 78 be 05 10 98 be e2 19 a1 bd
       -0.30301398 -0.24252369 -0.29699722 -0.07866265
000180 ba 03 c3 be 5a 69 38 bf d9 35 6b bc 41 5d c9 3e
       -0.3808878 -0.72035754 -0.0143561 0.3932896
000190 9b b2 74 be 29 da 23 3d 94 e4 12 3e ea 04 6f be
       -0.23896258 0.040002976 0.14345008 -0.23341718
0001a0 36 b9 51 bc 81 a7 8a 3e 05 8c 20 bf 0b a8 a0 bc
       -0.012800505 0.2708092 -0.6271365 -0.01961138
0001b0 f6 68 0d bf 80 b7 aa be f7 7f 2b 3d 16 aa 54 bb
       -0.5523828 -0.33343124 0.041870084 -0.0032450012
0001c0 0d 99 11 bd 97 70 b1 be 9c e9 a6 3e 8c 46 fc be
       -0.03554635 -0.34656212 0.32600105 -0.49272573
0001d0 25 c8 df 3e fc 88 ee be 51 68 12 3e 5f 28 57 bc
       0.43707386 -0.46588886 0.14297606 -0.013132184
0001e0 48 0d 27 3d 55 30 0b bf 89 38 1e 3c a5 1d 96 be
       0.04078415 -0.54370624 0.009657034 -0.29319492
0001f0 ad 56 35 3e e2 0c 38 bf 88 80 e0 bd f2 18 b2 be
       0.17708845 -0.7189466 -0.109620154 -0.34784657
000200 b5 97 e0 3e 0c 08 01 bf c4 00 15 bf 4e 7b cf bb
       0.43865743 -0.50402904 -0.58204293 -0.0063318377
000210 c9 84 06 3e df 57 a2 3d c9 14 46 bf 56 05 8d bd
       0.13136591 0.07926916 -0.77375466 -0.068857834
000220 8c 3c 18 3e f9 7b a7 3d 1b 3f 4b be 38 1f 16 3e
       0.14866847 0.08177943 -0.19848292 0.14660347
000230 ca 3b dd bc 81 78 09 bf 94 66 92 bb 05 19 8d 3c
       -0.027006049 -0.536995 -0.0044677947 0.017223844
000240 16 49 16 bf 2c 5b 59 3e 27 4c 90 be 34 c5 26 3d
       -0.5870527 0.21226186 -0.281831 0.04071541
000250 fa a1 db be ba 48 b3 3d d9 c0 b8 3d 2c 56 c5 bb
       -0.42897016 0.08754106 0.09021158 -0.0060222354
000260 e1 2d a2 be cd ce 95 bd e8 7a 77 bd b9 9e eb be
       -0.31675628 -0.07314835 -0.060419947 -0.46019533
000270 ff 28 ad bd 97 4a b3 be 99 af 4f be 34 72 75 3e
       -0.08455085 -0.35017845 -0.20281829 0.23969346
000280 8b b2 b7 bd d4 2d 95 3e 94 30 6d 3e 74 36 a1 be
       -0.08969601 0.29136527 0.23163062 -0.31486857
000290 3f bd 84 3e 60 fc 0a be 9f 06 40 bf d5 31 90 bb
       0.25925633 -0.13572836 -0.75010103 -0.0044004717
0002a0 83 5f c3 be a2 6f 00 bf 25 92 64 3d 54 f2 f0 be
       -0.38158807 -0.5017034 0.055803437 -0.47059882
0002b0 b7 de ea be 31 1c bc be 9a 87 0b bf 5c 2b a2 3c
       -0.45873043 -0.36740258 -0.54503787 0.019796066
0002c0 ec 78 20 bf 27 f7 da be d4 07 88 3e ea c3 69 3d
       -0.6268451 -0.42766687 0.26568472 0.057071604
0002d0 56 a1 52 3e 7b db fe be cf cf 95 be 33 3e b1 3c
       0.20569357 -0.49776825 -0.29260108 0.021636104
0002e0 16 ef a2 be 54 b3 ac be 72 15 50 3e 04 5e a7 be
       -0.31823033 -0.33730567 0.2032068 -0.32688916
0002f0 40 fe 91 3e 17 80 f7 3e e1 33 f4 b8 c9 ad 5d 3e
       0.2851429 0.48339912 -0.0001164449 0.21648325
000300 3e c2 20 bf 3e cf fb be 7c 04 0f be 4b de 3b 3e
       -0.6279639 -0.4918155 -0.13966554 0.18346517
000310 e1 fd 50 3d 9e ed 8c bd 46 96 19 bc 75 13 ca bd
       0.051023368 -0.068812594 -0.009374207 -0.098669924
000320 3c 63 13 bc 3f d4 36 3d 69 bc 33 be e6 fe 11 be
       -0.008995827 0.044636007 -0.17552342 -0.14257392
000330 8b cd 23 3e 38 3e 87 be e3 00 f0 be 41 0d 25 bf
       0.15996377 -0.26414657 -0.46875677 -0.6447335
000340 a7 3d 13 3e 63 87 78 3e 2e 07 5b bb c8 25 bd 3c
       0.14378987 0.24270396 -0.0033421027 0.023089305
000350 b9 16 1b bf de 81 3b 3e 8f 9e 27 3e f8 f4 e1 be
       -0.6058155 0.18311259 0.16369079 -0.4413221
000360 9a 04 df 3e 7d 80 0f bf 9b 41 14 bc 9a 34 1a bf
       0.43558198 -0.5605543 -0.009048845 -0.60236514
000370 be 64 1b be b4 51 3b 3e 44 7c 80 be da 1d 7c bb
       -0.15175149 0.18292886 -0.25094807 -0.0038469941
000380 f5 84 91 3d 4d 9f 82 bb 04 df 6c 3e 5d 8e 23 bf
       0.07105438 -0.0039862753 0.23131949 -0.63889104
000390 40 41 39 bf 51 ee 64 3d 90 88 30 bf 96 ff 93 3e
       -0.7236519 0.05589134 -0.6895838 0.28905934
0003a0 0c b9 4f bd c3 9e 0c bf d7 81 93 3e 5b 60 1e bf
       -0.050713584 -0.5492975 0.28809997 -0.61865777
0003b0 20 aa c4 b9 31 17 1f 3d ed 5b 19 bf 8e e7 31 bf
       -0.00037510786 0.038840476 -0.5990589 -0.6949395
0003c0 67 17 d2 be b6 3b b3 be 18 7f d0 be d7 5d 4e 3e
       -0.4103348 -0.35006493 -0.40721965 0.20152985
0003d0 2b 26 11 3c 1c 45 a9 be 35 4a 07 bd b8 93 db be
       0.008859198 -0.3306054 -0.033029754 -0.42886138
0003e0 14 1a c4 bd 77 71 cb be 88 1e 25 be be 65 6d 3e
       -0.095752865 -0.39735004 -0.16124928 0.23183343
0003f0 86 80 4d bf 40 30 e2 3e 96 b2 e8 3d 1a 58 5e 3d
       -0.80274236 0.44177437 0.113621876 0.05428324

l2.weight f4 [200, 400]
000000 48 34 1c be f7 de 3d 3e 28 b4 1e 3e 20 e2 13 3e
       -0.15254319 0.18542086 0.15498412 0.14441729
000010 67 08 71 3c f1 b6 1a 3d cb 7b 36 3e 20 2b b9 be
       0.014711476 0.037772123 0.17820661 -0.36165714
000020 eb 81 88 3e 73 e2 28 3e e5 e9 0c bf 12 c7 a6 3d
       0.2666162 0.16492634 -0.55044395 0.081434384
000030 e9 a9 fd 3d b9 17 d2 bd 06 b6 a4 bd b4 0d dd 3e
       0.123859234 -0.10258431 -0.08042531 0.43174517
000040 73 5a 09 3e 58 4b 41 3e 73 ea 0a 3e 35 ca 4b bd
       0.1341341 0.18876398 0.13565998 -0.049753387
000050 f6 f3 c1 bd c0 d6 ad 3e 6b 09 cd 3e 99 80 3f 3e
       -0.0947036 0.33952904 0.40046248 0.187014
000060 42 c3 ac be 36 9f ae bd 85 c5 a2 be 3b 3a cb 3d
       -0.3374272 -0.08526461 -0.3179132 0.09923216
000070 2a 68 d8 3e f5 24 eb bd da 24 0c 3f f1 1e 03 be
       0.4226697 -0.11481658 0.5474373 -0.12804772
000080 df 26 8f 3d 67 13 85 be bd 02 04 be 64 a2 86 bc
       0.06989836 -0.25991365 -0.1289167 -0.016434856
000090 10 0d f8 be 25 a0 a4 3e 91 7b 24 3f 25 1b cf 3e
       -0.48447466 0.3215343 0.6425105 0.40450397
0000a0 b1 31 36 bb ea 2f 15 be 60 40 aa 3e e1 bc 72 be
       -0.0027800614 -0.14569059 0.3325224 -0.23704864
0000b0 12 75 33 be 7c 73 6c bd 86 40 dd bd 9d 84 bd 3d
       -0.17525128 -0.057727322 -0.108033225 0.092538096
0000c0 65 b2 f3 3e 8b 70 e4 3c f9 52 98 be 66 4a ff 3d
       0.47597042 0.027885696 -0.29750803 0.12465362
0000d0 50 0d 30 bf 26 70 02 3f 37 3a 01 bf 0a c5 1b bd
       -0.68770313 0.50952375 -0.50479454 -0.038029708
0000e0 8c bd 77 be 6d a5 c9 3e 90 14 bb 3e eb 9e 8e bd
       -0.241934 0.39384022 0.36539125 -0.06963905
0000f0 ef c2 b2 be a6 8d 92 3c 37 01 4f 3e af f6 b4 bb
       -0.34914348 0.017889809 0.20215307 -0.005522571
000100 30 d9 8d bd cc 77 b7 3e c5 d8 d8 be 8c df 1d 3d
       -0.06926191 0.35833585 -0.42352882 0.03854327
000110 af b6 19 3e 22 fe cc 3c 20 6d 6f 3d 67 10 f4 3d
       0.15011095 0.025023524 0.05845368 0.11917191
000120 43 10 fd 3b 21 6c eb bd 66 d4 02 3d fd 43 7b 3d
       0.007722886 -0.11495233 0.03194084 0.061344136
000130 4e 0a b2 bd c8 a6 e4 bd 42 4f a1 3d 84 f5 ae 3b
       -0.08693372 -0.111646235 0.07876445 0.0053393263
000140 4b a8 d2 ba 21 fc 76 3d 59 16 e1 3e fb f9 86 3e
       -0.0016071884 0.060299043 0.43962362 0.26362595
000150 49 53 b7 bd 62 7d 3b be 0d 8d 72 3e 69 c4 b5 3e
       -0.08951432 -0.18309548 0.23686619 0.35501412
000160 aa 93 98 3b c4 ce 0f 3e fa df 70 3e 74 16 03 3e
       0.004656275 0.14043719 0.2352294 0.12801534
000170 f9 27 57 be 2a a2 67 3d 95 31 5b bd 1d 01 03 3e
       -0.21011342 0.056551136 -0.053514082 0.12793393
000180 a6 ca da 3e b8 a3 af 3e 33 2c a7 be aa 8f 81 be
       0.42732733 0.34304595 -0.3265091 -0.2530492
000190 b5 9a 47 be 37 2d 02 3f 56 69 02 bc cb 84 10 be
       -0.1949261 0.5085024 -0.007959684 -0.14113156
0001a0 ea 09 bb 3e 75 86 10 3f d0 05 a1 bd 21 65 70 3e
       0.36531 0.56455165 -0.07862437 0.23476078
0001b0 f4 b3 ed 3e f5 4a 86 bc 3c b5 88 3e 30 1f f9 3e
       0.46426356 -0.016393164 0.2670077 0.48656607
0001c0 7e 6d e8 bc 76 72 8b 3e 83 82 9c be 2b e1 ee 3e
       -0.028372522 0.27235764 -0.30568323 0.46656165
0001d0 49 7f b6 bd 7f 80 a3 3e 50 83 0e 3e d3 3a a9 3e
       -0.089109965 0.31933972 0.13917279 0.33052692
0001e0 0d 4d 8a 3e eb 94 44 3e 38 63 04 bf 6c 74 d5 bd
       0.2701191 0.19197433 -0.51713896 -0.10422596
0001f0 f4 e0 67 bc 36 4f 42 3e fd 63 b2 3d fb a2 ef 3b
       -0.014152754 0.18975529 0.087104775 0.00731313
000200 5e a5 b6 bc 55 b8 ba 3e 0d b5 54 be 46 71 85 be
       -0.02229565 0.3646876 -0.2077219 -0.26062983
000210 f4 8e 03 bf 3c a6 03 39 d6 01 9e 3d 30 aa 2f be
       -0.51390004 0.0001255506 0.07715194 -0.17154765
000220 5b 49 8d 3e 82 0a 89 be 8d dd 2e bc 71 52 c4 3e
       0.27595028 -0.2676583 -0.010672939 0.38344148
000230 d6 8c 30 be e6 6d 05 3f a4 2d 7c 3d 82 42 90 be
       -0.17241225 0.52120817 0.061566964 -0.2817574
000240 63 50 20 3e 89 ad ca be 66 0e a2 3e 83 b1 3a 3e
       0.15655665 -0.39585522 0.3165161 0.18231778
000250 84 1a 97 3e 27 0d 4d 3e 13 6c d2 bc 33 5d 24 bf
       0.29512417 0.20024548 -0.0256863 -0.6420471
000260 57 54 f1 bd e1 d8 c4 3d 23 f8 0c bc aa 1b 3e 3e
       -0.11783665 0.09611679 -0.008604082 0.1856524
000270 8b 4a 8c bd 32 2b c3 be 42 29 a5 bd 03 65 fe bd
       -0.068501554 -0.38118893 -0.0806451 -0.1242161
000280 7a 23 f4 3d 74 3b 2d 3e c6 27 05 3e 43 7c ec 3d
       0.11920829 0.16917211 0.13003454 0.115471385
000290 8a 73 bd bd 6f 5e a6 3d 30 a3 85 3e 5a 60 ee bd
       -0.09250553 0.081234805 0.26101065 -0.11639471
0002a0 70 15 d7 3e 01 50 87 3e 56 2a f8 3d 7f 0d c0 3e
       0.42008543 0.26428226 0.1211745 0.37510297
0002b0 79 bd 88 3e 35 b3 ef 3d c6 7c 8f 3e 1b 4c a6 3b
       0.26707056 0.11704103 0.28024882 0.0050749904
0002c0 7f c7 24 3f 98 05 72 3e 5b 28 2a 3c bf 02 6b 3d
       0.64366907 0.23634946 0.010385598 0.057375666
0002d0 95 0b be bd c1 8b 5f 3e 15 2f 26 3d dd c4 8e be
       -0.09279553 0.21830656 0.040572245 -0.2788457
0002e0 63 fb a5 bc b3 ed 1c be ee 22 11 3f c0 3d 96 bd
       -0.020261472 -0.1532505 0.56693923 -0.07335997
0002f0 b8 37 56 3e 46 37 1b bf de b2 0b 3e f4 f7 27 bd
       0.20919693 -0.60631216 0.13642451 -0.04100795
000300 bc 3b cb 3e df 53 bb 3e 55 92 84 be 26 26 93 3e
       0.3969401 0.36587426 -0.25892892 0.28740042
000310 9c b1 da 3e ff 0c 16 3e 82 d5 75 3e b8 30 da 3c
       0.4271363 0.14653395 0.24007228 0.026634559
000320 18 36 3e 3e 2a bd 8a 3e 9f 46 32 be bf ee 9d 3e
       0.18575323 0.27097446 -0.17409752 0.3084621
000330 fc c1 83 be 3d 26 b0 3d 4e c1 40 be e9 b0 2c 3f
       -0.25733936 0.086010434 -0.1882374 0.67457443
000340 1d 59 b5 bd 32 08 fa 3e 95 8a 18 3f a9 d2 53 3f
       -0.08854888 0.48834378 0.5958646 0.82743317
000350 d3 4f 30 3f 91 ba 2b 3d 6c 7e b4 be a6 63 f3 3c
       0.688718 0.04192597 -0.35252702 0.029710602
000360 1e e2 63 3d 96 bc 43 ba 2e 48 a3 bd 38 a7 ef 3e
       0.055635564 -0.0007466761 -0.079727516 0.46807265
000370 e7 51 02 bd 01 5c 83 3e 62 4d a2 bb 77 9f 1d be
       -0.03181639 0.2565613 -0.0049530724 -0.15392862
000380 53 6c 6a be 84 2b 1e bf 98 a3 25 bd 57 c5 16 3f
       -0.22892885 -0.6178515 -0.04043922 0.58894867
000390 3f de d0 3e d8 ed ce 3d 95 3b 7a bd 67 f2 a4 bd
       0.4079456 0.10103959 -0.061091978 -0.08054047
0003a0 ed f8 f5 3d 6a 66 f6 3e 69 26 3f 3e a5 e3 9b 3d
       0.120103694 0.4812501 0.18666996 0.07611779
0003b0 c8 4c 94 3e 0b fa 96 3d 96 78 85 3e 12 1f b6 be
       0.2896483 0.07371911 0.26068562 -0.3557058
0003c0 1e a7 2b be 3d bf 86 3e 45 93 0d 3e 4e a9 ac bd
       -0.16762969 0.26317778 0.1382571 -0.0843073
0003d0 88 f8 91 3d c5 57 70 3e ac 44 a7 3e 69 e2 0f 3e
       0.07127482 0.23470981 0.3266958 0.14051212
0003e0 90 22 ed 3e 82 95 d6 3e 5d d5 5f 3d 7a 91 12 3e
       0.46315432 0.4191094 0.05464684 0.14313307
0003f0 bd 80 ad 3e 30 af 90 be 2b 09 d9 3e 45 9a 63 be
       0.33887282 -0.28258657 0.42389807 -0.22226818

l2.bias f4 [200]
000000 f2 70 17 be 17 73 b4 3b 58 8e fc 3d a1 f9 13 be
       -0.14789179 0.005506884 0.123318374 -0.14450695
000010 54 3b da be 73 83 50 3d 56 08 c6 be e4 2d c9 bc
       -0.4262339 0.05090661 -0.38678235 -0.024558015
000020 05 ad fc 3b 42 8d 47 be d9 d5 f5 be 73 20 0d bd
       0.007711055 -0.1948748 -0.48014715 -0.034454774
000030 42 85 4e 3c 7a 50 69 3c a5 d9 11 bf 2a ad 2f bd
       0.012605013 0.0142403785 -0.56972724 -0.04288975
000040 18 aa c9 bd 7c e3 ae 3d c7 65 c3 bb a9 e3 5e 3d
       -0.09846896 0.08539483 -0.0059630605 0.054416332
000050 61 80 81 3c f3 7b c9 be 34 68 e6 bc 3d 96 21 be
       0.015808286 -0.39352378 -0.02812586 -0.15779968
000060 63 7c 0c bc e2 6f b7 3d 12 9d 07 be 32 af 82 bb
       -0.008574578 0.08956887 -0.13243511 -0.00398817
000070 6b 56 89 3e 0b 19 95 bd 47 a4 79 be f3 3d dc 3c
       0.26823744 -0.07280167 -0.24379073 0.026885008
000080 14 82 04 3d 4e 13 d1 3d 13 56 99 bd dd 08 02 bd
       0.032350615 0.1020876 -0.074871205 -0.031746734
000090 96 78 38 3d 85 cb 4f be a6 81 2a 3c aa d7 d4 be
       0.045036875 -0.2029248 0.010406887 -0.4157079
0000a0 f5 44 4c 3d 2f ff 84 3e c0 0f 26 bd 43 84 e0 3d
       0.04987045 0.2597594 -0.040542364 0.10962727
0000b0 33 14 5f be 1b f4 36 be 50 f1 97 bd 56 52 41 bd
       -0.21785049 -0.17866556 -0.074190736 -0.047197662
0000c0 28 29 ef 3b 71 a4 80 3e 53 3e 87 3c c2 ce 20 bd
       0.0072986074 0.2512546 0.01650921 -0.03925968
0000d0 c6 27 00 bd ad c9 40 3e f6 f1 cc bd ba 20 ff bc
       -0.03128793 0.18826933 -0.10007088 -0.031143535
0000e0 58 a6 00 be 19 ed bc 3e 3a ed 5a 3e 4a 6d 15 be
       -0.12563455 0.3689964 0.21379557 -0.14592472
0000f0 fb e7 64 3d c9 3c 4d be 0b ed af 3c 3b a7 49 3d
       0.055885296 -0.20042719 0.021475336 0.04923175
000100 a0 77 e5 be e1 2e aa bd ef 5b 8b 3e 0b 50 af be
       -0.4481783 -0.08309723 0.27218577 -0.34240755
000110 af 4c 44 bb 5f 6f c1 be 9a 0c 9b 3e 76 f8 f1 3d
       -0.0029952934 -0.37780282 0.30283052 0.11814968
000120 6d e3 5b bd a0 a2 9b 3d f7 00 e1 be cb e5 da bd
       -0.053683687 0.07599378 -0.4394605 -0.10688361
000130 06 95 bc 3e 09 72 d0 3d 01 9b 51 be 24 76 ac 3e
       0.36832446 0.101780005 -0.20469286 0.33683884
000140 4a c7 6b bd 75 bd c0 3c 11 0b 51 bd 6a 51 56 bd
       -0.057563104 0.02352784 -0.051035944 -0.052323736
000150 ce b8 df bc 69 f6 05 3a be ab a8 be e9 41 14 bd
       -0.027309801 0.00051102653 -0.3294353 -0.03619567
000160 7f 9c f0 3c d8 3e 53 be a0 00 88 3c fe de 2a be
       0.029371498 -0.20629442 0.01660186 -0.16686627
000170 fe be ba be 53 59 76 3a ee 9e 15 3e 56 75 41 be
       -0.3647384 0.00093974656 0.14611408 -0.18892416
000180 e8 2c 8a 3c 17 82 fa 3c a6 73 79 3d 58 59 c4 bb
       0.016867116 0.03057961 0.060901307 -0.005992096
000190 87 41 2c bd b5 11 e0 bc af 16 ff bd 2d 32 92 3e
       -0.04205468 -0.027352193 -0.124554984 0.28553906
0001a0 d0 29 bf 3e 37 dd f8 bd 41 56 a9 bd b6 dd d1 be
       0.37336588 -0.121515684 -0.08268405 -0.40989465
0001b0 11 b4 ce 3d 94 51 50 3e 74 df 3c be f1 17 ff be
       0.10092939 0.2034362 -0.18444616 -0.49822953
0001c0 6a 3b be bd 5e 26 90 be 0f 37 d7 bd 6e 89 1c bc
       -0.09288676 -0.28154272 -0.105085485 -0.00955425
0001d0 f6 32 95 be 61 f1 b0 3d 32 5f 5f 3d d9 93 b5 be
       -0.29140443 0.086397894 0.054534145 -0.3546436
0001e0 ff de 24 bd 6a b1 4c bd ca 65 38 3b 08 d9 89 bd
       -0.04025173 -0.049973883 0.0028136843 -0.067308486
0001f0 bf 2e 7d bd 45 5f 24 3e ad 69 c4 be 03 68 56 bd
       -0.06181216 0.16051967 -0.38361874 -0.052345287
000200 d5 89 e3 bd 96 e5 26 3e ac 3e 9f be 14 3c 1a be
       -0.11110274 0.16298518 -0.31102502 -0.1506198
000210 37 f5 30 be c7 92 c0 be 6b 85 e5 3b 3c fe 89 3d
       -0.17281042 -0.37611982 0.00700443 0.067379445
000220 90 2d 83 3e 98 a5 33 bd 31 af 2e bd e2 6c 23 bd
       0.256207 -0.043859094 -0.042647544 -0.03989876
000230 1d 15 bc 3c 27 8f b4 bd ba 91 88 be c3 8d eb 3d
       0.022959286 -0.08816367 -0.2667368 0.11501648
000240 37 79 5e bc 80 2d 42 bc 32 0f 54 bd cb aa 0f bc
       -0.013578705 -0.011851668 -0.051772304 -0.008768748
000250 96 19 6e bc 5d 5b d2 bc 21 77 90 3e f8 24 c9 be
       -0.014532467 -0.025678331 0.28215888 -0.39286017
000260 a1 20 cd be 3a d1 4e ba c3 96 ce be 01 02 b2 bd
       -0.40063956 -0.00078894536 -0.40349397 -0.086917885
000270 83 0f 56 bc 1b 2e a8 bc 9f 92 b8 3d 54 e2 6e be
       -0.013065222 -0.020529797 0.09012341 -0.23328525
000280 cd cf 61 3c 1b ce a8 bd 77 3d 6c bd a4 6d 60 be
       0.013782454 -0.082424365 -0.057675805 -0.21916825
000290 ad f2 c5 bd e1 30 10 be a5 06 a4 be 41 b0 18 be
       -0.09665427 -0.14081146 -0.3203632 -0.14910986
0002a0 4e 23 a8 3c 06 11 29 bd df 25 e2 3d a3 06 0e bf
       0.020524647 -0.041276 0.110423796 -0.55478877
0002b0 c7 b5 26 bd 54 a0 78 bc ea 01 1b 3e 4c 09 77 be
       -0.0407007 -0.015174944 0.15137449 -0.2412464
0002c0 a8 8e 0e be 8b fe 3a bd 6d a6 a4 be e2 9c c9 bd
       -0.13921607 -0.045652907 -0.32158223 -0.09844376
0002d0 f0 eb 0b bd c4 e9 fb bc 89 1b 5a 3d c2 c5 75 bc
       -0.034160554 -0.030751117 0.053248916 -0.015000762
0002e0 76 d0 48 bd 58 42 b6 be 20 f2 92 bc a1 74 0a bc
       -0.04902693 -0.3559749 -0.01793772 -0.008450658
0002f0 ff 01 b7 be c1 90 a1 bd b6 c9 4a be 88 5e 40 be
       -0.3574371 -0.07888938 -0.19803509 -0.18786061
000300 2e b7 eb bb e9 f6 1e bd 78 55 b1 be 71 f1 e3 3c
       -0.0071934676 -0.03880969 -0.3463552 0.02782509
000310 b8 7c c5 bd f0 3e 1d 3d ed 63 8f be 71 2a 8b 3e
       -0.09642929 0.0383901 -0.28005925 0.27180818

l3.weight f4 [4, 200]
000000 45 17 bf be 58 5e 72 3c 5e e3 31 be 16 86 37 be
       -0.3732244 0.014793001 -0.1737189 -0.17922243
000010 05 33 b2 be 46 b5 84 be b9 60 71 be 7a b3 c7 3c
       -0.3480455 -0.2591955 -0.23572053 0.024377573
000020 85 db 47 bf ec aa ae be f0 99 4a be c9 04 d2 bc
       -0.78069335 -0.34114778 -0.19785285 -0.025637047
000030 b5 9e 10 3f e8 45 0a 3e 88 40 ab be b7 40 62 3d
       0.5649217 0.1350323 -0.3344767 0.055237498
000040 34 df 15 3e 4b 4b bc be 09 3e 9a 3f d9 98 98 be
       0.14635926 -0.36776194 1.2050182 -0.29804114
000050 d5 3c 60 bd c6 da e6 be e6 cd 91 bb ea e0 cf be
       -0.054745514 -0.45088786 -0.004449594 -0.40601283
000060 c6 95 36 be ac 7d f6 be 7e ff 01 bf f3 5d 04 bb
       -0.17830572 -0.48142755 -0.50780475 -0.00201976
000070 6c 15 d9 3e 16 94 bd 3f 42 87 0a bf ca ff b4 be
       0.42399156 1.4810817 -0.5411264 -0.35351402
000080 7b b0 a4 be 44 5d c0 be 64 73 1d bf 3d 67 57 3f
       -0.32165894 -0.37571156 -0.615042 0.84141904
000090 9e 44 29 3f 50 7d 0e bf 4f 3c 17 bf 03 e2 a2 be
       0.66120327 -0.5565996 -0.590764 -0.31813058
0000a0 9f 8b 33 3f a0 81 bc 3e c3 63 ec 3c 03 9a b9 be
       0.7013492 0.36817646 0.028856164 -0.36250314
0000b0 e9 cb 2d bf d5 21 80 be 86 2e 98 3d 4a 65 e3 3b
       -0.6788927 -0.25025812 0.07430749 0.006939565
0000c0 38 1f 49 3c 19 95 e4 be d8 78 9b be b3 71 15 bf
       0.01227551 -0.44645002 -0.30365634 -0.58376616
0000d0 5b 73 77 3d 60 bb 2b bf 18 63 78 bc 9a 30 fc 3c
       0.060412746 -0.67082787 -0.015160345 0.030784894
0000e0 7b b0 ab be ff 4e fe 3e 4f 94 f0 be be a0 a5 be
       -0.3353308 0.49669644 -0.4698815 -0.323492
0000f0 c1 a8 16 bf 78 e0 cc be db 89 35 3d 5c dd 7a 3e
       -0.5885125 -0.40015006 0.044320922 0.24498504
000100 8c af 22 bf db 09 86 bd 8c e0 f0 3e 69 55 90 be
       -0.63549113 -0.065448485 0.47046316 -0.28190163
000110 75 b0 95 bd 1e 61 29 bf 6e f0 f6 3e 5e 27 5e be
       -0.07309047 -0.66163814 0.48230308 -0.21694705
000120 2f 52 70 bd 48 03 71 be 9a e9 cc be a0 f2 76 3b
       -0.058672126 -0.23536408 -0.40021974 0.0037681237
000130 4a 93 07 3f 3e c9 15 bf 52 dd b7 be 98 05 d4 3e
       0.5295912 -0.58510196 -0.35911041 0.41410518
000140 98 49 04 3e 08 c0 ba be bd bb f4 3c e6 2b 81 bd
       0.12918699 -0.36474633 0.029874677 -0.06307201
000150 6f 33 8b bc 40 ef c6 be 54 a9 a8 be 93 4c 25 3d
       -0.016992299 -0.38854408 -0.32941687 0.04035623
000160 6a 33 b9 3c d1 c8 00 bf f4 16 41 3c 5c 93 e8 bd
       0.022607524 -0.5030642 0.011785258 -0.113562316
000170 dc 0e 2d bf 64 6c 83 bd 34 39 9f be c5 f5 61 be
       -0.676008 -0.06417158 -0.3109833 -0.2206641
000180 58 ab 69 3c 3f 8a 08 bf c2 48 a9 be 72 c7 25 bd
       0.014262043 -0.53335947 -0.33063322 -0.04047341
000190 bc e6 e4 bc 29 46 33 bd 26 e1 06 bf 32 92 d6 3e
       -0.027942054 -0.04376808 -0.526873 0.41908413
0001a0 db fa 15 3f 45 07 86 be 7c 20 07 3d a9 59 96 be
       0.585859 -0.2617742 0.032989964 -0.2936528
0001b0 18 ef 1b bf 05 f9 99 3e 22 39 e3 3e 74 6a 4b bf
       -0.60911703 0.300728 0.44379526 -0.7945931
0001c0 14 82 b0 3e 38 9b 2f bf 96 dc 53 3b 6d 32 59 3d
       0.34474242 -0.6859622 0.0032327524 0.053026605
0001d0 82 a9 1e bf 78 bb c3 be a5 39 a1 be c1 28 52 be
       -0.619774 -0.38228965 -0.31489292 -0.20523359
0001e0 c3 a7 36 3f 80 88 8b 3d bd 29 58 3d 4d ef 90 3d
       0.71349734 0.06813145 0.05277418 0.07076893
0001f0 c5 5a 9e be 92 cb 08 3e d2 74 02 bf cd e6 2e 3d
       -0.30928627 0.13358906 -0.50959504 0.042700578
000200 54 02 77 be 8e ba d8 3e 46 48 ac be d5 a8 b3 3c
       -0.24121982 0.4232983 -0.3364889 0.021931091
000210 d4 15 5d 3e b5 28 00 bf 06 9f 86 bc 52 97 12 be
       0.21590358 -0.50062114 -0.01643325 -0.14315537
000220 e6 73 1d bf 6f 37 83 be 2f 7e 9a 3c 10 a0 17 3e
       -0.6150497 -0.2562823 0.018858997 0.14807153
000230 09 34 25 be fc 40 20 be 40 97 4b be 76 9c 4f be
       -0.16133131 -0.1564979 -0.19881916 -0.20274529
000240 18 80 84 3d b2 88 1d 3d 51 55 27 3d a9 82 88 bc
       0.064697444 0.03846044 0.04085285 -0.016663866
000250 db 4f 3b bd b9 8a e8 3c d6 2f 18 3f 44 78 8c be
       -0.045730453 0.02838646 0.5944799 -0.27435505
000260 28 b4 a0 be a7 be 7a bd 24 40 10 bf ef 27 20 bf
       -0.31387448 -0.061216976 -0.5634787 -0.62560934
000270 da 94 b2 3d ae bf 7e 3a 75 86 17 3f 16 b9 da be
       0.087197974 0.00097178936 0.5918954 -0.42719334
000280 6d b4 9c 3d 60 b6 0c bf 50 11 b3 bc 5c cf 6a be
       0.07651601 -0.5496578 -0.021858841 -0.22930664
000290 40 9e ff bd e9 e0 c9 bc 9a 8b 98 bd 8e a6 96 be
       -0.12481356 -0.024643378 -0.07448502 -0.29423946
0002a0 66 87 ac bb ee 40 42 3f 9c 53 5b be 10 41 22 bf
       -0.005265164 0.75880325 -0.21418613 -0.6338053
0002b0 94 d0 a2 3b ab 2e e2 3d dc 66 3e 3f 38 e0 7d 3f
       0.004968712 0.110440575 0.743757 0.99170256
0002c0 78 f0 18 3e 36 e9 04 3c 0e f1 d8 3e af e3 3c 3e
       0.14935482 0.008112242 0.4237141 0.1844623
0002d0 0e 2a 89 ba fa 0f ee bc 8d d1 a3 be 16 c3 b6 3c
       -0.0010464804 -0.029060353 -0.31995812 0.022309821
0002e0 08 a9 69 bb 98 16 c3 be 20 51 e7 bd ac 45 59 bd
       -0.003565373 -0.38103175 -0.1129477 -0.05304496
0002f0 97 da 96 be 27 5a e1 ba 29 92 29 bf 3c 5e 35 bf
       -0.29463646 -0.0017193005 -0.6623865 -0.70846915
000300 c0 6d f5 3c 14 71 51 bc 84 79 28 be 91 44 be be
       0.02995956 -0.012783308 -0.16452605 -0.37161687
000310 ae 94 31 bf df c5 78 bd 02 08 b0 be eb 9d d4 3e
       -0.6936749 -0.06073558 -0.3438111 0.41526732
000320 fd 3f d1 be a2 3f 4c bd 48 0a e8 bd 61 ee 88 be
       -0.40869132 -0.049865372 -0.11330086 -0.2674437
000330 12 82 7b be 46 bb 1f be 8e 28 e5 bd 0a c1 44 3d
       -0.24561337 -0.15598783 -0.11189376 0.04803566
000340 d6 3e 42 bf 47 e3 cb be 7a 77 13 be cb d1 0a bc
       -0.7587713 -0.39821836 -0.14401045 -0.00847287
000350 bf 30 0f 3f 08 e5 3a 3e fb cf 11 bf ec 91 3b 3d
       0.55933756 0.18251431 -0.5695798 0.04579346
000360 4a 7b 12 3e 17 65 04 bf 7a 46 7f 3f 4e 2f ce be
       0.14304844 -0.5171675 0.99716914 -0.40270466
000370 00 d0 8e 3d 18 2a 74 be d6 16 b7 bc 1d 29 9e be
       0.069732666 -0.23844182 -0.022349756 -0.30890742
000380 df c7 d1 bd d7 c9 b5 be ae 1f 13 bf 09 70 8e 3b
       -0.102432005 -0.35505554 -0.57470214 0.0043468517
000390 40 9e e4 3e b1 7c a5 3f a3 01 24 bf 79 f6 f0 be
       0.44651985 1.2928678 -0.64065 -0.47063044
0003a0 9a e1 97 be f7 29 70 be a7 f1 c6 be 1c b0 5c 3f
       -0.29664308 -0.23453508 -0.3885624 0.8620622
0003b0 04 c0 6d bf ae 87 f4 be a9 b1 03 bf 90 93 5d be
       -0.9287112 -0.47759765 -0.5144296 -0.21638322
0003c0 88 4b 2f 3f e1 73 e3 3e 16 6d 35 be 79 45 d9 be
       0.68474627 0.44424346 -0.17717394 -0.42435816
0003d0 1a f1 53 bf ac 84 77 bd c2 02 ad 3c 39 9c d4 3c
       -0.82789767 -0.06042926 0.02111948 0.025953399
0003e0 77 04 d5 bc d4 b4 02 bf 62 5f 97 be 08 56 0a bf
       -0.026003106 -0.5105717 -0.2956496 -0.54037523
0003f0 55 46 4f bd 0f 7a fe be 6e 97 68 be c8 3c b0 3c
       -0.050604183 -0.49702498 -0.22714016 0.021513358

l3.bias f4 [4]
000000 06 48 3f 3e f6 7d 75 3e c7 78 6a 3e 10 37 f6 3c
       0.18679819 0.23973832 0.22897635 0.030055553
