fin/DDQN/agent-300-10-519/model.pt (torch, 340231 bytes, 6 tensors)

l1.weight f4 [400, 8]
00000000: d58a 2ebf 9f2b 69bf ce0e 7c3f 4339 7b3f
00000010: 22b1 71be 1dee 83bf 41b5 5a3e f608 83bd
00000020: 9c97 ccbb bd9a 29bc 3c26 9d3f d3ab 55bf
00000030: 2680 ef3c 2bc1 45bd 3c1b a6be cdf5 923c
00000040: b192 58bc c38b 4dbe f3ac 50bf 0ce5 6a3f
00000050: 3116 303e 0935 12be 01ac 38be ba3c eb3e
00000060: 85e3 813c a177 043c 26c5 bbbe 42cb 0940
00000070: 4dd9 063d 4c98 0f3d 3699 643f 0f1e 553f
00000080: f9bf 95be d2d0 a7be c092 5dbe 5010 f73b
00000090: 5a82 383f 0955 283f 581d 99bf af34 0abf
000000a0: 6f88 2bbf 117f df3d f079 b0be 06b7 963c
000000b0: 9e66 dd3e 5731 0abf 6397 7dbf 5784 aabe
000000c0: 037a 0f3e bfa7 bcbe d960 74bf 57b8 ff3e
000000d0: 50a9 10bf a203 f6be c9d8 2b3f 56a9 203e
000000e0: 3933 aa3f 59fc 5dbe 6ac8 02bf 9a70 b73e
000000f0: 549f cc3e 746f ebbe 0d02 58be 222e cf3e
00000100: a709 00bf 823a b8bd 93bf 37be 66df 863e
00000110: 28f2 913e 77b3 09be 1625 ebbd 7728 ba3d
00000120: 5bb0 c13e a52b b13d d49e 1a3e d012 893e
00000130: 6936 76bf 011a f9be 7e45 8dbe 92d2 123f
00000140: 4f81 8f3e 443d 63bf f0d8 47bf 38e4 b3bd
00000150: cbf6 20bf bb67 58bf 5aac 86bf dfad 9d3e
00000160: a654 78bf 63ef c9be e5cb 85bf fd11 123d
00000170: 5eb0 0c3f 4d69 19bf 7870 52be 37ae aabf
00000180: 825f c63d 5926 59bf e591 e9bd f162 68bf
00000190: 6595 a53e c83b 8d3f b035 8abd 0bf4 01bc
000001a0: c880 c0bd c0a2 953d 43b0 793e 7226 9ebe
000001b0: bd99 ed3e 4990 b63e fa34 3dbe 688a aabf
000001c0: 070f 133e 85e0 5dbe 0320 c6bd b2ed 1abe
000001d0: a713 95bf d0fc d9bd ee1d 8f3e 5756 34bf
000001e0: 677d 5c3e b545 b1bc c280 193d 080b 5d3f
000001f0: eed0 32bf 44f6 89be 73bc c6be 104f 113f
00000200: f989 803d 5e30 5ebd 7f41 e0bf cb59 b6be
00000210: 04a8 80be a548 df3e b880 6c3c 7b8e a13c
00000220: 4ab1 133e 18ed a7be 606a ddbe d619 723f
00000230: 1cc9 963e 55d6 6fbe 5a50 d7be a7c2 123f
00000240: 0ab5 31be 7215 00bd a346 9c3d 6fe2 a63e
00000250: d35d 03bf 61a4 43be 4b54 8fbe 7420 da3e
00000260: 7ff3 f3be ffc7 bfbd 45d3 f23f 5d4f a33e
00000270: 9742 e53e e8ac d6be be74 603d cdba 0b3f
00000280: e406 dfbe 9b39 6abe 4fdf 0dbe f2a8 173e
00000290: 796f 903d 5d20 acbe 6aef 29bf 63dc be3e
000002a0: 5161 973b 741e 1fbd e91b 7b3d 7cfa b53d
000002b0: 1bed bc3d a8c1 dabc 3b5d 62bf e8c9 a2be
000002c0: c269 0fbf 9ed7 6abd 134c 46bf 7f4b b73d
000002d0: 2774 1abe 152f 23bf 75f8 66bf 6e4a 39be
000002e0: fd6b b03e 1d1e db3d 8bfb a5be cc3b 113f
000002f0: 5c03 75bb bb7c 14bf aed7 9ebe 7823 343e
00000300: d60f 14bf 7a4f e8bd eb80 0cbf 25ce 953f
00000310: 47b0 853e 2be6 4b3e c82b 073e bebc 433f
00000320: 920d 32bc 866b 4e3e e9fa 7dbe ddfc 0c3f
00000330: 838e 94be 6f00 423f a0dd dfbe 6fee 223f
00000340: 2c37 71be 3b8b a8be c850 8abe a765 43bf
00000350: cf20 353e 2e1d 0f3e 72c5 e13d dd23 b23d
00000360: 4849 953f ad79 acbe 1661 b83e 2445 f3bd
00000370: 14fd 383f 30cb 7e3e 39fe 13bf 9926 3d3f
00000380: fc0b a6be bd99 4dbe c55b 8abe 7fa4 d8be
00000390: 0ae8 de3e e616 2e3e b43c 90be 7187 8ebe
000003a0: 4fdf ebbc 4a6a 23be 8eae 143f 7e3b 6e3e
000003b0: bed4 713e 9d57 663e b577 04bf 8d37 52be
000003c0: 2418 b83d fe09 0d3f 8d06 71bd 2514 abbd
000003d0: 3f41 f7bd 9dae d4bc c4ff d6be 9638 aabd
000003e0: 31de c5be 0237 06bf f591 e2be c999 54bf
000003f0: e7ba a63e 48a4 783f a0bf ca3e 2c45 2cbf
-0.6818059 -0.91082186 0.9846009 0.9813425 -0.23602727 -1.0307041 0.21358205 -0.063981935
-0.006243659 -0.010351834 1.2277293 -0.8346531 0.02923591 -0.048279922 -0.32442653 0.017939473
-0.013218568 -0.20072846 -0.815139 0.9175575 0.17195965 -0.14278044 -0.18034364 0.45944768
0.01585556 0.008085162 -0.3667385 2.1530309 0.032922078 0.03505735 0.8929628 0.8324899
-0.29248026 -0.32776505 -0.21638012 0.0075397864 0.720739 0.65754753 -1.196208 -0.5398664
-0.67005056 0.10912908 -0.3446803 0.01839782 0.43242353 -0.53981537 -0.9905912 -0.33304092
0.14011388 -0.3684673 -0.9546028 0.49945328 -0.5650835 -0.48049647 0.6712766 0.15689597
1.3296882 -0.21678294 -0.5108706 0.35828096 0.39965308 -0.4598347 -0.21094532 0.40464884
-0.5001473 -0.089955345 -0.17944174 0.26342314 0.28505063 -0.13447367 -0.11481683 0.09089749
0.3782986 0.08650903 0.1509965 0.26772165 -0.96176773 -0.48652652 -0.2759208 0.57352555
0.28028342 -0.8876536 -0.78065395 -0.08783764 -0.62876576 -0.8453328 -1.0521348 0.30796716
-0.97004163 -0.3944045 -1.0452849 0.035661686 0.54956615 -0.599263 -0.20550716 -1.3334416
0.096861854 -0.8482414 -0.1140478 -0.9077597 0.3234054 1.1033869 -0.06748521 -0.0079317195
-0.09399563 0.07306433 0.24383645 -0.30888706 0.46406356 0.35656956 -0.1847724 -1.3323488
0.14361201 -0.21667679 -0.096740745 -0.15129736 -1.1646622 -0.10643923 0.27952522 -0.70444244
0.21532212 -0.021639684 0.03747631 0.8634496 -0.6985005 -0.26945698 -0.3881565 0.56761265
0.06276316 -0.054245345 -1.7519988 -0.35615382 -0.25128186 0.4361011 0.014434986 0.01972126
0.14423099 -0.32798076 -0.4324522 0.9457067 0.2945031 -0.23421605 -0.4205349 0.57328266
-0.17354217 -0.03127045 0.076306604 0.3259463 -0.5131504 -0.19105674 -0.27993998 0.42602885
-0.4764671 -0.09364318 1.8970724 0.31896487 0.44777367 -0.41928792 0.054798834 0.5458191
-0.43559945 -0.22873537 -0.13854717 0.14810541 0.07052512 -0.3361844 -0.6638094 0.37277517
0.0046197553 -0.0388474 0.061305914 0.08885667 0.09224912 -0.02670367 -0.8842351 -0.31794667
-0.5602075 -0.057334535 -0.7745983 0.089499466 -0.15083371 -0.63743716 -0.90222865 -0.18094799
0.3445739 0.10699103 -0.32418475 0.5673187 -0.0037386036 -0.58002824 -0.31023926 0.17591655
-0.57836664 -0.11343284 -0.54884213 1.1703535 0.2611105 0.19912021 0.13200295 0.7645987
-0.010867493 0.20158204 -0.24802746 0.5507334 -0.29014978 0.7578191 -0.43723774 0.6364507
-0.23556203 -0.32918724 -0.27014756 -0.76326984 0.17688297 0.13975975 0.11023988 0.08698247
1.1662989 -0.3368658 0.3601157 -0.11878422 0.72261167 0.24882197 -0.5780979 0.7388702
-0.32431018 -0.20078178 -0.2702314 -0.42313 0.43536407 0.17000923 -0.28171313 -0.2783771
-0.028793005 -0.15958515 0.5807885 0.23264882 0.23616311 0.2249436 -0.5174516 -0.20529003
0.089889795 0.5509337 -0.058844138 -0.08353452 -0.120729916 -0.025962168 -0.4199201 -0.08311574
-0.3864608 -0.52427685 -0.4425198 -0.8304716 0.3256447 0.97125673 0.39599323 -0.6729305

l1.bias f4 [400]
00000000: 5744 35be 7087 93bb e5f6 21be 8109 96bb
00000010: c6e0 d3be 61fe 343e ba65 a2be 5e91 a5bd
00000020: 6920 a33e 1740 6a3e 867b c6be 6c05 4abe
00000030: 1a4d c9be 033b 293e 5e6e ad3e 9197 10bc
00000040: ae01 bdbc 7581 383c 1ff1 983e 1897 18bf
00000050: e946 eabe 0440 cdbd acdb 67bc 5d34 2e3e
00000060: 9348 17bf 4d56 f6bd d49b cfbd 76a0 9cbe
00000070: 10ed 593e 03cf 713e 4a4a 1cbd c10e 15bf
00000080: 058d d1be 5856 b4bd 23c0 ebbc 233d 633e
00000090: ec08 0abe 76c2 1bbf 8c7f 53be c539 a9be
000000a0: 3196 2c3d d347 e1bd 6c80 bcbe 3636 9dbe
000000b0: 89fb dbbe 2c79 12bd 08a5 a73d 4c2b d73d
000000c0: 6293 1bbe 94fa 4fbd 99e5 b2bc 5d1c 983e
000000d0: 9078 c5be 0a5a 513c 1746 403e 7f1f 79bc
000000e0: 9ad4 4d3e d215 5bbe 13dc 91be cf42 30bf
000000f0: cbd7 ddbe a9c0 64be 316d 8fbd 8aea fcbe
00000100: 9841 643e 939e 063e 1162 9a3e 4142 72bd
00000110: 4450 93be d61a 6b3e eb2c e73d 0176 e0be
00000120: f724 15be 6f69 aa3d 6438 853e 0d22 0abc
00000130: 4d4f 4a3e a081 df3a d314 d7bd df1f cebd
00000140: 3868 733e 9b55 8cbe 877b 04be 48ae cebe
00000150: d25b 0bbf 82a5 0fbf d89f adbe 90c0 863e
00000160: 6f0a 5cbd 8a05 863e b872 723e afcc a8be
00000170: e04d c4bd 3014 f3bd 552b 26bd 8526 1d3f
00000180: f4ba c4be 4b2a 25bf 0e3d c5be 9472 34bf
00000190: 81c5 d83e 6bd3 8abe 3fcc 2e3e a4ed 4abe
000001a0: 192f 9b3e e4bb 43be 2d7d 12bf 5918 10bf
000001b0: 8c98 08bf 1b7c b0be 2c70 f0be 80a1 abbd
000001c0: dfb3 f73e 090e b7be 4cd2 623e db97 c3be
000001d0: 2f1d e2be 83f6 61bd 95e8 4dbf 7857 c8be
000001e0: 5f0a 253e 4ed7 be3d 921d 0f3d af89 143f
000001f0: 030e 2e3d 11d2 8fbb 27d4 3c3e 27c2 adbb
00000200: 4ad9 36bd c3a1 573e 1eb0 abbe e55e 0dbe
00000210: 2061 f63d a632 873d a380 04bf 9137 84ba
00000220: b382 ee3e 244d 47bf cb2e d5be db86 c5be
00000230: 1ed5 a8be 7fc0 3b3b a9cb 7dbd da0f c9bc
00000240: 3199 b2be 6cf8 a63d fa01 713d dccf 13bf
00000250: ac83 0dbf f289 7bbe 5146 5fbd 0ab9 1dbf
00000260: da30 68bd 7602 abbe 8be4 893e b699 b0be
00000270: 0092 febe 69f0 b13e 71ef 913d c416 04bf
00000280: f19b ae3b 3fa6 473e 75f9 9ebe 0f6c 283d
00000290: 3248 a7be 53a2 a33e 716e 10bc cef5 1ebf
000002a0: 2acb 203d ff69 1bbe 5964 5fbf 9383 10bf
000002b0: 1ec2 dcbd 60f0 adbe d0d5 823e e68c 20be
000002c0: 80a5 f23d f51a 323d 413b 9e3e 135b 2cbf
000002d0: fae1 1e3e ba09 9a3e 268a f5be bc05 d5be
000002e0: edc3 863e 41e8 ae3e 1491 b3bc c45c 913e
000002f0: 3b21 36be 8121 c9bd c871 efbe a28e 6e3e
00000300: 2385 a7bb 1430 55be 3fbb b8be 82b8 aabd
00000310: f069 8f3e 2357 b53e 8e48 fe3c 8c4d 35bd
00000320: c86a 46bc b17b 06bf ff0b 3fbe 0943 893a
00000330: d718 bb3e 48e4 873e 0e20 b13d 3eb8 22bf
00000340: fe24 2bbf 5fd9 51be f7cb 63bc 65bc 3a3e
00000350: 2606 93be d78c a5bd fb86 4ebd 3ed7 b33e
00000360: ec2e a7bb 1bf5 223e eb87 45bf a9e9 013e
00000370: 0280 46be acfb 12be 3fac 05be 0807 d6bd
00000380: 63c9 ecbe 88df 61bc 331b 91be 6498 1ebe
00000390: 99bd 60be 8d74 c13e 4010 a23e cccf f6be
000003a0: 60a9 5fbf 289e 543d 7f47 2ebf 18d1 17bd
000003b0: 84f0 3dbe 8987 a73e cc91 9a3e a4d3 16bf
000003c0: b504 763e aa0d adbe 8e8e a13e 8443 5dbf
000003d0: 5875 15bf 4c46 5a3d 7a66 d8be 432c 5bbf
000003e0: 6a45 33be ae23 a9be 5b18 86be fb16 6a3e
000003f0: 2e93 85bd 0975 91bc fa0e 773c 130d edbe
-0.17701851 -0.0045022294 -0.15816839 -0.0045787697 -0.41382426 0.17675163 -0.31718236 -0.08084367
0.31860664 0.22876011 -0.38766116 -0.19728631 -0.39316636 0.16526417 0.33873266 -0.008825199
-0.02307209 0.011261334 0.2987146 -0.5960555 -0.45757225 -0.10021976 -0.014151495 0.17012163
-0.59095114 -0.12028179 -0.10137144 -0.30591172 0.21281838 0.23614125 -0.038156785 -0.5822564
-0.40927902 -0.08805531 -0.028778141 0.2219129 -0.13479966 -0.608436 -0.20654124 -0.33051887
0.04213542 -0.110000275 -0.36816728 -0.30705422 -0.42965344 -0.03576009 0.08185774 0.10506305
-0.15192941 -0.05077608 -0.021837996 0.2970914 -0.38568544 0.012777815 0.18776737 -0.015205263
0.20100632 -0.21395043 -0.28488216 -0.6885194 -0.433287 -0.22339119 -0.070032485 -0.4939769
0.22290647 0.13146429 0.30152944 -0.059145216 -0.28772175 0.22959456 0.11287864 -0.4384003
-0.14564882 0.08320891 0.26019585 -0.00843097 0.19756813 0.0017052181 -0.10502019 -0.10064673
0.23770225 -0.27409062 -0.12937747 -0.4036734 -0.5443698 -0.5611192 -0.33911014 0.2631879
-0.053720888 0.261761 0.23676574 -0.3296866 -0.09585166 -0.11869085 -0.04056867 0.613869
-0.38423884 -0.6451766 -0.38523144 -0.7048733 0.42338184 -0.27114424 0.17070101 -0.19817215
0.3030937 -0.19114643 -0.57222253 -0.5628715 -0.5335777 -0.34469685 -0.4696058 -0.08380413
0.48379418 -0.35752895 0.22150534 -0.38201794 -0.4416289 -0.055166733 -0.80433017 -0.39129233
0.16117238 0.0931841 0.03494031 0.5802259 0.04249383 -0.0043890555 0.18440305 -0.005302686
-0.044640817 0.21057801 -0.33532804 -0.1380573 0.12030244 0.06601457 -0.51758784 -0.0010087361
0.4658409 -0.7785208 -0.41637263 -0.3857945 -0.32975096 0.0028648672 -0.061961804 -0.024543691
-0.348825 0.081528515 0.058839776 -0.57739043 -0.5527904 -0.2456434 -0.05451042 -0.6161047
-0.056687213 -0.33400315 0.26932177 -0.34492272 -0.49720764 0.3475373 0.07125748 -0.5159724
0.0053286483 0.19497012 -0.31049696 0.041118678 -0.32672268 0.3195978 -0.008815394 -0.6209382
0.039256252 -0.15177153 -0.87262493 -0.56450766 -0.107792124 -0.33972454 0.2555375 -0.15678748
0.11847973 0.04348274 0.30904582 -0.6732647 0.1551589 0.30085546 -0.4795696 -0.41605937
0.26321355 0.3416157 -0.021919765 0.28391087 -0.17786114 -0.098208435 -0.46766496 0.23296598
-0.0051123067 -0.20819122 -0.36080357 -0.08335973 0.2801051 0.35418043 0.031040456 -0.044263408
-0.01211042 -0.5253249 -0.1865692 0.0010472249 0.3654239 0.26541352 0.08648692 -0.6356238
-0.6685332 -0.20493077 -0.0139036095 0.1823593 -0.28715628 -0.08083504 -0.050421696 0.35125154
-0.005102029 0.15913813 -0.7716052 0.1268679 -0.19384769 -0.14353818 -0.13053988 -0.1045056
-0.46247396 -0.013786204 -0.28341064 -0.1548782 -0.21947326 0.37784234 0.31653023 -0.4820541
-0.8736782 0.051908642 -0.68077844 -0.03706464 -0.1854878 0.32720593 0.3018936 -0.5891669
0.24025233 -0.33799487 0.31554073 -0.86431146 -0.5838218 0.053289697 -0.42265683 -0.85614413
-0.17506948 -0.33035034 -0.26190457 0.22860329 -0.06522213 -0.017756002 0.015079254 -0.46299037

l2.weight f4 [200, 400]
00000000: c497 7dbe 62f1 1dbe 6b40 603d 5024 543e
00000010: d7d9 3e3e 05cc 493d f9d8 efbd 8dcf 1b3c
00000020: 24e9 84be 1b19 25be ae5b b93e 714f 2b3f
00000030: 21bc 09bf 7adf 1c3d a32d ddbe 5e0d adbd
00000040: d502 edbe e451 153d 772f 75be 15df c7be
00000050: 1fb7 5c3e 31f4 263a 7639 cebd 87c1 ffbd
00000060: 6af2 0abf 2e23 ef3d 9070 f1be 6fce 663d
00000070: 7040 b2be 6d6b a3bc a77c f5bd 1f30 fcbe
00000080: dd89 2f3d eabe d5bc ab31 3dbe 3971 15bd
00000090: bdc8 acbe 1bb1 943d 8acd 26bf 7bf1 393c
000000a0: 5bcb 0ebe dc30 6fbe d823 083e c8df 003e
000000b0: f781 8e3d 719f c1bd 39cf 61bf db97 eebd
000000c0: cb99 1d3e 9bad 4a3d 0d99 30bd 75e3 49be
000000d0: 1ff3 abbd dd52 f9bd 2236 803c 132f 3e3d
000000e0: 9aa4 a63a 5f26 b6bd 5704 113e dcaf a2be
000000f0: 4463 c1be f021 1bbd da74 33bf 496f 9dbe
00000100: 4f56 03be ef42 17bf 8a20 b53c d7a1 63be
00000110: 9240 fc3c c67c 183d 3671 96bd 97d4 87bf
00000120: c284 053e cadc f33e 8adb 82bc 4652 233f
00000130: 1b86 8fbb cb69 deba 9cc1 ad3d 5570 803c
00000140: 46db 5ebe 01dc bbbd 30f3 72bf b182 55bc
00000150: 879f 21be 7fc1 14bf dda9 86be 9e99 90bd
00000160: cb7a e53e c4e8 c7bc 064b 883d b707 85bf
00000170: 2225 c7be 6c27 f23c 514c fcbe dea1 a0bf
00000180: e500 bbbd 5b9f 1d3f c346 383e 4dc4 dc3d
00000190: fb41 1fbf 4cda b5bd 2504 9cbe a910 2dbe
000001a0: 0a16 78bf e231 f0be 5bf9 833d ba05 b4be
000001b0: b3a4 d6be 56a3 853e d352 c2bd 2f57 153d
000001c0: 24da 26be 4287 87be e1e1 48bd 4cd0 07bd
000001d0: 7ea5 023e ef1b c8bd 81f1 33be feb0 313d
000001e0: 06dd a13d 0064 cdbd f15a 33bf e02b eebe
000001f0: 3efa acbd 7472 bf3e 1dcf d7bd 7279 a13e
00000200: 3ad7 93be 7563 2f3c 2d8a 203e 7868 a33d
00000210: 39cd a4be 94f0 073c 6e0a bdbe 19b9 afbd
00000220: c56d f9bc 634e 84be 4011 de3d 1737 a13d
00000230: 4144 0fbe 6956 00bf f8bd 4abe 9822 53bb
00000240: ac8d 1ebe f890 b13c 50b7 6dbc 86c6 4cbf
00000250: e6a8 15bf 3297 103e c91c 6f3e 0ea6 d9be
00000260: 47ad b93d 1b96 31be 739e 00bf b818 7cbe
00000270: ab49 0dbf 6fd5 693d 8d97 37be b777 95bc
00000280: 19fe f138 f25e 7ebe 790b 373e bce6 50bd
00000290: c2df bf3d dc66 59be 85a5 51be 98a0 713c
000002a0: 1257 d43a ffd9 44be 7a70 1f3f b6c9 18bf
000002b0: fd6f 82be 9573 1e3e 94c4 88be 883d 25bf
000002c0: e6fd 54be 35dc 9abd 2705 c13d d109 153e
000002d0: ad0f b3bd 1b9a 70be 85d4 d63d 2cc0 1a3f
000002e0: 7b90 8bbe 5fb8 ddbe 493b 1b3e 3619 35bd
000002f0: 4124 74be e0de f4bd 457a 743d c444 e0bd
00000300: 0ada 873f 23ba b43c 17ea 1dbe 51fc a2be
00000310: 4e16 e73b 4110 8f3b ce86 7fbe 5120 91be
00000320: 40a5 3cbd eef7 b1be 5cd6 233c d14c 0a3f
00000330: da8d 9fbd a10b 51bd 73f7 c4bd 69bd eebe
00000340: 19d6 91be a734 2fbc 8347 b9bd bb4c adbe
00000350: ec79 29bf 2925 ea3d e457 fc3c f169 f4bd
00000360: 1bd8 4cbe 4db5 873d 12e4 1abf c631 5fbf
00000370: 2a22 25bd 83a3 0bbe 2ebc 38bd e0fe 26bf
00000380: 8567 1fbd 4e96 94bc 7926 f8be 1374 85bd
00000390: 4191 babe a5b8 adbe a67e b3bc cc1a d6be
000003a0: 1e2d c3be a7de 25be 293c 04bf 2f29 973b
000003b0: 00e4 8339 9997 0dbe 9a4e bbbd 08aa f5bd
000003c0: 7eae fdbd 0fd8 ca3c 7837 d63e 5e25 2a3d
000003d0: 2785 c4be 2f64 dcbd b3f9 b43c e572 c8be
000003e0: fe94 a5bd bac6 873c b9ce 303e 87e8 dabd
000003f0: 0b15 083e 9b65 113d cd95 09be a430 babe
-0.24764925 -0.15424111 0.054748934 0.20716977 0.18637787 0.049266834 -0.11711306 0.009509933
-0.25959122 -0.16122858 0.3620276 0.6691809 -0.53802687 0.03829906 -0.4319888 -0.08449815
-0.46291223 0.03645505 -0.23943888 -0.39037386 0.2155423 0.0006368785 -0.100695536 -0.12488084
-0.54276145 0.11676632 -0.4715619 0.056349214 -0.34814787 -0.019948686 -0.11986666 -0.49255463
0.042856086 -0.026092011 -0.18475978 -0.03648493 -0.337469 0.07260343 -0.6515738 0.011349077
-0.13944761 -0.23358482 0.13294923 0.12585366 0.069583826 -0.09454239 -0.8820682 -0.11650058
0.15390699 0.04948197 -0.04311471 -0.19715674 -0.08395981 -0.12174008 0.015650813 0.046431612
0.001271385 -0.088940375 0.14161812 -0.31774795 -0.37771046 -0.037874162 -0.70100176 -0.30748966
-0.12825893 -0.5908651 0.022110242 -0.22229706 0.030792508 0.03722837 -0.07345812 -1.0611752
0.13038924 0.47629386 -0.015973825 0.63797414 -0.0043800003 -0.0016968785 0.08484194 0.015678564
-0.21763334 -0.09172822 -0.94902325 -0.013031648 -0.15783511 -0.5810775 -0.2630147 -0.0706055
0.44820246 -0.024402983 0.066549346 -1.0392979 -0.38895518 0.029559813 -0.49276975 -1.2549398
-0.0913103 0.6157128 0.17995743 0.10779629 -0.62210053 -0.088795274 -0.30471912 -0.16900887
-0.9690863 -0.46913058 0.06444045 -0.3516062 -0.4192253 0.26101178 -0.09488454 0.036460098
-0.16294152 -0.2647038 -0.04904354 -0.03315763 0.12758443 -0.09770953 -0.17572595 0.043381684
0.07903485 -0.10028839 -0.7006064 -0.4651785 -0.084461674 0.37392008 -0.105375506 0.31537968
-0.28875142 0.010704865 0.1567771 0.0797891 -0.32187822 0.008297104 -0.3692202 -0.085802265
-0.03044785 -0.25841054 0.10843134 0.07871836 -0.1399088 -0.5013185 -0.1979903 -0.0032216664
-0.15483731 0.021675572 -0.014509037 -0.7999042 -0.58460844 0.14120176 0.23350824 -0.42509502
0.09066253 -0.17342417 -0.50241774 -0.24618804 -0.55190533 0.05708831 -0.17928906 -0.018245561
0.00011539105 -0.24840906 0.1787547 -0.051001295 0.0936885 -0.21230644 -0.20473297 0.014747761
0.0016200265 -0.19223784 0.62281 -0.59682786 -0.25476065 0.15473779 -0.26712477 -0.64547014
-0.2079998 -0.075615324 0.09424811 0.14554526 -0.08743224 -0.23496287 0.10489754 0.6044948
-0.27258667 -0.43304726 0.15159334 -0.044213496 -0.23841955 -0.119565725 0.059686918 -0.10950616
1.0613415 0.022061413 -0.1542133 -0.31833127 0.0070522195 0.0043659513 -0.24953768 -0.28344968
-0.046056032 -0.34759468 0.009999838 0.5402346 -0.07790728 -0.05103648 -0.0961751 -0.46628883
-0.28483656 -0.010693706 -0.09046843 -0.33847603 -0.66201663 0.11432869 0.030803628 -0.11934269
-0.20004313 0.06626377 -0.6050426 -0.87185323 -0.040315785 -0.13636594 -0.045101337 -0.6523266
-0.038917083 -0.018138077 -0.48466852 -0.0651628 -0.36438945 -0.33929935 -0.021910977 -0.4181732
-0.3812036 -0.16198216 -0.516543 0.0046130638 0.0002515614 -0.13827361 -0.091458514 -0.119953215
-0.12386797 0.024761228 0.41839194 0.041539542 -0.38382837 -0.10761296 0.022091722 -0.39150158
-0.08085059 0.016574252 0.17266358 -0.10688882 0.13289277 0.03549729 -0.1343605 -0.36365235

l2.bias f4 [200]
00000000: 5df3 99bd f6a1 00be 43a2 9cbd 0e14 353e
00000010: c236 873e f4a2 0fbe d6f7 d6bc 9d3f 6fbd
00000020: e127 92bb 4fd8 64bd 28af 1abe 5635 4f3e
00000030: 6ff0 253e e6cc afbe 71d9 3b3e f998 333e
00000040: dde9 67be f621 bd3c 38a4 13be e8c0 273b
00000050: 48f7 e33d 70bf 95bc d863 a9bd b172 9a3d
00000060: 128a 0dbd 90e3 efbe 9b24 2e3e 6e5f 813d
00000070: 402e 2abb 238a 613d 69da 313e 8732 d5bd
00000080: e52c 5f3e f6fd 163d bf9d 3abe 95b6 6dbd
00000090: 4e25 99bd a1a7 0bbe ee6c 943d a700 0c3e
000000a0: ac10 32bf bb0d 1cbd abd4 8ebc a6ff 53bc
000000b0: bd44 d1bd ef4c babd 70e7 6e3d 9ec0 9d3e
000000c0: 830c 3bbe cea6 32be 5800 723c 66f1 77bd
000000d0: 7892 d23d daf9 8e3e e0a5 123e 4f07 9dbe
000000e0: b559 13be 33ff b0bd a70d 86bc 2721 b23c
000000f0: 3bc9 5abe ddfa 02bc 5aff 0ebd ef79 573c
00000100: ef74 9fbd 57e4 c6bc cdcf f9ba a4c1 e43c
00000110: 850f 94bd 9161 e8be a7dc 7c3e 668d d43c
00000120: a719 2f3e 2615 08bd f0be f5bc 1dc9 57be
00000130: 41d6 70be ce62 5dbe 3ea1 4f3e a5a9 ee3a
00000140: 501c 92be 9dfe 06be b347 bd3d 0e45 3ebc
00000150: c7aa 9cbe 1e06 24bd c28a be3d 3251 3e3e
00000160: cce5 963c ab9b dcbd 01e9 78be 10c9 d53d
00000170: b7b7 bbbe 87b1 b1be cacf f13c aae4 553e
00000180: 5c9e 0a3d 63f5 80bd a51c 833e 2a16 693d
00000190: eddb 53bd 31f9 433e 8219 8e3d 9d94 eebd
000001a0: 8c26 eabb b084 45be ef7f 2d3d 0d7c 24bd
000001b0: 5bb7 e6bd de54 d6bc f554 09be a504 183e
000001c0: 3e0b b3bd f456 883c 1be4 833e 743c 11be
000001d0: 19fd d73d 4046 1a3b dd3f 8f3e 4afb 98be
000001e0: b14f adbd a731 6d3e c6ee a4bc 05be 35be
000001f0: 2b15 f83d ab05 373e f42b b73d 3abe 57be
00000200: f95e f6bd 5e01 ffbc 85db 443e 1c69 a93d
00000210: 5287 373e 48d8 173d 5530 4fbf 107b ccbd
00000220: 71ac 5d3e 5d26 1bbe 3061 c2bc 668d c7bd
00000230: 13db 0fbe dfb9 bdbe ea25 a9bd dd95 14be
00000240: 307b b83b 7488 b1bd f061 2f3e 5904 e43c
00000250: aebf 37bd 188e 1a3c 1664 6fbe 9a06 59bd
00000260: edb8 4fbe 3cbf 73be 78cc f3be 89aa 3dbd
00000270: 2e5c 6d3e fe8e 31bd 8fd7 e2bc b781 133e
00000280: d4ce 10bd d62c 553e 2bd9 163e 37ef 0ebe
00000290: 42c5 803d 16f1 933e d5f2 b9bb 422a 5abc
000002a0: 8487 403e e195 77bd 682a 413e a4f9 1bbe
000002b0: d182 8b3d 63c0 423b 571f 0fbd c9f6 393e
000002c0: a765 923e f0fe 55bf 7d41 cb3b 0e4f e5bd
000002d0: 3c72 043e f80b 49bd 0eaa 42be a632 41bd
000002e0: 0c6a 80bd b822 38be 0668 553e 64e8 03bf
000002f0: babe 893e 255c e33c fbd3 073e 0c7b 9ebe
00000300: 22b6 15be 3948 743c e901 f4bd 2b95 bebc
00000310: d082 293e ccd5 8ebe 4303 a93d 3ae1 463e
-0.07517121 -0.12561783 -0.076481365 0.17683432 0.26408964 -0.14027005 -0.026241224 -0.058410276
-0.0044603203 -0.05587035 -0.1510588 0.2023519 0.16205 -0.34336013 0.18344666 0.17538823
-0.22647806 0.023087483 -0.14418113 0.0025597159 0.111311495 -0.018279761 -0.08270997 0.07541407
-0.034555502 -0.46853304 0.17006151 0.0631703 -0.0025967509 0.055063378 0.17368473 -0.10410028
0.2179447 0.03686329 -0.18224238 -0.058035452 -0.074778184 -0.13638164 0.07247339 0.13672124
-0.6955669 -0.038099032 -0.017435392 -0.012939369 -0.10218189 -0.09096705 0.058326185 0.30811018
-0.18266492 -0.17446443 0.01477059 -0.06053295 0.10281843 0.27924997 0.14321089 -0.3066964
-0.1438969 -0.086424254 -0.016363932 0.021744324 -0.21365826 -0.007994381 -0.03491149 0.01315163
-0.07785975 -0.024278803 -0.0019059122 0.027924366 -0.072295226 -0.45386937 0.24693547 0.02594633
0.1709963 -0.033223294 -0.029998273 -0.21072812 -0.23519231 -0.21619722 0.20276353 0.0018208517
-0.28537226 -0.13183065 0.09242191 -0.011613144 -0.30599043 -0.040044896 0.0930381 0.18585661
0.018420123 -0.10771879 -0.24307634 0.1043874 -0.366636 -0.34705755 0.029518027 0.2088801
0.03384243 -0.06296804 0.25607792 0.056905903 -0.05172341 0.19138028 0.06938459 -0.116494395
-0.0071457084 -0.19288898 0.042358335 -0.040157367 -0.11265441 -0.026163515 -0.13411315 0.14845522
-0.08742379 0.016643025 0.25759968 -0.14183217 0.105463214 0.0023540407 0.2797841 -0.29879218
-0.084624656 0.23163472 -0.020133387 -0.17748268 0.121134125 0.17873256 0.0894393 -0.2106866
-0.12029833 -0.031128582 0.19224365 0.08272001 0.17922714 0.037071496 -0.80933124 -0.0998441
0.21647812 -0.15151353 -0.023727983 -0.097437665 -0.14048414 -0.3705587 -0.08259185 -0.14510293
0.0056299195 -0.086686045 0.17127204 0.027834104 -0.044860534 0.009433292 -0.23378024 -0.05298481
-0.20285387 -0.23803419 -0.47616935 -0.046305213 0.23179695 -0.04334926 -0.027690677 0.14404951
-0.035353497 0.20817885 0.1473128 -0.1395844 0.06287624 0.2889487 -0.0056747 -0.013315739
0.18801695 -0.06044567 0.18863833 -0.15231949 0.068120606 0.0029716722 -0.034941997 0.18160547
0.2859318 -0.8359213 0.006202875 -0.11196719 0.12934202 -0.04908368 -0.19010183 -0.047167443
-0.06270227 -0.17981994 0.20840463 -0.51526475 0.26903325 0.027753899 0.13264458 -0.30953252
-0.1462026 0.014909797 -0.11914427 -0.023264488 0.16553807 -0.2789749 0.08252575 0.19421855

l3.weight f4 [4, 200]
00000000: e857 a03e fa37 1ebe a167 853e bcfd 863e
00000010: a1a9 113f 0c0b 463e c757 a33d bc66 9b3d
00000020: c65a 1ebe c14e 7a3d 9ab7 8abe fb78 913e
00000030: 5e63 403f c2f7 dabe 6d0c 963e c513 00bf
00000040: 7350 4a3f c626 4fbd b18f 1c3f f5ed 2fbe
00000050: 4d66 59bf 8b7a fabb 93cc 4b3f 6bd7 97be
00000060: f0ce f7be 5109 c83e 55ee 62be 9928 3ebe
00000070: 1b44 41bd 0277 00be 696c 15bf 1388 af3e
00000080: 54d9 e63e 975c 443f 13f3 6c3d ddf2 09bd
00000090: 7954 f23e 4c37 62be 8190 54be d5c5 dd3e
000000a0: 5b81 43bf c255 32be a1ca c5be c905 ca3c
000000b0: d39d 123e 5d4b 033f 75d5 96be 9a6f 2f3f
000000c0: 353d 633f 78dd f6be 2513 ff3e 72dc 6b3e
000000d0: dd2e 95be 0e7f c73e 4e2c 0e3f 4770 b93f
000000e0: c216 ee3e 0149 373e e6e5 96be 5040 cfbe
000000f0: 882f 26bd 4ab2 33be 4736 51bd bcb4 69be
00000100: 7f15 fcbe 82f0 43bc a353 b7bc 48e9 a93e
00000110: bbbf 8c3e fe49 3cbf 8295 0b3f c723 5ebb
00000120: f185 7e3e 22a1 903f c5a8 773f 217a 01bf
00000130: 98d9 29be cc00 a0bf f15f 7b3e 8315 29be
00000140: 9262 5d3e 82ac d53e 51bf 88be 37c1 c8bb
00000150: 3a7f 4dbe 8289 87be 2caf cbbe f328 183f
00000160: bacf 163f e50b 393e 61f5 9d3e d418 f43e
00000170: f1b7 92be 2194 02bf 0570 4a3e cf34 5d3e
00000180: 40ec 28bf 2c71 d83c 54a4 213f 6a29 15bf
00000190: e785 ab3c 23e2 7e3e 9ec9 43be a6f4 923f
000001a0: 9dc5 84be 4736 733d ae07 87be 1d3a 44bf
000001b0: 9f14 d039 5f88 62be b7f2 923e 9180 cabe
000001c0: cb4a fc3f 50a8 8e3e 5451 ed3e b8b1 6d3e
000001d0: 8b0f 97be bc28 babc 0917 ff3e 1ce0 053f
000001e0: eeed c6bc 2f22 283f e87e 98bc ff73 3cbe
000001f0: 99ed 373e a9aa 563e 0f2b 3cbc 9495 4e3f
00000200: dd63 86be 7aa1 823d fd8c 643e d12a 933e
00000210: 465c 683f b0b3 26bf 5d30 29bf 1364 2cbe
00000220: b801 8f3e 47f2 2d3e 4551 86bd c802 cf3e
00000230: e101 623f b626 2fbf c65f da3e 13eb ffbe
00000240: 9c04 0dbe df69 c8be 0e55 803e b89a 02be
00000250: 5907 ed3e 45ff 61be 6fd2 553e ca28 f3be
00000260: 188d 21be 85de 02bf e366 04bf 4bb5 613d
00000270: c307 cf3e 094a 12bd 468f 083f 4909 4a3e
00000280: 5a03 ebbc 47c6 7dbe 6bb8 fabe d5e3 9bbe
00000290: 2474 6cbe 7c0d cd3e b6bc 94bd 6fe0 f5bc
000002a0: 1a48 3c3f 1698 d3be d623 d63e 44f0 c63f
000002b0: c1b9 6fbe e016 a1bb 1309 64bd ff94 8e3e
000002c0: ee01 b83e 42b7 14bf b9dd 41bd 0d65 913e
000002d0: 6232 e13e de69 22bd e368 6cbe dc9d 80bd
000002e0: d1c1 c0be 95d5 483f 89cf dcbe 77b6 2c3e
000002f0: ecf7 ab3e 25ae 5fbe c995 323f 0afc a6bd
00000300: af39 0dbe 79f6 e33c 8943 793e afaa 4a3c
00000310: 6736 f6be c505 f7be aad1 a3be 1613 873e
00000320: ae0e 953e 2f71 6f3e f8db 893d cf95 903e
00000330: 2940 1a3f 196e 593e 0b99 6a3d 2329 c4be
00000340: f515 abbd 602b f83b 2601 80be 7284 953e
00000350: efa1 503f 794f 14bf 297d d53e 8722 e2be
00000360: 46e4 363f 96ea 793d 5e2f 073f 37ba 683e
00000370: 3c57 44bf 74b8 bb3c 339f 19bd 2605 adbe
00000380: b4dd 35bf 9a7f 123f 8e56 0dbe 60ca acbe
00000390: 3c50 15bd 3817 06bd 53b9 1ebf ede1 763e
000003a0: d5c0 9b3e 4bb3 4c3f e399 97be 338c 023d
000003b0: 61a9 f03e 7201 85be bab7 87be cd0c ec3e
000003c0: 29e3 9abf 9af9 61be 80ba cdbe 4b22 313d
000003d0: 59eb 45bd 6f1e 573f 15be a2be 0509 3c3f
000003e0: 8498 503f b8a7 03bf 6eff 013f 3cfc 513e
000003f0: 4140 88be 2eb1 003f 9564 113f 0f41 983f
0.31317067 -0.15451041 0.26055625 0.2636546 0.5689946 0.19340152 0.079757266 0.075879544
-0.15464315 0.06111026 -0.27093202 0.28412613 0.7515162 -0.4276715 0.29306355 -0.50030166
0.79029006 -0.050574087 0.61156756 -0.17180617 -0.84921724 -0.007644003 0.7960903 -0.29656538
-0.48400068 0.39069608 -0.22161229 -0.18570174 -0.04718409 -0.12545398 -0.58368546 0.34283504
0.45087683 0.7670378 0.057849 -0.033678878 0.47330073 -0.22091407 -0.20758249 0.43314996
-0.76369256 -0.17415527 -0.38631156 0.024660962 0.14318018 0.5128687 -0.2945973 0.68529665
0.8876527 -0.48215842 0.49819294 0.23033312 -0.29137316 0.38964123 0.55536354 1.4487389
0.46501738 0.17898943 -0.29472274 -0.40478754 -0.040572673 -0.1754848 -0.051077154 -0.22822851
-0.4923515 -0.011959197 -0.022378748 0.33185792 0.2749003 -0.73550403 0.54525006 -0.0033895837
0.24855782 1.1299174 0.96741897 -0.5057698 -0.16586912 -1.2500243 0.24548317 -0.16512112
0.21619633 0.41733176 -0.26708463 -0.0061265486 -0.20068064 -0.26472098 -0.39782083 0.59437484
0.58910716 0.18070944 0.30851272 0.47675192 -0.2865596 -0.51007277 0.19769295 0.21602176
-0.6598549 0.026421152 0.6314137 -0.5826632 0.020937873 0.24890952 -0.1911988 1.1480911
-0.25932017 0.059377935 -0.26373047 -0.76651174 0.00039688215 -0.22122334 0.28700802 -0.39551213
1.9710325 0.27862787 0.4635111 0.23212326 -0.29504046 -0.022724502 0.49822262 0.5229509
-0.024283376 0.6567716 -0.018615201 -0.18403624 0.1796173 0.20963539 -0.011484875 0.8069699
-0.26248065 0.063784555 0.22319408 0.28743604 0.907658 -0.6511793 -0.6608942 -0.1683505
0.27931 0.16986953 -0.0655847 0.4043181 0.88284117 -0.68418443 0.42651194 -0.49984035
-0.1377129 -0.39143273 0.25064892 -0.12754333 0.46294668 -0.22070034 0.20881055 -0.47492057
-0.15776479 -0.5112079 -0.5171949 0.055104535 0.4043561 -0.035715137 0.5334362 0.19730105
-0.028688122 -0.24782668 -0.48968825 -0.3044726 -0.23091179 0.4004935 -0.07262556 -0.030014245
0.7354752 -0.4132697 0.41824216 1.5542073 -0.23410703 -0.004916057 -0.055672716 0.2784805
0.35938972 -0.5809213 -0.04733059 0.28397408 0.43983752 -0.039651744 -0.23086886 -0.06280109
-0.3764787 0.784509 -0.43127087 0.1686648 0.33587587 -0.21843775 0.69759804 -0.081535414
-0.13791536 0.027827488 0.24342169 0.012369796 -0.4808838 -0.4824659 -0.31995898 0.2638175
0.29112762 0.2338302 0.06731409 0.28239295 0.6025415 0.21233405 0.05727486 -0.38312635
-0.08353797 0.00757353 -0.25000876 0.2920261 0.8149709 -0.57933766 0.41697052 -0.44166967
0.7144207 0.061014734 0.5280665 0.22727285 -0.7669561 0.022915103 -0.03750534 -0.3379299
-0.7104142 0.57225955 -0.13802549 -0.3374815 -0.03645347 -0.032736987 -0.6200153 0.24109621
0.30420557 0.7996108 -0.29609594 0.031871986 0.47004226 -0.25977665 -0.2650736 0.46103516
-1.2100574 -0.22067872 -0.4018135 0.043245595 -0.04832015 0.8403081 -0.31785646 0.7345126
0.8148272 -0.51427794 0.5078038 0.20506376 -0.26611522 0.50270355 0.567941 1.1894854

l3.bias f4 [4]
00000000: fd50 643e 0353 eb3e c613 653d b0b9 10bd
0.2229652 0.4596177 0.05592706 -0.035333335
