fin/DDQN/agent-300-10-519/target_model.pt (torch, 340543 bytes, 6 tensors)

l1.weight f4 [400, 8]
0	0xbf2eaf2e	-0.68236053
1	0xbf68fc75	-0.9101022
2	0x3f7bd587	0.9837269
3	0x3f7b7c48	0.98236513
4	0xbe717e3d	-0.23583312
5	0xbf83cc41	-1.0296708
6	0x3e5b366a	0.21407476
7	0xbd803752	-0.062605515
8	0xbbd49894	-0.0064879153
9	0xbc2abf44	-0.010421578
10	0x3f9d34b2	1.2281706
11	0xbf55a381	-0.8345261
12	0x3cef11b2	0.029183242
13	0xbd47bad9	-0.048762176
14	0xbea67ee8	-0.32518697
15	0x3c974ec3	0.018470174
16	0xbc55689f	-0.013025432
17	0xbe4ddaf4	-0.20103055
18	0xbf509810	-0.8148203
19	0x3f6ae76a	0.9175936
20	0x3e2f4514	0.17116195
21	0xbe137258	-0.14399087
22	0xbe3859bc	-0.18002981
23	0x3eeb3513	0.4593893
24	0x3c78968e	0.015172614
25	0x3bfabba3	0.0076517626
26	0xbebac9aa	-0.36481982
27	0x4009dd09	2.154116
28	0x3d03c127	0.032166626
29	0x3d0bebaf	0.034160312
30	0x3f6480ab	0.8925883
31	0x3f550f77	0.8322672
32	0xbe94f091	-0.29089788
33	0xbea761ee	-0.32691902
34	0xbe5ef1f0	-0.2177198
35	0x3bd18689	0.0063942117
36	0x3f38e58b	0.72225255
37	0x3f2967ac	0.66173816
38	0xbf991d53	-1.1962074
39	0xbf094be7	-0.5363144
40	0xbf2b6611	-0.66952616
41	0x3ddf0b62	0.10890843
42	0xbeb05647	-0.34440824
43	0x3c982d8a	0.018576402
44	0x3edd9254	0.43275702
45	0xbf0a0029	-0.53906494
46	0xbf7d9763	-0.9905912
47	0xbeab4358	-0.33449817
48	0x3e0f84c5	0.14015491
49	0xbebce62a	-0.3689435
50	0xbf744839	-0.95422703
51	0x3f007829	0.5018335
52	0xbf107b50	-0.5643816
53	0xbef59818	-0.479676
54	0x3f2b7534	0.6697571
55	0x3e1ed05a	0.15509167
56	0x3faa1673	1.3288101
57	0xbe5dc8dd	-0.21658655
58	0xbf029bf1	-0.510192
59	0x3eb71695	0.35759416
60	0x3ecc45ff	0.39897153
61	0xbeec9e53	-0.46214542
62	0xbe587724	-0.21139199
63	0x3ecefc8f	0.40427062
64	0xbf0015ed	-0.50033456
65	0xbdb82763	-0.089918874
66	0xbe3796dc	-0.17928642
67	0x3e86dc3a	0.26339895
68	0x3e91c72d	0.28472272
69	0xbe0bc30f	-0.13648628
70	0xbdec59c4	-0.11540559
71	0x3dba8b79	0.091086335
72	0x3ec1f408	0.37881494
73	0x3db2324d	0.08701
74	0x3e1b6cb4	0.15178186
75	0x3e890efa	0.2676924
76	0xbf76430d	-0.9619606
77	0xbef8f99d	-0.4862794
78	0xbe8d3c51	-0.2758508
79	0x3f12b3ca	0.57305586
80	0x3e8f5d1e	0.2800073
81	0xbf630fbb	-0.8869588
82	0xbf48034c	-0.7813003
83	0xbdb22ff6	-0.08700554
84	0xbf20f9c1	-0.62881094
85	0xbf58b9ec	-0.84658694
86	0xbf86ac5a	-1.0521348
87	0x3e9d9035	0.30774084
88	0xbf784054	-0.96973157
89	0xbec9b503	-0.39395913
90	0xbf85e785	-1.0461279
91	0x3d0afaeb	0.0339307
92	0x3f0c9d61	0.5492764
93	0xbf1a0258	-0.60159826
94	0xbe52749d	-0.20552297
95	0xbfaaae31	-1.3334409
96	0x3dc77ad0	0.097402215
97	0xbf593c0c	-0.8485725
98	0xbdeb6126	-0.11493139
99	0xbf6881ee	-0.90823257
100	0x3ea5ff4b	0.32421336
101	0x3f8d3bc2	1.1033862
102	0xbd8bccae	-0.06826149
103	0xbc077ea0	-0.008269936
104	0xbdc059ed	-0.09392152
105	0x3d951022	0.07278468
106	0x3e79e9b7	0.24405561
107	0xbe9e181c	-0.3087777
108	0x3eed9f58	0.46410632
109	0x3eb6c5f5	0.35697904
110	0xbe3de6e6	-0.18545112
111	0xbfaa8a68	-1.3323488
112	0x3e13a3bf	0.14417933
113	0xbe5d8233	-0.21631698
114	0xbdc4dcbd	-0.09612415
115	0xbe1b55f3	-0.15169506
116	0xbf95169f	-1.1647528
117	0xbdd988de	-0.106218085
118	0x3e8f88dc	0.28034103
119	0xbf342c41	-0.70380026
120	0x3e5e0d53	0.2168477
121	0xbcb35875	-0.021892766
122	0x3d1c58a4	0.03817047
123	0x3f5d44cf	0.8643312
124	0xbf32f0b8	-0.6989856
125	0xbe89acdf	-0.26889703
126	0xbec68acd	-0.38777772
127	0x3f113b5b	0.56731194
128	0x3d784d5b	0.060620647
129	0xbd5ff7d3	-0.054679703
130	0xbfe041ee	-1.752012
131	0xbeb660eb	-0.35620818
132	0xbe811352	-0.25210053
133	0x3edf820f	0.43653914
134	0x3c64925a	0.013950909
135	0x3c9d9028	0.019233778
136	0x3e13abe0	0.14421034
137	0xbea85418	-0.32876658
138	0xbedd703d	-0.43249694
139	0x3f722d13	0.9460003
140	0x3e970723	0.29497632
141	0xbe6e7fcf	-0.23290943
142	0xbed78565	-0.4209396
143	0x3f128591	0.57235056
144	0xbe3144a4	-0.1731134
145	0xbcfc1926	-0.03077371
146	0x3d9e3099	0.07724113
147	0x3ea716e0	0.3263464
148	0xbf0373f1	-0.5134879
149	0xbe43965e	-0.1910033
150	0xbe8f3d8f	-0.27976653
151	0x3ed9ef02	0.4256516
152	0xbef4b705	-0.47795883
153	0xbdbf1765	-0.09330634
154	0x3ff2d42d	1.8971001
155	0x3ea2c1c6	0.31788462
156	0x3ee54cc3	0.44785127
157	0xbed68ecc	-0.4190582
158	0x3d61b91b	0.05510817
159	0x3f0bd57d	0.5462263
160	0xbede643d	-0.4343585
161	0xbe6aa346	-0.22913846
162	0xbe0cd026	-0.13751277
163	0x3e18957f	0.14900778
164	0x3d8f7f55	0.070067085
165	0xbeac40c7	-0.3364317
166	0xbf29ef6a	-0.6638094
167	0x3ebe2569	0.37137917
168	0x3b976151	0.0046197553
169	0xbd1f1e74	-0.0388474
170	0x3d7b1be9	0.061305914
171	0x3db5fa7c	0.08885667
172	0x3dbced1b	0.09224912
173	0xbcdac1a8	-0.02670367
174	0xbf625d3b	-0.8842351
175	0xbea2c9e8	-0.31794667
176	0xbf0f594b	-0.55995625
177	0xbd6c501f	-0.057693597
178	0xbf461af8	-0.773849
179	0x3db9a1ab	0.09064039
180	0xbe19fe35	-0.15038379
181	0xbf22e66d	-0.6363285
182	0xbf66f875	-0.90222865
183	0xbe3ad458	-0.18245065
184	0x3eb12151	0.3459573
185	0x3ddb4f19	0.10708446
186	0xbea5dc49	-0.32394627
187	0x3f114464	0.5674498
188	0xbb77be19	-0.0037802516
189	0xbf149bc0	-0.58050156
190	0xbe9e582d	-0.30926648
191	0x3e3446cc	0.17605132
192	0xbf1371df	-0.5759563
193	0xbde7bae2	-0.11314942
194	0xbf0cb3dc	-0.54961944
195	0x3f95ed68	1.1713076
196	0x3e85e079	0.26147822
197	0x3e4c2efd	0.199398
198	0x3e069b37	0.13145147
199	0x3f438ff4	0.7639153
200	0xbc26c9c3	-0.01017994
201	0x3e4f4c35	0.20243914
202	0xbe7e9f7a	-0.24865523
203	0x3f0cfe93	0.5507595
204	0xbe93faae	-0.2890219
205	0x3f41fb5b	0.75774163
206	0xbedfa449	-0.43680027
207	0x3f22f349	0.63652474
208	0xbe72f7df	-0.23727368
209	0xbea86c23	-0.32895002
210	0xbe8aac0e	-0.27084392
211	0xbf43993c	-0.7640569
212	0x3e35861f	0.17726944
213	0x3e103804	0.14083868
214	0x3de36c8a	0.111046866
215	0x3db3ce54	0.08779588
216	0x3f95342e	1.1656549
217	0xbeac1f92	-0.33617836
218	0x3eb85c52	0.36007935
219	0xbdf4800f	-0.11938488
220	0x3f38f9ab	0.72255963
221	0x3e7db16e	0.24774715
222	0xbf1409e5	-0.578276
223	0x3f3d1cf3	0.738723
224	0xbea5d7e3	-0.3239127
225	0xbe4d37f7	-0.2004088
226	0xbe8aaa1c	-0.27082908
227	0xbed8f35a	-0.42373163
228	0x3edf3904	0.43598187
229	0x3e2c0418	0.16798437
230	0xbe90366c	-0.2816652
231	0xbe8df2bb	-0.2772425
232	0xbcee673d	-0.029101962
233	0xbe231f5b	-0.1592993
234	0x3f14397c	0.57900214
235	0x3e6e6f53	0.23284654
236	0x3e722532	0.23647001
237	0x3e68012c	0.22656697
238	0xbf047811	-0.51745707
239	0xbe4f3f07	-0.20238887
240	0x3db80678	0.08985609
241	0x3f0cf745	0.55064803
242	0xbd720dcf	-0.0590952
243	0xbdab51fe	-0.08365248
244	0xbdf7cf93	-0.121001385
245	0xbcd2466a	-0.025668342
246	0xbed6ffc4	-0.4199201
247	0xbdaa3896	-0.08311574
248	0xbec57c79	-0.38571528
249	0xbf061114	-0.5236981
250	0xbee2fd10	-0.44333696
251	0xbf54dd26	-0.83149946
252	0x3ea7356c	0.32657945
253	0x3f78fe21	0.9726277
254	0x3ecaddd7	0.39622375
255	0xbf2bc052	-0.6709033

l1.bias f4 [400]
0	0xbe34fc1a	-0.17674294
1	0xbb7ec554	-0.003887494
2	0xbe226cf7	-0.1586188
3	0xbbbc559e	-0.005747511
4	0xbed23245	-0.41053978
5	0x3e34bd22	0.17650273
6	0xbea34857	-0.31891128
7	0xbda616d9	-0.081098266
8	0x3ea3250e	0.31864208
9	0x3e6a1348	0.22858918
10	0xbec5ce59	-0.38633993
11	0xbe4908e7	-0.19632302
12	0xbec92439	-0.39285448
13	0x3e28f74f	0.1650059
14	0x3ead699e	0.33869642
15	0xbc155f16	-0.009116909
16	0xbcc2ad53	-0.023764288
17	0x3c21cfae	0.009876175
18	0x3e98e483	0.2986184
19	0xbf187419	-0.5955215
20	0xbeeafb16	-0.45894688
21	0xbdcd4004	-0.10021976
22	0xbc72a48b	-0.014809738
23	0x3e2e8d46	0.17046079
24	0xbf177183	-0.5915758
25	0xbdf5f6c6	-0.12009959
26	0xbdcd501f	-0.100250475
27	0xbe9c9dbf	-0.305891
28	0x3e5b0cb5	0.21391566
29	0x3e727569	0.23677601
30	0xbd1cab9b	-0.038249593
31	0xbf14a367	-0.5806183
32	0xbed18d05	-0.40927902
33	0xbdb65c3c	-0.08904311
34	0xbceccd9b	-0.028906634
35	0x3e62c268	0.22144473
36	0xbe0a792a	-0.13522783
37	0xbf1bd0df	-0.60865587
38	0xbe52d706	-0.20589837
39	0xbea88bf9	-0.3291929
40	0x3d2d64ae	0.042332344
41	0xbde2460c	-0.11048517
42	0xbebc15b9	-0.36735323
43	0xbe9d3636	-0.30705422
44	0xbedc1117	-0.4298179
45	0xbd10ab7f	-0.0353198
46	0x3da7a899	0.08186454
47	0x3dd76eb3	0.10519161
48	0xbe1b4e4c	-0.15166587
49	0xbd53234f	-0.051547345
50	0xbcb2c0ba	-0.021820415
51	0x3e984bb5	0.2974526
52	0xbec5e8ab	-0.38654074
53	0x3c52fdd1	0.012877897
54	0x3e4034cb	0.18770139
55	0xbc80bc11	-0.015714677
56	0x3e4df677	0.2011355
57	0xbe5aecde	-0.2137942
58	0xbe919f0f	-0.28441665
59	0xbf302c57	-0.6881766
60	0xbede1674	-0.43376505
61	0xbe643389	-0.22285284
62	0xbd918355	-0.07105128
63	0xbefcf035	-0.49402013
64	0x3e64342b	0.22285526
65	0x3e06dd05	0.1317025
66	0x3e9a6979	0.30158594
67	0xbd74a441	-0.059726957
68	0xbe935044	-0.28772175
69	0x3e6b482c	0.2297675
70	0x3de7424b	0.11291941
71	0xbee12cb7	-0.43979427
72	0xbe153b56	-0.14573416
73	0x3da87c24	0.08226803
74	0x3e8538ff	0.26020047
75	0xbc0122bb	-0.007881816
76	0x3e4a616c	0.19763726
77	0x398b30a0	0.00026548374
78	0xbdd83cd2	-0.105584756
79	0xbdcf5c7e	-0.10125063
80	0x3e7379a0	0.23776865
81	0xbe8d2fb1	-0.27575448
82	0xbe033448	-0.12812912
83	0xbeceae48	-0.4036734
84	0xbf0b4ed6	-0.5441717
85	0xbf0fb33e	-0.56132877
86	0xbeadb50c	-0.3392719
87	0x3e86cd8c	0.26328695
88	0xbd590f7d	-0.052993286
89	0x3e861bcc	0.26193082
90	0x3e72d699	0.23714675
91	0xbea8ff89	-0.33007458
92	0xbdc55c51	-0.096367486
93	0xbdf28cbe	-0.11843251
94	0xbd27320d	-0.040819217
95	0x3f1d2bf5	0.613952
96	0xbec4deef	-0.38451335
97	0xbf258b94	-0.64666104
98	0xbec57590	-0.38566256
99	0xbf33f794	-0.7029965
100	0x3ed8f379	0.42373255
101	0xbe8a873f	-0.2705631
102	0x3e2e8ff7	0.17047106
103	0xbe4ab39d	-0.1979508
104	0x3e9b67e4	0.303527
105	0xbe44060b	-0.1914293
106	0xbf128f90	-0.5725031
107	0xbf0fe620	-0.5621052
108	0xbf08bb1b	-0.534105
109	0xbeb01f52	-0.34398896
110	0xbef0768e	-0.4696545
111	0xbdab7ed9	-0.08373804
112	0x3ef7c91b	0.4839562
113	0xbeb706bb	-0.35747322
114	0x3e62cb18	0.22147787
115	0xbec4a911	-0.38410237
116	0xbee23cc7	-0.44186994
117	0xbd65d2cf	-0.056109246
118	0xbf4e0b8f	-0.80486387
119	0xbec85778	-0.39129233
120	0x3e24be32	0.16088179
121	0x3dbed919	0.09318752
122	0x3d0e1d8c	0.034696147
123	0x3f145bb5	0.57952434
124	0x3d2df292	0.04246766
125	0xbb99677d	-0.004681526
126	0x3e3d07ab	0.18459956
127	0xbba13646	-0.0049198
128	0xbd36e8c1	-0.044655565
129	0x3e57b80d	0.21066304
130	0xbeabb01e	-0.33532804
131	0xbe0db097	-0.13836895
132	0x3df67bc5	0.12035326
133	0x3d86184a	0.065476015
134	0xbf04c038	-0.518558
135	0xbaa05808	-0.0012233267
136	0x3eeea01c	0.4660653
137	0xbf474d24	-0.7785208
138	0xbed59895	-0.41717973
139	0xbec5b9a1	-0.38618186
140	0xbea93c91	-0.3305402
141	0x3b45eef9	0.0030202253
142	0xbd80aacf	-0.06282579
143	0xbcc9e7e0	-0.0246467
144	0xbeb2775c	-0.3485669
145	0x3da6dc86	0.0814753
146	0x3d71f4d0	0.059071362
147	0xbf13c917	-0.57728714
148	0xbf0da046	-0.5532268
149	0xbe7b3bdc	-0.24534553
150	0xbd5b7fcb	-0.05358867
151	0xbf1dd077	-0.6164622
152	0xbd6931e0	-0.05693233
153	0xbeab283a	-0.33429128
154	0x3e89ea2d	0.26936474
155	0xbeb050e4	-0.34436715
156	0xbefec603	-0.49760446
157	0x3eb1ed91	0.3475156
158	0x3d920521	0.071298845
159	0xbf039064	-0.513922
160	0x3bab9d5b	0.005237264
161	0x3e4788f1	0.19485833
162	0xbe9ebc3a	-0.3100298
163	0x3d2943f1	0.04132456
164	0xbea74832	-0.32672268
165	0x3ea3c0ba	0.31982976
166	0xbc10a8dc	-0.008829322
167	0xbf1ea9b3	-0.6197769
168	0x3d20cad9	0.03925595
169	0xbe1bfc89	-0.15233053
170	0xbf5efffc	-0.8710935
171	0xbf109867	-0.5648255
172	0xbddcb291	-0.10776246
173	0xbeada9e0	-0.33918667
174	0x3e82cce7	0.25546953
175	0xbe204903	-0.15652852
176	0x3df1df03	0.11810114
177	0x3d31aea7	0.043379452
178	0x3e9e718b	0.30946
179	0xbf2c5b13	-0.6732647
180	0x3e1f47e1	0.15554763
181	0x3e9983f4	0.29983485
182	0xbef5fd55	-0.4804484
183	0xbed4bdc6	-0.41551036
184	0x3e86b78d	0.26311913
185	0x3eaedf7c	0.3415488
186	0xbcb4b54f	-0.02205911
187	0x3e91622e	0.28395218
188	0xbe36a84e	-0.1783764
189	0xbdc9e612	-0.098583356
190	0xbeef5811	-0.46746877
191	0x3e6e6fdf	0.23284863
192	0xbbacb6fe	-0.005270838
193	0xbe55dfe0	-0.20886183
194	0xbeb8be59	-0.36082724
195	0xbda8da94	-0.082448155
196	0x3e8f588c	0.27997243
197	0x3eb549ec	0.3540796
198	0x3cfdeb77	0.030996067
199	0xbd349d58	-0.044095367
200	0xbc46913f	-0.01211959
201	0xbf068b4f	-0.5255632
202	0xbe3f7bf4	-0.18699628
203	0x3a18140f	0.0005801329
204	0x3ebb58da	0.36591226
205	0x3e87674f	0.26446006
206	0x3db02cea	0.08602317
207	0xbf22bec5	-0.6357234
208	0xbf2aa9a6	-0.6666511
209	0xbe52380e	-0.20529196
210	0xbc5b93f1	-0.013401971
211	0x3e3a7637	0.18209158
212	0xbe929317	-0.28627846
213	0xbdaa94c6	-0.083291575
214	0xbd4e0df7	-0.050306287
215	0x3eb3ec72	0.3514133
216	0xbbccaf76	-0.0062465025
217	0x3e22d4ba	0.15901461
218	0xbf4561aa	-0.7710215
219	0x3e014d7c	0.12627214
220	0xbe47405a	-0.19458142
221	0xbe12cece	-0.14336702
222	0xbe06ca8e	-0.13163206
223	0xbdd51bce	-0.10405694
224	0xbeecc963	-0.46247396
225	0xbc61f3c9	-0.013791033
226	0xbe924de2	-0.28575045
227	0xbe1f7a1d	-0.15573926
228	0xbe619e0a	-0.22032943
229	0x3ec1993b	0.37812218
230	0x3ea217c1	0.31658748
231	0xbef7196f	-0.48261592
232	0xbf5f5a48	-0.87247133
233	0x3d56f1ee	0.052476816
234	0xbf2e1536	-0.68001115
235	0xbd14ea64	-0.036356345
236	0xbe3d4197	-0.18482052
237	0x3ea7adfc	0.32749927
238	0x3e9a8bfd	0.30184928
239	0xbf16da09	-0.58926445
240	0x3e76e2cb	0.24109952
241	0xbead6832	-0.33868557
242	0x3ea1a9d3	0.31574878
243	0xbf5d4384	-0.86431146
244	0xbf15295d	-0.5826624
245	0x3d5da1c1	0.05410934
246	0xbed75641	-0.42057994
247	0xbf5b2309	-0.85600334
248	0xbe331685	-0.1748906
249	0xbea973c3	-0.33096132
250	0xbe856cd4	-0.26059592
251	0x3e6a7253	0.22895174
252	0xbd8658ae	-0.06559883
253	0xbc8f7c0b	-0.017515203
254	0x3c6f6ba3	0.014613065
255	0xbeec6a10	-0.4617467

l2.weight f4 [200, 400]
0	0xbe7d97c4	-0.24764925
1	0xbe1df162	-0.15424111
2	0x3d60406b	0.054748934
3	0x3e542450	0.20716977
4	0x3e3ed9d7	0.18637787
5	0x3d49cc05	0.049266834
6	0xbdefd8f9	-0.11711306
7	0x3c1bcf8d	0.009509933
8	0xbe84e924	-0.25959122
9	0xbe25191b	-0.16122858
10	0x3eb95bae	0.3620276
11	0x3f2b4f71	0.6691809
12	0xbf09bc21	-0.53802687
13	0x3d1cdf7a	0.03829906
14	0xbedd2da3	-0.4319888
15	0xbdad0d5e	-0.08449815
16	0xbeed02d5	-0.46291223
17	0x3d1551e4	0.03645505
18	0xbe752f77	-0.23943888
19	0xbec7df15	-0.39037386
20	0x3e5cb71f	0.2155423
21	0x3a26f431	0.0006368785
22	0xbdce3976	-0.100695536
23	0xbdffc187	-0.12488084
24	0xbf0af26a	-0.54276145
25	0x3def232e	0.11676632
26	0xbef17090	-0.4715619
27	0x3d66ce6f	0.056349214
28	0xbeb24070	-0.34814787
29	0xbca36b6d	-0.019948686
30	0xbdf57ca7	-0.11986666
31	0xbefc301f	-0.49255463
32	0x3d2f89dd	0.042856086
33	0xbcd5beea	-0.026092011
34	0xbe3d31ab	-0.18475978
35	0xbd157139	-0.03648493
36	0xbeacc8bd	-0.337469
37	0x3d94b11b	0.07260343
38	0xbf26cd8a	-0.6515738
39	0x3c39f17b	0.011349077
40	0xbe0ecb5b	-0.13944761
41	0xbe6f30dc	-0.23358482
42	0x3e0823d8	0.13294923
43	0x3e00dfc8	0.12585366
44	0x3d8e81f7	0.069583826
45	0xbdc19f71	-0.09454239
46	0xbf61cf39	-0.8820682
47	0xbdee97db	-0.11650058
48	0x3e1d99cb	0.15390699
49	0x3d4aad9b	0.04948197
50	0xbd30990d	-0.04311471
51	0xbe49e375	-0.19715674
52	0xbdabf31f	-0.08395981
53	0xbdf952dd	-0.12174008
54	0x3c803622	0.015650813
55	0x3d3e2f13	0.046431612
56	0x3aa6a49a	0.001271385
57	0xbdb6265f	-0.088940375
58	0x3e110457	0.14161812
59	0xbea2afdc	-0.31774795
60	0xbec16344	-0.37771046
61	0xbd1b21f0	-0.037874162
62	0xbf3374da	-0.70100176
63	0xbe9d6f49	-0.30748966
64	0xbe03564f	-0.12825893
65	0xbf1742ef	-0.5908651
66	0x3cb5208a	0.022110242
67	0xbe63a1d7	-0.22229706
68	0x3cfc4092	0.030792508
69	0x3d187cc6	0.03722837
70	0xbd967136	-0.07345812
71	0xbf87d497	-1.0611752
72	0x3e0584c2	0.13038924
73	0x3ef3dcca	0.47629386
74	0xbc82db8a	-0.015973825
75	0x3f235246	0.63797414
76	0xbb8f861b	-0.0043800003
77	0xbade69cb	-0.0016968785
78	0x3dadc19c	0.08484194
79	0x3c807055	0.015678564
80	0xbe5edb46	-0.21763334
81	0xbdbbdc01	-0.09172822
82	0xbf72f330	-0.94902325
83	0xbc5582b1	-0.013031648
84	0xbe219f87	-0.15783511
85	0xbf14c17f	-0.5810775
86	0xbe86a9dd	-0.2630147
87	0xbd90999e	-0.0706055
88	0x3ee57acb	0.44820246
89	0xbcc7e8c4	-0.024402983
90	0x3d884b06	0.066549346
91	0xbf8507b7	-1.0392979
92	0xbec72522	-0.38895518
93	0x3cf2276c	0.029559813
94	0xbefc4c51	-0.49276975
95	0xbfa0a1de	-1.2549398
96	0xbdbb00e5	-0.0913103
97	0x3f1d9f5b	0.6157128
98	0x3e3846c3	0.17995743
99	0x3ddcc44d	0.10779629
100	0xbf1f41fb	-0.62210053
101	0xbdb5da4c	-0.088795274
102	0xbe9c0425	-0.30471912
103	0xbe2d10a9	-0.16900887
104	0xbf78160a	-0.9690863
105	0xbef031e2	-0.46913058
106	0x3d83f95b	0.06444045
107	0xbeb405ba	-0.3516062
108	0xbed6a4b3	-0.4192253
109	0x3e85a356	0.26101178
110	0xbdc252d3	-0.09488454
111	0x3d15572f	0.036460098
112	0xbe26da24	-0.16294152
113	0xbe878742	-0.2647038
114	0xbd48e1e1	-0.04904354
115	0xbd07d04c	-0.03315763
116	0x3e02a57e	0.12758443
117	0xbdc81bef	-0.09770953
118	0xbe33f181	-0.17572595
119	0x3d31b0fe	0.043381684
120	0x3da1dd06	0.07903485
121	0xbdcd6400	-0.10028839
122	0xbf335af1	-0.7006064
123	0xbeee2be0	-0.4651785
124	0xbdacfa3e	-0.084461674
125	0x3ebf7274	0.37392008
126	0xbdd7cf1d	-0.105375506
127	0x3ea17972	0.31537968
128	0xbe93d73a	-0.28875142
129	0x3c2f6375	0.010704865
130	0x3e208a2d	0.1567771
131	0x3da36878	0.0797891
132	0xbea4cd39	-0.32187822
133	0x3c07f094	0.008297104
134	0xbebd0a6e	-0.3692202
135	0xbdafb919	-0.085802265
136	0xbcf96dc5	-0.03044785
137	0xbe844e63	-0.25841054
138	0x3dde1140	0.10843134
139	0x3da13717	0.07871836
140	0xbe0f4441	-0.1399088
141	0xbf005669	-0.5013185
142	0xbe4abdf8	-0.1979903
143	0xbb532298	-0.0032216664
144	0xbe1e8dac	-0.15483731
145	0x3cb190f8	0.021675572
146	0xbc6db750	-0.014509037
147	0xbf4cc686	-0.7999042
148	0xbf15a8e6	-0.58460844
149	0x3e109732	0.14120176
150	0x3e6f1cc9	0.23350824
151	0xbed9a60e	-0.42509502
152	0x3db9ad47	0.09066253
153	0xbe31961b	-0.17342417
154	0xbf009e73	-0.50241774
155	0xbe7c18b8	-0.24618804
156	0xbf0d49ab	-0.55190533
157	0x3d69d56f	0.05708831
158	0xbe37978d	-0.17928906
159	0xbc9577b7	-0.018245561
160	0x38f1fe19	0.00011539105
161	0xbe7e5ef2	-0.24840906
162	0x3e370b79	0.1787547
163	0xbd50e6bc	-0.051001295
164	0x3dbfdfc2	0.0936885
165	0xbe5966dc	-0.21230644
166	0xbe51a585	-0.20473297
167	0x3c71a098	0.014747761
168	0x3ad45712	0.0016200265
169	0xbe44d9ff	-0.19223784
170	0x3f1f707a	0.62281
171	0xbf18c9b6	-0.59682786
172	0xbe826ffd	-0.25476065
173	0x3e1e7395	0.15473779
174	0xbe88c494	-0.26712477
175	0xbf253d88	-0.64547014
176	0xbe54fde6	-0.2079998
177	0xbd9adc35	-0.075615324
178	0x3dc10527	0.09424811
179	0x3e1509d1	0.14554526
180	0xbdb30fad	-0.08743224
181	0xbe709a1b	-0.23496287
182	0x3dd6d485	0.10489754
183	0x3f1ac02c	0.6044948
184	0xbe8b907b	-0.27258667
185	0xbeddb85f	-0.43304726
186	0x3e1b3b49	0.15159334
187	0xbd351936	-0.044213496
188	0xbe742441	-0.23841955
189	0xbdf4dee0	-0.119565725
190	0x3d747a45	0.059686918
191	0xbde044c4	-0.10950616
192	0x3f87da0a	1.0613415
193	0x3cb4ba23	0.022061413
194	0xbe1dea17	-0.1542133
195	0xbea2fc51	-0.31833127
196	0x3be7164e	0.0070522195
197	0x3b8f1041	0.0043659513
198	0xbe7f86ce	-0.24953768
199	0xbe912051	-0.28344968
200	0xbd3ca540	-0.046056032
201	0xbeb1f7ee	-0.34759468
202	0x3c23d65c	0.009999838
203	0x3f0a4cd1	0.5402346
204	0xbd9f8dda	-0.07790728
205	0xbd510ba1	-0.05103648
206	0xbdc4f773	-0.0961751
207	0xbeeebd69	-0.46628883
208	0xbe91d619	-0.28483656
209	0xbc2f34a7	-0.010693706
210	0xbdb94783	-0.09046843
211	0xbead4cbb	-0.33847603
212	0xbf2979ec	-0.66201663
213	0x3dea2529	0.11432869
214	0x3cfc57e4	0.030803628
215	0xbdf469f1	-0.11934269
216	0xbe4cd81b	-0.20004313
217	0x3d87b54d	0.06626377
218	0xbf1ae412	-0.6050426
219	0xbf5f31c6	-0.87185323
220	0xbd25222a	-0.040315785
221	0xbe0ba383	-0.13636594
222	0xbd38bc2e	-0.045101337
223	0xbf26fee0	-0.6523266
224	0xbd1f6785	-0.038917083
225	0xbc94964e	-0.018138077
226	0xbef82679	-0.48466852
227	0xbd857413	-0.0651628
228	0xbeba9141	-0.36438945
229	0xbeadb8a5	-0.33929935
230	0xbcb37ea6	-0.021910977
231	0xbed61acc	-0.4181732
232	0xbec32d1e	-0.3812036
233	0xbe25dea7	-0.16198216
234	0xbf043c29	-0.516543
235	0x3b97292f	0.0046130638
236	0x3983e400	0.0002515614
237	0xbe0d9799	-0.13827361
238	0xbdbb4e9a	-0.091458514
239	0xbdf5aa08	-0.119953215
240	0xbdfdae7e	-0.12386797
241	0x3ccad80f	0.024761228
242	0x3ed63778	0.41839194
243	0x3d2a255e	0.041539542
244	0xbec48527	-0.38382837
245	0xbddc642f	-0.10761296
246	0x3cb4f9b3	0.022091722
247	0xbec872e5	-0.39150158
248	0xbda594fe	-0.08085059
249	0x3c87c6ba	0.016574252
250	0x3e30ceb9	0.17266358
251	0xbddae887	-0.10688882
252	0x3e08150b	0.13289277
253	0x3d11659b	0.03549729
254	0xbe0995cd	-0.1343605
255	0xbeba30a4	-0.36365235

l2.bias f4 [200]
0	0xbd99f35d	-0.07517121
1	0xbdfe3b6c	-0.124136776
2	0xbd9ca427	-0.07648497
3	0x3e34d195	0.17658074
4	0x3e873ac9	0.26412037
5	0xbe1104c1	-0.1416197
6	0xbcd6f7d6	-0.026241224
7	0xbd6dc25e	-0.05804669
8	0xbb85a792	-0.004078814
9	0xbd64d84f	-0.05587035
10	0xbe1a31ae	-0.15058014
11	0x3e4f3c32	0.20237806
12	0x3e269c28	0.16270506
13	0xbeaf94ba	-0.34293157
14	0x3e3bb1ef	0.18329595
15	0x3e3381e0	0.17530012
16	0xbe682940	-0.22671986
17	0x3cbd21f6	0.023087483
18	0xbe14572d	-0.1448638
19	0x3a8b749c	0.0010639611
20	0x3de49e18	0.111629665
21	0xbc95bf70	-0.018279761
22	0xbdaabbfb	-0.08336636
23	0x3d9ac751	0.07557548
24	0xbd091ed7	-0.033476677
25	0xbeefafd1	-0.46813825
26	0x3e2dab18	0.16959798
27	0x3d85a6cf	0.06525957
28	0xbb2a2e40	-0.0025967509
29	0x3d5ffb06	0.054682754
30	0x3e3206ac	0.17385358
31	0xbdd53287	-0.10410028
32	0x3e5f235a	0.2179083
33	0x3d182d47	0.037152555
34	0xbe3abe26	-0.18236598
35	0xbd6db695	-0.058035452
36	0xbd99254e	-0.074778184
37	0xbe0c33ef	-0.13691686
38	0x3d94513b	0.07242056
39	0x3e0c38c3	0.13693528
40	0xbf31fb32	-0.6952392
41	0xbd1add1d	-0.037808526
42	0xbc91d4ae	-0.017801609
43	0xbc53ffa6	-0.012939369
44	0xbdd144bd	-0.10218189
45	0xbdba39db	-0.09093066
46	0x3d6e540b	0.05818562
47	0x3e9dbb6a	0.30807048
48	0xbe3b1421	-0.18269397
49	0xbe32f02d	-0.17474432
50	0x3c61925d	0.013767806
51	0xbd77f166	-0.06053295
52	0x3dd253c0	0.1026988
53	0x3e8edf64	0.2790481
54	0x3e129049	0.14312853
55	0xbe9d4f6d	-0.3072466
56	0xbe13738e	-0.1439955
57	0xbdb4933d	-0.08817146
58	0xbc853e9a	-0.016265202
59	0x3caec371	0.021333428
60	0xbe5ac93b	-0.21365826
61	0xbbf77da6	-0.0075528203
62	0xbd0eff5a	-0.03491149
63	0x3c5374d2	0.01290627
64	0xbd9f74ef	-0.07785975
65	0xbcc6e457	-0.024278803
66	0xbaf9cfcd	-0.0019059122
67	0x3ceafa5c	0.028683834
68	0xbd940f85	-0.072295226
69	0xbee85b46	-0.45382136
70	0x3e7cd8eb	0.24692123
71	0x3cd48d66	0.02594633
72	0x3e2f34a6	0.17109928
73	0xbd06b787	-0.03288987
74	0xbced5105	-0.028969297
75	0xbe597d00	-0.2123909
76	0xbe709cef	-0.23497365
77	0xbe5da34e	-0.21644327
78	0x3e4fc45e	0.20289752
79	0x3b021841	0.0019850882
80	0xbe921fc2	-0.28539854
81	0xbe07058f	-0.13185714
82	0x3dbc8063	0.09204175
83	0xbc3e58e4	-0.011617873
84	0xbe9caac7	-0.30599043
85	0xbd282788	-0.041053325
86	0x3dbf0bf7	0.09328454
87	0x3e3e7e66	0.18602905
88	0x3c9fd7b4	0.019512035
89	0xbddcaabc	-0.107747525
90	0xbe78e901	-0.24307634
91	0x3dd5e446	0.1044393
92	0xbebc0c08	-0.3672793
93	0xbeb1ab18	-0.34700847
94	0x3cef12b8	0.02918373
95	0x3e5617eb	0.20907561
96	0x3d09ad52	0.033612557
97	0xbd80f563	-0.06296804
98	0x3e832611	0.2561498
99	0x3d6af68c	0.05736403
100	0xbd53dbed	-0.05172341
101	0x3e441c0a	0.19151321
102	0x3d8dce0d	0.06924067
103	0xbdee9c46	-0.116509005
104	0xbbe7e7af	-0.0070771794
105	0xbe4584b0	-0.19288898
106	0x3d2d4dde	0.042310588
107	0xbd26b215	-0.040697176
108	0xbde6b75b	-0.11265441
109	0xbcd4de7d	-0.025984997
110	0xbe095547	-0.13411437
111	0x3e17f970	0.14841247
112	0xbdb41a39	-0.08794064
113	0x3c888217	0.016663594
114	0x3e83dcc1	0.2575436
115	0xbe113c74	-0.14183217
116	0x3dd7e91c	0.10542509
117	0x3b1a4640	0.0023540407
118	0x3e8f4c54	0.2798792
119	0xbe993c63	-0.29928884
120	0xbdad4fb1	-0.084624656
121	0x3e6d4c91	0.23173739
122	0xbca4eec6	-0.020133387
123	0xbe35c18c	-0.17749614
124	0x3df79fe9	0.12091047
125	0x3e36a48e	0.1783621
126	0x3db8ec4d	0.09029446
127	0xbe56a15e	-0.20959994
128	0xbdf65ef9	-0.12029833
129	0xbcff015e	-0.031128582
130	0x3e4518e3	0.19247775
131	0x3da9dec4	0.08294442
132	0x3e3799cc	0.17929763
133	0x3d161ce6	0.036648653
134	0xbf4edda3	-0.8080694
135	0xbdcd6d4f	-0.100306146
136	0x3e5df3f7	0.21675096
137	0xbe1b265d	-0.15151353
138	0xbcc26130	-0.023727983
139	0xbdc9868c	-0.09840116
140	0xbe0fd99b	-0.14047854
141	0xbebd99d7	-0.37031433
142	0xbdacd610	-0.08439267
143	0xbe13e6e6	-0.1444355
144	0x3bbaf4df	0.0057054604
145	0xbdb2094c	-0.086931795
146	0x3e2f702b	0.17132632
147	0x3ce4c316	0.027925055
148	0xbd39a09b	-0.04531918
149	0x3c1ca8f6	0.009561768
150	0xbe6f69e5	-0.2338024
151	0xbd5a9e26	-0.05337348
152	0xbe4f39cb	-0.2023689
153	0xbe72fa37	-0.23728262
154	0xbef32475	-0.47488752
155	0xbd3daa89	-0.046305213
156	0x3e6d756e	0.23189327
157	0xbd318efe	-0.04334926
158	0xbce5921d	-0.028023774
159	0x3e13e1a2	0.14441541
160	0xbd10ced4	-0.035353497
161	0x3e55bb35	0.20872195
162	0x3e16e70d	0.14736576
163	0xbe0e4bf3	-0.1389616
164	0x3d81d001	0.06338502
165	0x3e93f97c	0.2890128
166	0xbbad4d9d	-0.0052887932
167	0xbc5a2a42	-0.013315739
168	0x3e41577e	0.18881032
169	0xbd780b8b	-0.060557883
170	0x3e414b2d	0.18876334
171	0xbe1c7b73	-0.15281467
172	0x3d8c2f33	0.0684494
173	0x3b42c063	0.0029716722
174	0xbd0e5d90	-0.034757197
175	0x3e3a44b2	0.18190268
176	0x3e926f10	0.2860036
177	0xbf55d33a	-0.8352543
178	0x3bcb417d	0.006202875
179	0xbde58324	-0.11206654
180	0x3e04a86a	0.1295487
181	0xbd490bf8	-0.04908368
182	0xbe426e14	-0.18987304
183	0xbd4132a6	-0.047167443
184	0xbd80be6e	-0.062863216
185	0xbe382661	-0.1798339
186	0x3e54770a	0.20748535
187	0xbf03e864	-0.51526475
188	0x3e89bc36	0.26901406
189	0x3ce24794	0.027622022
190	0x3e07eaf9	0.13273229
191	0xbe9ea03c	-0.30981624
192	0xbe151b9e	-0.14561316
193	0x3c744839	0.014909797
194	0xbdf401e9	-0.11914427
195	0xbcbe952b	-0.023264488
196	0x3e29a506	0.16566858
197	0xbe8e7c84	-0.27829373
198	0x3da8e63c	0.08247039
199	0x3e468aa4	0.19388825

l3.weight f4 [4, 200]
0	0x3ea057e8	0.31317067
1	0xbe1e37fa	-0.15451041
2	0x3e8567a1	0.26055625
3	0x3e870050	0.26367426
4	0x3f11bb1e	0.56926143
5	0x3e46b331	0.19404294
6	0x3da357c7	0.079757266
7	0x3d9b55d2	0.07584728
8	0xbe1f6367	-0.15565263
9	0x3d7a4ec1	0.06111026
10	0xbe8adbb2	-0.2712074
11	0x3e917c12	0.2841497
12	0x3f405a93	0.75138205
13	0xbedae285	-0.42750946
14	0x3e95e997	0.29279777
15	0xbf003025	-0.5007346
16	0x3f4a753a	0.79085124
17	0xbd4f26c6	-0.050574087
18	0x3f1c723d	0.61111814
19	0xbe2fcf3b	-0.17168896
20	0xbf5982bd	-0.84965116
21	0xbbfa7a8b	-0.007644003
22	0x3f4bb951	0.79579645
23	0xbe9868ed	-0.29767552
24	0xbef7c19c	-0.483899
25	0x3ec808da	0.39069253
26	0xbe62872d	-0.22121878
27	0xbe3f4b59	-0.18681087
28	0xbd41441b	-0.04718409
29	0xbe00dfa2	-0.12585309
30	0xbf156b70	-0.5836706
31	0x3eaf8813	0.34283504
32	0x3ee6c68d	0.45073357
33	0x3f43eb1d	0.7653063
34	0x3d6cd7ac	0.05782287
35	0xbd09f2dd	-0.033678878
36	0x3ef25479	0.47330073
37	0xbe610056	-0.21972784
38	0xbe551fb2	-0.20812872
39	0x3eddae33	0.43296966
40	0xbf436f95	-0.76342136
41	0xbe325578	-0.17415416
42	0xbec61e3c	-0.38694942
43	0x3cca05c9	0.024660962
44	0x3e129dd3	0.14318018
45	0x3f034b5d	0.5128687
46	0xbe96e78a	-0.29473525
47	0x3f2f7dd7	0.6855139
48	0x3f62e1e8	0.88625956
49	0xbef6f4e3	-0.4823371
50	0x3efec0bd	0.49756423
51	0x3e6bdc72	0.23033312
52	0xbe952933	-0.29132995
53	0x3ec77e15	0.3896338
54	0x3f0e48ad	0.55579644
55	0x3fb95dcd	1.4481751
56	0x3eede809	0.4646609
57	0x3e376ffa	0.1791381
58	0xbe96e5ac	-0.294721
59	0xbecf440e	-0.4048161
60	0xbd262f88	-0.040572673
61	0xbe3420fa	-0.17590705
62	0xbd513647	-0.051077154
63	0xbe6a199b	-0.2286133
64	0xbefc157f	-0.4923515
65	0xbc43f082	-0.011959197
66	0xbcb753a3	-0.022378748
67	0x3eaa5c41	0.3327351
68	0x3e8cbfbb	0.2749003
69	0xbf3c2ea2	-0.73508656
70	0x3f0b9af4	0.54533315
71	0xbb5e23c7	-0.0033895837
72	0x3e7e87ee	0.2485654
73	0x3f90998e	1.1296861
74	0x3f77f2f3	0.96855086
75	0xbf019577	-0.5061869
76	0xbe29da3a	-0.16587153
77	0xbfa00138	-1.2500372
78	0x3e7b4812	0.24539211
79	0xbe299401	-0.16560365
80	0x3e5d6292	0.21619633
81	0x3ed5ac82	0.41733176
82	0xbe88ff9e	-0.2675752
83	0xbbc73bd5	-0.0060801306
84	0xbe4d7f3a	-0.20068064
85	0xbe87e50d	-0.2654194
86	0xbecc1638	-0.39860702
87	0x3f181e44	0.5942118
88	0x3f16dfff	0.5893554
89	0x3e390be5	0.18070944
90	0x3e9df561	0.30851272
91	0x3ef430ff	0.4769363
92	0xbe92ad73	-0.28647956
93	0xbf027c0c	-0.5097053
94	0x3e49b7fa	0.19699088
95	0x3e5d01af	0.21582673
96	0xbf292309	-0.66069084
97	0x3cd8712c	0.026421152
98	0x3f21b2bd	0.6316336
99	0xbf150bb0	-0.5822096
100	0x3cab85e7	0.020937873
101	0x3e7eda32	0.24887922
102	0xbe4469a9	-0.19180931
103	0x3f92f423	1.1480755
104	0xbe84da64	-0.2594787
105	0x3d733647	0.059377935
106	0xbe870326	-0.2636959
107	0xbf444d03	-0.7668001
108	0x39d0149f	0.00039688215
109	0xbe639d1c	-0.22227901
110	0x3e92f2b7	0.28700802
111	0xbecadb84	-0.39620602
112	0x3ffc67d6	1.9719188
113	0x3e8ea850	0.27862787
114	0x3eed5bc1	0.46359065
115	0x3e6db1b8	0.23212326
116	0xbe970950	-0.29499292
117	0xbcba28bc	-0.022724502
118	0x3eff2c9d	0.49838725
119	0x3f05dc78	0.52289534
120	0xbcc6edee	-0.024283376
121	0x3f281c20	0.65667915
122	0xbc987ee8	-0.018615201
123	0xbe3c73ff	-0.18403624
124	0x3e37c19b	0.17944948
125	0x3e56e688	0.20986378
126	0xbc4184a5	-0.01181141
127	0x3f4e961e	0.8069781
128	0xbe8663dd	-0.26248065
129	0x3d82a17a	0.063784555
130	0x3e6472b3	0.2230938
131	0x3e92e9d0	0.2869401
132	0x3f686c79	0.90790516
133	0xbf271786	-0.6527027
134	0xbf2933af	-0.6609449
135	0xbe2c4ec7	-0.16826926
136	0x3e8ef523	0.279214
137	0x3e2df247	0.16986953
138	0xbd865145	-0.0655847
139	0x3ece9f7d	0.40356055
140	0x3f61e0ab	0.8823344
141	0xbf2f4dd7	-0.6847815
142	0x3ed9623e	0.42457765
143	0xbeffffc9	-0.49999836
144	0xbe0de26b	-0.13855903
145	0xbec8546e	-0.39126915
146	0x3e805573	0.25065193
147	0xbe033dad	-0.12816496
148	0x3eece765	0.4627029
149	0xbe629ca8	-0.22130072
150	0x3e55d26f	0.20881055
151	0xbef3248a	-0.47488815
152	0xbe21d683	-0.15804486
153	0xbf02e998	-0.51137686
154	0xbf046fdb	-0.5173318
155	0x3d61b54b	0.055104535
156	0x3eced910	0.4039998
157	0xbd124a09	-0.035715137
158	0x3f082d8c	0.531945
159	0x3e4a1557	0.19734703
160	0xbceb035a	-0.028688122
161	0xbe7e0525	-0.2480665
162	0xbefac1e1	-0.48976043
163	0xbe9c0f4b	-0.30480418
164	0xbe6d77f7	-0.23190294
165	0x3ecd338e	0.40078396
166	0xbd94f957	-0.0727412
167	0xbcf5e06f	-0.030014245
168	0x3f3c481a	0.7354752
169	0xbed3d463	-0.41372976
170	0x3ed6314f	0.41834494
171	0x3fc6f044	1.5542073
172	0xbe7007bf	-0.23440455
173	0xbba116e0	-0.004916057
174	0xbd6488d4	-0.055794552
175	0x3e8e97be	0.27850145
176	0x3eb7f8e1	0.35932067
177	0xbf14c899	-0.5811859
178	0xbd41ddb9	-0.04733059
179	0x3e912a6b	0.28352675
180	0x3ee14a30	0.44001913
181	0xbd2269de	-0.039651744
182	0xbe6c878e	-0.23098585
183	0xbd809ddc	-0.06280109
184	0xbec0dd38	-0.37668777
185	0x3f48f72c	0.78502154
186	0xbedc7fb4	-0.4306618
187	0x3e2cb677	0.1686648
188	0x3eabff25	0.33593097
189	0xbe601cd6	-0.21886
190	0x3f328f06	0.69749486
191	0xbda7667a	-0.08173843
192	0xbe0d80c4	-0.13818651
193	0x3ce3f679	0.027827488
194	0x3e794389	0.24342169
195	0x3c4aaaaf	0.012369796
196	0xbef655dd	-0.48112383
197	0xbef705c5	-0.4824659
198	0xbea3dde8	-0.3200524
199	0x3e87029d	0.2636918
200	0x3e950eae	0.29112762
201	0x3e6f712f	0.2338302
202	0x3d89dbf8	0.06731409
203	0x3e906f6c	0.28210008
204	0x3f1a5b84	0.6029589
205	0x3e592653	0.21206026
206	0x3d6a990b	0.05727486
207	0xbec42bac	-0.3831457
208	0xbdaabdd4	-0.08336988
209	0x3bf82b60	0.00757353
210	0xbe801009	-0.25012234
211	0x3e959114	0.29212248
212	0x3f50aa08	0.8150945
213	0xbf145982	-0.5794908
214	0x3ed53c3b	0.41647515
215	0xbee219b9	-0.4416025
216	0x3f36fb25	0.71476966
217	0x3d79ea96	0.061014734
218	0x3f07212d	0.52785
219	0x3e689efc	0.22716898
220	0xbf44573c	-0.7669561
221	0x3cbbb874	0.022915103
222	0xbd12bf0c	-0.035826728
223	0xbead1863	-0.33807668
224	0xbf35dd97	-0.71041244
225	0x3f127610	0.572114
226	0xbe0d1953	-0.13779192
227	0xbead130f	-0.33803603
228	0xbd15503c	-0.03645347
229	0xbd086abb	-0.03330491
230	0xbf1e9f63	-0.61961955
231	0x3e76e1ed	0.24109621
232	0x3e9bf8f9	0.3046339
233	0x3f4ca0bf	0.7993278
234	0xbe9799f4	-0.29609644
235	0x3d028c33	0.031871986
236	0x3ef0a961	0.47004226
237	0xbe83e5cb	-0.25761256
238	0xbe873d19	-0.264138
239	0x3eebf1b8	0.46082854
240	0xbf9ae89f	-1.210224
241	0xbe61f9f3	-0.22068004
242	0xbecd6a48	-0.4012015
243	0x3d31224b	0.043245595
244	0xbd45eb59	-0.04832015
245	0x3f571e6f	0.8403081
246	0xbea26ca4	-0.3172351
247	0x3f3c3ad4	0.73527265
248	0x3f509b60	0.81487083
249	0xbf036242	-0.51321805
250	0x3f020596	0.50789773
251	0x3e51fc3c	0.20506376
252	0xbe887926	-0.2665493
253	0x3f0099f1	0.50234896
254	0x3f1179da	0.56826556
255	0x3f98410f	1.1894854

l3.bias f4 [4]
0	0x3e640d1e	0.22270629
1	0x3eeb6cdb	0.45981488
2	0x3d637f0a	0.055541076
3	0xbd0c4caf	-0.03425282
