fin/DQN/agent-300-10-566/model.pt (torch, 340231 bytes, 6 tensors)

l1.weight f4 [400, 8]
000000 7f 67 57 bf 31 89 a4 3e 51 4a e9 3b d0 05 89 be
       -0.841423 0.3213592 0.007119455 -0.26762247
000010 ff df 8e 3e a0 68 a5 3d a2 92 0a be a6 6c 82 3d
       0.2790527 0.08076596 -0.13532498 0.06368379
000020 93 40 15 3e 7d 3f 64 be 57 15 9f be 7a e7 b1 be
       0.14575414 -0.22289844 -0.31070969 -0.34746915
000030 5f 47 b2 3f 3c c2 05 3f 6f 6f 0c bf 6c bf 0d 3e
       1.3928031 0.52249503 -0.54857534 0.13842553
000040 f9 11 55 be 92 66 aa be 4d 12 ad be e3 c7 6a be
       -0.20807637 -0.3328138 -0.33803025 -0.22927813
000050 57 cd 10 3f 1d 5d 24 3f 42 7d 9a 3e 7c ad 17 bd
       0.56563324 0.6420458 0.3017369 -0.037030682
000060 f0 14 8d be d5 9b d7 bd 54 4f f2 bc 2e 24 53 be
       -0.27555037 -0.105277695 -0.029578842 -0.2061927
000070 fc c6 87 be ce 7b ec 3d 64 a4 65 bf c0 07 3c bf
       -0.26519 0.11547051 -0.89703965 -0.73449326
000080 e1 f9 bc be 46 84 29 be 3e 74 cc bd a3 12 d7 3f
       -0.36909392 -0.16554365 -0.09983109 1.6802562
000090 23 fd d6 be 08 dc 97 3d 6c a2 01 be 20 e8 3d 3e
       -0.41990003 0.074150145 -0.12659615 0.1854558
0000a0 b1 ed f6 be 7b 01 66 be b6 a0 d1 be 61 8a 4f 3e
       -0.4822822 -0.22461502 -0.40942925 0.20267631
0000b0 da f1 62 3c 74 28 50 3f 71 8f b3 be 15 b7 91 3e
       0.013851607 0.81311727 -0.35070375 0.28459993
0000c0 3e d4 fe be f9 83 85 be f9 cf 03 3e c4 8d 21 bf
       -0.49771303 -0.2607725 0.12872304 -0.6310694
0000d0 be 45 09 bf 3a 2c 41 3d 59 62 d8 be de fc 98 bf
       -0.53622043 0.04716132 -0.42262533 -1.1952169
0000e0 e6 d9 e2 be ee 91 8c 3e 70 7c 76 3e 42 fa c5 be
       -0.44306868 0.27455086 0.24070907 -0.38667494
0000f0 60 81 5c 3f ab 37 8c 3e 2a b8 83 bd 84 ff 13 3f
       0.8613491 0.2738622 -0.06431611 0.5781176
000100 87 d1 75 3e 55 ea 2a c0 c9 94 73 3f 7f aa 7e bd
       0.2400571 -2.6705525 0.95148903 -0.062174316
000110 be ba dd 3d 81 66 f6 3d 10 f2 7e bf 93 b7 8c 3e
       0.10826634 0.1203127 -0.9958811 0.27483806
000120 da bf 0a be ce 96 e7 3e ce 12 80 3e 08 c1 9f bd
       -0.13549748 0.45232242 0.25014347 -0.0780049
000130 bb 81 5c 3c c1 dd 28 bd 36 e7 b7 bf 48 fc c8 be
       0.0134586645 -0.041227106 -1.4367435 -0.39254975
000140 4c f0 10 be 2c 39 15 be 59 dd cc bd 64 1d 29 bf
       -0.14154166 -0.1457259 -0.10003156 -0.6606047
000150 3a 84 74 3f a9 25 03 bf 0e 6e 8d bf 23 65 62 3f
       0.9551426 -0.5122934 -1.1049211 0.8843557
000160 32 44 de bd fe f5 74 be 84 b9 81 be cf 66 cc be
       -0.10852851 -0.23921964 -0.2533685 -0.39922187
000170 2c e5 67 bd 28 03 dc 3e 5e 87 69 3f 97 98 8e bf
       -0.05661504 0.42971158 0.9122218 -1.1140317
000180 ac d9 c4 3e 5e 16 ad 3e 78 99 23 bb d7 ce d7 be
       0.3844732 0.33806127 -0.00249633 -0.42149994
000190 e2 73 9b be 80 d7 93 bd 7a 12 24 3f 5d 0c 04 bf
       -0.3036185 -0.07218838 0.64090693 -0.51581365
0001a0 8b b9 b8 be 18 c3 44 3e 7c 8d f1 bd a9 26 ae be
       -0.36079058 0.19215047 -0.11794564 -0.3401387
0001b0 c2 d6 93 3c 80 3f a3 3e ce 02 c2 bf 1b 6a 1d bf
       0.01804674 0.31884384 -1.5157106 -0.6149003
0001c0 77 da 17 3f 37 4f 16 bd c0 29 46 bf da e4 8d 3e
       0.59317726 -0.03669664 -0.77407455 0.27713662
0001d0 ed 82 4c 3e 28 12 73 3e bd 14 96 bf 61 93 7d be
       0.19971819 0.23737395 -1.1725079 -0.24763252
0001e0 be 68 75 3d bf c3 2c 3e e4 11 43 3e 00 66 a3 bd
       0.059914343 0.16871546 0.19049793 -0.07978439
0001f0 ca aa b8 3f 4f 47 30 3f d0 fc c3 bd 33 c4 30 bf
       1.4427121 0.6885881 -0.095697045 -0.69049376
000200 c8 a3 aa bd d1 54 5e 3e aa 53 39 bd 97 6e 91 be
       -0.0833202 0.21712042 -0.045245804 -0.28404686
000210 81 e3 71 3c ec 3a 5d be 4b aa 39 bf 2d 41 8e 3e
       0.014763714 -0.21604508 -0.7252547 0.277841
000220 40 60 44 3f ac 35 49 bf 8e 8e 11 bf 21 38 f9 bd
       0.76709366 -0.7859752 -0.56858146 -0.12168909
000230 a8 4e 97 3e 3b b4 31 bd a8 57 7c 3e 97 98 26 3c
       0.29552197 -0.04338477 0.24642813 0.010168216
000240 4d 2c a0 be 26 84 0d 3e 65 9f 0d bf 18 1b 37 3d
       -0.312838 0.13819942 -0.5532134 0.044703573
000250 27 a8 f2 3d 10 1a 25 3f 12 7f f2 bf 84 35 64 bd
       0.11848479 0.64492893 -1.8945029 -0.0557151
000260 62 b7 20 3f 2b 7b 80 3e e8 8f a1 3e 44 2a cb be
       0.6277982 0.2509397 0.31555104 -0.39680684
000270 0a 99 12 bf a4 c5 b8 3e d2 f6 aa bf 16 94 70 3e
       -0.5726477 0.36088288 -1.3356574 0.2349399
000280 37 62 af 3c b9 72 4d be 33 b9 a9 be 93 cd 2d bf
       0.021409137 -0.20063294 -0.33149108 -0.67891806
000290 9c bf dd 3e 22 6a 6b 3f 77 4f 4e 3f 44 37 a9 bf
       0.4331025 0.9195882 0.80590004 -1.3219991
0002a0 f0 3e 2b 3a 38 c8 90 3b 88 aa 66 be e8 db ac 3e
       0.0006532511 0.004418399 -0.2252599 0.33761525
0002b0 3e 62 4c 3e 63 94 a9 3e 4d d1 69 bf 05 bf 4b bd
       0.19959351 0.33121023 -0.9133499 -0.049742717
0002c0 31 e6 35 bf 36 52 0f be 8a e4 e3 be 99 56 80 be
       -0.7105437 -0.13996205 -0.445103 -0.2506607
0002d0 8d 55 93 be 4f ab b4 bf 71 2d 0a bf 27 5d b0 3e
       -0.28776208 -1.4114779 -0.5397559 0.3444607
0002e0 59 9b 15 3f 87 79 cb 3e cd 5d 26 3f fa a2 5b b9
       0.58440167 0.39741156 0.6498688 -0.00020946181
0002f0 47 b6 8b 3d 51 75 5c be ad b6 25 3f b2 8f 7b 3e
       0.06821876 -0.21529128 0.64731866 0.24566534
000300 dc a6 89 be 9a dc 6e be 4a f1 ca 3e 7f 8e 70 3c
       -0.26885116 -0.2332634 0.39637214 0.014682411
000310 ca fd d2 be 04 12 95 bc 67 8b 50 3e 44 b0 c3 be
       -0.4120925 -0.018197067 0.20365678 -0.38220417
000320 ca 8c 4a 3f d4 cc 77 3e 73 49 62 be db e2 4d be
       0.7912108 0.2419923 -0.22098331 -0.2010607
000330 8b 12 58 3e 53 96 ce be 10 32 7c be 9d 78 71 bf
       0.21100824 -0.40349063 -0.24628472 -0.94324666
000340 e7 84 33 bf 98 4c 98 be 0e 4e 4f be 8c dc 90 bd
       -0.7012467 -0.29745936 -0.20244619 -0.07073316
000350 a7 ef 73 bf 07 f3 18 bf 07 be 50 bf 96 05 3f 3e
       -0.95287555 -0.5974583 -0.8153996 0.18654475
000360 b9 50 a4 3e 60 0c a2 bf 19 9b 37 bf 38 a9 91 3f
       0.32092836 -1.2660027 -0.71721035 1.1379766
000370 9a 36 48 3f a4 5f 69 3e b1 1b 0a 3f 5f 87 0e 3f
       0.78208315 0.2279039 0.53948504 0.5567531
000380 cb 51 06 bf 57 da 55 be 54 31 6c be 32 2e 48 3f
       -0.52468556 -0.20884071 -0.23065692 0.7819549
000390 72 da f6 be fa 5f 9a be 5f 58 62 bf e9 12 f8 bc
       -0.48213536 -0.3015135 -0.88416094 -0.030282455
0003a0 98 86 81 bc 5c b3 25 3c b0 be 34 bf ba ec 30 3e
       -0.01581125 0.010113563 -0.70603466 0.17277804
0003b0 a2 4f 60 3e 3d 03 b3 3e 29 da d2 be 21 32 ed 3d
       0.21905378 0.34963408 -0.41182068 0.11581827
0003c0 36 b9 3a bf 30 12 ec 3d c3 55 d2 bd 32 aa 0f be
       -0.7293886 0.115269065 -0.10270264 -0.14029768
0003d0 a9 aa bf 3e e7 bb d4 3d ac cc 9f bd fa 04 a9 bf
       0.3743489 0.10387402 -0.0780271 -1.3204644
0003e0 ca 4d aa 3e 0e 0f 56 be 49 f0 f7 3d bb dd 75 be
       0.33262473 -0.2090418 0.12106378 -0.24010365
0003f0 95 8c 90 be b6 a6 62 3e 36 23 d5 bb cd 61 6c be
       -0.28232256 0.22133908 -0.0065044416 -0.23084183

l1.bias f4 [400]
000000 1d 67 91 3e 62 fb 86 bd ac db da 3e 8f 62 d8 3e
       0.28398982 -0.06590916 0.4274572 0.42262694
000010 b5 3c 6c 3d 7e 8a 99 be fe 0e 0c 3e 90 04 ac be
       0.057675082 -0.29988474 0.13677594 -0.3359723
000020 2b c6 f9 3e 79 bf 19 bd 73 de 0d bf e3 72 30 bf
       0.48784003 -0.03753612 -0.55417556 -0.68925303
000030 17 c3 d7 be 7a 27 26 bf 4e 31 0e 3e 9c a0 27 3e
       -0.4214103 -0.64903986 0.13885996 0.16369861
000040 b6 93 c7 be 63 be 9c bd 34 cc 51 bf 0b df 08 bf
       -0.38979882 -0.07653501 -0.81952214 -0.53465337
000050 d4 72 06 bf 80 22 e3 be 8c d7 b9 be 9b e2 39 bf
       -0.52518964 -0.4436226 -0.36297262 -0.726114
000060 ab 7f f9 3e 02 08 16 bd 36 b7 d6 3e a9 48 31 3d
       0.48730215 -0.03662873 0.41936654 0.043282185
000070 75 5d 4b bf f4 95 0f bf eb cd b3 3e a6 56 9e 3e
       -0.7943948 -0.56088185 0.3511804 0.30925483
000080 51 86 dc 3e f6 69 32 be 71 98 82 3e 8d c8 3d 3e
       0.43071225 -0.17423233 0.2550693 0.18533535
000090 18 1b b0 be 2d ce 9a be 7c 3b 9f 3d 99 81 09 bf
       -0.3439567 -0.30235425 0.077750176 -0.53713375
0000a0 5f b2 12 bf 26 33 84 be 21 4a 4e 3d 00 ae ea be
       -0.5730342 -0.25820273 0.050363664 -0.45835876
0000b0 41 14 0d bf 4e 89 34 bf 85 ce 1f be 29 cb cf 3d
       -0.5510903 -0.7052201 -0.15606125 0.101461716
0000c0 56 8f b2 be 07 76 14 be a4 07 33 bf 80 c6 37 be
       -0.34874982 -0.14498149 -0.69933534 -0.17946815
0000d0 a6 fd af be 3f f7 ae be 3f b0 02 3e 16 89 b8 bc
       -0.34373206 -0.3417301 0.12762545 -0.022526305
0000e0 86 d5 aa be 86 9d 39 be 9f ba 1c 3e a7 74 40 3e
       -0.3336603 -0.18126497 0.15305565 0.187945
0000f0 74 f3 09 bf 30 d3 9d be cf 79 50 bf ec 83 23 bf
       -0.53887105 -0.30825186 -0.81435865 -0.6387317
000100 70 15 92 3e 74 8a 74 3e 08 c8 2e 3e 56 30 92 be
       0.2853198 0.2388094 0.17068493 -0.28552502
000110 31 e3 8b 3e e2 4d b3 3e 1e 45 d5 bd ef f0 f5 bd
       0.2732177 0.35020357 -0.10413574 -0.12008845
000120 77 5d 86 3d 50 90 4d bf 92 70 ba 3a d6 ae 58 bf
       0.06560796 -0.8029833 0.0014224222 -0.8464178
000130 75 6a 76 bd 9d b0 59 be 9b 73 ec bd a0 69 7c 3e
       -0.06016012 -0.21258779 -0.115454875 0.24649668
000140 14 7a 0d 3e bc 47 94 be 5e 90 22 3c 53 54 3d bf
       0.138161 -0.2896098 0.009922115 -0.73956794
000150 24 0f 01 bd 93 c6 0f 3d 98 9f ed be e7 f2 f0 3e
       -0.03150858 0.035101485 -0.46410823 0.4706032
000160 e9 b4 ea 3e 05 7e d4 be 01 48 0e be 75 03 06 be
       0.45841148 -0.41502395 -0.13894655 -0.13087256
000170 2a b0 ae be cf a0 67 b9 51 c7 ca 3e 67 13 b3 be
       -0.34118778 -0.00022089783 0.3960519 -0.3497574
000180 21 0e ad 3e 00 ef 97 be 5d c5 3f bf 05 91 27 3e
       0.33799842 -0.2967453 -0.7491053 0.16363914
000190 93 ba ae be 88 86 29 bf 6b 52 96 3d 8e 56 a7 3e
       -0.3412672 -0.66220903 0.07339939 0.32683223
0001a0 cd 64 05 be 4a 2b 5e be f9 8f 24 bf 99 92 7a be
       -0.13026734 -0.21696201 -0.64282185 -0.24469985
0001b0 3f de a7 3e dd 90 ca be 1f 1e 32 be 4c 34 bc bd
       0.32786748 -0.39563647 -0.17394303 -0.09189662
0001c0 66 98 1e bf 2e d6 ef be ec 1f 1e bf 20 57 03 bf
       -0.6195129 -0.46843094 -0.6176746 -0.5130482
0001d0 a7 ef b8 be 37 ea 73 be fd b0 b1 3e 31 15 5a 3e
       -0.3612034 -0.23819815 0.34705344 0.21297146
0001e0 6c f1 f0 3e 96 fb 28 be fb 10 49 bf fc 98 e1 bd
       0.4705919 -0.16502222 -0.78541535 -0.110155076
0001f0 ed 22 24 bf f7 bf 0a bf 1e 1a 9c be db 4c 20 bf
       -0.6411579 -0.54199165 -0.30488676 -0.6261727
000200 0b 7c 20 be 27 4a 0f bf 06 61 c8 3e a6 5f ae bd
       -0.15672319 -0.5597252 0.39136523 -0.08514337
000210 9f 75 29 bf e7 4c 15 3d f7 39 5c bd 15 66 a7 be
       -0.661951 0.036450293 -0.053766217 -0.3269507
000220 67 6c 95 3e 71 b8 c0 be 65 87 08 bf 75 42 8c 3e
       0.29184267 -0.37640718 -0.53331596 0.27394453
000230 7e 9e f3 be 95 e0 ab 3c 25 a0 7a 3d 19 b6 c1 3e
       -0.47581857 0.020981112 0.061187882 0.37834242
000240 66 43 a4 be 42 76 fc 3d 01 ee 9a be 66 98 0c be
       -0.3208267 0.123272434 -0.30259708 -0.1373001
000250 b0 63 42 3d 92 93 74 be a1 b6 89 3d d6 fc 26 bf
       0.04745835 -0.23884419 0.06724287 -0.6522955
000260 82 78 22 bf 3f 48 9c bc 08 77 9f 3c 43 cc d3 be
       -0.6346513 -0.019077418 0.019465938 -0.41366777
000270 2f 46 73 3d c6 a1 5e bf 58 b5 79 3e c0 89 55 bf
       0.059393104 -0.86965597 0.24385583 -0.83413315
000280 6a 7f a2 be 95 03 48 3e 5b 55 ba 3e 1c ee c1 3b
       -0.31737834 0.19532616 0.36393246 0.0059182774
000290 1a 23 10 bf e6 5a 01 3e 0b 28 24 3e 2e c6 a7 be
       -0.5630356 0.12632331 0.160309 -0.32768387
0002a0 2f 38 13 3d c3 ae 8d bd 2e 33 24 bf d7 01 da 3e
       0.035942253 -0.06918099 -0.64140594 0.4257953
0002b0 13 79 c3 3e d3 67 1d bd 8b c3 c5 3e fd 11 b8 be
       0.3817831 -0.038429093 0.3862575 -0.35951224
0002c0 99 f5 ee 3e c3 65 ec 3e 15 05 0a bf 37 b4 84 3e
       0.4667175 0.46171388 -0.53914005 0.25918743
0002d0 c4 0b 1b 3f 15 c6 1a 3e 0f f3 3d 3e 8e e5 9d 3e
       0.6056483 0.15114625 0.18549751 0.308392
0002e0 3c 6e 51 be af fe 45 bf ab d2 59 bf 2e 82 94 3d
       -0.20452207 -0.7734174 -0.8508708 0.07251392
0002f0 99 26 ac 3b d5 c9 cf bd ab 6a 97 3d 3f be be bd
       0.0052536246 -0.10145918 0.07393392 -0.0931363
000300 da f4 06 3e ab ba 67 bd ba 99 f2 bd c8 24 6c 3c
       0.13179341 -0.056574505 -0.11845727 0.014413066
000310 e6 58 78 be ae dc ab bc 2b 38 92 3e 8b 50 06 bf
       -0.24252662 -0.020979252 0.28558478 -0.5246665
000320 e9 b0 14 be 00 e4 b7 be d7 aa 81 3e 79 b8 61 3e
       -0.14520611 -0.35916138 0.25325653 0.22043027
000330 4c 3a 07 3f da a5 d5 3c dc ce ed ba 39 5a 3f bf
       0.5282333 0.02608006 -0.0018143314 -0.74747044
000340 ac 25 d0 bd bc a6 8d 3e df a9 a6 3e ec 56 23 bf
       -0.10163435 0.2766627 0.32551476 -0.6380451
000350 c2 54 49 be d3 f3 a3 ba b3 05 df bd fb e7 70 3e
       -0.19661239 -0.0012508578 -0.10889759 0.23525994
000360 0a 91 40 bf aa 3a 82 3e a1 86 b9 3e 7a aa ac bc
       -0.7522131 0.25435382 0.36235526 -0.021077383
000370 3d b3 cd 3d c0 39 f3 be b3 de 31 bf 1a a7 fc 3d
       0.100439526 -0.47504997 -0.6948044 0.123365596
000380 27 b7 13 3f a5 9f 01 3f d5 ec 58 bd 29 a9 ec be
       0.57701343 0.50634223 -0.052960236 -0.4622281
000390 22 05 cb bc c7 14 f7 be be 73 9b 3e dd 01 42 bf
       -0.024782721 -0.4825804 0.30361742 -0.75784093
0003a0 08 cb 1b 3e a0 bd 8d be 31 1e f0 3e 6e 99 c1 be
       0.15214169 -0.27683735 0.46898034 -0.3781237
0003b0 eb 43 5d be 70 f2 1e bf d8 60 e6 3e ac 00 0d 3d
       -0.2160794 -0.6208868 0.4499576 0.03442447
0003c0 92 13 96 be 69 cc 6a 3e 91 72 5c be 15 d3 ef be
       -0.29311806 0.22929539 -0.21528079 -0.4684073
0003d0 26 3c 26 bf 0e d3 10 bf 88 9c 14 bf 07 30 09 bf
       -0.6493553 -0.56572044 -0.5805135 -0.5358891
0003e0 a0 a3 04 3d ad 43 11 bd 46 61 34 bf f1 d2 8e be
       0.032382607 -0.03546493 -0.7046093 -0.2789531
0003f0 53 ae 8b bd 88 b5 1b bf 6d d0 ff bd 1e f7 37 3f
       -0.06820359 -0.6082387 -0.12490926 0.71861446

l2.weight f4 [200, 400]
000000 b2 53 c7 3d 8e 53 80 bc 59 d5 95 3e c6 fa 37 3e
       0.097327605 -0.015664842 0.29264334 0.17966756
000010 c8 33 2b 3f f1 a7 9a 3d 70 16 64 3e 98 4b 83 be
       0.66875887 0.075515635 0.22274184 -0.2564361
000020 58 7c a5 3b e4 ef 51 3e 21 d5 b5 be a0 66 5f 3e
       0.0050502233 0.20501667 -0.35514167 0.21816492
000030 15 58 f2 be 9e e1 92 3b e4 79 10 be 4e b4 73 3b
       -0.47332826 0.004482462 -0.14108998 0.0037186327
000040 0d 74 fd 3d cf be 98 be 65 08 86 3d 03 4d ea 3d
       0.123756506 -0.29833075 0.0654457 0.1144047
000050 ad f9 15 3e a1 02 9d 3e 78 41 49 be bf 37 18 bd
       0.14646025 0.30666068 -0.1965388 -0.03716254
000060 d9 3a 9f 3c 13 bc d3 be af aa 9d be f1 bd 06 be
       0.01943724 -0.41354427 -0.30794284 -0.13158394
000070 0e 23 a7 3d ad a5 6b 3d fc d4 91 3e a4 0c ae 3d
       0.08160983 0.057531048 0.28482807 0.08498505
000080 f8 33 e5 3c 43 80 0a bf 41 e5 a9 3d a9 66 a2 3c
       0.027978882 -0.5410196 0.0829568 0.019824343
000090 7a 8c c5 3d c7 c9 b2 3d 8f 98 ee 3d d2 8b 40 3e
       0.096459344 0.08729892 0.11650192 0.18803337
0000a0 be 62 6b bc 32 3f e8 3e e9 bf e7 3e 15 6e 02 3c
       -0.014366804 0.45360714 0.45263603 0.007960816
0000b0 47 92 dd 3d eb 83 0b 3e 43 9a 54 3d d8 6a 2a bd
       0.10818916 0.13624541 0.051904928 -0.0416058
0000c0 b3 3f f7 bd 68 af 86 3e b7 19 9f bd 00 9b 26 bd
       -0.120726965 0.263057 -0.077685766 -0.040675163
0000d0 af 2a f2 3e 87 a7 86 be 08 62 17 3d e4 41 5c bd
       0.4729819 -0.26299688 0.036958724 -0.053773776
0000e0 8c e2 a2 bc eb d1 92 3e f1 eb c3 3d 46 4b 8f 3e
       -0.019883417 0.2867578 0.095664866 0.27987117
0000f0 7a 4b ff 3d ee 97 60 be 94 3a 8e 3d 43 04 1d 3e
       0.12465568 -0.21932957 0.06944767 0.15333657
000100 ea 85 26 bd 66 5c e7 3d 38 eb 2e 3e 82 c9 ab be
       -0.040655054 0.112969205 0.17081916 -0.33552176
000110 e1 bd 72 3e 7a 8d d4 bc 0a 6e 81 3e ff 4f be 3e
       0.23705246 -0.025946368 0.25279266 0.37170407
000120 36 94 09 bf 7c 5c ec 3d 0d 72 5a bf d1 e1 ea 3d
       -0.53741777 0.115410775 -0.8533028 0.11468852
000130 71 be c2 be e3 62 2d bd 69 99 33 3d 2e 2a 0f 3e
       -0.3803592 -0.042330634 0.043847475 0.13980934
000140 f2 bc 03 bc e2 31 05 3e 0d 76 a3 bf bc 63 60 3e
       -0.008040654 0.1300731 -1.2770401 0.21913046
000150 42 6c fb bd d8 9b e2 bd 98 be f0 3d 19 45 34 bd
       -0.12276508 -0.11064881 0.11755103 -0.04401121
000160 23 fc ef 3d 45 3b 06 3f 01 bd f6 3a 6a 71 03 be
       0.11718013 0.5243419 0.0018824638 -0.12836233
000170 b1 14 42 be 9e 35 eb be e4 77 71 3d 54 81 c3 3d
       -0.18953206 -0.45939344 0.058952227 0.09546152
000180 32 4b dc bd d2 1b 8a bd 23 db b5 3d a5 4a 65 3e
       -0.1075653 -0.067435876 0.08879688 0.22391756
000190 27 33 dc be 3e b7 4b be c6 ed 0c be 4e de d1 3d
       -0.43007776 -0.1989412 -0.13762578 0.102474794
0001a0 ca d4 23 be 7f 98 42 3e 7a c4 c5 bd 1d 0d 97 3e
       -0.15999141 0.19003485 -0.096566156 0.29502192
0001b0 0c 69 30 3e 43 11 e5 3d 9b 7f 17 bf 53 e5 9a be
       0.17227572 0.11184933 -0.59179085 -0.30253085
0001c0 3b d1 ed 3d 56 05 dd be b1 46 74 3e 4d ca ea bc
       0.11612173 -0.43168133 0.23855092 -0.028660918
0001d0 0b 6e 4f 3e 25 65 8d bc ed 18 5b 3e 14 c3 e4 3e
       0.20256822 -0.017260144 0.21396227 0.44680083
0001e0 27 87 a5 3d 22 b8 92 3e bf ec 9b 3e f4 b1 d9 3e
       0.08082419 0.28656107 0.3045406 0.4251858
0001f0 f3 02 81 bc ef 30 2f bf b3 d8 d6 be 3d 66 22 be
       -0.015748477 -0.6843404 -0.41962203 -0.15859313
000200 16 05 b7 be 93 b6 6b 3e bf 84 88 be e8 89 aa 3e
       -0.35746068 0.23018865 -0.26663777 0.3330834
000210 9b cd a4 bd 45 b7 f2 3d d2 1b ca 3e 07 f7 81 3d
       -0.08047029 0.11851362 0.3947435 0.06345945
000220 6b fe 3a be 54 5d cb bc 2b 47 3b 3e 8c 94 85 bb
       -0.18261115 -0.024824776 0.18288867 -0.004076546
000230 20 70 09 bc 82 52 18 3e 91 63 8b be 0b f5 8c bd
       -0.008388549 0.14875224 -0.272244 -0.06882676
000240 be 32 7e 3e af 1e c9 bd f8 aa 44 3e 3b 13 6d be
       0.24824044 -0.098203056 0.19205844 -0.23151867
000250 4c 9c 84 3e 8f 6e e7 bc 0f 0d 6d 3e 3c ab f6 be
       0.25900495 -0.02825096 0.23149513 -0.48177516
000260 4c 31 eb 3d 83 de 18 3e 94 73 82 3e 17 35 e9 bd
       0.11484012 0.14928631 0.25478804 -0.11387079
000270 c9 e7 05 be cc b4 d6 3d 7f f6 ad 3d 0c fc ac bf
       -0.130767 0.10483703 0.08494281 -1.3514419
000280 41 46 b6 bd cc 3e 17 be 72 46 81 3e 5f d6 d2 3d
       -0.089001186 -0.14770049 0.25249058 0.10294794
000290 12 19 04 bf d4 a9 3e 3e 25 ca 68 3e a4 64 01 bf
       -0.51600754 0.18619472 0.22733362 -0.5054419
0002a0 ce 2b 2d 3d 40 5a e8 3d 9a 11 68 3e c9 6f a7 3e
       0.042278104 0.11345339 0.22662964 0.32702473
0002b0 17 27 72 3e 27 3f 01 3f 51 dd 82 bc 66 3f 92 3b
       0.23647724 0.5048699 -0.015974673 0.004463124
0002c0 d7 66 be bc 7d 56 a9 bc e8 96 8a 3e f1 bb 12 3f
       -0.023242397 -0.020671124 0.27068257 0.57318026
0002d0 42 47 8c bd 51 7c 05 3e 73 cf 6b 3e 3d 77 ab 3d
       -0.06849529 0.13035704 0.23028354 0.08372352
0002e0 8b 3e 34 3e 54 ab 1b c0 f9 8f fa 3d fa db 0e bd
       0.17601983 -2.432332 0.12234492 -0.034877755
0002f0 80 7b 07 3e 26 01 20 be 2c 62 0c 3e 50 ee fe 3d
       0.13230705 -0.15625438 0.13709325 0.12447798
000300 b9 31 89 3e fa cd fb bb 2c 85 d1 3e a1 58 ab 3e
       0.26795748 -0.0076844664 0.40921915 0.33466056
000310 f4 15 7c 3e b9 e5 6f 3e b6 39 90 be 44 6c d9 3e
       0.2461775 0.23427476 -0.2816903 0.42465413
000320 04 79 b8 3d 6d 87 e5 3e 81 37 5a 3e 5f 31 a5 bd
       0.09007457 0.44829884 0.21310236 -0.080660574
000330 ee 59 57 be f8 1e 15 bd ea c5 88 bf 35 70 01 3e
       -0.21030399 -0.036406487 -1.0685399 0.1264046
000340 c4 82 9a 3c ce 06 21 bc 8d be 2c bd 56 87 37 3d
       0.018861182 -0.0098282825 -0.04217391 0.0448068
000350 d2 d7 86 bd 77 d8 15 be b6 da 32 3e ee 21 92 bd
       -0.06584133 -0.14633356 0.17466244 -0.07135378
000360 69 6a 1b 3d 0f cd 97 3d 6b 99 4c be 0d 0d 3c be
       0.037943278 0.07412159 -0.199804 -0.18364353
000370 f5 35 de 3c 8b 6c 50 bd d5 30 c9 3d 02 eb fe bd
       0.027125338 -0.050884765 0.09823767 -0.12447168
000380 ec 88 b2 3d 96 ef 17 3e 45 b8 90 be 96 c3 85 3e
       0.08717522 0.14837489 -0.28265586 0.26125783
000390 f6 83 e0 3e 66 17 f1 bc 88 c4 bd bc 96 75 e0 be
       0.43850678 -0.029430103 -0.023165002 -0.4383971
0003a0 7d e7 2b 3e 0f 1e 12 3e 98 84 b4 bd c7 12 94 3e
       0.16787525 0.14269279 -0.08814353 0.28920576
0003b0 a1 5d e5 be 5d b6 dd 3c 50 b6 57 bd 29 1c 22 bf
       -0.44797996 0.027064497 -0.0526641 -0.6332422
0003c0 8b f0 21 be fb 04 4d 3d c5 b4 07 be e6 10 b0 bc
       -0.15814416 0.050053578 -0.13252552 -0.021492433
0003d0 97 5f 66 bd a2 97 2d 3e af e5 df bc c3 44 05 3e
       -0.056243505 0.16952375 -0.027331201 0.13014512
0003e0 ec 6b cf 3c 5c 7a 84 3a 79 63 7c bf 5c 42 90 3e
       0.025320016 0.0010107267 -0.98589283 0.28175628
0003f0 4f a1 69 3e fd 71 6f 3e 0f bd 24 3c 48 06 94 3d
       0.2281544 0.23383327 0.010054841 0.072277606

l2.bias f4 [200]
000000 a0 41 0e 3e dc ea 9e 3d 31 05 3e bc ad 74 0c 3e
       0.13892221 0.077596396 -0.011597917 0.13716383
000010 45 cc 53 3e 54 c9 a2 3d f0 c7 a3 bc 8b 88 41 3e
       0.20683391 0.079485565 -0.019992799 0.18899743
000020 b1 83 26 3c b5 ed e8 bb ac a0 c8 3d 86 99 84 be
       0.010163234 -0.007108415 0.09796271 -0.2589838
000030 8a 19 47 3b 10 d7 7b bd 95 d8 9a bd 36 61 fc 3c
       0.0030380213 -0.061484396 -0.07560841 0.030808073
000040 e2 c1 89 3e d7 0d 31 3e 87 09 2b 3e 4f 2a 46 bd
       0.26905733 0.17290436 0.16702853 -0.048380192
000050 59 a2 a1 be c5 70 20 3e 26 10 85 bd 73 f4 13 3e
       -0.31569174 0.15668018 -0.06497221 0.14448719
000060 28 f9 9c bc 6f 44 38 3e 7f 83 08 be f3 e1 f4 3d
       -0.019161776 0.17994855 -0.13331412 0.11957159
000070 5f d7 84 3e 3b ff b5 bd 73 81 a7 3b 6a 88 8e be
       0.25945565 -0.08886572 0.005111867 -0.2783845
000080 f7 71 af 3d 86 ea 2f bb d9 41 c8 bd fd 4f f8 bd
       0.08566659 -0.0026842668 -0.097781844 -0.121246316
000090 db 34 23 3e 94 24 92 3d 98 80 b8 bb b3 7f 8b 3e
       0.15938132 0.07135883 -0.005630564 0.27245864
0000a0 f2 7d 1a bd ba 68 a3 bc 27 fd 88 bd d9 ef dd bc
       -0.037717767 -0.019947398 -0.0668891 -0.027091907
0000b0 39 b9 6b 3e 5c 6f c4 be 54 31 7e bd f4 eb 4b 3d
       0.23019876 -0.3836621 -0.06205876 0.04978557
0000c0 11 70 03 3d a1 fc 71 3e 64 df 81 bd 1c 51 e0 bc
       0.032089297 0.23631527 -0.063414365 -0.027382426
0000d0 59 8c 35 bc 32 4a 16 bc bc 02 70 3c 65 62 66 3c
       -0.011080825 -0.009172963 0.014649089 0.014061545
0000e0 9d d4 7d be 59 7c 3c 3e c6 5a 82 bc ee b9 95 3c
       -0.24788137 0.1840681 -0.015912425 0.018277135
0000f0 92 b5 73 3e 98 51 86 bd b8 6e d4 be 7f de 87 3e
       0.23799732 -0.065585315 -0.41490722 0.2653694
000100 06 07 7a bd 4f 2e 8e 3d 0f d4 07 3e 09 9b 83 bc
       -0.061041854 0.069424264 0.13264488 -0.016065137
000110 97 f2 d4 3d c4 54 81 be a8 55 86 ba 85 51 3b be
       0.10397833 -0.25259984 -0.0010248916 -0.18292816
000120 09 87 53 be de d3 65 bd d1 7b 11 bd 83 81 39 3e
       -0.2065698 -0.056110255 -0.03551847 0.18115811
000130 4e b4 35 be af 8b 86 3e 2b d6 01 3e b9 85 7b 3e
       -0.17744562 0.26278445 0.12679355 0.2456273
000140 8f a1 21 be a5 8a 20 3e b7 19 f4 3c 5e a5 f0 3d
       -0.15784286 0.15677889 0.029797418 0.11750291
000150 02 8a b2 bb ac 2e 15 be 41 1d 0f be ad b9 f4 3d
       -0.0054485807 -0.14568585 -0.13976003 0.11949477
000160 68 0e b0 3c b9 20 50 bd d2 5d a6 bc e8 bd a7 3e
       0.021491244 -0.050812457 -0.020308409 0.32762074
000170 cd af 5c 3e 87 52 8a 3e 98 2c 91 3d 7a ec a2 bd
       0.21551438 0.27016088 0.07088584 -0.079552606
000180 fa a6 f5 bd a6 98 44 3d 87 d2 41 be 8b e1 ff 3b
       -0.11994739 0.04799714 -0.18927966 0.0078088692
000190 4d 94 60 bc 1a dd f9 ba 68 bb 08 3e d1 93 ce be
       -0.013707233 -0.0019063086 0.1335274 -0.4034715
0001a0 75 e6 fc 3d af cb a1 be a8 05 54 be 8a e6 1b 3e
       0.12348644 -0.3160071 -0.20705283 0.15224662
0001b0 d2 5d 7a 3d aa 21 45 bd 9f bb 93 3d 75 6f f5 bd
       0.06112463 -0.048127808 0.0721352 -0.11984149
0001c0 8b 50 d8 3b 98 61 43 3e 6f 28 3c 3e e9 cf 60 3e
       0.0066013983 0.19080198 0.18374799 0.21954311
0001d0 eb c1 51 3c 9b 75 3a bb dd 33 e4 bc 2e 74 6f bd
       0.012802581 -0.0028451446 -0.027856762 -0.058460407
0001e0 cb 6f 77 3e 5d f0 23 3e 3d 95 38 3e ec 79 ca 3d
       0.2416374 0.1600966 0.1802568 0.09886536
0001f0 7b 2e 9d 3e 67 38 f1 3d 0f e3 0f ba 3e 7f 8a 3e
       0.30699524 0.11778336 -0.00054888515 0.27050203
000200 bc b8 02 bb d3 e1 5d 3c 19 bd a5 bd 92 50 18 bd
       -0.0019946536 0.01354261 -0.08092708 -0.037186213
000210 c6 84 97 3c 13 db 86 be 75 6a 0c 3e 52 dc 72 bd
       0.018495928 -0.26339015 0.13712485 -0.059292145
000220 1e 5e 4d bd c4 42 1f bd 5a 56 b4 3c 55 21 01 3e
       -0.050138585 -0.038882032 0.022013832 0.12610371
000230 e3 e3 96 bd a0 29 14 3e b2 6c a1 3e f1 40 f0 be
       -0.07367685 0.14469004 0.3152824 -0.46924546
000240 d1 ce 2c bd 11 99 7c bd b4 b6 5e bd bf 7d c2 3d
       -0.042189423 -0.061669413 -0.054373458 0.094966404
000250 ef c7 b1 be 58 ee d6 3a 2c e0 80 3b 7c fa 8c 3e
       -0.3472285 0.0016397936 0.0039329734 0.27534854
000260 c0 8b 65 bd 45 43 c1 be f4 a0 91 bd af ba 4e be
       -0.05604148 -0.37746635 -0.071107775 -0.20188402
000270 9f 79 9e be 28 5f 25 3e 25 1c 6e be 74 f2 77 3e
       -0.30952165 0.1614958 -0.23252924 0.24213582
000280 2d ba e3 3d c2 64 94 bc 91 ce b2 bc e6 b4 62 3b
       0.111194946 -0.018114451 -0.021827014 0.0034592687
000290 a0 5e f2 3c 53 a2 bd 3d 41 65 de bc d4 1d 20 bd
       0.029586136 0.092594765 -0.027147891 -0.039090946
0002a0 da 6d 98 bd a5 5c 60 be f2 e7 9a 3d 21 f6 8f bb
       -0.074428275 -0.21910341 0.07563771 -0.0043933545
0002b0 ea 81 52 3e 8c ed e5 be 72 d7 86 3e 21 74 b4 3d
       0.20557371 -0.44907796 0.26336247 0.08811212
0002c0 e1 87 dd 3d 8d 47 97 3c 51 6d 3c 3e 77 e4 a5 bd
       0.108169325 0.018466735 0.18401076 -0.08100217
0002d0 21 cb 4e 3c 1e cd 03 3e 55 ce bc be de 6a 9e bd
       0.012621672 0.12871215 -0.3687617 -0.07735227
0002e0 e1 8a 67 3e 6d 9a 3d be 89 56 3e bf 34 81 17 bd
       0.22611572 -0.1851594 -0.7435079 -0.036988452
0002f0 e7 0c f3 3d 34 0b c1 bc ee 6d 85 3e ab fc f1 3c
       0.11867695 -0.023564912 0.26060432 0.029539427
000300 b1 ec 38 3e f8 85 70 3e 92 bc e9 be 5b 82 3a 3e
       0.1805904 0.23488605 -0.4565168 0.18213789
000310 7b f4 f0 bc cc 41 2e 3d ab d0 67 3c 95 ec 7c be
       -0.029413452 0.042543218 0.014148871 -0.24699624

l3.weight f4 [4, 200]
000000 ac 82 f7 bb a5 ae 21 3f 1a 74 02 3c 2c ed ff bd
       -0.007553419 0.6315711 0.007962251 -0.12496409
000010 da 38 0d 3f ed 05 1e be a3 69 8e 3e 98 20 6b bf
       0.55164874 -0.15431948 0.2781497 -0.9184661
000020 52 73 2f be 31 f4 dd 3b 42 40 69 be 91 80 cc bd
       -0.17133835 0.0067734946 -0.22778419 -0.099854596
000030 69 16 03 be b2 5c 15 bd e6 53 bd be 27 b0 ba be
       -0.12801518 -0.036465354 -0.36978072 -0.3646252
000040 f3 0a 1d 3f 0f 24 20 bf f9 df 9c 3e 55 6c 3e 3d
       0.6134483 -0.6255502 0.30639628 0.046490032
000050 9d 85 34 bf e1 25 cf 3c 04 ea 11 bd 20 9e d0 3e
       -0.7051638 0.025286617 -0.035623565 0.4074564
000060 b2 6e 1c 3c 5c 71 07 3e cd 21 30 bf 74 c0 1c bf
       0.009547876 0.13226837 -0.68801576 -0.6123116
000070 a8 c0 6e be e5 16 77 be 8a 8d 7d be 1c 83 b8 be
       -0.2331568 -0.24129827 -0.24761024 -0.3603753
000080 68 56 8e be d3 59 45 bc a7 c4 cb bd ae 64 24 3e
       -0.27800298 -0.012045342 -0.09949618 0.16054031
000090 89 99 99 be 77 e9 e9 3e f7 0b 77 3b 93 ba d6 3e
       -0.2999995 0.45685932 0.003769634 0.4193922
0000a0 25 0d 44 3b b5 85 61 bd b6 5c 69 3d ab b0 7e be
       0.0029915061 -0.055059154 0.05697318 -0.24872081
0000b0 54 f9 0e bf aa 0b 3f bf dd 62 4a be 31 07 e4 bc
       -0.55849195 -0.7462717 -0.19764276 -0.02783546
0000c0 b7 46 79 3f 2d 52 6c 3f d3 e3 50 3e 34 20 6b be
       0.9737353 0.9231289 0.20399408 -0.22961503
0000d0 42 09 bb bd c0 2a 01 be a3 40 76 be db 97 2b be
       -0.09132625 -0.12613964 -0.24048094 -0.16757147
0000e0 e4 fa 23 bf 95 c9 34 be 8a 18 51 3d 72 96 56 3d
       -0.64054704 -0.17655022 0.051048793 0.05238957
0000f0 25 49 8d 3e fb 3e 5a bd 00 d7 08 bf 57 73 e4 3e
       0.27594867 -0.05328272 -0.53453064 0.44619247
000100 c4 ca 2d be e2 7e 23 bf b9 87 bd be 69 85 48 3d
       -0.1697188 -0.6386548 -0.3701761 0.048955355
000110 9d 18 bf bd 66 32 fc 3e 6d b5 8b 3a bf 5f d0 3e
       -0.093308665 0.492572 0.0010658927 0.40698048
000120 ff 7c ee 3c ef 4a 38 bd 9e 69 f5 3d b5 8c 0c bf
       0.029112337 -0.044993337 0.119830355 -0.549022
000130 85 3d ee 3e 02 bc 61 3f de 39 17 bf 4d c0 23 be
       0.4653131 0.881775 -0.59072673 -0.15991326
000140 d2 8d 24 bf 64 27 04 be 35 fd 6e 3d 0b 9f 04 3f
       -0.642789 -0.12905651 0.058346946 0.5180518
000150 0c 3e 78 bc 6d 29 f3 be 88 6d f3 3e 1d b1 ed be
       -0.015151512 -0.47492543 0.47544503 -0.4642419
000160 92 6f ad 3e f2 fc 4f bd 59 42 e4 ba 58 0c 04 3d
       0.33874184 -0.050778337 -0.0017414793 0.032238334
000170 c6 ad ad 3e 57 76 31 3f 91 9a 14 bf 61 e0 53 be
       0.3392164 0.693212 -0.5804835 -0.20691063
000180 53 0e b7 be be eb ac bd 66 8e 60 3f a2 b8 d9 3b
       -0.35753116 -0.08443402 0.8771728 0.0066443244
000190 76 e4 1b bf 0b d3 d5 bd eb c2 0c bf 5e ad 76 be
       -0.6089548 -0.10440644 -0.5498492 -0.24089572
0001a0 00 ca 04 3d a7 80 53 3f b9 ca 0a 3f 7b 38 2e bf
       0.032419205 0.8261818 0.5421558 -0.6805493
0001b0 09 89 43 3f c6 5d 3b 3c 85 af de be 8e bc 70 3f
       0.76380974 0.011435932 -0.43493286 0.9403771
0001c0 95 fe 36 bf b8 70 0e bf 22 ff 08 bf 80 b1 a4 bf
       -0.7148221 -0.55640745 -0.535143 -1.2866669
0001d0 b7 46 63 be 03 cc 2c bd e0 97 b5 3c c6 0f 23 3d
       -0.22194944 -0.04218675 0.022167146 0.039809965
0001e0 ee 82 cf 3e 8a b8 2f 3f 58 c7 d7 be 0f db bc be
       0.4052958 0.6864096 -0.42144275 -0.36885878
0001f0 07 64 05 3f a1 6c ad be 7e bb 55 3f cf c7 01 bf
       0.52105755 -0.3387194 0.83489215 -0.5069551
000200 71 a7 78 be be 24 16 be 59 c7 f3 bd ec 63 47 bc
       -0.24282624 -0.14662454 -0.11903257 -0.012169819
000210 62 06 c2 bb bd bf 8d 3f 70 77 b2 3d 2b a9 9c bd
       -0.005921171 1.1074139 0.08714187 -0.07649454
000220 b9 cb 33 bd 79 0e 65 bd 38 5e 22 be 6e 2b 81 3e
       -0.043895457 -0.055922005 -0.15856254 0.25228447
000230 28 90 9d 3e 76 9c 1f bf 0e 02 a7 3e a1 30 e2 be
       0.30774045 -0.62348115 0.32618755 -0.44177726
000240 57 75 b2 be 66 b2 a5 3d c5 4b 08 3b ef a4 ee be
       -0.34855148 0.080906674 0.0020797115 -0.4661021
000250 d9 fe 4b 3e 1f 38 0c 3f e6 de a7 bc ad c6 18 3f
       0.19921435 0.54773134 -0.020492028 0.59678155
000260 f4 b4 83 3d 43 c6 a7 3f 44 0d 76 3e 3d 32 ab 3e
       0.064309984 1.310738 0.24028498 0.33436766
000270 bc 2a 7b 3f b2 17 c2 bd 35 e7 f6 3e 24 b1 5e 3f
       0.9811208 -0.09477176 0.48223272 0.86989045
000280 22 73 31 bf b4 11 8f 3a 9b cd 69 3c 37 67 b2 3e
       -0.69316304 0.001091531 0.014270212 0.34844372
000290 c6 f1 75 bd 57 da 8f 3d 8b 43 58 bc e2 ce 17 3d
       -0.060045026 0.07024067 -0.013199697 0.037062533
0002a0 8a 7a 79 be da 8c bd be d1 58 e8 3e 4e 0c 58 3d
       -0.24363151 -0.37021524 0.45380262 0.05274611
0002b0 63 42 0b 3f 7a 2f 14 bf ea e4 2b 3f 62 14 37 bd
       0.54398173 -0.57884943 0.6714617 -0.044697173
0002c0 e6 c9 03 3f 2a 3b 96 3d 51 10 86 bf 51 42 45 be
       0.5147995 0.073355034 -1.0473729 -0.19263579
0002d0 29 22 b1 bb 7d 09 16 bf 0c 8f ae 3f d6 db 6d be
       -0.0054056835 -0.5860823 1.3637404 -0.23228392
0002e0 c7 2e 96 be 00 b6 d6 be 6c 58 8b bf 19 3f 1c 3e
       -0.29332563 -0.4193573 -1.0886359 0.15258445
0002f0 34 66 d7 be 06 d5 f2 be f8 0a 19 3f 3b 14 69 be
       -0.42070162 -0.4742815 0.5978236 -0.22761624
000300 33 86 dd be 03 c7 5f bf 77 13 24 3e 36 67 e1 be
       -0.43266448 -0.8741304 0.1602305 -0.44024056
000310 03 b4 09 bd dc fa 27 be fe 01 d1 3c 10 bc 4c bf
       -0.03361894 -0.16404289 0.025513645 -0.7997446
000320 64 a7 ff bc 45 ff 22 3f 54 cd 24 be f6 a5 a3 be
       -0.031207748 0.6367076 -0.16093951 -0.31962556
000330 46 d6 1a 3f 19 32 53 be 4d fd 9a be f8 45 6c bf
       0.60483205 -0.2062458 -0.30271378 -0.92294264
000340 de 20 88 bd ef 7f 0a bd 12 37 5c be 5e 31 c1 3d
       -0.06646894 -0.033813413 -0.21505383 0.09433244
000350 c9 8a b8 bd 29 96 44 3c 2e f8 50 be ff 7f d8 be
       -0.09010846 0.011998692 -0.20407173 -0.42285153
000360 94 4a 3e 3f d1 aa 0b bf 55 c5 dd 3e 25 fb 5e bd
       0.7433255 -0.5455752 0.43314615 -0.05443873
000370 33 3a 04 bf df 34 fe bc 74 6d 1c 3d ed 5f e6 3e
       -0.51651305 -0.03103107 0.03819032 0.4499506
000380 2a 38 7d bd 50 4f 01 3f b0 68 17 bf a2 63 94 be
       -0.06182114 0.50511646 -0.59144115 -0.28982264
000390 f8 13 9c be 97 3b 40 be 49 df 2b be 5b b0 f5 be
       -0.30483985 -0.18772732 -0.16784395 -0.4798611
0003a0 92 7b b8 be 3e 78 15 bf 0d 31 15 be 99 d4 c2 3e
       -0.36031777 -0.583866 -0.14569493 0.38052824
0003b0 00 35 0c bd 2f a1 f8 3e 60 a7 47 bc 6c 2c 9b 3e
       -0.034230232 0.48560473 -0.012185901 0.3030733
0003c0 ae 4d 8b 3c 6b e1 03 3d eb fa 6b bb 87 58 8e bd
       0.017004814 0.032197397 -0.0036007713 -0.06950479
0003d0 8e 30 07 bf ff a0 23 bf 75 09 0e bf f2 70 00 be
       -0.52808464 -0.63917536 -0.5548318 -0.12543085
0003e0 72 1f 81 3f 70 ec 80 3f 7d 24 89 3e e9 8a 03 be
       1.0087721 1.0072155 0.2678565 -0.12845959
0003f0 d4 d1 6e be 14 ba 01 bf 88 ea 0a be 8f 78 bf bd
       -0.2332223 -0.5067456 -0.13566029 -0.093491666

l3.bias f4 [4]
000000 47 ee 01 3e 72 db 88 3d ef f3 63 3e 6a 3c 55 3e
       0.12688552 0.06682481 0.22261022 0.20823827
