fin/DQN/agent-300-10-566/target_model.pt (torch, 340543 bytes, 6 tensors)

l1.weight f4 [400, 8]
000000 b7 98 57 bf 3f 0e a4 3e 82 dc d9 3b 65 15 89 be
       -0.842174 0.3204212 0.006648601 -0.26774135
000010 9b 2e 8e 3e ee d6 ab 3d 04 0a 0a be 7a 02 83 3d
       0.27769932 0.08390604 -0.13480383 0.06396957
000020 55 4d 15 3e 3b 62 63 be fd 05 9f be 00 a6 b2 be
       0.14580281 -0.2220544 -0.31059256 -0.34892273
000030 44 0e b2 3f f7 64 06 3f 68 bf 0b bf f3 3b 0f 3e
       1.3910604 0.5249781 -0.5458894 0.13987713
000040 78 6b 54 be f5 8f aa be 1b 2d ad be 26 83 6a be
       -0.20744121 -0.33312955 -0.33823475 -0.22901592
000050 a3 33 11 3f c2 4d 24 3f 79 8d 9a 3e a5 7b 1c bd
       0.56719416 0.6418115 0.3018606 -0.038203854
000060 28 02 8d be 13 f4 d7 bd 0a ca f0 bc ee f4 52 be
       -0.27540708 -0.105446 -0.029393215 -0.20601246
000070 32 86 88 be 44 10 ed 3d 64 a4 65 bf c0 07 3c bf
       -0.26664883 0.11575368 -0.89703965 -0.73449326
000080 85 f5 bc be bd b7 24 be 0b 71 c7 bd fb d5 d7 3f
       -0.36906067 -0.16085716 -0.09738358 1.6862177
000090 12 50 d8 be de 4d 96 3d 42 b2 00 be 2f 85 3d 3e
       -0.4224859 0.07339071 -0.12568 0.18507837
0000a0 d2 94 f6 be 62 cb 66 be 10 6d d1 be 16 f0 4f 3e
       -0.48160416 -0.22538522 -0.4090352 0.2030643
0000b0 3f 82 56 3c 1b fd 4f 3f 1e a6 b3 be a1 f0 91 3e
       0.0130925765 0.81245583 -0.35087675 0.28503898
0000c0 8c e0 fe be ce 17 85 be f4 91 03 3e b4 b2 21 bf
       -0.4978069 -0.25994724 0.12848645 -0.63163304
0000d0 11 85 09 bf 97 f9 3b 3d fb 67 d8 be de fc 98 bf
       -0.5371867 0.045892324 -0.4226683 -1.1952169
0000e0 ed f0 e2 be b7 ec 8c 3e 9f 8d 75 3e 12 06 c6 be
       -0.44324437 0.2752435 0.23979805 -0.38676506
0000f0 2b 24 5c 3f 36 d6 8b 3e 29 2a 84 bd c6 30 14 3f
       0.8599269 0.27311867 -0.06453354 0.5788692
000100 4b 29 75 3e 37 08 2b c0 90 72 73 3f b2 e8 77 bd
       0.23941533 -2.6723764 0.95096684 -0.06052465
000110 0e 12 dc 3d 99 12 f7 3d 73 65 7e bf cd 3a 8c 3e
       0.10745631 0.12064094 -0.9937355 0.2738861
000120 8a 73 0b be fa 09 e7 3e d5 08 80 3e b8 d4 9e bd
       -0.13618293 0.451248 0.25006738 -0.07755417
000130 8f ce 3e 3c d9 ea 22 bd 36 e7 b7 bf 48 fc c8 be
       0.011645927 -0.03977475 -1.4367435 -0.39254975
000140 3c 66 10 be bf 35 14 be b9 4d d0 bd c1 6b 29 bf
       -0.141015 -0.14473628 -0.101710744 -0.66180044
000150 71 04 75 3f cb 19 03 bf 0e 6e 8d bf 9e ca 62 3f
       0.957099 -0.5121123 -1.1049211 0.8859042
000160 3a 0a df bd 5b c0 74 be 65 5a 81 be 1c 17 cc be
       -0.108906224 -0.23901503 -0.25264278 -0.3986138
000170 8f 9e 69 bd 62 2f db 3e 11 ff 68 3f 97 98 8e bf
       -0.05703598 0.42809588 0.910142 -1.1140317
000180 98 f3 c4 3e 0b 8d ac 3e 5e ed 8b b9 e6 76 d7 be
       0.38467097 0.33701357 -0.00026688998 -0.420829
000190 d4 5f 9b be 9d 53 98 bd a8 76 23 3f 5d 0c 04 bf
       -0.3034655 -0.07437823 0.6385293 -0.51581365
0001a0 4b c1 b7 be a5 a1 43 3e dd b1 ed bd e0 8a ad be
       -0.35889658 0.19104631 -0.1160619 -0.33895016
0001b0 7d 50 8c 3c c0 27 a3 3e ce 02 c2 bf 1b 6a 1d bf
       0.017128224 0.31866264 -1.5157106 -0.6149003
0001c0 c8 ad 17 3f 54 f6 0e bd e7 3e 46 bf 4e 9c 8d 3e
       0.59249544 -0.034902886 -0.7743973 0.27658314
0001d0 4b 8d 4d 3e 30 c1 71 3e bd 14 96 bf af e2 7c be
       0.2007343 0.23608851 -1.1725079 -0.24695848
0001e0 c5 3e 75 3d 89 bb 2b 3e e6 de 42 3e 10 b5 a3 bd
       0.059874315 0.16770758 0.19030342 -0.07993519
0001f0 d6 6f b8 3f d1 1f 31 3f 6f fc c0 bd 18 95 30 bf
       1.440913 0.69189173 -0.09423148 -0.689775
000200 f5 12 a8 bd c6 ce 60 3e 32 80 33 bd 41 3e 92 be
       -0.08206741 0.21953878 -0.04382343 -0.2856312
000210 0a a1 67 3c e7 ac 5d be 4b aa 39 bf bd 54 8e 3e
       0.014137516 -0.21647988 -0.7252547 0.27799025
000220 60 2f 44 3f a8 ad 49 bf 83 6c 11 bf 4e ba f8 bd
       0.7663479 -0.78780603 -0.568062 -0.1214491
000230 0f 56 96 3e 08 93 30 bd 02 8f 7d 3e e2 58 47 3c
       0.29362532 -0.04310897 0.24761584 0.012167187
000240 22 33 a0 be 12 19 0c 3e ba 1f 0d bf b9 ae 35 3d
       -0.3128901 0.13681439 -0.55126536 0.04435608
000250 c3 1f f5 3d 9e 45 25 3f 12 7f f2 bf 84 35 64 bd
       0.11968949 0.6455935 -1.8945029 -0.0557151
000260 44 c7 20 3f de a0 7f 3e 93 8c a1 3e 92 a3 ca be
       0.62804055 0.2496371 0.31552562 -0.3957792
000270 7b 91 12 bf 6e f9 b7 3e d2 f6 aa bf 2a 84 6f 3e
       -0.57253236 0.35932487 -1.3356574 0.2339026
000280 53 6c a9 3c ad 8d 4c be 0c 49 aa be 6a fc 2d bf
       0.020681536 -0.1997592 -0.33258855 -0.6796328
000290 47 e0 de 3e a3 7f 6b 3f 1a d8 4d 3f 44 37 a9 bf
       0.43530485 0.91991633 0.8040787 -1.3219991
0002a0 e2 82 f6 39 af d5 e1 3b 50 f8 66 be 68 b3 ac 3e
       0.00047018292 0.006891928 -0.22555661 0.33730626
0002b0 5f f3 4c 3e 8d b9 a9 3e 4d d1 69 bf 05 bf 4b bd
       0.20014714 0.33149377 -0.9133499 -0.049742717
0002c0 e3 b1 35 bf a0 d0 0f be e0 27 e3 be e8 f5 7f be
       -0.7097456 -0.14044428 -0.4436636 -0.2499615
0002d0 11 d4 93 be c6 93 b4 bf ba 1d 0a bf 28 f3 b0 3e
       -0.2887273 -1.4107597 -0.5395161 0.34560513
0002e0 53 3b 16 3f fe 91 cd 3e ce dc 26 3f 8d c2 95 39
       0.5868427 0.40150446 0.6518067 0.00028564446
0002f0 15 16 8d 3d f0 a2 5e be a3 b2 25 3f 16 16 7d 3e
       0.068889774 -0.21741843 0.64725703 0.24715456
000300 b3 74 89 be 8c fd 6d be 61 c4 ca 3e 9a 25 66 3c
       -0.26846847 -0.23241252 0.3960295 0.014047051
000310 c3 a0 d3 be 69 52 9a bc f9 ac 50 3e e1 15 c4 be
       -0.4133359 -0.018838124 0.20378484 -0.38297942
000320 18 8f 4a 3f f8 9c 77 3e f4 db 62 be 7c c1 4d be
       0.79124594 0.24180973 -0.22154218 -0.2009334
000330 56 cb 56 3e c8 b1 cd be 10 32 7c be 9d 78 71 bf
       0.20976004 -0.401747 -0.24628472 -0.94324666
000340 74 7d 33 bf f8 22 99 be 7f 75 4e be 8c 11 8e bd
       -0.701133 -0.29909492 -0.20162009 -0.069369406
000350 a6 df 73 bf f8 c0 18 bf d6 ba 50 bf a5 42 40 3e
       -0.95263135 -0.59669447 -0.8153509 0.18775423
000360 e2 a4 a4 3e 05 da a1 bf 52 9b 37 bf 1b 77 91 3f
       0.32157046 -1.2644659 -0.71721375 1.1364473
000370 4c 58 48 3f 70 b1 6c 3e 1a 72 0a 3f 20 a5 0e 3f
       0.7825973 0.23114562 0.54080355 0.5572071
000380 cb 51 06 bf 57 da 55 be 54 31 6c be 32 2e 48 3f
       -0.52468556 -0.20884071 -0.23065692 0.7819549
000390 72 da f6 be fa 5f 9a be 5f 58 62 bf e9 12 f8 bc
       -0.48213536 -0.3015135 -0.88416094 -0.030282455
0003a0 76 9f 80 bc d6 13 11 3c 5f 5e 34 bf 0f c8 30 3e
       -0.015701037 0.008854827 -0.704565 0.17263816
0003b0 7b 4b 61 3e 49 3c b3 3e 29 da d2 be 21 32 ed 3d
       0.2200145 0.3500693 -0.41182068 0.11581827
0003c0 ad fb 3a bf 9c 65 e9 3d e1 a1 d3 bd ef d2 0f be
       -0.73040277 0.113963336 -0.1033361 -0.14045309
0003d0 65 1c bf 3e 4e 40 dd 3d c9 74 9b bd fa 04 a9 bf
       0.3732635 0.10803281 -0.075906344 -1.3204644
0003e0 e6 4b aa 3e c0 e2 53 be 25 14 f9 3d 80 5c 77 be
       0.3326103 -0.20691967 0.121620454 -0.2415638
0003f0 5c 3f 91 be d5 07 62 3e 25 fd f3 bb 24 ba 6c be
       -0.28368652 0.220733 -0.0074459487 -0.23117882

l1.bias f4 [400]
000000 f8 4e 91 3e 24 53 82 bd a6 9a da 3e d2 4c d8 3e
       0.2838056 -0.06363514 0.42696112 0.4224611
000010 24 a1 6f 3d fa ba 99 be ec 84 0c 3e 95 d7 ab be
       0.058503285 -0.30025464 0.1372258 -0.33562914
000020 63 65 f8 3e 66 27 1d bd 76 45 0d bf f4 df 30 bf
       0.48514852 -0.03836765 -0.55184114 -0.69091725
000030 a2 46 d8 be 66 87 26 bf ff 50 0f 3e 7c 83 27 3e
       -0.4224139 -0.6505035 0.13995741 0.16358751
000040 1d 89 c6 be cb 36 9d bd da 10 52 bf e2 11 09 bf
       -0.38776484 -0.076764666 -0.82056963 -0.5354291
000050 8e 60 06 bf 10 b9 e2 be 90 18 ba be f3 04 39 bf
       -0.5249108 -0.44281816 -0.36346865 -0.72273177
000060 5b b1 f9 3e b8 c0 18 bd 63 72 d6 3e b3 ae 35 3d
       0.48768124 -0.037293166 0.41884145 0.04435606
000070 75 5d 4b bf 0f d6 0f bf 91 6f b3 3e 9a c1 9e 3e
       -0.7943948 -0.56186 0.35046056 0.3100708
000080 37 6d dc 3e a0 02 32 be f5 81 82 3e bd e0 3c 3e
       0.43052074 -0.17383814 0.25489774 0.18445106
000090 18 1b b0 be 9a bd 99 be 25 be 9e 3d d2 81 09 bf
       -0.3439567 -0.30027467 0.07751111 -0.53713715
0000a0 5f b2 12 bf 82 fe 83 be 11 3a 51 3d b3 f1 ea be
       -0.5730342 -0.25780112 0.051080767 -0.45887527
0000b0 41 14 0d bf 4e 89 34 bf 04 61 1f be 53 ad ce 3d
       -0.5510903 -0.7052201 -0.15564352 0.10091653
0000c0 26 fb b1 be 52 1f 13 be 27 b8 32 bf 1b 9d 37 be
       -0.34761924 -0.14367417 -0.69812244 -0.17931025
0000d0 01 80 af be a0 b2 ae be bb b7 02 3e 3e 62 be bc
       -0.34277347 -0.34120655 0.127654 -0.023240205
0000e0 a9 57 ab be f0 ee 39 be 92 8a 1c 3e 47 4b 40 3e
       -0.33465317 -0.18157554 0.15287235 0.18778716
0000f0 c2 98 09 bf a6 cf 9e be cf 79 50 bf 40 8a 22 bf
       -0.53748715 -0.31017798 -0.81435865 -0.634922
000100 3d ef 91 3e 5c 8b 74 3e a2 2b 2f 3e da b7 90 be
       0.28502837 0.23881286 0.17106488 -0.28265268
000110 1a 4c 8c 3e 08 45 b3 3e b3 b3 d3 bd 8f 6b f5 bd
       0.2740181 0.35013604 -0.10337009 -0.11983406
000120 26 aa 87 3d 56 16 4d bf 60 e4 da 3a 1d 38 58 bf
       0.0662425 -0.80112207 0.0016700141 -0.8446062
000130 65 c5 75 bd 35 06 5b be 93 63 eb bd 52 42 7c 3e
       -0.060002703 -0.21389087 -0.11493602 0.24634674
000140 a3 2e 0d 3e af a9 94 be 78 88 20 3c 4d 6e 3d bf
       0.13787322 -0.29035708 0.009798162 -0.7399643
000150 5f 13 00 bd 11 f0 0f 3d 35 07 ee be 3c f2 f0 3e
       -0.031268474 0.035141055 -0.46489874 0.4705981
000160 51 e3 ea 3e 2e 9b d4 be aa c9 0c be 6a c6 03 be
       0.45876554 -0.41524643 -0.13748804 -0.12868658
000170 3d 47 ae be 2c ed 06 b9 7c ff ca 3e 95 98 b2 be
       -0.34038725 -0.00012867589 0.39648044 -0.34882036
000180 7b 9b ad 3e fe f4 97 be f3 c0 3e bf 18 cc 27 3e
       0.33907685 -0.29679102 -0.7451317 0.1638645
000190 b9 40 af be 61 86 29 bf 17 b3 96 3d 59 e8 a7 3e
       -0.34229067 -0.6622067 0.073583774 0.32794455
0001a0 be 31 05 be 84 68 60 be f9 8f 24 bf 34 5c 7a be
       -0.13007256 -0.2191487 -0.64282185 -0.24449235
0001b0 32 ac a7 3e dd 90 ca be 66 d8 30 be 02 0c b9 bd
       0.32748562 -0.39563647 -0.1727005 -0.090354934
0001c0 2b ff 1e bf ae 89 ef be 5c 34 1e bf 09 c4 02 bf
       -0.62108105 -0.4678473 -0.61798644 -0.51080376
0001d0 6d eb b8 be 08 48 73 be e2 8f b1 3e e4 d0 58 3e
       -0.36117116 -0.23757946 0.34680086 0.21173435
0001e0 67 ea f0 3e 08 6f 29 be fb 10 49 bf ea ea e6 bd
       0.47053835 -0.16546261 -0.78541535 -0.11275275
0001f0 69 22 24 bf 0a a8 0a bf a1 79 9c be 02 eb 1f bf
       -0.64115006 -0.5416266 -0.30561545 -0.6246797
000200 d0 87 20 be 27 4a 0f bf 31 8c c8 3e 91 10 ae bd
       -0.15676808 -0.5597252 0.39169458 -0.084992535
000210 fe 4f 29 bf ad 04 15 3d 39 76 5b bd c1 2e a6 be
       -0.66137683 0.036381412 -0.053579543 -0.32457545
000220 bb 53 95 3e 58 d1 c0 be cd 31 08 bf 3f 24 8c 3e
       0.29165444 -0.37659717 -0.5320099 0.27371404
000230 e6 43 f3 be ce 88 a7 3c 39 98 79 3d a8 9a c1 3e
       -0.4751274 0.020450976 0.060936186 0.37813306
000240 26 94 a3 be 5b 3f fa 3d 66 2e 9b be e7 7d 0c be
       -0.31948966 0.12219115 -0.30308837 -0.13719903
000250 4c 83 43 3d d6 1b 73 be a6 75 89 3d 4d 2a 27 bf
       0.047732636 -0.23741087 0.06711893 -0.6529892
000260 82 78 22 bf 85 ff 9f bc bc 37 ad 3c db 4e d3 be
       -0.6346513 -0.01953102 0.02114474 -0.412711
000270 bc 61 73 3d 26 0d 5e bf ca 48 7a 3e fb 84 54 bf
       0.05941938 -0.8673881 0.2444183 -0.8301541
000280 96 f6 a2 be a2 e0 48 3e 71 77 ba 3e 0d ab d6 3b
       -0.31828755 0.1961694 0.36419252 0.0065511526
000290 23 0a 10 bf df 38 01 3e 7e 60 23 3e a2 42 a8 be
       -0.5626547 0.12619351 0.15954778 -0.32863337
0002a0 d8 d2 0f 3d 3a c7 8d bd 8b 10 24 bf 71 67 da 3e
       0.035113186 -0.06922765 -0.6408774 0.42657045
0002b0 d4 a5 c3 3e ce 25 1e bd a8 ad c5 3e 6f 09 b8 be
       0.38212454 -0.038610272 0.38609052 -0.35944697
0002c0 24 f0 ee 3e 85 86 ec 3e e9 18 0a bf 41 54 84 3e
       0.46667588 0.4619638 -0.5394426 0.2584553
0002d0 40 1d 1b 3f f9 98 19 3e 1d 34 3e 3e 5e 34 9e 3e
       0.60591507 0.1499976 0.18574567 0.30899328
0002e0 47 b7 52 be 1c e1 46 bf f4 5f 59 bf 12 8e 93 3d
       -0.20577727 -0.7768724 -0.8491204 0.07204832
0002f0 2c 71 a4 3b dd d8 cf bd 5c f4 97 3d 0a e3 bf bd
       0.005018374 -0.10148785 0.07419655 -0.09369476
000300 ef 89 07 3e ce 2f 68 bd ec b2 f3 bd 7c d2 76 3c
       0.13236211 -0.056686215 -0.11899361 0.015064832
000310 39 88 78 be 01 de b1 bc 2e 0d 92 3e 79 27 06 bf
       -0.24270715 -0.021712305 0.2852568 -0.5240398
000320 fe 95 15 be 4c 43 b8 be e0 d4 81 3e 07 d6 61 3e
       -0.14607999 -0.35988843 0.25357723 0.22054301
000330 ff 3a 07 3f 01 cb da 3c 12 c7 12 bb 52 7c 3f bf
       0.52824396 0.026708128 -0.0022396487 -0.7479907
000340 4f c2 d0 bd b1 af 8d 3e 23 7c a6 3e 8a 4b 23 bf
       -0.101933114 0.27673104 0.32516584 -0.6378714
000350 93 c4 49 be c2 1b d7 ba 4c 43 df bd 44 d1 70 3e
       -0.19703893 -0.0016411471 -0.10901508 0.23517329
000360 68 5d 40 bf 5f 66 82 3e dd 6c b9 3e 19 db a0 bc
       -0.75142527 0.25468728 0.3621587 -0.019635724
000370 f2 1c cf 3d f1 7c f3 be 70 b8 31 bf b2 00 fd 3d
       0.10112943 -0.4755626 -0.69422054 0.12353648
000380 9a ad 13 3f 57 ed 01 3f d1 b6 57 bd 70 12 ea be
       0.5768677 0.50752777 -0.05266458 -0.45717192
000390 9f d1 cd bc 74 52 f8 be bf ae 9b 3e 76 c2 41 bf
       -0.02512437 -0.48500407 0.30406758 -0.7568735
0003a0 0f 47 1c 3e c0 7e 8e be a1 54 f0 3e 45 d4 c0 be
       0.15261482 -0.27831078 0.46939567 -0.3766195
0003b0 cc 33 5c be b2 cb 1e bf 27 2b e6 3e f1 68 0d 3d
       -0.21504134 -0.62029564 0.44954798 0.034523908
0003c0 34 c2 95 be 73 b4 6a 3e 73 75 5a be 80 9b f0 be
       -0.29249728 0.22920398 -0.21333866 -0.46993637
0003d0 b7 e4 25 bf 0e d3 10 bf 72 fc 13 bf 07 30 09 bf
       -0.64802116 -0.56572044 -0.57807076 -0.5358891
0003e0 c4 b9 04 3d 43 cb 0f bd 8f 07 34 bf 37 2b 8f be
       0.032403722 -0.035105955 -0.70324033 -0.27962658
0003f0 bf 63 8b bd ed ba 1a bf 58 a4 fd bd 2b f7 37 3f
       -0.068061344 -0.60441476 -0.12384862 0.71861523

l2.weight f4 [200, 400]
000000 98 eb c6 3d 1d 75 8a bc 0c 33 95 3e 35 46 38 3e
       0.09712905 -0.016901547 0.29140508 0.17995532
000010 ae 8e 2b 3f ff 6d 9a 3d db 77 63 3e ad 67 84 be
       0.67014587 0.07540511 0.2221369 -0.25860348
000020 7b c8 5d 3b e6 7d 52 3e 22 de b6 be a6 60 5e 3e
       0.003384142 0.20555839 -0.3571635 0.21716556
000030 4e 9c f2 be 2a cd 8e 3b 2b 03 10 be 8e ee f2 3a
       -0.47384876 0.0043579536 -0.14063708 0.001853423
000040 52 40 fd 3d d6 e9 98 be 3c 1b 86 3d c2 d6 e9 3d
       0.12365784 -0.29865903 0.06548163 0.11417915
000050 47 03 14 3e 1b 03 9d 3e 13 61 49 be 5b c3 12 bd
       0.14454375 0.30666432 -0.19665937 -0.035830837
000060 c2 6f a3 3c 71 c5 d3 be 2a 6a 9d be 21 c9 07 be
       0.019950751 -0.41361573 -0.3074506 -0.13260318
000070 0e 23 a7 3d 41 a0 6b 3d b3 df 91 3e 9d 87 ac 3d
       0.08160983 0.057525877 0.2849098 0.08424304
000080 59 26 da 3c aa c5 0a bf 4c 06 aa 3d 2e dd a3 3c
       0.026629614 -0.5420786 0.08301982 0.020002928
000090 7a 8c c5 3d 6b 3e b0 3d 36 b1 ed 3d bd 8b 40 3e
       0.096459344 0.08605655 0.11606066 0.18803306
0000a0 be 62 6b bc 40 39 e8 3e 8f c4 e7 3e 10 9f f4 3b
       -0.014366804 0.45356178 0.4526715 0.007465251
0000b0 47 92 dd 3d eb 83 0b 3e 8e 6c 51 3d 60 7c 29 bd
       0.10818916 0.13624541 0.051128916 -0.04137838
0000c0 08 31 f7 bd 25 be 86 3e be 6d a2 bd a4 01 2a bd
       -0.12069899 0.26316944 -0.07931088 -0.04150547
0000d0 1b d3 f2 3e 33 8c 86 be 91 a4 19 3d 9d 52 56 bd
       0.47426686 -0.2627884 0.03751046 -0.05232488
0000e0 3a 07 a3 bc 5b 42 92 3e 5b 4a c4 3d e2 81 8f 3e
       -0.019900907 0.2856625 0.09584495 0.2802878
0000f0 05 47 fd 3d 1e 9e 60 be 94 3a 8e 3d 8e 70 1d 3e
       0.123670615 -0.21935317 0.06944767 0.15374967
000100 69 90 23 bd 92 5b e7 3d f9 e6 2d 3e 15 14 ac be
       -0.039932642 0.112967625 0.1698264 -0.3360907
000110 6b d2 72 3e 29 6c c4 bc 8f e9 81 3e 76 93 be 3e
       0.2371308 -0.023977356 0.25373504 0.3722188
000120 f8 e5 09 bf 64 65 ec 3d 6d 21 5a bf 6b ee ea 3d
       -0.5386653 0.11542776 -0.85207254 0.11471256
000130 f7 2c c3 be a9 24 2e bd f7 8e 2e 3d 12 09 0e 3e
       -0.38120243 -0.04251543 0.04261681 0.13870648
000140 0e ab fa bb 06 1e 04 3e cb 55 a3 bf 88 47 61 3e
       -0.007649786 0.12902078 -1.2760557 0.21999943
000150 70 6c fc bd be c0 e1 bd 49 be f0 3d 88 aa 35 bd
       -0.1232537 -0.11023091 0.11755044 -0.044352084
000160 c5 5e ee 3d 1e f1 05 3f 9e af a7 3a 13 b9 03 be
       0.116391696 0.5232104 0.0012793427 -0.12863569
000170 2a fc 43 be 36 d6 eb be 25 63 72 3d 0c a7 c1 3d
       -0.19139162 -0.46061867 0.059176583 0.0945569
000180 af 8d df bd d2 69 89 bd 6a b8 b5 3d 14 05 67 3e
       -0.10915696 -0.06709637 0.08873065 0.22560531
000190 15 52 dc be 3e b7 4b be e6 a8 0d be 0d be d1 3d
       -0.43031374 -0.1989412 -0.13833961 0.102413274
0001a0 3b 50 25 be 4c e9 41 3e 7a c4 c5 bd 3f b0 96 3e
       -0.16143887 0.18936652 -0.096566156 0.2943134
0001b0 21 72 30 3e 43 11 e5 3d f1 d7 17 bf 06 f7 9a be
       0.17231037 0.11184933 -0.59313875 -0.3026659
0001c0 e7 ea ed 3d f3 fd dc be 75 fb 72 3e 73 6d ed bc
       0.1161707 -0.43162498 0.23728736 -0.028982854
0001d0 b4 86 4e 3e e0 2f 92 bc 67 ab 5a 3e b9 38 e4 3e
       0.20168573 -0.017845094 0.21354447 0.44574526
0001e0 24 f8 a5 3d 24 3a 93 3e bf ec 9b 3e 14 88 d9 3e
       0.0810397 0.28755295 0.3045406 0.42486632
0001f0 f3 02 81 bc 44 aa 2f bf ab ff d6 be 1e 69 22 be
       -0.015748477 -0.6861918 -0.41991934 -0.15860412
000200 24 66 b7 be 93 b6 6b 3e 08 3e 88 be 31 52 aa 3e
       -0.35820115 0.23018865 -0.26609826 0.33265832
000210 92 eb a4 bd 4e 21 f1 3d 41 2e c9 3e ea c6 82 3d
       -0.08052744 0.117739305 0.392931 0.06385596
000220 62 ec 3c be 91 37 d1 bc 0d c6 3a 3e 1e 15 82 bb
       -0.18449548 -0.025539191 0.18239613 -0.0039698025
000230 27 91 09 bc 53 2d 18 3e 9a 9f 8c be 0e 44 8f bd
       -0.008396423 0.1486104 -0.27465516 -0.06995402
000240 e0 95 7d 3e 5c 78 ca bd 5b 58 44 3e 32 83 6d be
       0.24764204 -0.09886238 0.1917433 -0.23194578
000250 e8 ec 84 3e 81 52 f2 bc 93 1d 6d 3e e3 c3 f6 be
       0.25961995 -0.029580357 0.23155813 -0.48196325
000260 4c 31 eb 3d 87 65 19 3e 33 98 84 3e 07 dd eb bd
       0.11484012 0.14980136 0.2589737 -0.11516767
000270 68 50 05 be 94 8c d6 3d 17 93 ac 3d 4e fb ac bf
       -0.13018954 0.10476032 0.08426493 -1.3514192
000280 0b 2b b8 bd 87 b6 16 be e8 ff 80 3e 1c a0 d4 3d
       -0.08992585 -0.14718066 0.2519524 0.10382101
000290 3b fd 03 bf f8 93 3d 3e 27 66 67 3e 90 82 01 bf
       -0.51558274 0.18513477 0.22597562 -0.5058985
0002a0 94 f8 2a 3d c8 77 e8 3d e7 c2 66 3e 22 85 a7 3e
       0.04174097 0.113509715 0.22535287 0.3271876
0002b0 fe da 72 3e 87 f3 00 3f 39 b5 87 bc 5f 0e 44 3b
       0.23716351 0.50371593 -0.016565906 0.0029915792
0002c0 f2 51 ba bc 50 2d a4 bc 7f 42 8b 3e be b8 12 3f
       -0.022744153 -0.020041138 0.2719917 0.57313144
0002d0 2a 54 8a bd c4 dd 04 3e 2c 21 6c 3e 1c 28 aa 3d
       -0.06754334 0.12975222 0.23059529 0.083084315
0002e0 65 f3 33 3e c9 a8 1b c0 9b a6 fa 3d 25 1a 11 bd
       0.17573316 -2.4321768 0.12238809 -0.035425324
0002f0 36 0b 06 3e 04 3c 1f be f7 d8 0b 3e c4 2a fe 3d
       0.13090214 -0.15550238 0.13656984 0.12410501
000300 f6 e8 88 3e 43 24 2d bc f7 c8 d1 3e 82 6e ac 3e
       0.26740235 -0.0105677275 0.40973637 0.3367806
000310 4e 56 7b 3e 1b 3d 70 3e a2 d5 90 be 8b 52 da 3e
       0.24544641 0.2346081 -0.2828799 0.426411
000320 56 5e b8 3d c3 06 e5 3e fc fa 58 3e e0 2c a1 bd
       0.09002368 0.4473172 0.21189493 -0.07869887
000330 bb ef 57 be 6d 94 15 bd c4 bb 88 bf 36 64 01 3e
       -0.21087544 -0.036518503 -1.0682302 0.12635884
000340 5d 6a 98 3c 0e d6 32 bc cd b4 2c bd dc aa 37 3d
       0.018605405 -0.010915292 -0.042164613 0.04484068
000350 79 f5 86 bd 4b 4f 16 be 25 68 31 3e ca 5c 95 bd
       -0.06589789 -0.14678685 0.17324884 -0.07293089
000360 2a 06 1b 3d 49 60 99 3d 5a 0a 4c be e2 a1 3d be
       0.037847675 0.07489068 -0.19925824 -0.18518785
000370 3b c8 e3 3c 50 0d 53 bd a9 30 c8 3d b3 b4 fd bd
       0.027805438 -0.051526368 0.09774906 -0.12387981
000380 0a 17 b2 3d 93 5c 17 3e 49 55 90 be a2 01 86 3e
       0.086958006 0.14781408 -0.28190067 0.2617312
000390 c1 bd e0 3e b0 4c f2 bc 15 3b bf bc ae b9 e0 be
       0.4389477 -0.029577583 -0.023343602 -0.43891662
0003a0 1c 8b 2d 3e bd 17 12 3e 1a 1a b3 bd ca b7 93 3e
       0.16947597 0.14266868 -0.08745213 0.28851157
0003b0 74 d6 e5 be b2 0d d6 3c a5 37 58 bd 1b 44 22 bf
       -0.44890177 0.026129577 -0.05278744 -0.6338517
0003c0 69 18 23 be 01 a0 4b 3d 4c c3 07 be dc 65 b0 bc
       -0.1592728 0.04971314 -0.13258094 -0.021532945
0003d0 88 66 65 bd a2 97 2d 3e 2d 55 e0 bc c3 44 05 3e
       -0.056005985 0.16952375 -0.027384365 0.13014512
0003e0 f3 03 ce 3c 09 1b 01 3a 38 8f 7c bf 21 55 90 3e
       0.025148368 0.0004924988 -0.98656034 0.28189948
0003f0 2b 89 68 3e 0a 9c 6f 3e 11 31 29 3c 18 a5 91 3d
       0.22708575 0.23399368 0.01032664 0.07111567

l2.bias f4 [200]
000000 08 4c 0e 3e a9 67 9e 3d eb 0c 3e bc 1e da 0c 3e
       0.13896191 0.07734615 -0.01159976 0.1375508
000010 81 bd 53 3e 54 c9 a2 3d 48 2e b3 bc 8d 3a 41 3e
       0.20677759 0.079485565 -0.021872655 0.18869992
000020 b1 83 26 3c b5 ed e8 bb da 13 c8 3d 86 99 84 be
       0.010163234 -0.007108415 0.097694114 -0.2589838
000030 8a 19 47 3b 10 d7 7b bd 95 d8 9a bd 87 04 f8 3c
       0.0030380213 -0.061484396 -0.07560841 0.030275596
000040 0c e7 89 3e 60 f6 30 3e 6b 1f 2b 3e 4f 2a 46 bd
       0.26934087 0.17281485 0.16711204 -0.048380192
000050 19 ae a1 be 76 eb 20 3e 26 10 85 bd 55 1e 14 3e
       -0.31578138 0.15714821 -0.06497221 0.14464696
000060 28 f9 9c bc b2 d5 39 3e 8e bd 07 be cd a0 f5 3d
       -0.019161776 0.18147925 -0.13255903 0.11993561
000070 28 9c 84 3e 3b ff b5 bd 73 81 a7 3b 25 24 8f be
       0.25900388 -0.08886572 0.005111867 -0.27957264
000080 a9 58 ad 3d e2 50 87 bb d4 15 c3 bd 65 0f f7 bd
       0.08464176 -0.004129515 -0.09525648 -0.12063483
000090 d9 0e 23 3e 5b 1b 92 3d 98 80 b8 bb eb 75 8b 3e
       0.15923633 0.07134124 -0.005630564 0.27238402
0000a0 f2 7d 1a bd ba 68 a3 bc 27 fd 88 bd d9 ef dd bc
       -0.037717767 -0.019947398 -0.0668891 -0.027091907
0000b0 24 0a 6c 3e b7 92 c4 be 54 31 7e bd f4 eb 4b 3d
       0.23050743 -0.38393185 -0.06205876 0.04978557
0000c0 46 84 08 3d 5c f9 71 3e 64 df 81 bd 1c 51 e0 bc
       0.03332927 0.2363028 -0.063414365 -0.027382426
0000d0 59 8c 35 bc 32 4a 16 bc bc 02 70 3c 65 62 66 3c
       -0.011080825 -0.009172963 0.014649089 0.014061545
0000e0 97 7b 7e be 63 93 3b 3e c6 5a 82 bc ee b9 95 3c
       -0.24851833 0.18317942 -0.015912425 0.018277135
0000f0 17 d8 73 3e 98 51 86 bd 54 0b d4 be d1 d3 87 3e
       0.238129 -0.065585315 -0.41414893 0.2652879
000100 06 07 7a bd ea cb 8e 3d 48 45 09 3e 09 9b 83 bc
       -0.061041854 0.06972487 0.13405335 -0.016065137
000110 7f b0 d6 3d c4 54 81 be a8 55 86 ba 85 51 3b be
       0.10482883 -0.25259984 -0.0010248916 -0.18292816
000120 09 87 53 be de d3 65 bd dc 05 10 bd 54 05 3b 3e
       -0.2065698 -0.056110255 -0.035161838 0.18263751
000130 4e b4 35 be 51 6e 86 3e 5e 52 01 3e 53 08 7b 3e
       -0.17744562 0.2625604 0.12629077 0.24514894
000140 3c 8f 21 be 1b 85 20 3e b7 19 f4 3c c8 6f f0 3d
       -0.15777296 0.15675776 0.029797418 0.117400706
000150 16 d3 ad bb 7d b3 14 be 41 1d 0f be ae 10 f3 3d
       -0.0053047044 -0.14521594 -0.13976003 0.11868416
000160 68 0e b0 3c b9 20 50 bd d2 5d a6 bc 03 69 a8 3e
       0.021491244 -0.050812457 -0.020308409 0.32892618
000170 4e cc 5b 3e 1e 30 8a 3e 43 03 92 3d 36 f1 a3 bd
       0.21464655 0.26989836 0.071295284 -0.08004992
000180 39 75 f6 bd a6 98 44 3d fb d0 41 be 8b e1 ff 3b
       -0.12034077 0.04799714 -0.18927376 0.0078088692
000190 5f 76 55 bc f9 58 f4 ba 56 b1 08 3e 62 69 cd be
       -0.01302871 -0.0018642239 0.13348898 -0.40119463
0001a0 46 f4 fd 3d af cb a1 be 0e 21 54 be 24 f5 1b 3e
       0.12400107 -0.3160071 -0.20715734 0.15230232
0001b0 50 18 7b 3d aa 21 45 bd ca 78 93 3d 09 26 f7 bd
       0.061302483 -0.048127808 0.07200773 -0.120678015
0001c0 e2 98 c7 3b 93 a8 43 3e 8a 42 3c 3e 85 d5 61 3e
       0.006091223 0.19107275 0.18384758 0.22054107
0001d0 eb c1 51 3c 9b 75 3a bb dd 33 e4 bc 2e 74 6f bd
       0.012802581 -0.0028451446 -0.027856762 -0.058460407
0001e0 31 67 76 3e f1 ab 23 3e dc ef 37 3e ee df c6 3d
       0.24062802 0.15983559 0.17962593 0.0971068
0001f0 0d 31 9d 3e 08 a5 f1 3d e3 e6 0d ba ec 36 8a 3e
       0.30701485 0.11799055 -0.0005413128 0.26995027
000200 cf 98 c3 bb d3 e1 5d 3c 19 bd a5 bd 92 50 18 bd
       -0.005969144 0.01354261 -0.08092708 -0.037186213
000210 c6 84 97 3c 05 c4 86 be 1e 24 0d 3e 52 dc 72 bd
       0.018495928 -0.26321426 0.13783309 -0.059292145
000220 1e 5e 4d bd c4 42 1f bd 5a 56 b4 3c f2 42 02 3e
       -0.050138585 -0.038882032 0.022013832 0.1272085
000230 ca e3 96 bd 11 5e 15 3e 7d 22 a1 3e bb ac f0 be
       -0.07367666 0.14586665 0.31471625 -0.47006783
000240 ee c8 2c bd 11 99 7c bd b4 b6 5e bd c9 cb c0 3d
       -0.04218381 -0.061669413 -0.054373458 0.09413869
000250 93 bf b1 be 90 cc 00 bb 2c e0 80 3b 36 fe 8c 3e
       -0.34716472 -0.0019653179 0.0039329734 0.27537698
000260 c0 8b 65 bd 3c fc bf be f4 a0 91 bd af ba 4e be
       -0.05604148 -0.37497127 -0.071107775 -0.20188402
000270 9f 79 9e be 1f a8 24 3e 9c 1b 6e be 5b 30 78 3e
       -0.30952165 0.16079758 -0.2325272 0.24237196
000280 00 ed e3 3d c2 64 94 bc 91 ce b2 bc ba 52 8c 3a
       0.111291885 -0.018114451 -0.021827014 0.0010705807
000290 a0 5e f2 3c f6 55 c0 3d 41 65 de bc d4 1d 20 bd
       0.029586136 0.09391396 -0.027147891 -0.039090946
0002a0 da 6d 98 bd a5 b0 60 be f2 e7 9a 3d 21 f6 8f bb
       -0.074428275 -0.21942385 0.07563771 -0.0043933545
0002b0 da 6b 52 3e 8c ed e5 be 70 d9 86 3e 12 54 af 3d
       0.20548955 -0.44907796 0.26337767 0.08560957
0002c0 95 5c db 3d 8d 47 97 3c 78 67 3e 3e 77 e4 a5 bd
       0.10711018 0.018466735 0.18594158 -0.08100217
0002d0 21 cb 4e 3c 65 6a 04 3e e7 b8 bc be de 6a 9e bd
       0.012621672 0.12931211 -0.3685982 -0.07735227
0002e0 8d b1 67 3e 6d 9a 3d be 34 c8 3d bf 34 81 17 bd
       0.22626324 -0.1851594 -0.7413361 -0.036988452
0002f0 c5 93 f3 3d d7 4d c9 bc 46 3f 86 3e ab fc f1 3c
       0.11893419 -0.02457325 0.2622015 0.029539427
000300 d8 d4 38 3e bc ce 70 3e 24 bc e9 be 5b 82 3a 3e
       0.18049943 0.23516363 -0.45651352 0.18213789
000310 7b f4 f0 bc cc 41 2e 3d ab d0 67 3c cc 31 7d be
       -0.029413452 0.042543218 0.014148871 -0.24726027

l3.weight f4 [4, 200]
000000 a6 64 5e bb 52 bf 21 3f 88 75 02 3c 43 fd fd bd
       -0.0033934503 0.63182557 0.007962592 -0.124018215
000010 f1 54 0d 3f ed 05 1e be 0f 6a 8e 3e 97 fb 6a bf
       0.55207735 -0.15431948 0.2781529 -0.91790146
000020 52 73 2f be 31 f4 dd 3b 02 53 68 be 91 80 cc bd
       -0.17133835 0.0067734946 -0.22687915 -0.099854596
000030 69 16 03 be b2 5c 15 bd e6 53 bd be 83 3f ba be
       -0.12801518 -0.036465354 -0.36978072 -0.3637658
000040 06 00 1d 3f a8 12 20 bf f6 00 9d 3e 55 6c 3e 3d
       0.6132816 -0.6252847 0.30664796 0.046490032
000050 c4 84 34 bf 64 dd d6 3c 04 ea 11 bd ec d6 d0 3e
       -0.70515084 0.026228614 -0.035623565 0.40788972
000060 b2 6e 1c 3c e5 27 08 3e 5b 45 30 bf 4b c6 1c bf
       0.009547876 0.13296469 -0.6885583 -0.6124007
000070 37 0f 6e be e5 16 77 be 8a 8d 7d be 0e 5e b8 be
       -0.23247992 -0.24129827 -0.24761024 -0.36009258
000080 b0 af 8f be af 46 45 bc bd c5 cb bd f0 b8 23 3e
       -0.28063726 -0.012040778 -0.09949825 0.15988517
000090 5b 98 99 be c2 64 ea 3e f7 0b 77 3b 47 c6 d6 3e
       -0.2999905 0.45779997 0.003769634 0.4194815
0000a0 25 0d 44 3b b5 85 61 bd b6 5c 69 3d ab b0 7e be
       0.0029915061 -0.055059154 0.05697318 -0.24872081
0000b0 59 ae 0e bf 47 0b 3f bf dd 62 4a be 31 07 e4 bc
       -0.55734783 -0.7462658 -0.19764276 -0.02783546
0000c0 10 19 79 3f 03 7a 6c 3f d3 e3 50 3e 34 20 6b be
       0.9730387 0.92373675 0.20399408 -0.22961503
0000d0 42 09 bb bd c0 2a 01 be a3 40 76 be db 97 2b be
       -0.09132625 -0.12613964 -0.24048094 -0.16757147
0000e0 fb fb 23 bf 8f 1a 2f be 8a 18 51 3d 72 96 56 3d
       -0.64056367 -0.17099975 0.051048793 0.05238957
0000f0 cf 73 8d 3e fb 3e 5a bd 69 d6 08 bf 63 4d e4 3e
       0.27627417 -0.05328272 -0.53452164 0.4459029
000100 c4 ca 2d be ca 73 23 bf 55 6f bd be 69 85 48 3d
       -0.1697188 -0.63848555 -0.36999002 0.048955355
000110 43 d1 c0 bd 66 32 fc 3e 6d b5 8b 3a bf 5f d0 3e
       -0.094149135 0.492572 0.0010658927 0.40698048
000120 ff 7c ee 3c ef 4a 38 bd 91 6b f5 3d c7 01 0d bf
       0.029112337 -0.044993337 0.11983407 -0.55080837
000130 85 3d ee 3e d1 e8 61 3f 93 16 17 bf 59 a2 22 be
       0.4653131 0.88245875 -0.5901882 -0.15882243
000140 fc e5 24 bf 64 27 04 be 35 fd 6e 3d fe b8 04 3f
       -0.6441343 -0.12905651 0.058346946 0.51844776
000150 63 5a 78 bc 1c 03 f3 be 88 6d f3 3e 05 0a ed be
       -0.015158269 -0.4746331 0.47544503 -0.46296707
000160 92 6f ad 3e f2 fc 4f bd 59 42 e4 ba d3 ba 06 3d
       0.33874184 -0.050778337 -0.0017414793 0.032893013
000170 07 72 ad 3e fb 92 31 3f ae 90 14 bf c3 9e 53 be
       0.33876058 0.693649 -0.58033264 -0.20666032
000180 69 92 b7 be be eb ac bd b4 8f 60 3f a2 b8 d9 3b
       -0.3585389 -0.08443402 0.87719274 0.0066443244
000190 11 da 1b bf 0b c3 d5 bd e1 7d 0c bf 5e ad 76 be
       -0.6087962 -0.10437592 -0.54879576 -0.24089572
0001a0 d6 62 02 3d a7 80 53 3f e2 86 0a 3f 14 01 2e bf
       0.03183254 0.8261818 0.54112065 -0.67970395
0001b0 a9 50 43 3f c6 5d 3b 3c 19 dc df be 17 be 70 3f
       0.7629495 0.011435932 -0.4372261 0.94040054
0001c0 b3 c8 36 bf fe 62 0e bf 2e f5 08 bf f8 ac a4 bf
       -0.7139999 -0.556198 -0.53499115 -1.2865286
0001d0 b7 46 63 be 03 cc 2c bd e0 97 b5 3c c6 0f 23 3d
       -0.22194944 -0.04218675 0.022167146 0.039809965
0001e0 01 74 cf 3e 89 e1 2f 3f 1a 01 d7 be 92 74 bc be
       0.4051819 0.68703514 -0.41993028 -0.36807686
0001f0 fa 87 05 3f ad 97 ad be 02 bc 55 3f bc 62 01 bf
       0.5216061 -0.33904782 0.8349 -0.5054128
000200 71 a7 78 be be 24 16 be 59 c7 f3 bd ec 63 47 bc
       -0.24282624 -0.14662454 -0.11903257 -0.012169819
000210 62 06 c2 bb bd bf 8d 3f 13 15 b5 3d 2b a9 9c bd
       -0.005921171 1.1074139 0.0884191 -0.07649454
000220 b9 cb 33 bd 79 0e 65 bd 38 5e 22 be e9 98 81 3e
       -0.043895457 -0.055922005 -0.15856254 0.25311974
000230 2d 90 9d 3e 66 6a 20 bf d8 00 a7 3e 25 23 e2 be
       0.3077406 -0.6266235 0.3261783 -0.44167438
000240 57 75 b2 be 66 b2 a5 3d c5 4b 08 3b 3c a4 ee be
       -0.34855148 0.080906674 0.0020797115 -0.46609676
000250 b1 ff 4b 3e e0 37 0c 3f e6 de a7 bc cd f6 18 3f
       0.19921757 0.5477276 -0.020492028 0.5975159
000260 f4 b4 83 3d ed c5 a7 3f 44 0d 76 3e 3d 32 ab 3e
       0.064309984 1.3107277 0.24028498 0.33436766
000270 bc 2a 7b 3f 82 ae c1 bd 35 e7 f6 3e 5a c4 5e 3f
       0.9811208 -0.09457113 0.48223272 0.8701836
000280 2b 45 31 bf b4 11 8f 3a 9b cd 69 3c 28 68 b2 3e
       -0.69246167 0.001091531 0.014270212 0.3484509
000290 c6 f1 75 bd 3d ae 93 3d 8b 43 58 bc e2 ce 17 3d
       -0.060045026 0.07210968 -0.013199697 0.037062533
0002a0 8a 7a 79 be 15 c6 bd be d1 58 e8 3e 4e 0c 58 3d
       -0.24363151 -0.37065187 0.45380262 0.05274611
0002b0 7f 6e 0b 3f 7a 2f 14 bf 34 17 2c 3f 62 14 37 bd
       0.5446548 -0.57884943 0.67222905 -0.044697173
0002c0 fd d0 03 3f 2a 3b 96 3d 1a 44 86 bf 51 42 45 be
       0.51490766 0.073355034 -1.0489533 -0.19263579
0002d0 29 22 b1 bb ab 0c 16 bf 0c 8f ae 3f d6 db 6d be
       -0.0054056835 -0.5861308 1.3637404 -0.23228392
0002e0 a5 bb 95 be 00 b6 d6 be 20 7c 8b bf 19 3f 1c 3e
       -0.29244724 -0.4193573 -1.0897255 0.15258445
0002f0 ee 3c d7 be 9e c4 f2 be 63 08 19 3f 3b 14 69 be
       -0.42038673 -0.47415632 0.5977842 -0.22761624
000300 5b 9a dd be 66 c0 5f bf 77 13 24 3e 36 67 e1 be
       -0.43281826 -0.8740295 0.1602305 -0.44024056
000310 03 b4 09 bd dc fa 27 be fe 01 d1 3c 0e bc 4c bf
       -0.03361894 -0.16404289 0.025513645 -0.7997445
000320 f8 07 f5 bc 94 5d 23 3f 92 cb 24 be d0 19 a3 be
       -0.029911026 0.63814664 -0.16093281 -0.3185563
000330 7e 14 1b 3f 19 32 53 be bb 07 9b be 3e ae 6c bf
       0.60578144 -0.2062458 -0.30279335 -0.9245337
000340 de 20 88 bd ef 7f 0a bd 64 68 5b be 5e 31 c1 3d
       -0.06646894 -0.033813413 -0.2142654 0.09433244
000350 c9 8a b8 bd 29 96 44 3c 2e f8 50 be 10 d6 d8 be
       -0.09010846 0.011998692 -0.20407173 -0.42350817
000360 7e a3 3e 3f 3b a5 0b bf b7 57 de 3e 25 fb 5e bd
       0.7446822 -0.54548997 0.43426296 -0.05443873
000370 7a 3a 04 bf 06 6a fe bc 74 6d 1c 3d 33 b6 e6 3e
       -0.5165173 -0.031056415 0.03819032 0.45060882
000380 2a 38 7d bd 5d af 01 3f 94 86 17 bf 12 97 94 be
       -0.06182114 0.5065821 -0.59189725 -0.29021508
000390 8e 55 9b be 97 3b 40 be 49 df 2b be 73 b4 f4 be
       -0.3033871 -0.18772732 -0.16784395 -0.47793922
0003a0 54 b3 b8 be 00 83 15 bf 91 42 14 be bc 29 c3 3e
       -0.36074317 -0.58403015 -0.14478518 0.38117778
0003b0 a6 16 0d bd b3 1c f9 3e 60 a7 47 bc a8 70 9b 3e
       -0.034445427 0.48654708 -0.012185901 0.30359387
0003c0 ae 4d 8b 3c 6b e1 03 3d eb fa 6b bb 87 58 8e bd
       0.017004814 0.032197397 -0.0036007713 -0.06950479
0003d0 bc 1a 07 bf 63 94 23 bf 75 09 0e bf f2 70 00 be
       -0.5277517 -0.63898295 -0.5548318 -0.12543085
0003e0 14 32 81 3f 08 20 81 3f 7d 24 89 3e e9 8a 03 be
       1.0093408 1.00879 0.2678565 -0.12845959
0003f0 d4 d1 6e be 14 ba 01 bf 88 ea 0a be 8f 78 bf bd
       -0.2332223 -0.5067456 -0.13566029 -0.093491666

l3.bias f4 [4]
000000 90 ca 02 3e f2 85 8a 3d ba 02 63 3e 0d 17 55 3e
       0.12772584 0.06763829 0.22169009 0.20809574
