fin/DQN/agent-300-10-495/model.pt (torch, 340231 bytes, 6 tensors)

l1.weight f4 [400, 8]
0	0x3f8066fb	1.0031427
1	0xbe7e2218	-0.24817693
2	0x3f025c50	0.5092211
3	0xbe81b6db	-0.2533482
4	0xbf1c6b40	-0.6110115
5	0x3e1432ac	0.14472455
6	0xbb9573dd	-0.004560931
7	0x3d911ed7	0.0708596
8	0x3eccef9b	0.40026554
9	0xbe3c92d6	-0.18415388
10	0xbe64fee6	-0.22362861
11	0xbe70defb	-0.2352256
12	0xbe8fbc28	-0.2807324
13	0xbe4254b3	-0.18977623
14	0xbe4e6e11	-0.20159175
15	0x3c0f3ffa	0.008743281
16	0xbea969b4	-0.33088458
17	0xbeb7ec02	-0.35922247
18	0xbf823c8c	-1.0174727
19	0x3f13f3ad	0.57793695
20	0x3e54a2c5	0.20765217
21	0xbed50b74	-0.416103
22	0xbcc72c58	-0.024313137
23	0xbec19edf	-0.37816522
24	0xbf33e3e0	-0.70269585
25	0xbf14a3cd	-0.5806244
26	0x3dda8e62	0.106716886
27	0xbf3021f0	-0.68801785
28	0x3f486603	0.7828066
29	0xbf1f6c67	-0.62274784
30	0xbdeda395	-0.116034664
31	0xbbe23d1b	-0.006904257
32	0xbe296752	-0.1654332
33	0x3ec38bdf	0.3819265
34	0x3ed20d5e	0.41025823
35	0x3f03f094	0.5153897
36	0x3ee70192	0.45118386
37	0x3df9a647	0.12189918
38	0x3d5b620e	0.05356031
39	0xbdd63044	-0.10458425
40	0xbdc4e28d	-0.09613524
41	0xbde8fb5e	-0.113760695
42	0x3ecb33ea	0.39688045
43	0xbe9d767c	-0.3075446
44	0x3de2b367	0.110693745
45	0xbe40bfa5	-0.18823107
46	0x3dedcde4	0.11611536
47	0x3ce6b09f	0.028160391
48	0xbd7f0ea1	-0.06226981
49	0xbea7eaa3	-0.327962
50	0xbe884987	-0.26618597
51	0xbbdf4e74	-0.0068147723
52	0x3efd296b	0.49445662
53	0x3eb55166	0.35413665
54	0x3edb3c42	0.4281941
55	0x3e2d5ba0	0.16929483
56	0x3f525bbb	0.8217122
57	0x3dea2c67	0.1143425
58	0x3e4399de	0.19101664
59	0x3f2c608d	0.67334825
60	0x3eaf92ba	0.3429163
61	0xbf459284	-0.7717669
62	0xbf36c753	-0.71397895
63	0xbee8e791	-0.4548917
64	0x3dad2cc0	0.08455801
65	0xbe116ffc	-0.14202875
66	0xbe223a10	-0.15842462
67	0xbd8e043f	-0.06934404
68	0xbec319e0	-0.3810568
69	0xbdbd3d88	-0.09240252
70	0xbbcc810d	-0.00624097
71	0xbe5c061f	-0.2148671
72	0xbe6047c7	-0.21902381
73	0xbf2abc80	-0.6669388
74	0x3f4bc7a7	0.7960152
75	0x3d1365f9	0.03598592
76	0xbecaba22	-0.39595133
77	0xbe8b567e	-0.27214426
78	0x3f117e11	0.5683299
79	0xbf01e67d	-0.5074232
80	0xbf785b4a	-0.97014296
81	0xbf1f1cda	-0.621534
82	0x3d8cebab	0.068808876
83	0x3ea57f9b	0.32323918
84	0xbf596c9f	-0.8493137
85	0x3f4554b0	0.7708235
86	0xbe2081c0	-0.15674496
87	0x3e21cf85	0.15801819
88	0x3de38eb3	0.11111202
89	0xbd4f13b8	-0.050555915
90	0x3f85c4a8	1.045064
91	0x3e73e647	0.23818313
92	0x3f0cc779	0.5499187
93	0x3eeb2d39	0.4593294
94	0xbdb384bb	-0.08765551
95	0xbdbff223	-0.09372356
96	0xbf136314	-0.57573056
97	0xbe29dd47	-0.16588317
98	0x3e353fbd	0.17700095
99	0xbe3a23d9	-0.18177737
100	0xbedee0d3	-0.43530902
101	0xbebaac87	-0.36459753
102	0xbf379bd5	-0.71722156
103	0xbe85647c	-0.26053226
104	0x3ed6e0fd	0.41968527
105	0xbe66149c	-0.224688
106	0xbf07f720	-0.5311146
107	0xbf19c483	-0.6006548
108	0x3fb28514	1.3946862
109	0x3f3a55f1	0.72787386
110	0x3c155786	0.0091151055
111	0x3e81b518	0.25333476
112	0x3ee2ba43	0.4428273
113	0x3dbc94c1	0.0920806
114	0x3dc66e0d	0.09688959
115	0x3e5d7719	0.21627463
116	0xbf1f1f4c	-0.6215713
117	0xbf294dec	-0.66134524
118	0xbfc4d912	-1.5378745
119	0xbe8862ea	-0.26637965
120	0x3d566aa3	0.05234779
121	0xbf32bff3	-0.6982414
122	0xbea7cbb0	-0.3277259
123	0xbf69cdc9	-0.9132963
124	0x3f1822c8	0.5942807
125	0x3f88dd75	1.0692583
126	0x398c6d9e	0.00026784552
127	0xbf45155c	-0.76985717
128	0xbe834c79	-0.25644282
129	0x3ed207db	0.41021618
130	0x3e02cb09	0.12772764
131	0xbe7cfe3c	-0.24706358
132	0x3e986402	0.297638
133	0x3eac780b	0.33685336
134	0xbf04dbf6	-0.51898134
135	0x3d9dfb3c	0.07713935
136	0x3eadacad	0.33920804
137	0x3caa2e74	0.020774104
138	0xbf84d54d	-1.0377594
139	0x3f342301	0.7036591
140	0xbf28c0d6	-0.65919244
141	0x3cc7b46e	0.024378028
142	0x3ea9e2b5	0.33180776
143	0x3eb30e36	0.3497178
144	0xbf06f169	-0.5271211
145	0xbf3aa50f	-0.7290811
146	0x3ec9e463	0.39432058
147	0x3f310e2a	0.6916224
148	0xbfafa655	-1.3722636
149	0xbe95663e	-0.29179567
150	0xbf8d25d2	-1.1027167
151	0x3eeb1192	0.45911843
152	0xbeeef530	-0.46671438
153	0x3e38961a	0.18026009
154	0x3ec574f4	0.3856579
155	0x3ee64c16	0.44979924
156	0x3c90627b	0.017625084
157	0xbf73f33e	-0.95293033
158	0xbeec9afa	-0.46211988
159	0xbf0920ab	-0.5356547
160	0xbf770325	-0.96489173
161	0xbe53d6a9	-0.20687355
162	0xbf841fc1	-1.032219
163	0xbe4e6dc2	-0.20159057
164	0x3f519035	0.8186067
165	0x3eaba442	0.33523756
166	0x3ee4a668	0.44658208
167	0xbf258a61	-0.64664274
168	0x3e1ba2f5	0.15198882
169	0x3f066745	0.52501327
170	0xbeeb1c65	-0.459201
171	0xbecc279b	-0.39873967
172	0xbdf1cc34	-0.11806527
173	0xbf1c76d9	-0.6111885
174	0xbf29f49a	-0.6638886
175	0xbbf2fcbe	-0.007415383
176	0x3f02ba71	0.51065737
177	0xbee66efb	-0.45006546
178	0x3ef8ca18	0.48591685
179	0xbf7f75d9	-0.99789196
180	0xbec992aa	-0.39369708
181	0xbece72ae	-0.4032187
182	0xbf73b7ef	-0.95202535
183	0x3ed3ba34	0.41353
184	0xbec93e09	-0.39305142
185	0x3e5ed70b	0.2176172
186	0x3eda0c22	0.42587382
187	0x3f1ebc05	0.62005645
188	0xbe4ad42b	-0.19807498
189	0x3ee6c921	0.45075324
190	0x3e7e356c	0.24825066
191	0x3f3fca25	0.74917823
192	0x3e95b1ea	0.292373
193	0xbe15b5bb	-0.14620106
194	0x3eac5fad	0.33666745
195	0x3ed0eb88	0.40804696
196	0x3f0973f5	0.5369256
197	0xbecc17a3	-0.39861783
198	0xbecbfd24	-0.39841568
199	0xbef104e9	-0.4707406
200	0x3eb2f927	0.34955713
201	0x3dd2bfc0	0.1029048
202	0x3df34b10	0.118795514
203	0xbe1b3f4a	-0.15160862
204	0x3f316275	0.6929086
205	0x3f6898f6	0.908584
206	0xbf565c55	-0.8373464
207	0x3e25d50e	0.16194555
208	0xbf387811	-0.72058207
209	0x3dc64de6	0.09682827
210	0xbeda567a	-0.426441
211	0xbcb31ccb	-0.021864315
212	0x3f1dcd37	0.6164126
213	0xbed30dfc	-0.41221607
214	0x3c324bfb	0.010882373
215	0xbe008f74	-0.12554723
216	0x3d60884d	0.054817487
217	0xbd6042ab	-0.05475108
218	0xbf14c1bd	-0.5810812
219	0x3f0a54c3	0.54035586
220	0xbefe2708	-0.49639153
221	0xbe10002f	-0.1406257
222	0xbe7bca7d	-0.24588962
223	0xbe0c653a	-0.1371049
224	0x3ed3bf5a	0.41356927
225	0xbdd8e03d	-0.10589645
226	0xbec05955	-0.37568155
227	0xbf3114fd	-0.6917265
228	0xbea5c449	-0.32376316
229	0x3e841d64	0.25803673
230	0x3e8040f0	0.25049543
231	0xbf6afe36	-0.91794145
232	0x3e9ee49f	0.310338
233	0x3e0e177c	0.13876146
234	0xbebe587d	-0.37176886
235	0x3e94eee2	0.29088503
236	0x3f2a2fdb	0.6647927
237	0x3ef14a0e	0.47126812
238	0x3e21018a	0.15723243
239	0xbe8eb575	-0.27872816
240	0x3e2fe10a	0.1717569
241	0xbe1e2881	-0.15445139
242	0x3f5dbb32	0.8661376
243	0x3d210e9d	0.039320577
244	0xbf369693	-0.7132351
245	0x3d1f17f4	0.038841203
246	0xbdc5bcd0	-0.09655154
247	0x3f3c5686	0.73569524
248	0x3d7da526	0.061925076
249	0x3ec11832	0.37713772
250	0x3e02902a	0.12750307
251	0x3cf64206	0.03006078
252	0x3e39f162	0.18158486
253	0x3f48b51a	0.7840134
254	0xbe8004f0	-0.25003767
255	0xbf19ddea	-0.6010424

l1.bias f4 [400]
0	0xbd27adcc	-0.04093723
1	0x3ea1c765	0.31597438
2	0xbf022b24	-0.5084708
3	0x3e67c27a	0.2263278
4	0x3f0076b9	0.50181156
5	0x3e635f10	0.22204232
6	0xbf1d4eb1	-0.614482
7	0xbf1419bf	-0.57851785
8	0x3e18b08c	0.14911097
9	0xbe9480da	-0.29004556
10	0x3e25be6f	0.16185926
11	0xbe52e2d9	-0.20594348
12	0x3e54f02f	0.20794748
13	0xbd07debd	-0.033171404
14	0x3f062d0b	0.5241248
15	0xbf01d4a0	-0.50715065
16	0xbe0d263d	-0.13784118
17	0xbe6d128e	-0.2315161
18	0xbf123126	-0.57106245
19	0xbae8d345	-0.0017763159
20	0x3d9904db	0.07471629
21	0xbeb7caff	-0.3589706
22	0xbe4e9076	-0.20172295
23	0xbf116ed3	-0.5680973
24	0x3e73bb8e	0.23802015
25	0x3e2e8b63	0.1704536
26	0xbe7cf977	-0.24704538
27	0xbf5a2e85	-0.85227233
28	0xbe0de94d	-0.13858528
29	0xbf06990f	-0.525773
30	0xbdf4abfe	-0.119468674
31	0x3e968e18	0.29405284
32	0x3e795c87	0.24351703
33	0xbf28f9f5	-0.66006404
34	0xbeed42b6	-0.4633996
35	0xbf414fc3	-0.7551233
36	0xb9ea0765	-0.00044637467
37	0xbf0bf2a4	-0.54667115
38	0xbc30fb42	-0.010802092
39	0x3f094ffc	0.5363767
40	0x3e81199c	0.2521485
41	0xbee80f3e	-0.4532413
42	0xbf038642	-0.51376736
43	0xbcf278da	-0.029598642
44	0x3e2a57ac	0.16635007
45	0x3e6ce9ea	0.23136106
46	0x3e8601c0	0.2617321
47	0xbe4cd9d2	-0.20004967
48	0xbefa0052	-0.4882837
49	0xbe886c9c	-0.26645362
50	0xbe16e798	-0.14736784
51	0xbf507abf	-0.81437296
52	0x3e6be92f	0.23038171
53	0xbf00019d	-0.5000246
54	0xbd898fb9	-0.06716866
55	0x3e67ebd1	0.2264855
56	0xbf433ff5	-0.76269466
57	0xbf21918b	-0.63112706
58	0xbe1260b9	-0.1429471
59	0xbe7b34b8	-0.2453183
60	0xbdeb18c5	-0.11479334
61	0x3ef4b6d8	0.4779575
62	0xbf31938c	-0.69365764
63	0xbf4e8154	-0.8066609
64	0xbf115b60	-0.5678005
65	0x3d788684	0.06067516
66	0xbee7728b	-0.45204577
67	0xbe8c87d1	-0.2744737
68	0xbd9bd1a2	-0.07608344
69	0x3d6b4132	0.057435222
70	0xbe9c7069	-0.30554512
71	0xbedaf9b8	-0.42768645
72	0xbc497240	-0.012295306
73	0xbf19ced0	-0.60081196
74	0x3f011c09	0.50433403
75	0xbf16cd9c	-0.58907485
76	0xbf2d957c	-0.6780622
77	0xbeb71e13	-0.35765132
78	0xbe927cc6	-0.2861082
79	0xbd085678	-0.033285588
80	0x3e68bbd7	0.22727905
81	0x3e16e1fb	0.14734642
82	0x3efa7e1e	0.48924345
83	0xbf6ea3c2	-0.93218625
84	0xbecfaf2a	-0.40563327
85	0x3d9b83ff	0.07593536
86	0xbebf25f2	-0.37333637
87	0xbdbee120	-0.09320283
88	0x3e77269a	0.24135819
89	0xbed8e6f6	-0.4236371
90	0xbd8b429f	-0.06799816
91	0x3e5a5a25	0.2132345
92	0x3e414d30	0.18877101
93	0xbdc2cc2c	-0.09511599
94	0x3f04cfca	0.5187956
95	0x3e7d411a	0.24731866
96	0xbf2f59c7	-0.68496364
97	0x3e8232fc	0.25429523
98	0xbf07cc5e	-0.53046215
99	0xbf52e15f	-0.8237514
100	0xbf195db7	-0.5990862
101	0x3e284618	0.16432989
102	0x3e40330b	0.18769471
103	0xbf09ca03	-0.5382387
104	0x3ee65352	0.44985443
105	0xbf1b422d	-0.6064785
106	0xbf240bff	-0.64080805
107	0xbeafffc2	-0.34374815
108	0xbcc442e3	-0.023957675
109	0xbdee5c1c	-0.11638662
110	0xbece57dd	-0.4030141
111	0xbeb6e067	-0.3571808
112	0xbd4a9058	-0.049454063
113	0xbe453b91	-0.19261004
114	0xbecdd83e	-0.40204042
115	0xbd1bf821	-0.03807843
116	0xbbb5b801	-0.0055456166
117	0x3de6d923	0.11271884
118	0xbf0789ff	-0.5294494
119	0xbe60e894	-0.21963722
120	0x3e6a9e01	0.22911836
121	0xbdff8e71	-0.124783404
122	0x3e060aba	0.1309003
123	0xbf0cc25b	-0.5498406
124	0xbf63e5aa	-0.89022315
125	0xbedbc2a0	-0.42921925
126	0xbf30974a	-0.6898085
127	0xbe6bf342	-0.23042014
128	0xbef08b55	-0.46981302
129	0xbcc8855f	-0.024477659
130	0xbf2d74fd	-0.67756635
131	0x3deaf7ff	0.11473083
132	0x3e900327	0.28127405
133	0xba488899	-0.0007649749
134	0xbec50096	-0.3847701
135	0x3e82ccbe	0.2554683
136	0x3e9e1203	0.30873117
137	0xbee505f1	-0.44731095
138	0xbeac9e9e	-0.33714765
139	0xbbefbafc	-0.0073159914
140	0x3ed61cbb	0.41818795
141	0xbf0b32a3	-0.5437414
142	0xbf01a1c4	-0.5063746
143	0x3d350860	0.04419744
144	0xbf340e56	-0.70334375
145	0x3efaa9d5	0.48957697
146	0xbf0913b5	-0.53545696
147	0x3ea01fe7	0.3127434
148	0xbf2d7777	-0.67760414
149	0xbc250e50	-0.010074213
150	0x3e90cbf2	0.28280598
151	0xbef25a48	-0.47334504
152	0xbef525bc	-0.47880352
153	0xbe0b4d4a	-0.13603702
154	0xbe627138	-0.22113502
155	0x3eb9e68c	0.36308706
156	0xbf247e43	-0.6425516
157	0xbe823e27	-0.25438043
158	0xbeef8d2f	-0.46787402
159	0xbef2a06a	-0.4738801
160	0x3ec7ba55	0.39009348
161	0xbf336382	-0.7007371
162	0xbee82b2f	-0.45345446
163	0xbf36f41d	-0.7146624
164	0xbf84fe1e	-1.039005
165	0xbf0480cd	-0.51759034
166	0x3e310c1f	0.1728978
167	0x3eb2b286	0.34901828
168	0xbee9c43e	-0.45657533
169	0x3ddcc324	0.107794076
170	0xbf307a7a	-0.68936884
171	0xbf3d4c09	-0.73944145
172	0xbcc9a458	-0.024614498
173	0x3c9e7822	0.019344393
174	0x3e77c966	0.24197921
175	0xbf358008	-0.70898485
176	0x3ed6d3a2	0.41958338
177	0x3d47b847	0.048759725
178	0xbef8c46a	-0.48587352
179	0x3e92e8cd	0.28693238
180	0xbed808f9	-0.42194346
181	0xbf471ef8	-0.7778163
182	0x3e16fba7	0.14744435
183	0xbec98e5b	-0.3936642
184	0xbf06a626	-0.5259727
185	0xbd650300	-0.055911064
186	0x3eaf6a9a	0.34261018
187	0x3cdef149	0.027214663
188	0xbf0f0fde	-0.55883586
189	0xbeca5018	-0.39514232
190	0xbc70c4dd	-0.014695373
191	0xbf320ee2	-0.6955396
192	0xbf4ab51e	-0.7918261
193	0xbc839749	-0.01606335
194	0xbece91b8	-0.4034555
195	0xbe5c961e	-0.2154164
196	0xbe9ea673	-0.30986366
197	0x3d600730	0.054694355
198	0x3f01dc14	0.5072644
199	0x3f0743b0	0.5283766
200	0xbad2a028	-0.0016069459
201	0x3ec53318	0.38515544
202	0xbea0c009	-0.3139651
203	0x3ea834c3	0.32852754
204	0xbe7a5d94	-0.2444976
205	0x3ec35a0a	0.38154632
206	0x3e04e1f9	0.12976827
207	0xbf12065e	-0.57040966
208	0xbebe7151	-0.3719583
209	0xbcfb018d	-0.030640388
210	0xbeddc700	-0.43315887
211	0xbc0c39f2	-0.008558737
212	0xbf13022a	-0.5742518
213	0xbf4f87ca	-0.8106657
214	0xbdebb516	-0.11509149
215	0x3eab0575	0.334026
216	0x3d555ce8	0.052090555
217	0xbf329bf7	-0.69769233
218	0xbed488e0	-0.41510677
219	0x3f18e239	0.5972019
220	0xbdffda19	-0.12492771
221	0xbee17d6c	-0.44041002
222	0xbee3a7fc	-0.444641
223	0x3ee5e269	0.448993
224	0x3f0319b9	0.51211125
225	0xbaecef49	-0.0018076684
226	0xbf0e2a22	-0.5553304
227	0x3e832ac1	0.25618556
228	0xbf0c2cfc	-0.5475614
229	0xbc85f331	-0.016351314
230	0xbf30732f	-0.68925756
231	0xbf0685d4	-0.52547956
232	0xbee2085a	-0.44146997
233	0xbc3ce915	-0.01153018
234	0xbe67dcd0	-0.22642827
235	0x3e256783	0.16152768
236	0x3d66a949	0.056313787
237	0x3ed01ecd	0.406485
238	0xbecd1ddb	-0.4006184
239	0xbf1c41a0	-0.61037636
240	0xbeea4919	-0.45758894
241	0xbf42e313	-0.7612774
242	0x3dd136fe	0.10215567
243	0xbf476b85	-0.77898437
244	0xbee113e7	-0.43960497
245	0x3e50c0ad	0.20386
246	0xbe6b1b02	-0.22959521
247	0x3df1805c	0.11792061
248	0xbc466e11	-0.012111203
249	0x3edf6ac3	0.4363614
250	0x3eed5f9a	0.46362
251	0x3eca39a2	0.39497095
252	0xbe197f51	-0.14989974
253	0xbf2a04d2	-0.66413605
254	0xbf2aa3a3	-0.6665594
255	0xbf61527a	-0.88016474

l2.weight f4 [200, 400]
0	0xbf0a5dd7	-0.5404944
1	0x3d2b8e9f	0.04188406
2	0xbf6c381b	-0.9227311
3	0x3df8b7eb	0.121444546
4	0x3d8430fe	0.06454657
5	0xbd6dad17	-0.0580264
6	0xbe7d4c48	-0.2473613
7	0xbe2d1cf5	-0.16905577
8	0xbd0a185e	-0.033714645
9	0xbf4ed0de	-0.80787456
10	0x3d413890	0.047173083
11	0xbf046a57	-0.5172476
12	0xbe2c45aa	-0.1682345
13	0x3eb409d6	0.35163754
14	0x3de61a87	0.112355284
15	0xbf446bde	-0.7672709
16	0x3e679a4b	0.22617452
17	0xbdd4dc60	-0.10393596
18	0x3f92b5a8	1.1461687
19	0x3dfcef19	0.12350292
20	0xbf3c4ffb	-0.7355954
21	0x3e6429d6	0.22281584
22	0xbee48fb3	-0.44640884
23	0xbf186949	-0.5953565
24	0x3e19cf2a	0.15020433
25	0x3e565e52	0.20934418
26	0x3b6c8776	0.0036091483
27	0xbd1902c0	-0.03735614
28	0xbe061a83	-0.13096051
29	0xbab19058	-0.0013547046
30	0xbf052605	-0.5201114
31	0x3e652464	0.22377163
32	0x3e63ca23	0.22245078
33	0xbf1f7135	-0.62282115
34	0x3eaa64e7	0.33280107
35	0xbf43e0e0	-0.76515007
36	0x3f3ab751	0.7293597
37	0xbdc563de	-0.09638189
38	0xbf24a329	-0.6431146
39	0x3e2711c5	0.16315372
40	0xbe68f595	-0.22749932
41	0xbd981043	-0.07424977
42	0x3f2b5a44	0.6693461
43	0x3ef98561	0.48734573
44	0xbd5f6fee	-0.054550104
45	0x3e8ad7e9	0.2711785
46	0xbdbbc52e	-0.091684684
47	0x3e3035cc	0.17208022
48	0xbf23ac57	-0.63934845
49	0x3ec25245	0.37953392
50	0xbe8e973d	-0.2784976
51	0xbe7209ad	-0.23636504
52	0xbe8b89e6	-0.27253646
53	0xbbece088	-0.0072289146
54	0xbe0614a2	-0.13093808
55	0xbddb0f93	-0.1069633
56	0xbed7d534	-0.4215485
57	0xbebf998b	-0.3742183
58	0xbe67616a	-0.22595754
59	0x3d28730a	0.041125335
60	0x3e16d1eb	0.14728515
61	0x3d7d37b6	0.06182071
62	0xbece7687	-0.40324804
63	0xbf63f1be	-0.89040744
64	0x3d9adcf7	0.07561677
65	0x3cc03418	0.02346234
66	0x3f3ce216	0.7378248
67	0x3e6a4a1a	0.2287983
68	0x3eb5511f	0.35413453
69	0xbe80abec	-0.25131166
70	0xbe811370	-0.25210142
71	0xbe23e226	-0.16004238
72	0x3ef29056	0.47375745
73	0xbecf8414	-0.40530455
74	0x3e31d3b2	0.17365912
75	0xbf482be5	-0.7819198
76	0xbf33f06f	-0.7028875
77	0x3e94d433	0.29068145
78	0x3b8bb4f2	0.0042635137
79	0x3cae0b72	0.021245692
80	0x3f0a53c9	0.54034096
81	0x3ea2e52e	0.31815475
82	0x3e4b9f80	0.19885063
83	0x3e820760	0.25396252
84	0x3eedd692	0.46452767
85	0x3d2cc7e7	0.04218283
86	0xbee140c3	-0.43994722
87	0xbf1ef87a	-0.62097895
88	0x3e5c70e7	0.21527444
89	0xbf45f736	-0.7733034
90	0xbe6cf005	-0.23138435
91	0x3eebd292	0.4605909
92	0x3db14f8a	0.08657749
93	0xbeb7ea51	-0.35920957
94	0x3e3d2257	0.18470131
95	0x3cb74d08	0.022375599
96	0xbe76e9f2	-0.2411268
97	0x3e0a4aed	0.13505144
98	0x3e446948	0.19180787
99	0xbe6e2988	-0.2325803
100	0xbefc8fcd	-0.4932846
101	0x3e2784b5	0.16359217
102	0xbe725302	-0.23664477
103	0xbe4afd22	-0.19823125
104	0xbe39a6fe	-0.18130109
105	0xbf890cbe	-1.0707014
106	0x3ec1d3f0	0.37857008
107	0xbec2eda6	-0.38071936
108	0x3e11d3c8	0.14240944
109	0x3e197d12	0.14989117
110	0x3f3ab2fc	0.7292936
111	0xbe09e8dc	-0.13467735
112	0xbd407da7	-0.04699483
113	0x3e25b4f5	0.16182311
114	0xbea7a642	-0.32744032
115	0xbe931a7e	-0.2873115
116	0x3f0f9aff	0.5609588
117	0x3ec124d8	0.37723422
118	0x3ed9b82a	0.4252332
119	0xbd823d24	-0.06359318
120	0xbdf73276	-0.120701715
121	0x3e181cc6	0.14854726
122	0x3ea0e2c2	0.31423002
123	0x3ec39d65	0.3820602
124	0xbeb3a7d8	-0.35088992
125	0xbf092b86	-0.53582036
126	0xbf1acdee	-0.60470474
127	0xbe915d47	-0.28391477
128	0xbf1c7b19	-0.6112533
129	0xbf048fdb	-0.51782006
130	0xbf83a212	-1.0283835
131	0xbcf7a67d	-0.030230755
132	0xbd9d3b90	-0.07677376
133	0x3f504a29	0.8136316
134	0x3ef1b4a2	0.47208124
135	0x3df76413	0.120796345
136	0x3dd37abd	0.10326145
137	0x3ec2bd53	0.38035068
138	0x3eb4f508	0.35343194
139	0x3f24bc35	0.6434968
140	0xbbd96811	-0.00663472
141	0xbe363dfc	-0.17797083
142	0xbe86b469	-0.26309517
143	0x3e949b2d	0.2902464
144	0x3ed6c1ef	0.41944835
145	0x3ecf4df3	0.40489158
146	0xbf22e203	-0.63626117
147	0x3e6b2ab4	0.22965509
148	0xbf0e42f5	-0.5557092
149	0x3f0b75db	0.5447671
150	0xbcb73665	-0.022364805
151	0xbef21eda	-0.47289163
152	0x3e83a4ec	0.25711763
153	0x3e6f2d42	0.23357108
154	0x3e01ff21	0.1269498
155	0x3e906a5c	0.28206146
156	0xbdfeac32	-0.124351874
157	0xbe3789dc	-0.17923683
158	0x3f357f68	0.7089753
159	0xbe935fce	-0.2878403
160	0x3d94422d	0.072391845
161	0x3f03a97f	0.51430506
162	0x3f13cf38	0.57738066
163	0xbed0b529	-0.40763214
164	0xbf2be0ec	-0.6714008
165	0x3ce8e8d0	0.028431326
166	0xbe81c285	-0.2534372
167	0x3d29c8c8	0.041451246
168	0xbd8afe75	-0.06786815
169	0x3e928267	0.28615114
170	0x3e275284	0.16340071
171	0xbec85398	-0.39126277
172	0x3ea537b2	0.32269055
173	0x3dbb2222	0.0913737
174	0xbe623ef3	-0.22094326
175	0x3f138ac5	0.5763362
176	0x3eb3fb32	0.35152584
177	0x3ea846c7	0.328665
178	0xbf59165e	-0.84799755
179	0x3d1c88b1	0.038216297
180	0xbf1e92b4	-0.619426
181	0xbe325dbf	-0.17418574
182	0xbd42f986	-0.047601245
183	0xbed3c723	-0.41362867
184	0xbe5556ca	-0.20833889
185	0x3f18da83	0.5970842
186	0xbe635af0	-0.22202659
187	0xbf4076a1	-0.75181013
188	0x3e64668b	0.22304742
189	0x3ec1fb86	0.3788721
190	0xbf251c95	-0.6449674
191	0xbebb1817	-0.36541817
192	0xbdd01a1c	-0.1016123
193	0x3ef4d804	0.47821057
194	0xbdf5bdb1	-0.119990714
195	0xbd9b7a0c	-0.07591638
196	0x3e12b9a5	0.1432863
197	0x3c1fecf0	0.00976108
198	0xbe53d872	-0.20688036
199	0x3ebcf5cc	0.36906278
200	0xbf021541	-0.5081368
201	0x3efabb4f	0.4897103
202	0x3eb8290b	0.35968813
203	0xbd5bb8f5	-0.053643186
204	0x3e03c483	0.12867932
205	0xbc9662a5	-0.018357584
206	0x3dbb20e6	0.09137134
207	0xbef5996a	-0.47968608
208	0x3f135742	0.5755502
209	0x3f8a51c2	1.08062
210	0xbe527189	-0.20551123
211	0x3ea22137	0.31665966
212	0x385a024c	5.197739e-05
213	0xbf9d80e9	-1.2304965
214	0xbdecbcee	-0.11559473
215	0x3c489cce	0.012244416
216	0xbe89528e	-0.26820797
217	0xbf135310	-0.5754862
218	0x3e7e9cb1	0.2486446
219	0x3e4c21e4	0.19934803
220	0x3e13e10e	0.1444132
221	0xbf336dcf	-0.7008943
222	0x3e1cb384	0.15302855
223	0x3e197ae0	0.1498828
224	0x3e01edfc	0.1268844
225	0x3f54d4af	0.8313703
226	0xbf010d6b	-0.504111
227	0x3e8f8f1c	0.2803887
228	0xbf81c1f6	-1.0137317
229	0x3ef0be18	0.4702003
230	0xbea5312b	-0.32264075
231	0xbeb1f2d9	-0.3475559
232	0xbea104c1	-0.3144894
233	0x3ecc9c90	0.39963198
234	0xbe2a9594	-0.16658622
235	0x3e261929	0.16220535
236	0xbc97af20	-0.018516123
237	0xbe076da3	-0.13225417
238	0xbb180daa	-0.0023201504
239	0xbf6511f7	-0.8948054
240	0x3e279eb2	0.16369131
241	0xbe8c3219	-0.2738197
242	0x3d990018	0.07470721
243	0xbf163e58	-0.5868888
244	0xbe191cfe	-0.14952466
245	0x3e371465	0.17878874
246	0x3ef5a893	0.47980174
247	0x3c2ce525	0.010552679
248	0x3f812411	1.0089132
249	0x3eeb7ea6	0.45995063
250	0x3dc8a228	0.09796554
251	0x3e491aaf	0.19639085
252	0xbedb5657	-0.4283931
253	0xbe325b68	-0.17417681
254	0x3ee79647	0.4523184
255	0xbf8d6d5b	-1.1048998

l2.bias f4 [200]
0	0x3e8b9550	0.27262354
1	0xbea8f88c	-0.33002126
2	0xbe879ee0	-0.264884
3	0xbec3cecd	-0.38243714
4	0xbd22b435	-0.03972264
5	0xbef7334d	-0.48281327
6	0x3b701209	0.0036631844
7	0x3e5f9761	0.2183509
8	0x3d8ec764	0.069716245
9	0x3ce4caf2	0.027928803
10	0xbf0e997d	-0.55702955
11	0xbedd445f	-0.43216226
12	0xbc65b465	-0.01402006
13	0xbe69a5de	-0.2281718
14	0xbed0a13b	-0.4074801
15	0xbdba9ece	-0.09112321
16	0xbc3adaf5	-0.0114047425
17	0x3e969ca8	0.29416394
18	0xbebc449b	-0.36771092
19	0xbeeaaf20	-0.45836735
20	0xbecca5e6	-0.3997032
21	0xbe8c799d	-0.27436534
22	0xbd5a9ae1	-0.05337036
23	0xbd81ca31	-0.06337393
24	0x3c16becd	0.009200764
25	0x3c512f55	0.0127676325
26	0x3c69a628	0.014260806
27	0xbe3ea22e	-0.18616554
28	0xbebf0a1c	-0.373124
29	0xbced41ee	-0.028962102
30	0xbad360cb	-0.0016126869
31	0xbc3bd3c1	-0.01146406
32	0xbd7ce75f	-0.06174409
33	0xbdda75cf	-0.106670015
34	0xbc2721ab	-0.010200898
35	0xbbb800ba	-0.005615321
36	0xbc780fcf	-0.015140488
37	0xbd105169	-0.03523389
38	0xbf0ad60c	-0.5423286
39	0xbd233687	-0.039846923
40	0x3d7c7157	0.061631527
41	0xbea3de17	-0.3200538
42	0xbdf948ec	-0.12172112
43	0x3d8e958f	0.0696212
44	0xbd94b4ee	-0.07261072
45	0xbe52d0fc	-0.20587534
46	0xbdab3358	-0.083594024
47	0x3e373ba7	0.1789385
48	0x3e1b21e7	0.15149651
49	0xbd28b3d5	-0.041187126
50	0xbe238243	-0.1596766
51	0x3d0ca611	0.03433806
52	0x3dc51d95	0.09624783
53	0xbf080810	-0.531373
54	0xbec20bb3	-0.3789955
55	0x3d4ebfd1	0.0504759
56	0x3d1b3d38	0.03790018
57	0xbef2c379	-0.4741476
58	0xbb74a0e8	-0.0037327353
59	0x3d15b67b	0.03655098
60	0x3bf5c04c	0.00749973
61	0xbe7423ec	-0.23841828
62	0xbecc1869	-0.39862373
63	0x3df255a3	0.1183274
64	0xbe3e5c82	-0.18589976
65	0x3e26ce67	0.16289674
66	0xbd641c2d	-0.055690933
67	0xbe5ceb60	-0.21574163
68	0xbeb1ece0	-0.34751034
69	0x3c26b50d	0.010175002
70	0xbe8f1eaf	-0.27953097
71	0xbd4d3bca	-0.050105847
72	0xbf138c63	-0.5763609
73	0x3df0f13a	0.1176476
74	0xbb49c083	-0.0030784912
75	0x3e4ba9cb	0.1988899
76	0xbf0f0abc	-0.55875754
77	0x3d8860c1	0.06659079
78	0x3e3c8c2f	0.18412851
79	0xbe9c148d	-0.3048443
80	0x3e0d058a	0.13771644
81	0xbe063710	-0.13106942
82	0xbee195ec	-0.44059694
83	0xbc59c7a8	-0.013292231
84	0xbe161db5	-0.1465977
85	0xbee71954	-0.4513651
86	0x3e7d223e	0.24720094
87	0xbe9b2bfb	-0.30306992
88	0xbf182e44	-0.59445596
89	0xbe200146	-0.15625486
90	0xbd1cf3d8	-0.038318485
91	0xbc0f4066	-0.008743381
92	0xbe886d1c	-0.26645744
93	0x3e82347b	0.25430664
94	0x3a93169b	0.0011221947
95	0xbec0fce1	-0.3769293
96	0xbe2d1160	-0.1690116
97	0xbd6ca120	-0.05777085
98	0xbe46e7b4	-0.19424325
99	0xbd6327f1	-0.055458013
100	0x3bb24bd6	0.0054411693
101	0xbd3f2460	-0.04666555
102	0xbeb42c88	-0.35190225
103	0xbe25af1a	-0.16180077
104	0x3e23ff6a	0.16015401
105	0xbd0c8963	-0.03431071
106	0x3e4914f9	0.19636907
107	0xbf07241c	-0.52789474
108	0xbddd2715	-0.1079847
109	0xbd84cfc5	-0.064849414
110	0xbd5d8ec0	-0.054091215
111	0x3e44c703	0.19216542
112	0xbd1ee0ff	-0.03878879
113	0x3e88990e	0.2667927
114	0xbd77987b	-0.06044815
115	0x3c513957	0.012770019
116	0xbdafd06d	-0.08584676
117	0xbced9d1e	-0.029005583
118	0xbd46df8f	-0.048553046
119	0xbd10b2f4	-0.035326913
120	0x3b7e8db0	0.0038841777
121	0xbdb7e6b5	-0.08979551
122	0x3e02df6b	0.1278054
123	0xbe3a5e51	-0.18200041
124	0xbf02a5df	-0.5103435
125	0xbe5906f8	-0.21194065
126	0xbeea8892	-0.4580732
127	0xbe1f2e50	-0.1554501
128	0xbf052bd6	-0.52020013
129	0xbd46dac6	-0.048548482
130	0x3e8567b1	0.26055673
131	0xbe2a8762	-0.16653207
132	0xbd1bbf6c	-0.03802435
133	0xbd977105	-0.07394604
134	0xbc39c6c4	-0.011338893
135	0xbee09e4c	-0.4387077
136	0xbd2e89cc	-0.042611882
137	0x3e725610	0.23665643
138	0x3d408803	0.04700471
139	0x3c083143	0.008312526
140	0xbea25eb1	-0.3171287
141	0xbd9be9bb	-0.0761294
142	0xbddb05c7	-0.10694461
143	0xbdf73405	-0.12070469
144	0x3e1be652	0.15224579
145	0xbd21157d	-0.039327133
146	0xbd908f1a	-0.070585445
147	0xbe0495ce	-0.12947771
148	0xbe7327d8	-0.23745668
149	0xbd9157ae	-0.07096802
150	0x3bf68379	0.007522997
151	0xbe4fc51a	-0.20290032
152	0xbd0c017c	-0.034181103
153	0xbec0956a	-0.37613994
154	0xbf230cd3	-0.63691443
155	0xbd68f7c8	-0.056876928
156	0xbeceb754	-0.40374243
157	0xbc96af68	-0.018394187
158	0xbd0cbd48	-0.0343602
159	0xbd55cd1c	-0.05219756
160	0xbe6c349f	-0.23066948
161	0x3e0e2e72	0.13884905
162	0xbd0809e0	-0.033212543
163	0xbd28d980	-0.04122305
164	0x3dc3d6d0	0.095624566
165	0xbeb9c877	-0.36285755
166	0xbd13fed2	-0.036131687
167	0xbe3b599c	-0.18295902
168	0x3c618097	0.013763568
169	0x3db7abf5	0.08968345
170	0xbee69b75	-0.4504048
171	0xbeda6657	-0.42656204
172	0xbd43ee2b	-0.047834557
173	0xbd828714	-0.0637342
174	0xbe8e2baf	-0.27767703
175	0xbcdad013	-0.026710546
176	0x3b21cf01	0.0024690034
177	0xbe829413	-0.25503597
178	0xbe62e494	-0.22157508
179	0xbe6f0949	-0.23343386
180	0x3e6108cb	0.2197601
181	0xbe39c3f0	-0.1814115
182	0xbee29519	-0.44254377
183	0xbe6dca8b	-0.23221795
184	0xbd63bd73	-0.055600595
185	0x3e2996d5	0.16561444
186	0xbf1eafe9	-0.6198717
187	0x3e963093	0.29333934
188	0xbd0439c3	-0.03228165
189	0xbf12b1a0	-0.57302284
190	0x3c3564c1	0.011071385
191	0xbeabf0d6	-0.3358218
192	0xbb0be954	-0.0021348791
193	0xbbaa03e8	-0.005188454
194	0xbe976321	-0.29567817
195	0x3d9dcd9a	0.07705231
196	0x3d0b8366	0.03406086
197	0xbdc2fecf	-0.09521257
198	0xbe789ce7	-0.24278603
199	0xbee7715a	-0.45203668

l3.weight f4 [4, 200]
0	0x3ee69bf9	0.45040873
1	0x3f49c77b	0.7882001
2	0xbf35f726	-0.71080244
3	0xbe2d5020	-0.16925097
4	0x3cce6be1	0.025197925
5	0xbf1f5528	-0.62239313
6	0xbd269b68	-0.04067555
7	0x3ec68c96	0.38779134
8	0xbea56029	-0.32299927
9	0x3c3760eb	0.011192541
10	0xbf237508	-0.6385045
11	0xbf321fc7	-0.6957974
12	0x3c1292f0	0.008946165
13	0xbe1764c5	-0.14784534
14	0xbc98ff10	-0.01867631
15	0xbd8ca8f3	-0.06868162
16	0xbd19a719	-0.037512872
17	0x3f01a0da	0.50636065
18	0xbea4f53e	-0.32218355
19	0xbee8398d	-0.45356408
20	0x3ffac01e	1.958988
21	0xbf173797	-0.590692
22	0x3fc1505f	1.5102652
23	0xbd825222	-0.06363322
24	0xbeb2e2f9	-0.3493879
25	0x3c83ffb7	0.016113145
26	0x3c2509bb	0.010073121
27	0x3ef8f414	0.48623717
28	0xbee51d0e	-0.4474873
29	0xbc0f5df1	-0.008750425
30	0xbf0a0a85	-0.539223
31	0xbb85924a	-0.004076277
32	0x3c9db454	0.019251026
33	0x3d1ea72e	0.038733654
34	0x3d5c7e08	0.05383113
35	0x3c5fe9d9	0.0136665935
36	0x3d2c4f41	0.04206777
37	0x3cc30e14	0.023810424
38	0xbf2b098c	-0.6681144
39	0xbe9fbd4c	-0.3119911
40	0xbeb5db41	-0.3551884
41	0xbf1701d0	-0.5898714
42	0x3cc418dc	0.023937635
43	0xbebe1266	-0.37123412
44	0xbe7fa93f	-0.24966906
45	0xbf53c91f	-0.8272876
46	0xbf1cb89c	-0.6121919
47	0x3f4a43bb	0.790096
48	0xbe93a118	-0.28833842
49	0xbcaecb59	-0.021337198
50	0xbe35d943	-0.1775866
51	0xbe939eb6	-0.28832024
52	0xbf13d4b5	-0.5774644
53	0xbf0890e5	-0.5334609
54	0xbefe2995	-0.496411
55	0xbed75977	-0.42060444
56	0xbc48bb9f	-0.012251764
57	0xbf24110e	-0.64088523
58	0x3d4def82	0.05027724
59	0x3ca456ac	0.02006086
60	0xbebbc8c0	-0.36676598
61	0xbeb67288	-0.35634255
62	0xbf4c9070	-0.79907894
63	0x3e959b02	0.29219824
64	0xbf6ee0e7	-0.93311924
65	0x3eaaf3f4	0.33389246
66	0xbea4e35e	-0.32204717
67	0x3e02a538	0.12758338
68	0xbe328d4f	-0.17436717
69	0xbd51dbc0	-0.05123496
70	0x3f4c5268	0.7981324
71	0xbd2faf18	-0.04289159
72	0xbf2135a4	-0.62972474
73	0xbeb4702d	-0.35241833
74	0x3d72e62c	0.05930154
75	0x3ee5ee08	0.44908166
76	0xbeea347d	-0.4574317
77	0xbec5a71a	-0.3860405
78	0x3f0be409	0.5464483
79	0x3f1bb08f	0.6081628
80	0x3f51dcde	0.8197764
81	0x3c949200	0.018136024
82	0xbe865323	-0.26235303
83	0x3d1acbb0	0.037791908
84	0xbe3e0378	-0.1855601
85	0xbee1b28f	-0.44081542
86	0x3edc638d	0.430447
87	0xbf4c933c	-0.7991216
88	0xbef822e8	-0.4846413
89	0xbd8019a6	-0.06254892
90	0xbe84b6a4	-0.25920594
91	0xbb8ed089	-0.0043583554
92	0x3ece2a97	0.40266868
93	0x3f386914	0.72035336
94	0xbbc6ff44	-0.0060729105
95	0xbf8bec09	-1.0931407
96	0xbf2393a2	-0.63897145
97	0x3c8934cb	0.016748806
98	0xbf630fdb	-0.8869607
99	0xbbb11b8b	-0.0054048947
100	0x3d595b3d	0.053065527
101	0x3d6874d5	0.056752045
102	0xbf28efa5	-0.6599067
103	0xbf2df64c	-0.67953944
104	0x3e658635	0.22414477
105	0x3d300b61	0.0429796
106	0x3eb076e5	0.3446571
107	0xbf1f001e	-0.62109554
108	0x3db518f1	0.08842648
109	0x3c97187a	0.018444289
110	0x3d44e224	0.048067227
111	0x3f157d1a	0.58394015
112	0xbd5123b6	-0.051059447
113	0x3effeeb7	0.49986812
114	0xbc7b3498	-0.015332364
115	0x3c64018f	0.013916387
116	0xbee5f283	-0.44911584
117	0x3e45237e	0.1925182
118	0xbd82a12f	-0.063783996
119	0x3d7c703e	0.06163048
120	0xbf06ea5d	-0.5270136
121	0x3cd5c6f7	0.02609585
122	0x3e660a40	0.22464848
123	0xbefa6fb7	-0.48913357
124	0xbf4e671a	-0.8062607
125	0xbd8a05f9	-0.067394204
126	0x3db033b8	0.086036146
127	0x3d11334c	0.03544931
128	0xbedadf12	-0.42748314
129	0xbd6c52c8	-0.057696134
130	0x3eef6938	0.46759963
131	0xbebe620f	-0.37184188
132	0x3c532001	0.012886048
133	0xbee49c13	-0.44650325
134	0x3d82d992	0.063891545
135	0xbf2a2d37	-0.6647524
136	0x3cb4ac6e	0.022054877
137	0x3e9babb9	0.3040445
138	0x3ed00422	0.40628153
139	0x3d5fa2d6	0.05459865
140	0xbe59e3b3	-0.21278267
141	0xbf041e41	-0.51608664
142	0xbebeac16	-0.37240666
143	0xbef67afc	-0.48140705
144	0x3e9e32f7	0.30898258
145	0x3d7f7baa	0.062373795
146	0xbee3160b	-0.44352755
147	0xbeeb62ce	-0.4597382
148	0xbe925721	-0.285821
149	0x3d077da1	0.033078793
150	0xbd67e63b	-0.05661605
151	0x3d854112	0.06506552
152	0x3e87bb2a	0.26509982
153	0xbf172d7d	-0.59053785
154	0xbef21da7	-0.47288248
155	0x3a30affb	0.00067400903
156	0xbf8cb404	-1.0992436
157	0x3d3dc4be	0.046330206
158	0x3d782a0d	0.060586978
159	0x3d58d1d8	0.052934498
160	0x3d9b330c	0.07578096
161	0x3e9470b9	0.2899225
162	0x3ed186a8	0.40923047
163	0xbe60fe7d	-0.2197208
164	0xbedc1103	-0.4298173
165	0xbf76deef	-0.9643392
166	0xbc106880	-0.008813977
167	0xbeab1fd5	-0.33422723
168	0xbc6a0420	-0.01428321
169	0xbede2c2d	-0.43393078
170	0xbf0692fc	-0.5256803
171	0xbf880f81	-1.0629731
172	0x3cc525b6	0.024065834
173	0x3b2d6378	0.0026456993
174	0x3eb9006f	0.36133143
175	0xbd722fde	-0.05912768
176	0xbebaf819	-0.36517408
177	0xbf13a120	-0.5766773
178	0xbf1f5567	-0.6223969
179	0x3d641eda	0.055693485
180	0x3f404fcb	0.75121754
181	0xbf029c87	-0.5102009
182	0xbf0dc447	-0.5537762
183	0xbf266e53	-0.6501209
184	0xbecc99d3	-0.3996111
185	0x3ed2d559	0.41178396
186	0xbee2a465	-0.44266048
187	0x3efc58c6	0.4928648
188	0x3c7c0922	0.015383037
189	0xbf075bb8	-0.52874327
190	0x3c208a41	0.009798587
191	0xbf001c42	-0.5004312
192	0xbe01794e	-0.1264393
193	0xbe85aa7a	-0.26106626
194	0x3f8ca1fa	1.0986931
195	0xbed00c05	-0.4063417
196	0x3d4f5344	0.050616518
197	0xbf461e3b	-0.7738988
198	0xbf5320b1	-0.8247176
199	0xbf52b47b	-0.8230664
200	0x3f0342d7	0.51273865
201	0x3f492c7d	0.7858351
202	0xbf72c184	-0.9482653
203	0xbf178e39	-0.5920139
204	0xbc5eb5a0	-0.013593107
205	0xbf4fb7d4	-0.81139874
206	0x3d421f64	0.047393218
207	0x3ed4e978	0.41584373
208	0xbe78e633	-0.24306564
209	0xbd578c70	-0.052624166
210	0xbf3257f0	-0.6966543
211	0xbefe4e27	-0.49669
212	0x3d0d37c0	0.034476995
213	0xbeb4c60d	-0.3530735
214	0x3f4f0018	0.8085952
215	0xbdfaf695	-0.12254063
216	0xbd6d0c20	-0.05787289
217	0x3edac516	0.4272849
218	0xbdc6bf0f	-0.0970441
219	0xbef35e0b	-0.47532687
220	0x40096371	2.1466944
221	0xbf17f52b	-0.5935847
222	0x3fed77aa	1.8552144
223	0x3ca6dc32	0.02036867
224	0xbed5ba8d	-0.4174389
225	0x3d2aef38	0.041732043
226	0xbd0b6100	-0.034028053
227	0x3f06d138	0.5266299
228	0xbe74ab67	-0.2389351
229	0x3d0cc525	0.0343677
230	0xbef5e90e	-0.4802937
231	0x3d32db25	0.043666024
232	0x3c84e6c4	0.016223319
233	0x3e8c709a	0.27429658
234	0x3d6c5dff	0.05770683
235	0xbc81facf	-0.015866665
236	0x3d6b9bc3	0.057521593
237	0x3d883422	0.066505685
238	0xbea7a3f6	-0.3274228
239	0xbeb9cb7a	-0.36288053
240	0xbee7e57a	-0.45292264
241	0xbf63a3a4	-0.8892157
242	0xbd03f6cd	-0.03221779
243	0xbe98f0ce	-0.2987122
244	0xbeb3352a	-0.35001498
245	0xbf82ad1e	-1.0209081
246	0x3dd87c46	0.10570578
247	0x3f2ea3dc	0.6821878
248	0xbed2ba6d	-0.41157857
249	0xbb354031	-0.002765667
250	0xbe0adda6	-0.13561115
251	0xbf01d5a5	-0.5071662
252	0xbf16eb19	-0.5895248
253	0xbe683968	-0.22678149
254	0xbed91452	-0.42398316
255	0xbed9e7c6	-0.42559642

l3.bias f4 [4]
0	0x3e20ce89	0.15703787
1	0x3e5eec6b	0.21769874
2	0x3e4b49f1	0.19852425
3	0x3e4b350e	0.19844458
