fin/DQN/agent-300-10-495/target_model.pt (torch, 340543 bytes, 6 tensors)

l1.weight f4 [400, 8]
1.0033532 -0.24897364 0.5098989 -0.2529596 -0.61090016 0.142457 -0.0033719884 0.07109925
0.40103683 -0.18358229 -0.22259937 -0.23526566 -0.28106508 -0.18920472 -0.20124719 0.008897011
-0.33226514 -0.3575101 -1.0200037 0.5754444 0.20733148 -0.42068443 -0.022272449 -0.37278634
-0.7030218 -0.5806023 0.106358565 -0.6880973 0.7832144 -0.6244549 -0.115644194 -0.0069071315
-0.16355474 0.38256037 0.41071352 0.5138139 0.45016214 0.12410705 0.05319521 -0.10245371
-0.09483576 -0.11335776 0.3989989 -0.30770397 0.10929821 -0.1912149 0.11614281 0.027426241
-0.06161893 -0.32723027 -0.26574463 -0.008393884 0.49494183 0.35541478 0.4287148 0.17005655
0.8230879 0.11545862 0.19490337 0.66746384 0.33932334 -0.77780133 -0.7076115 -0.4548917
0.08721375 -0.14109337 -0.15489891 -0.07060558 -0.38283885 -0.0950957 -0.0068317372 -0.21358041
-0.21428235 -0.66922414 0.79743975 0.03496805 -0.39772364 -0.27623433 0.5697889 -0.5079688
-0.9712248 -0.6189104 0.06972766 0.32315254 -0.85001737 0.76966643 -0.15769778 0.15789148
0.1115889 -0.050719094 1.044848 0.23875964 0.5507235 0.4576522 -0.0878795 -0.09373079
-0.5749839 -0.16548528 0.1783001 -0.18165989 -0.43657854 -0.36900097 -0.71107924 -0.25980714
0.4189256 -0.22541869 -0.53413916 -0.59996337 1.3942511 0.7253699 0.009632027 0.25385815
0.44385442 0.09259882 0.09553367 0.2152994 -0.6206889 -0.6557457 -1.5428855 -0.2635343
0.05170456 -0.69861454 -0.32966676 -0.9157522 0.59561104 1.06983 0.0025901366 -0.76171046
-0.25685513 0.4099149 0.12731242 -0.24748155 0.2959757 0.33488315 -0.51898134 0.0775784
0.33828872 0.021365212 -1.037837 0.7033538 -0.66053146 0.023373082 0.33193168 0.34977838
-0.52857196 -0.72972953 0.3927263 0.6939151 -1.3697556 -0.28774044 -1.1027167 0.45871228
-0.46596736 0.1795516 0.38757566 0.44911432 0.01734921 -0.95450974 -0.46186432 -0.53731924
-0.96467847 -0.20645608 -1.0317557 -0.20220584 0.8177052 0.33639106 0.44770968 -0.6458319
0.15358676 0.52498317 -0.4582264 -0.39913648 -0.11921367 -0.6116621 -0.66559786 -0.008598453
0.509756 -0.4514205 0.48768446 -0.9978356 -0.39499876 -0.4079766 -0.94766736 0.41414508
-0.39254305 0.21839567 0.42692655 0.6184905 -0.1970267 0.4517483 0.2475133 0.7488516
0.2895811 -0.14753176 0.33263075 0.41039145 0.53751355 -0.39427555 -0.4020656 -0.47067162
0.34770864 0.10245378 0.117339976 -0.15113473 0.69310355 0.9069454 -0.83684736 0.16177782
-0.72039837 0.095603235 -0.42558944 -0.020570265 0.6154081 -0.41340572 0.014132537 -0.12513116
0.054817487 -0.05475108 -0.5810812 0.54035586 -0.49639153 -0.1406257 -0.24588962 -0.1371049
0.41426292 -0.106872484 -0.37671238 -0.69037366 -0.32131723 0.25727662 0.25111037 -0.91794145
0.309674 0.13862383 -0.37282526 0.29081753 0.6652437 0.47178358 0.15841664 -0.27872828
0.17294285 -0.1565574 0.8672613 0.039432187 -0.7115774 0.034625214 -0.09684388 0.7351965
0.061807077 0.3770944 0.1280732 0.029350009 0.17973554 0.7831568 -0.25116664 -0.6010424
00000000: e16d 803f f2f2 7ebe bc88 023f ec83 81be
00000010: f463 1cbf 3fe0 113e 94fc 5cbb 7c9c 913d
00000020: b354 cd3e fffc 3bbe 17f1 63be 7be9 70be
00000030: c3e7 8fbe e2be 41be be13 4ebe c5c4 113c
00000040: a81e aabe 900b b7be 7b8f 82bf 5350 133f
00000050: b44e 543e f363 d7be b674 b6bc dadd bebe
00000060: 3df9 33bf 5aa2 14bf 85d2 d93d 2527 30bf
00000070: bd80 483f 47dc 1fbf ddd6 ecbd 3855 e2bb
00000080: e57a 27be f4de c33e 0b49 d23e 4f89 033f
00000090: a77b e63e d62b fe3d 38e3 593d 40d3 d1bd
000000a0: 4039 c2bd 1d28 e8bd 9549 cc3e 608b 9dbe
000000b0: bdd7 df3d d7cd 43be 48dc ed3d ffac e03c
000000c0: 2264 7cbd ba8a a7be ae0f 88be 8086 09bc
000000d0: 0469 fd3e edf8 b53e 8280 db3e 4e23 2e3e
000000e0: e3b5 523f 9275 ec3d c094 473e e9de 2a3f
000000f0: cabb ad3e fd1d 47bf 0726 35bf 91e7 e8be
00000100: 1f9d b23d c87a 10be d29d 1ebe a999 90bd
00000110: 7403 c4be 89c1 c2bd c4dc dfbb d3b4 5abe
00000120: d56c 5bbe 4652 2bbf 0325 4c3f a83a 0f3d
00000130: 6fa2 cbbe 966e 8dbe afdd 113f 3e0a 02bf
00000140: 30a2 78bf e970 1ebf 60cd 8e3d 4074 a53e
00000150: bd9a 59bf dc08 453f 877b 21be 4eae 213e
00000160: b988 e43d d3be 4fbd 94bd 853f 687d 743e
00000170: 37fc 0c3f 6451 ea3e 2bfa b3bd eef5 bfbd
00000180: 2532 13bf f974 29be 4d94 363e 0d05 3abe
00000190: 3987 dfbe b2ed bcbe 4a09 36bf 7105 85be
000001a0: 6b7d d63e 28d4 66be 58bd 08bf 3397 19bf
000001b0: d276 b23f d7b1 393f a6cf 1d3c b2f9 813e
000001c0: e340 e33e 73a4 bd3d 28a7 c33d 7277 5c3e
000001d0: 78e5 1ebf f3de 27bf 467d c5bf f8ed 86be
000001e0: 29c8 533d 67d8 32bf 15ca a8be bc6e 6abf
000001f0: f779 183f 30f0 883f 48bf 293b 75ff 42bf
00000200: 8482 83be 5ee0 d13e 305e 023e ce6b 7dbe
00000210: 208a 973e ce75 ab3e f6db 04bf 6de1 9e3d
00000220: 2e34 ad3e 1906 af3c d8d7 84bf ff0e 343f
00000230: 9718 29bf e878 bf3c f3f2 a93e 2716 b33e
00000240: 7e50 07bf 8ecf 3abf 6c13 c93e 6ca4 313f
00000250: 2754 afbf b752 93be d225 8dbf 56dc ea3e
00000260: 4693 eebe 60dc 373e 5170 c63e 50f2 e53e
00000270: ee1f 8e3c c05a 74bf 7b79 ecbe c18d 09bf
00000280: 2bf5 76bf 3969 53be 9210 84bf 0c0f 4fbe
00000290: 2155 513f 733b ac3e 343a e53e 3d55 25bf
000002a0: d945 1d3e 4c65 063f a79c eabe 9e5b ccbe
000002b0: 4c26 f4bd e395 1cbf 9f64 2abf 87e0 0cbc
000002c0: 5f7f 023f 9620 e7be c7b1 f93e 2772 7fbf
000002d0: 473d cabe 4fe2 d0be 549a 72bf d30a d43e
000002e0: 67fb c8be 1da3 5f3e 1e96 da3e 6555 1e3f
000002f0: 5ec1 49be 8e4b e73e 2074 7d3e bdb4 3f3f
00000300: f943 943e 9112 17be 944e aa3e d41e d23e
00000310: 7d9a 093f 7cde c9be 8bdb cdbe dffb f0be
00000320: de06 b23e 4ad3 d13d f14f f03d 10c3 1abe
00000330: 3c6f 313f 932d 683f a13b 56bf 16a9 253e
00000340: 076c 38bf a1cb c33d dce6 d9be f982 a8bc
00000350: 638b 1d3f eaa9 d3be 288c 673c 6222 00be
00000360: 4d88 603d ab42 60bd bdc1 14bf c354 0a3f
00000370: 0827 febe 2f00 10be 7dca 7bbe 3a65 0cbe
00000380: 451a d43e f6df dabd 72e0 c0be 54bc 30bf
00000390: b183 a4be c3b9 833e 8a91 803e 36fe 6abf
000003a0: 978d 9e3e 68f3 0d3e f4e2 bebe 09e6 943e
000003b0: 694d 2a3f 9e8d f13e f937 223e 79b5 8ebe
000003c0: ee17 313e 9550 20be d604 5e3f a583 213d
000003d0: f029 36bf 2bd3 0d3d 1656 c6bd d635 3c3f
000003e0: 6b29 7d3d 8412 c13e 9f25 033e 6e6f f03c
000003f0: 980c 383e f77c 483f ea98 80be eadd 19bf

l1.bias f4 [400]
-0.040416587 0.3163728 -0.50625694 0.22683108 0.50252134 0.22228257 -0.61374736 -0.5767625
0.14984806 -0.28905925 0.16188814 -0.2064607 0.2084667 -0.03343145 0.5245036 -0.50452983
-0.13796261 -0.2309126 -0.5717932 -0.0017020406 0.07571909 -0.3586377 -0.20198159 -0.5683109
0.23582734 0.17003323 -0.2486759 -0.85227233 -0.13926949 -0.52514595 -0.12023381 0.29384658
0.24350654 -0.65837026 -0.4620403 -0.756455 0.00041364058 -0.54095423 -0.0110893445 0.53614277
0.2523906 -0.4532413 -0.5134736 -0.029433506 0.16666543 0.23073041 0.26166922 -0.20080382
-0.4869938 -0.26600498 -0.14588816 -0.8126702 0.23082872 -0.4982736 -0.0671349 0.22678675
-0.75859046 -0.62791914 -0.14287113 -0.24629785 -0.114973105 0.47867644 -0.6894902 -0.8069803
-0.5683147 0.060865045 -0.4519487 -0.2751122 -0.07653808 0.056792732 -0.30603802 -0.42783287
-0.013590869 -0.6010774 0.50373185 -0.5891711 -0.67797214 -0.35743478 -0.28378317 -0.03234863
0.22745426 0.14683986 0.48891953 -0.93218625 -0.40558952 0.0767288 -0.37401703 -0.092676476
0.24035066 -0.42400783 -0.06919331 0.21297687 0.18854028 -0.09564756 0.51899767 0.2478
-0.6823782 0.25485337 -0.530345 -0.81923217 -0.59848696 0.1654598 0.18782058 -0.537958
0.45030916 -0.6045602 -0.6399485 -0.34381106 -0.024352286 -0.11688258 -0.40419528 -0.35545528
-0.050318386 -0.19218166 -0.40118143 -0.037762925 -0.00516149 0.11228584 -0.5287378 -0.21867895
0.22957413 -0.12464228 0.13058402 -0.55307883 -0.8857898 -0.42919967 -0.69224256 -0.23097679
-0.46892294 -0.024109315 -0.6812479 0.11518898 0.28239632 6.1713e-05 -0.38444427 0.2556817
0.30844027 -0.4468358 -0.33711872 -0.0071605793 0.41857862 -0.54326516 -0.50336885 0.044613574
-0.70231944 0.4889066 -0.53542805 0.31303263 -0.67333627 -0.009736672 0.28316012 -0.47239777
-0.47895807 -0.13626453 -0.222422 0.36303893 -0.64254946 -0.25398234 -0.4679331 -0.47165403
0.3878964 -0.6997262 -0.45413905 -0.7124682 -1.039005 -0.5185484 0.17341436 0.34952343
-0.45649204 0.108127 -0.69441867 -0.73489827 -0.024881737 0.021564031 0.2421589 -0.70862937
0.41948637 0.047845133 -0.48561934 0.28828683 -0.4210791 -0.77287126 0.14763767 -0.39379734
-0.524326 -0.05511874 0.34284565 0.027756196 -0.5590399 -0.3958493 -0.013909746 -0.69364786
-0.79080886 -0.015801735 -0.4037615 -0.21425216 -0.30925962 0.056001693 0.5073707 0.5286747
-0.0019798202 0.38470265 -0.31385764 0.32912707 -0.24527358 0.3816974 0.13122363 -0.5690832
-0.37198308 -0.03141317 -0.43369162 -0.009290115 -0.5747293 -0.80937266 -0.11572301 0.3350057
0.052201003 -0.6961147 -0.4167929 0.5969437 -0.124807484 -0.44096932 -0.44471562 0.44889063
0.51200974 -0.0016886087 -0.5551884 0.25575528 -0.5474422 -0.016434846 -0.68771905 -0.5253789
-0.4399085 -0.010370358 -0.22534236 0.16250545 0.057364676 0.40675822 -0.40301123 -0.6083152
-0.45786902 -0.75676394 0.10303042 -0.7784049 -0.43642116 0.20357394 -0.22933209 0.11738363
-0.012134163 0.43629402 0.46376434 0.39495304 -0.149977 -0.6624185 -0.6707461 -0.87825876
00000000: dd8b 25bd 9efb a13e 0e9a 01bf 6846 683e
00000010: 3da5 003f 0b9e 633e 8c1e 1dbf b5a6 13bf
00000020: c571 193e 93ff 93be 01c6 253e 6f6a 53be
00000030: 4b78 553e 6bef 08bd de45 063f de28 01bf
00000040: 1246 0dbe 5a74 6cbe 0a61 12bf 0117 dfba
00000050: 9c12 9b3d 5c9f b7be 43d4 4ebe d37c 11bf
00000060: b97c 713e 311d 2e3e e5a4 7ebe 852e 5abf
00000070: a99c 0ebe f76f 06bf 253d f6bd 0f73 963e
00000080: c759 793e f48a 28bf 8c90 ecbe 09a7 41bf
00000090: e6dd d839 fa7b 0abf 15b0 35bc a740 093f
000000a0: 5739 813e 3e0f e8be 0173 03bf 891e f1bc
000000b0: 58aa 2a3e 9844 6c3e 82f9 853e 849f 4dbe
000000c0: 4057 f9be ce31 88be b563 15be 270b 50bf
000000d0: 5d5e 6c3e b81d ffbe 067e 89bd c93a 683e
000000e0: fc32 42bf 4fbf 20bf cf4c 12be 8135 7cbe
000000f0: 0577 ebbd 1415 f53e 6e82 30bf 4396 4ebf
00000100: 127d 11bf a04d 793d d265 e7be 82db 8cbe
00000110: ffbf 9cbd 7f9f 683d 04b1 9cbe e90c dbbe
00000120: 3cac 5ebc 35e0 19bf 92f4 003f ebd3 16bf
00000130: 958f 2dbf b101 b7be 074c 91be ff7f 04bd
00000140: c5e9 683e 305d 163e a953 fa3e c2a3 6ebf
00000150: 6ea9 cfbe fd23 9d3d 297f bfbe 2acd bdbd
00000160: 7c1e 763e 8e17 d9be 39b5 8dbd 9c16 5a3e
00000170: b410 413e dee2 c3bd 08dd 043f 48bf 7d3e
00000180: 56b0 2ebf 247c 823e b1c4 07bf 33b9 51bf
00000190: 7136 19bf 4b6e 293e 0a54 403e 9eb7 09bf
000001a0: ec8e e63e 75c4 1abf aad3 23bf 0108 b0be
000001b0: 727e c7bc 2260 efbd aff2 cebe 3cfe b5be
000001c0: a71a 4ebd 45cb 44be a767 cdbe 4cad 1abd
000001d0: b721 a9bb 1ef6 e53d 5c5b 07bf 60ed 5fbe
000001e0: 7b15 6b3e 7444 ffbd d1b7 053e 9396 0dbf
000001f0: 1fc3 62bf 0fc0 dbbe cf36 31bf 2e85 6cbe
00000200: ab16 f0be e680 c5bc 4366 2ebf 33e8 eb3d
00000210: 4096 903e ea6b 8138 e1d5 c4be b6e8 823e
00000220: e2eb 9d3e a9c7 e4be d39a acbe 4ba3 eabb
00000230: f04f d63e 6d13 0bbf c8dc 00bf b9bc 363d
00000240: 35cb 33bf f751 fa3e d011 09bf d045 a03e
00000250: c45f 2cbf 9086 1fbc 5dfa 903e 1fde f1be
00000260: fe39 f5be ee88 0bbe 98c2 63be 3de0 b93e
00000270: 1f7e 24bf f909 82be ed94 efbe a37c f1be
00000280: 5b9a c63e 4221 33bf ea84 e8be 5164 36bf
00000290: 1efe 84bf 97bf 04bf 8993 313e bcf4 b23e
000002a0: 53b9 e9be b071 dd3d 6cc5 31bf 4b22 3cbf
000002b0: c9d4 cbbc 0da7 b03c 81f8 773e bc68 35bf
000002c0: ebc6 d63e 42f9 433d 19a3 f8be 559a 933e
000002d0: ae97 d7be e4da 45bf 542e 173e ce9f c9be
000002e0: 3b3a 06bf 30c4 61bd 7789 af3e f660 e33c
000002f0: 3d1d 0fbf c2ac cabe b4e5 63bc e892 31bf
00000300: 7372 4abf a472 81bc d4b9 cebe eb64 5bbe
00000310: 4757 9ebe 0862 653d 0ce3 013f 3a57 073f
00000320: dfbf 01bb bff7 c43e f3b1 a0be 5883 a83e
00000330: ff28 7bbe d76d c33e 7d5f 063e 70af 11bf
00000340: 9174 bebe 19ab 00bd d40c debe 9135 18bc
00000350: 7621 13bf 0c33 4fbf 2f00 edbd de85 ab3e
00000360: b8d0 553d 9334 32bf e165 d5be 4dd1 183f
00000370: 119b ffbd bbc6 e1be c4b1 e3be fed4 e53e
00000380: 1213 033f 4e54 ddba d420 0ebf 5bf2 823e
00000390: 2c25 0cbf 5fa2 86bc 5b0e 30bf 3b7f 06bf
000003a0: b03b e1be 6fe8 29bc 26c0 66be d467 263e
000003b0: 39f7 6a3d 9d42 d03e 7d57 cebe 8cba 1bbf
000003c0: cf6d eabe 48bb 41bf 9d01 d33d 8b45 47bf
000003d0: 9872 dfbe b075 503e 08d6 6abe d466 f03d
000003e0: 5ece 46bc ee61 df3e 8572 ed3e 4937 ca3e
000003f0: 9293 19be 4294 29bf 04b6 2bbf 91d5 60bf

l2.weight f4 [200, 400]
-0.5396919 0.04210359 -0.923645 0.12208713 0.064200595 -0.057808768 -0.24729212 -0.1677443
-0.03363704 -0.8078669 0.047638886 -0.5176654 -0.16783756 0.3513494 0.1124262 -0.76828784
0.22568631 -0.10329253 1.1457349 0.12357893 -0.73506975 0.22276087 -0.4462748 -0.59481937
0.14998491 0.20867656 0.0031075003 -0.03735614 -0.13066 -0.0015729157 -0.5192087 0.22325476
0.2221858 -0.6230601 0.3330237 -0.7668001 0.7298378 -0.09687965 -0.6436347 0.16317053
-0.22729596 -0.07424977 0.66966593 0.48765707 -0.05480258 0.27087456 -0.09187272 0.17189743
-0.64064467 0.3788216 -0.2798358 -0.23829332 -0.2724884 -0.0077335737 -0.13065964 -0.106693596
-0.4214413 -0.37423393 -0.22650607 0.04143089 0.1473627 0.061617896 -0.40324804 -0.89171714
0.07612623 0.023302432 0.7385525 0.22934134 0.35357928 -0.25092635 -0.25144565 -0.16034241
0.47406176 -0.40354517 0.17396809 -0.7830405 -0.7026324 0.2913762 0.0036001552 0.021612467
0.540384 0.31792867 0.19842064 0.25396252 0.46439165 0.041156806 -0.43967745 -0.6208868
0.21506044 -0.7727377 -0.23095699 0.46030447 0.086693734 -0.3591503 0.1842816 0.022714777
-0.24112722 0.13526861 0.19203015 -0.23263629 -0.49337974 0.16318955 -0.23691559 -0.19780329
-0.18135567 -1.0724894 0.37872195 -0.38064972 0.1423139 0.14989494 0.72925043 -0.13413882
-0.046480257 0.1611796 -0.32857063 -0.28672284 0.5612526 0.37692687 0.4252806 -0.06433051
-0.12018079 0.14822015 0.31388947 0.381831 -0.35089502 -0.5353024 -0.60466313 -0.28360483
-0.6109168 -0.5181641 -1.0271405 -0.03128931 -0.07620787 0.81371266 0.47281978 0.1204167
0.10248454 0.37931427 0.35313398 0.6436933 -0.0062349266 -0.17841455 -0.26282215 0.29014638
0.42001337 0.40493876 -0.6375715 0.2296215 -0.55558723 0.5452259 -0.022339089 -0.47373813
0.25711438 0.23355538 0.12863928 0.28235564 -0.12435291 -0.17937014 0.7090955 -0.2864873
0.0728305 0.5141849 0.5764824 -0.4092841 -0.6714008 0.028155148 -0.25404254 0.04141938
-0.067945845 0.28590065 0.16333945 -0.391254 0.32323858 0.09155385 -0.22104488 0.57737136
0.3511767 0.32851252 -0.8495573 0.03874351 -0.6195749 -0.17448145 -0.0472887 -0.41324764
-0.20935525 0.5976384 -0.22174197 -0.751471 0.22247274 0.37910476 -0.6448837 -0.365418
-0.103272215 0.47854564 -0.12123633 -0.076210685 0.14342777 0.010284438 -0.20670344 0.3690061
-0.5077376 0.48970547 0.35997215 -0.0538765 0.12902658 -0.018187743 0.09147306 -0.48166096
0.57512873 1.0820662 -0.20616092 0.31768546 -0.0007295755 -1.2303811 -0.11507038 0.012648152
-0.26797158 -0.5760397 0.24790055 0.19919482 0.1438113 -0.7007853 0.15412794 0.15022148
0.12695383 0.831561 -0.50330764 0.28059092 -1.0145142 0.4704866 -0.3247816 -0.34860858
-0.31455857 0.4004228 -0.1674572 0.16242516 -0.018956134 -0.13237287 -0.0024078102 -0.8964632
0.16407016 -0.27371913 0.075129755 -0.5867503 -0.15009059 0.17916225 0.47996783 0.010773437
1.0089519 0.46020073 0.0976841 0.19589159 -0.42767 -0.17673177 0.4514557 -1.1049845
00000000: 4029 0abf d074 2c3d 0074 6cbf d108 fa3d
00000010: 9a7b 833d e3c8 6cbd 253a 7dbe 29c5 2bbe
00000020: fec6 09bd 5dd0 4ebf fe20 433d b885 04bf
00000030: 9cdd 2bbe 12e4 b33e b53f e63d 83ae 44bf
00000040: 501a 673e 098b d3bd 71a7 923f f316 fd3d
00000050: 882d 3cbf 6d1b 643e 217e e4be 1546 18bf
00000060: a595 193e 4faf 553e 34a7 4b3b c002 19bd
00000070: bccb 05be 4b2a ceba ddea 04bf e59c 643e
00000080: ad84 633e de80 1fbf 1582 aa3e 034d 44bf
00000090: a6d6 3a3f d768 c6bd 3ec5 24bf 2d16 273e
000000a0: 46c0 68be 4310 98bd 3a6f 2b3f 30ae f93e
000000b0: ac78 60bd 12b0 8a3e c427 bcbd e105 303e
000000c0: 4a01 24bf e8f4 c13e a346 8fbe 2a03 74be
000000d0: 9983 8bbe eb69 fdbb a4cb 05be 2c82 dabd
000000e0: 27c7 d7be 979b bfbe 35f1 67be 70b3 293d
000000f0: 3fe6 163e 0c63 7c3d 8776 cebe 9347 64bf
00000100: 12e8 9b3d bee4 be3c c711 3d3f 75d8 6a3e
00000110: 5808 b53e 6b79 80be 7cbd 80be cd30 24be
00000120: 39b8 f23e 799d cebe b124 323e 5875 48bf
00000130: b8df 33bf 432f 953e 95f0 6b3b a10c b13c
00000140: 9b56 0a3f 8cc7 a23e c82e 4b3e 6007 823e
00000150: bec4 ed3e 0a94 283d 671d e1be 70f2 1ebf
00000160: ce38 5c3e 23d2 45bf fd7f 6cbe 07ad eb3e
00000170: 7c8c b13d 8ce2 b7be 51b4 3c3e 5714 ba3c
00000180: 0eea 76be db83 0a3e 8da3 443e 3538 6ebe
00000190: 459c fcbe 291b 273e 009a 72be f28c 4abe
000001a0: 4db5 39be 5547 89bf d8e7 c13e 85e4 c2be
000001b0: bcba 113e 0f7e 193e 28b0 3a3f b05b 09be
000001c0: 1562 3ebd 440c 253e 693a a8be 56cd 92be
000001d0: 40ae 0f3f 8ffc c03e 61be d93e b7bf 83bd
000001e0: 5921 f6bd 06c7 173e 1fb6 a03e 5a7f c33e
000001f0: 83a8 b3be 9409 09bf 34cb 1abf a734 91be
00000200: 0b65 1cbf 67a6 04bf 5779 83bf 3829 00bd
00000210: df12 9cbd 794f 503f 6f15 f23e 089d f63d
00000220: 6ae3 d13d 7b35 c23e facd b43e 16c9 243f
00000230: 5b4e ccbb 4eb2 36be a090 86be 118e 943e
00000240: fe0b d73e 2254 cf3e e337 23bf e621 6b3e
00000250: f73a 0ebf ed93 0b3f 7700 b7bc ce8d f2be
00000260: 7fa4 833e 2429 6f3e 04ba 033e eb90 903e
00000270: bdac febd ceac 37be 4887 353f 77ae 92be
00000280: 2828 953d 9fa1 033f 5a94 133f b08d d1be
00000290: ece0 2bbf a0a5 e63c dd11 82be 5ea7 293d
000002a0: 3127 8bbd 9261 923e 7542 273e 7252 c8be
000002b0: 877f a53e 9680 bb3d 9759 62be 9cce 133f
000002c0: 6fcd b33e cb32 a83e 967c 59bf 84b1 1e3d
000002d0: 769c 1ebf 44ab 32be ccb1 41bd 3295 d3be
000002e0: 3961 56be d5fe 183f 5410 63be 6760 40bf
000002f0: e5cf 633e 051a c23e 1917 25bf 1118 bbbe
00000300: 6280 d3bd ef03 f53e c14a f8bd 5914 9cbd
00000310: bbde 123e 0f80 283c 11aa 53be 5eee bc3e
00000320: 17fb 01bf adba fa3e 454e b83e 9bad 5cbd
00000330: 8b1f 043e 76fe 94bc 3a56 bb3d 449c f6be
00000340: a33b 133f 2581 8a3f d91b 53be aba7 a23e
00000350: fc40 3fba 217d 9dbf 05aa ebbd 323a 4f3c
00000360: 9233 89be 5677 13bf a4d9 7d3e baf9 4b3e
00000370: 4543 133e aa66 33bf b7d3 1d3e a9d3 193e
00000380: 2f00 023e 2fe1 543f c5d8 00bf 9da9 8f3e
00000390: 9adb 81bf 9fe3 f03e c649 a6be d37c b2be
000003a0: d20d a1be 3804 cd3e e679 2bbe c852 263e
000003b0: e549 9bbc c18c 07be 5acc 1dbb 9d7e 65bf
000003c0: 0202 283e ea24 8cbe a1dd 993d 4535 16bf
000003d0: 59b1 19be 4f76 373e 58be f53e 1283 303c
000003e0: 5625 813f 6e9f eb3e 9a0e c83d ce97 483e
000003f0: 90f7 dabe 2cf9 34be 3425 e73e 2270 8dbf

l2.bias f4 [200]
0.27260852 -0.3310992 -0.26546705 -0.38243714 -0.03972264 -0.4791764 0.0036631844 0.21836182
0.06978607 0.027928803 -0.55702955 -0.4321718 -0.01402006 -0.2281718 -0.40746927 -0.09112321
-0.0114047425 0.29417554 -0.36771092 -0.45836735 -0.3991115 -0.2757514 -0.053910226 -0.06337393
0.009917546 0.0127676325 0.014260806 -0.18788448 -0.373124 -0.028962102 -0.0018626145 -0.011463824
-0.06174409 -0.106670015 -0.010200898 -0.005615321 -0.015140482 -0.03523389 -0.5423286 -0.0396367
0.062873214 -0.3200538 -0.1217422 0.07020094 -0.07240764 -0.20552965 -0.083594024 0.17894603
0.15177296 -0.041187126 -0.15851556 0.03465354 0.096897244 -0.531373 -0.38212568 0.050851844
0.03790018 -0.47277942 -0.0037327353 0.036519986 0.0076380405 -0.23841828 -0.39899325 0.11830105
-0.18531421 0.16287936 -0.056273393 -0.21631974 -0.3470263 0.010175002 -0.27953097 -0.050105847
-0.5763609 0.11796112 -0.0030784912 0.19871931 -0.55875754 0.06628046 0.184153 -0.30600122
0.1374448 -0.13106942 -0.44132477 -0.013292231 -0.1465977 -0.4513651 0.24698727 -0.29920673
-0.59221894 -0.15625486 -0.038096663 -0.008743381 -0.26645744 0.25420424 0.0011221947 -0.37707955
-0.16610384 -0.05777085 -0.19424325 -0.055458013 0.0054411693 -0.04666555 -0.35190225 -0.15974195
0.1603147 -0.03431071 0.196297 -0.5269211 -0.1079847 -0.0652963 -0.054091215 0.19234744
-0.03878879 0.26679048 -0.06044815 0.012770019 -0.083982795 -0.029005583 -0.048553046 -0.035326913
0.003641687 -0.08979551 0.12764424 -0.18200041 -0.5091721 -0.21939194 -0.46177796 -0.1559253
-0.51863456 -0.048548482 0.26057428 -0.16607822 -0.03802435 -0.07357556 -0.011338893 -0.4359789
-0.042611882 0.2367956 0.04686657 0.008312526 -0.3171287 -0.075711906 -0.10737634 -0.121442266
0.15205318 -0.039327133 -0.070585445 -0.12947771 -0.23745668 -0.07096802 0.007522997 -0.20290032
-0.034181103 -0.37258282 -0.63691443 -0.056876928 -0.40367898 -0.020263597 -0.0343602 -0.05219756
-0.23084825 0.13869144 -0.032884616 -0.04100019 0.095185354 -0.36472225 -0.036131687 -0.1830792
0.013763568 0.08993924 -0.45043302 -0.42656204 -0.047834557 -0.0637342 -0.27767703 -0.026710546
0.0027305263 -0.25301102 -0.22105013 -0.23343386 0.21962254 -0.18105805 -0.44254377 -0.23221795
-0.05523891 0.16555326 -0.6169976 0.2933266 -0.03228165 -0.57302284 0.011071385 -0.3358218
-0.0014257049 -0.0047320467 -0.29614612 0.077731 0.03406086 -0.09538132 -0.23929502 -0.451734
00000000: 5893 8b3e d685 a9be 4ceb 87be cdce c3be
00000010: 35b4 22bd 9c56 f5be 0912 703b 3e9a 5f3e
00000020: 00ec 8e3d f2ca e43c 7d99 0ebf 9f45 ddbe
00000030: 65b4 65bc dea5 69be d09f d0be ce9e babd
00000040: f5da 3abc 2d9e 963e 9b44 bcbe 20af eabe
00000050: 5858 ccbe 4a2f 8dbe f8d0 5cbd 31ca 81bd
00000060: 347d 223c 552f 513c 28a6 693c ca64 40be
00000070: 1c0a bfbe ee41 edbc f922 f4ba c3d2 3bbc
00000080: 5fe7 7cbd cf75 dabd ab21 27bc ba00 b8bb
00000090: c90f 78bc 6951 10bd 0cd6 0abf 185a 22bd
000000a0: acc3 803d 17de a3be f953 f9bd 83c5 8f3d
000000b0: 754a 94bd 5d76 52be 5833 abbd a13d 373e
000000c0: 5f6a 1b3e d5b3 28bd e751 22be dff0 0d3d
000000d0: 1072 c63d 1008 08bf faa5 c3be 064a 503d
000000e0: 383d 1b3d 2510 f2be e8a0 74bb fb95 153d
000000f0: 8748 fa3b ec23 74be d848 ccbe d247 f23d
00000100: 02c3 3dbe d9c9 263e ee7e 66bd ec82 5dbe
00000110: 6ead b1be 0db5 263c af1e 8fbe ca3b 4dbd
00000120: 638c 13bf 9a95 f13d 83c0 49bb 137d 4b3e
00000130: bc0a 0fbf 0dbe 873d 9b92 3c3e 31ac 9cbe
00000140: 54be 0c3e 1037 06be 52f5 e1be a8c7 59bc
00000150: b51d 16be 5419 e7be 3bea 7c3e a031 99be
00000160: a99b 17bf 4601 20be 3f0b 1cbd 6640 0fbc
00000170: 1c6d 88be 0f27 823e 9b16 933a 9210 c1be
00000180: 2017 2abe 20a1 6cbd b4e7 46be f127 63bd
00000190: d64b b23b 6024 3fbd 882c b4be 6593 23be
000001a0: 8929 243e 6389 0cbd 1502 493e 4de4 06bf
000001b0: 1527 ddbd 11ba 85bd c08e 5dbd baf6 443e
000001c0: ffe0 1ebd c398 883e 7b98 77bd 5739 513c
000001d0: 2cff abbd 1e9d edbc 8fdf 46bd f4b2 10bd
000001e0: 5fa9 6e3b b5e6 b7bd 2cb5 023e 515e 3abe
000001f0: 1a59 02bf 48a8 60be 296e ecbe e2aa 1fbe
00000200: 3cc5 04bf c6da 46bd fe69 853e 6910 2abe
00000210: 6cbf 1bbd c8ae 96bd c4c6 39bc a038 dfbe
00000220: cc89 2ebd 8c7a 723e 29f7 3f3d 4331 083c
00000230: b15e a2be d80e 9bbd 20e8 dbbd b9b6 f8bd
00000240: d4b3 1b3e 7d15 21bd 1a8f 90bd ce95 04be
00000250: d827 73be ae57 91bd 7983 f63b 1ac5 4fbe
00000260: 7c01 0cbd 2dc3 bebe d30c 23bf c8f7 68bd
00000270: 03af cebe d8ff a5bc 48bd 0cbd 1ccd 55bd
00000280: 7c63 6cbe 2105 0e3e 05b2 06bd d1ef 27bd
00000290: 8af0 c23d e0bc babe d2fe 13bd 1d79 3bbe
000002a0: 9780 613c 1032 b83d 289f e6be 5766 dabe
000002b0: 2bee 43bd 1487 82bd af2b 8ebe 13d0 dabc
000002c0: a1f2 323b a98a 81be f75a 62be 4909 6fbe
000002d0: bbe4 603e 4867 39be 1995 e2be 8bca 6dbe
000002e0: 3242 62bd cb86 293e 8ef3 1dbf e72e 963e
000002f0: c339 04bd a0b1 12bf c164 353c d6f0 abbe
00000300: b8de baba 490f 9bbb 77a0 97be 6e31 9f3d
00000310: 6683 0b3d 4857 c3bd c109 75be ae49 e7be

l3.weight f4 [4, 200]
0.44878346 0.78835875 -0.712342 -0.16925097 0.025197925 -0.6225409 -0.04067555 0.38617834
-0.32180345 0.011192541 -0.6385045 -0.69739896 0.008946165 -0.14784534 -0.020473264 -0.06868162
-0.037512872 0.50480187 -0.32218355 -0.45356408 1.958988 -0.5905465 1.5102677 -0.06363322
-0.3517074 0.016113145 0.010073121 0.4862413 -0.4474873 -0.008750425 -0.53772587 -0.004076277
0.019251026 0.038733654 0.05383113 0.0136665935 0.04206777 0.023810424 -0.6681144 -0.31203726
-0.35590354 -0.5898714 0.024231492 -0.37301376 -0.2506077 -0.82611287 -0.6121919 0.7876185
-0.2891506 -0.021337198 -0.17799035 -0.29014826 -0.57859945 -0.5334609 -0.496411 -0.42066735
-0.012251764 -0.6410062 0.05027724 0.02004628 -0.36606207 -0.35634255 -0.80075765 0.2897765
-0.93311924 0.3320994 -0.32220665 0.12753841 -0.17586122 -0.05123496 0.7981324 -0.04289159
-0.62972474 -0.35434416 0.05930154 0.44734314 -0.4574317 -0.3870318 0.5451618 0.6081628
0.8184098 0.018136024 -0.26412475 0.037791908 -0.1855601 -0.44081542 0.42846993 -0.7991216
-0.4846413 -0.06254892 -0.2591366 -0.0043583554 0.40266868 0.71858466 -0.0060729105 -1.0949167
-0.6389863 0.016748806 -0.8869607 -0.0054048947 0.053065527 0.056752045 -0.6599067 -0.6796244
0.22245827 0.0429796 0.34315228 -0.6219892 0.08842648 0.018444289 0.048067227 0.58230376
-0.051059447 0.49823073 -0.015332364 0.013916387 -0.44911584 0.1925182 -0.063783996 0.06163048
-0.5272148 0.02609585 0.22303426 -0.48913357 -0.8069482 -0.067394204 0.08444935 0.03544931
-0.42752331 -0.057696134 0.46620455 -0.37026435 0.012886048 -0.44663277 0.063891545 -0.6647524
0.022054877 0.30237785 0.40458617 0.05459865 -0.21278267 -0.518702 -0.37190896 -0.48006216
0.30718014 0.062373795 -0.44352755 -0.4597382 -0.285821 0.033078793 -0.05661605 0.06506552
0.26509982 -0.5930031 -0.47288248 0.00067400903 -1.1007515 0.045882985 0.060586978 0.052934498
0.07578096 0.28807226 0.4074537 -0.2213736 -0.42997435 -0.96605617 -0.008813977 -0.33406693
-0.01428321 -0.43604448 -0.5256803 -1.0629731 0.024065834 0.0026456993 0.36133143 -0.05912768
-0.3650009 -0.5766763 -0.6223962 0.055693485 0.7497999 -0.5108567 -0.5537762 -0.6501209
-0.40200713 0.41021338 -0.44478032 0.4913557 0.015383037 -0.52874327 0.009798587 -0.5004312
-0.12709762 -0.26232028 1.1001806 -0.40763795 0.050616518 -0.7726482 -0.8247176 -0.82363003
0.51418567 0.7859823 -0.9487677 -0.5920139 -0.013593107 -0.82044303 0.047393218 0.41753516
-0.24142031 -0.052624166 -0.6966543 -0.4962546 0.034476995 -0.3530735 0.79983497 -0.12254063
-0.05787289 0.42866474 -0.0970441 -0.47532687 2.1470084 -0.58984286 1.8514944 0.02036867
-0.4182403 0.041732043 -0.034028053 0.516163 -0.2389351 0.0343677 -0.48162737 0.043666024
0.016223319 0.27429658 0.05770683 -0.015866665 0.057521593 0.066505685 -0.3274228 -0.3654188
-0.45562157 -0.8892157 -0.0329041 -0.30010426 -0.35027492 -1.0221686 0.10570578 0.68407047
-0.4156963 -0.002765667 -0.13494793 -0.5059241 -0.5897914 -0.22678149 -0.41870436 -0.4323312
00000000: f2c6 e53e e1d1 493f 0c5c 36bf 2050 2dbe
00000010: e16b ce3c d75e 1fbf 689b 26bd 2bb9 c53e
00000020: 6cc3 a4be eb60 373c 0875 23bf bd88 32bf
00000030: f092 123c c564 17be 8cb7 a7bc f3a8 8cbd
00000040: 19a7 19bd b23a 013f 3ef5 a4be 8d39 e8be
00000050: 1ec0 fa3f 0e2e 17bf 7450 c13f 2252 82bd
00000060: fe12 b4be b7ff 833c bb09 253c 9ff4 f83e
00000070: 0e1d e5be f15d 0fbc 67a8 09bf 4a92 85bb
00000080: 54b4 9d3c 2ea7 1e3d 087e 5c3d d9e9 5f3c
00000090: 414f 2c3d 140e c33c 8c09 2bbf 59c3 9fbe
000000a0: fd38 b6be d001 17bf 1f81 c63c a9fb bebe
000000b0: a74f 80be 227c 53bf 9cb8 1cbf 5ea1 493f
000000c0: 8c0b 94be 59cb aebc 1a43 36be 508e 94be
000000d0: 181f 14bf e590 08bf 9529 febe b661 d7be
000000e0: 9fbb 48bc fb18 24bf 82ef 4d3d 1938 a43c
000000f0: 7d6c bbbe 8872 b6be 74fe 4cbf 965d 943e
00000100: e7e0 6ebf ef08 aa3e 45f8 a4be 6e99 023e
00000110: f714 34be c0db 51bd 6852 4c3f 18af 2fbd
00000120: a435 21bf 996c b5be 2ce6 723d 290a e53e
00000130: 7d34 eabe 0829 c6be b98f 0b3f 8fb0 1b3f
00000140: 4e83 513f 0092 943c 5c3b 87be b0cb 1a3d
00000150: 7803 3ebe 8fb2 e1be 6960 db3e 3c93 4cbf
00000160: e822 f8be a619 80bd 8dad 84be 89d0 8ebb
00000170: 972a ce3e 2af5 373f 44ff c6bb 3b26 8cbf
00000180: 9b94 23bf cb34 893c db0f 63bf 8b1b b1bb
00000190: 3d5b 593d d574 683d a5ef 28bf ddfb 2dbf
000001a0: 1acc 633e 610b 303d a8b1 af3e af3a 1fbf
000001b0: f118 b53d 7a18 973c 24e2 443d dc11 153f
000001c0: b623 51bd 1918 ff3e 9834 7bbc 8f01 643c
000001d0: 83f2 e5be 7e23 453e 2fa1 82bd 3e70 7c3d
000001e0: 8df7 06bf f7c6 d53c 1863 643e b76f fabe
000001f0: 2894 4ebf f905 8abd c8f3 ac3d 4c33 113d
00000200: 56e4 dabe c852 6cbd 5db2 ee3e 4a93 bdbe
00000210: 0120 533c 0dad e4be 92d9 823d 372d 2abf
00000220: 6eac b43c 45d1 9a3e eb25 cf3e d6a2 5f3d
00000230: b3e3 59be a7c9 04bf da6a bebe b5ca f5be
00000240: b746 9d3e aa7b 7f3d 0b16 e3be ce62 ebbe
00000250: 2157 92be a17d 073d 3be6 67bd 1241 853d
00000260: 2abb 873e 0dcf 17bf a71d f2be fbaf 303a
00000270: 6de5 8cbf ccef 3b3d 0d2a 783d d8d1 583d
00000280: 0c33 9b3d 357e 933e c59d d03e c3af 62be
00000290: 9925 dcbe 754f 77bf 8068 10bc d20a abbe
000002a0: 2004 6abc 3941 dfbe fc92 06bf 810f 88bf
000002b0: b625 c53c 7863 2d3b 6f00 b93e de2f 72bd
000002c0: 66e1 babe 0fa1 13bf 5b55 1fbf da1e 643d
000002d0: e3f2 3f3f 81c7 02bf 47c4 0dbf 536e 26bf
000002e0: e1d3 cdbe 7d07 d23e 3fba e3be f992 fb3e
000002f0: 2209 7c3c b85b 07bf 418a 203c 421c 00bf
00000300: e125 02be d84e 86be b8d2 8c3f ecb5 d0be
00000310: 4453 4f3d 46cc 45bf b120 53bf 6bd9 52bf
00000320: aca1 033f 2336 493f 71e2 72bf 398e 17bf
00000330: a0b5 5ebc 8e08 52bf 641f 423d 2bc7 d53e
00000340: e336 77be 708c 57bd f057 32bf 1515 febe
00000350: c037 0d3d 0dc6 b4be fcc1 4c3f 95f6 fabd
00000360: 200c 6dbd f279 db3e 0fbf c6bd 0b5e f3be
00000370: 9668 0940 f1ff 16bf c5fd ec3f 32dc a63c
00000380: 9823 d6be 38ef 2a3d 0061 0bbd 4223 043f
00000390: 67ab 74be 25c5 0c3d dd97 f6be 25db 323d
000003a0: c4e6 843c 9a70 8c3e ff5d 6c3d cffa 81bc
000003b0: c39b 6b3d 2234 883d f6a3 a7be 2c18 bbbe
000003c0: 3b47 e9be a4a3 63bf 73c6 06bd 44a7 99be
000003d0: 3c57 b3be 6cd6 82bf 467c d83d 3e1f 2f3f
000003e0: 25d6 d4be 3140 35bb ca2f 0abe 3e84 01bf
000003f0: 92fc 16bf 6839 68be 6b60 d6be 845a ddbe

l3.bias f4 [4]
0.15659483 0.21758112 0.19789954 0.19996749
00000000: 655a 203e 96cd 5e3e 2da6 4a3e 47c4 4c3e
